results/dot-ou-final_d=ballsw=8z=2det=0lat=const-sig-ntloss=exactsigma=diag/run2/saved_nets/ae_best_val.pth (torch, 681339 bytes, 40 tensors)

mu_linear.weight f4 [2, 4096]
0	0x3c201f74	0.009773124
1	0x3c1cf95c	0.009580936
2	0x3a94fc83	0.0011366758
3	0x3c8cc411	0.017183335
4	0x3c58272f	0.013192936
5	0xbc67df23	-0.014152321
6	0xbccdbff7	-0.02511595
7	0xbc5d8b3b	-0.013521965
8	0xbb2358d2	-0.0024924767
9	0x394cf17d	0.00019544917
10	0x3c8d79c5	0.017269978
11	0x396b361c	0.00022431504
12	0xbbb49a8e	-0.0055115884
13	0xba4832c5	-0.000763696
14	0xbcabeb21	-0.020986142
15	0xbd114e55	-0.035475094
16	0xbc25de3d	-0.0101237865
17	0x3c9b4eff	0.018958567
18	0x3cb71e99	0.022353457
19	0xbbcfb8ba	-0.00633916
20	0xbbb7689d	-0.0055971877
21	0xbb64f259	-0.003493449
22	0xbc767846	-0.015043324
23	0xbb8b97ab	-0.0042600236
24	0xbc8868d7	-0.016651554
25	0x3c0dc464	0.00865278
26	0xbd067103	-0.03282262
27	0xbb29ae40	-0.0025891215
28	0x3ca84fb0	0.02054581
29	0xbb91275e	-0.0044297418
30	0x3b94f1db	0.004545433
31	0xbb6f59ba	-0.0036521987
32	0xbad80ea2	-0.0016483853
33	0xbca4a846	-0.02009977
34	0xbc474b5d	-0.012163964
35	0x39b8c0ff	0.00035239008
36	0x3ca97831	0.020687195
37	0x3d046f0e	0.032332473
38	0x3d48a2b3	0.048983287
39	0x3c99f7a3	0.01879484
40	0xbb543611	-0.003238086
41	0x3bfbaebc	0.007680742
42	0xbc5ea6c1	-0.013589562
43	0x3c3b63cf	0.01143737
44	0x3bcab0e3	0.0061856373
45	0x3ce8fa30	0.028439611
46	0x3d559d2c	0.052151844
47	0x3c936d83	0.017996555
48	0x3b7879ae	0.0037914324
49	0xba464aee	-0.0007564266
50	0x3b899c1b	0.0041995174
51	0xbc1e2b24	-0.00965384
52	0x3c79c5bf	0.0152449
53	0x3d023ef5	0.03179832
54	0x3d1ae42e	0.037815265
55	0x3d2696b3	0.04067106
56	0xba5bd261	-0.0008385536
57	0xbbcc9c32	-0.006244206
58	0x3c134621	0.008988888
59	0x3bc8b806	0.006125453
60	0x3cce6f35	0.025199512
61	0xbcc20303	-0.023683077
62	0xbb93cc11	-0.0045104106
63	0xbb0b3162	-0.0021239151
64	0xbd9e6387	-0.07733827
65	0xbd2cadd0	-0.042157948
66	0xbced7a80	-0.028989077
67	0xbc8adae1	-0.016950073
68	0xbb1b0804	-0.00236559
69	0xbc401a9c	-0.011725094
70	0xbbd03668	-0.006354142
71	0x3acf2caa	0.0015806158
72	0xbcc4668b	-0.023974678
73	0xbc8701f6	-0.016480427
74	0xbb59d8f5	-0.0033240889
75	0x3a84d8fa	0.0010135465
76	0xbbb8308b	-0.005621021
77	0xbbba733e	-0.0056900075
78	0xbb725f40	-0.0036983043
79	0xbb3ca095	-0.0028782238
80	0xbc531ea4	-0.012885723
81	0x3bfe637c	0.0077633243
82	0xbb84a846	-0.00404838
83	0x3c34d445	0.011036937
84	0x3c8515cb	0.016245743
85	0x3c9feecd	0.019523049
86	0xbbc80f6d	-0.0061053545
87	0xb8d9d76e	-0.00010387493
88	0x3d1ac890	0.037788928
89	0x3caaa3c9	0.020830052
90	0x3d026d7d	0.031842697
91	0x3cd5de94	0.02610711
92	0x3c2a2442	0.010384621
93	0x3d059233	0.03261013
94	0x3d033eef	0.03204244
95	0x3cda5efb	0.026656618
96	0x3d21c133	0.03949089
97	0x3c4bb03c	0.012432154
98	0xbb665510	-0.0035145916
99	0x3cb2d067	0.02182789
100	0x3d0e1843	0.034691107
101	0x3cfea193	0.031082904
102	0x3c91229f	0.017716704
103	0x3cb1f2ad	0.021722162
104	0x3c8dee11	0.017325433
105	0xba8ee6e0	-0.0010902546
106	0x3cb3193f	0.021862624
107	0x399a41ba	0.0002942214
108	0x3c0fb9d5	0.008772333
109	0x3bbab17a	0.0056974264
110	0x3d4c5398	0.04988441
111	0x3d08c6d3	0.03339274
112	0x3b96691c	0.0045901667
113	0xbc861894	-0.016369142
114	0xbbc8b2bb	-0.006124822
115	0x3d582c73	0.052776765
116	0x3c528a38	0.012850337
117	0x3bfd5def	0.007732145
118	0x3d026869	0.031837855
119	0x3c4dfb00	0.01257205
120	0x3cc64a57	0.02420537
121	0x3b849f0a	0.0040472792
122	0x3da183dd	0.07886479
123	0x3d2a53a3	0.04158367
124	0x3d9e9788	0.07743746
125	0x3c0ec9c4	0.008715097
126	0xbb17367f	-0.0023073254
127	0x3d17c81e	0.03705608
128	0x3c44001b	0.011962916
129	0x3c8e38a5	0.017360995
130	0x3c8f8e8d	0.017524028
131	0x3cf5538d	0.029947067
132	0x3d1d4566	0.03839626
133	0x3d1915f9	0.03737447
134	0x3c8c18fc	0.017101757
135	0x3bec4663	0.007210539
136	0x3be1531c	0.0068763625
137	0x3cc612d1	0.024178894
138	0x3cd0ee6a	0.02550431
139	0x3d5fbec0	0.054625273
140	0x3dbdf938	0.0927605
141	0x3d1b6270	0.037935674
142	0x3bcd9975	0.006274397
143	0xbb882ccd	-0.0041557313
144	0x3cfb488b	0.03067424
145	0x3b5e941a	0.0033962787
146	0x3d570314	0.05249317
147	0x3c193544	0.009351078
148	0xbcdd994a	-0.027050633
149	0xbd54f193	-0.051988196
150	0xbac3b81d	-0.0014932189
151	0x3b4ea13a	0.0031529204
152	0x3cfdeff2	0.030998204
153	0x3dc3de0e	0.09563838
154	0x3d37f016	0.0449067
155	0xbcb44fd5	-0.022010723
156	0xbce47b92	-0.027890954
157	0x3b017910	0.0019755997
158	0xbd08a758	-0.033362716
159	0xbb311e38	-0.0027026068
160	0x3c27ea66	0.010248756
161	0x3db02dac	0.08602461
162	0xbcd6f7b6	-0.026241165
163	0xbc5b49fb	-0.013384338
164	0xbbc6b69f	-0.0060642506
165	0xbc938821	-0.018009247
166	0xbc729793	-0.014806646
167	0xbc399e71	-0.011329279
168	0xbc5d1e05	-0.013495927
169	0xbd0e1959	-0.034692142
170	0xbd853043	-0.06503346
171	0xbc4d074b	-0.012513946
172	0x3cabf22d	0.020989502
173	0x3c18fd5c	0.009337749
174	0x3c806b9d	0.015676314
175	0x3b70bca1	0.0036733525
176	0xbca532f9	-0.020165907
177	0xbca002cd	-0.019532586
178	0xbd94a6fc	-0.07258412
179	0x3b7f6000	0.0038967133
180	0x3c69b728	0.014264859
181	0x3c45ea5a	0.0120798
182	0x3bf52aca	0.0074819075
183	0x3c1a5653	0.009419995
184	0x3af27d7e	0.0018500534
185	0x3b5435d4	0.0032380717
186	0xbbf034e8	-0.0073305257
187	0x3b9181df	0.0044405307
188	0x3c6a5f65	0.01430497
189	0x3cda8e83	0.026679283
190	0x3c64b7ad	0.013959807
191	0x3c845109	0.016151922
192	0x3b606b3e	0.0034243609
193	0xbc15cfda	-0.009143794
194	0xbbda072c	-0.006653687
195	0xbbb17989	-0.0054160994
196	0xbcc32f38	-0.023826227
197	0xbd332a82	-0.04374171
198	0xbd8eb272	-0.069676295
199	0x3a97cb1b	0.0011580916
200	0xbae69840	-0.0017592981
201	0xbb385758	-0.0028128233
202	0xbc68572e	-0.0141809415
203	0x3c03cd21	0.008044512
204	0xbc93b8ac	-0.018032394
205	0xbc3e4b87	-0.011614687
206	0xbcf0fbe8	-0.029416993
207	0xbd1a69f4	-0.0376987
208	0xbcda05b9	-0.026614057
209	0xbb090e13	-0.002091293
210	0x3c8f0a09	0.01746084
211	0x3c9a82f0	0.018861264
212	0x3c8d0cc6	0.017218005
213	0x3c986544	0.018602975
214	0x3c1d0233	0.009583044
215	0x3cf836e5	0.030299613
216	0x3bd05721	0.006358043
217	0x3c98c5f4	0.018649079
218	0x3c4779fd	0.01217508
219	0x3c5e6209	0.013573178
220	0x3ba7a910	0.0051165894
221	0x3bf84382	0.007576407
222	0x3c9f7f9a	0.019470025
223	0xbca78d4a	-0.020453114
224	0x3b6b1e87	0.003587635
225	0x3ce42b42	0.027852658
226	0x3cec185e	0.028820213
227	0x3d05e8f1	0.032692853
228	0x3d25d984	0.040490642
229	0x3d05e921	0.032693032
230	0x3c625541	0.013814271
231	0xbaa771e4	-0.0012775031
232	0x3ced4cf3	0.028967356
233	0x3d582dcd	0.052778054
234	0x3d9f8d59	0.07790632
235	0x3df8c170	0.1214627
236	0x3df4fcdb	0.11962291
237	0x3df47d19	0.11937923
238	0x3db516cc	0.08842239
239	0x3d9835c5	0.07432131
240	0xbcb8a01a	-0.02253728
241	0x3cfc7cce	0.03082123
242	0x3db6d695	0.08927647
243	0xbb68f1be	-0.003554448
244	0x3d7a2b05	0.061076183
245	0x3c83ff33	0.0161129
246	0x398c0c9b	0.00026712273
247	0x3bff6eb6	0.00779518
248	0xbc4cf1c8	-0.012508817
249	0xbcc05afb	-0.023480883
250	0xbbb0d919	-0.005396974
251	0xb917e9a6	-0.00014487523
252	0x3b0b3705	0.002124251
253	0xbb8270e7	-0.003980744
254	0xbb79d287	-0.003811987
255	0xbbfec46b	-0.0077748797

mu_linear.bias f4 [2]
0	0xbc00c10b	-0.007858525
1	0xbc31472c	-0.010820191

sigma_linear.weight f4 [2, 4096]
0	0x3b3078d9	0.00269275
1	0xbc7aa6b3	-0.015298533
2	0x3c1474ee	0.009061081
3	0xbb442daf	-0.0029934456
4	0x3c36a82d	0.011148495
5	0xbc5f53d1	-0.013630823
6	0x3c9697a2	0.018382851
7	0xbc5fb08e	-0.013652934
8	0x3bf1d21b	0.007379783
9	0xbb1b5357	-0.0023700797
10	0x3bea0437	0.0071416157
11	0xbbb71ad3	-0.0055879145
12	0x3c0dd5ec	0.00865696
13	0xbb9779fc	-0.004622696
14	0x3be20934	0.0068980698
15	0xbb8ed414	-0.004358778
16	0xbc8499c0	-0.016186595
17	0xbc218eab	-0.009860675
18	0x3ba9040d	0.0051579536
19	0xbb213a41	-0.0024601372
20	0xbbe251b0	-0.0069067106
21	0xbbbf7627	-0.0058429423
22	0x3c178116	0.009247085
23	0x3bd6c861	0.0065546487
24	0x3c4e734e	0.012600733
25	0x3b055205	0.0020343077
26	0xba4a97f2	-0.000772833
27	0x3d074dd2	0.0330332
28	0xbc103f0b	-0.008804093
29	0xbb89465a	-0.0041892948
30	0x3bcbc437	0.006218459
31	0x3c720828	0.014772452
32	0x3c5c71f2	0.013454901
33	0x3c830205	0.015992174
34	0x3c42a242	0.011879506
35	0x3c5a2160	0.013313621
36	0xbc934661	-0.017977895
37	0xbb8a9ca8	-0.0042301007
38	0x3b22ad42	0.0024822508
39	0x3c52f8ed	0.012876731
40	0xbc7c226b	-0.015389065
41	0xbbcf35e0	-0.006323561
42	0xbc810280	-0.015748262
43	0xbb91728b	-0.0044387034
44	0x3c258000	0.010101318
45	0xbc425da5	-0.011863147
46	0xba35289d	-0.0006910654
47	0x3cc6ab39	0.024251567
48	0xbbbe244a	-0.005802666
49	0xbb73ce8e	-0.0037201974
50	0xbbe94ee9	-0.0071200025
51	0x3ac3b946	0.0014932535
52	0x3caa6db9	0.020804273
53	0x3c780a1e	0.015139131
54	0x3cb6b8b4	0.02230487
55	0x3c186b3c	0.00930291
56	0x3cc9d1c9	0.024636166
57	0xbb147f70	-0.0022658966
58	0x3c0f14ff	0.008733033
59	0x3b71f2ea	0.003691847
60	0x3bc89221	0.0061209355
61	0xb9976857	-0.00028878704
62	0x3c6e4c6d	0.0145445885
63	0x3c4eff81	0.012634159
64	0x3b91857f	0.004440963
65	0x3cb7d33d	0.022439593
66	0xbba4ae44	-0.005025657
67	0xbc30eae4	-0.01079819
68	0x3c1fc54f	0.009751632
69	0x390006fe	0.00012209636
70	0xbc9c8838	-0.019107923
71	0x3a653bd9	0.0008744575
72	0x3c949e79	0.018141972
73	0xbbabfadc	-0.0052484106
74	0xbbb3fb3c	-0.005492596
75	0xbba8dc04	-0.005153181
76	0xbb83981a	-0.0040159347
77	0xbab6b5ee	-0.0013939717
78	0xbc1d3fd0	-0.009597734
79	0xbc210896	-0.009828707
80	0x3cd0582d	0.02543267
81	0x3cc0a76f	0.023517339
82	0x3c99efed	0.018791163
83	0x3bbe603a	0.005809811
84	0x3a577591	0.0008219118
85	0x3c2534b9	0.010083371
86	0xbbd42f07	-0.0064753327
87	0x3c323ef1	0.010879264
88	0x3d2ce8ff	0.04221439
89	0x3cde9b47	0.027173651
90	0xbc73d90e	-0.014883293
91	0xbc6b1ef9	-0.014350646
92	0xbc811319	-0.015756177
93	0x3be0a210	0.006855257
94	0xbc35b633	-0.011090803
95	0xb82b8987	-4.089766e-05
96	0xbbe4bb01	-0.0069803004
97	0x3a097e9b	0.0005245001
98	0x3bb547e7	0.005532253
99	0xbc8422e7	-0.016129924
100	0x3b15d8ad	0.0022864745
101	0xbb6b800b	-0.0035934474
102	0x3c058d2e	0.008151336
103	0xbc247f2e	-0.010040088
104	0x3c5534a9	0.013013043
105	0xbb81259f	-0.0039412524
106	0x3bbf5ed4	0.005840162
107	0xbbccb6d2	-0.00624738
108	0x3c3997d4	0.011327703
109	0xbbcea9c1	-0.0063068573
110	0x3b9c43c5	0.004768821
111	0x3c47bd73	0.012191164
112	0xb88853d2	-6.500598e-05
113	0x3c18b07a	0.009319419
114	0x3cbd400d	0.02310183
115	0x3cdaf971	0.026730271
116	0x3c3dedd4	0.011592347
117	0x3c141095	0.009037157
118	0xbb555acb	-0.0032555338
119	0x3a14c3a8	0.0005674907
120	0xbbc89780	-0.006121576
121	0xbc48fa55	-0.012266715
122	0x3c95a872	0.018268798
123	0xbb866544	-0.0041014273
124	0xbb053501	-0.0020325782
125	0xbb72b57b	-0.003703444
126	0xbc664174	-0.014053691
127	0x3cf0bc26	0.029386591
128	0x3c3c4b0c	0.011492502
129	0xbb9b7b8d	-0.004744953
130	0xbb9b5368	-0.0047401674
131	0xbc401cd0	-0.011725619
132	0x39ed3b35	0.00045248275
133	0x3b1b777e	0.0023722346
134	0x3c8e8567	0.017397596
135	0xbc8451f4	-0.01615236
136	0x3b81e97b	0.0039646006
137	0xbc242675	-0.0100189345
138	0x3c685e9d	0.014182714
139	0x3c042715	0.0080659585
140	0xbb2dc6cb	-0.0026516195
141	0xbb68436b	-0.0035440575
142	0x3c4d4283	0.012528065
143	0xbc47ded1	-0.01219912
144	0x39628677	0.00021603132
145	0x3acfd5c3	0.0015856553
146	0x3c220cbc	0.009890731
147	0xbb24f764	-0.002517187
148	0xbc512cb1	-0.012767003
149	0xbba3cdfb	-0.00499892
150	0x3c758460	0.014985174
151	0xba5390fd	-0.0008070616
152	0x3ca6d016	0.020362895
153	0xbbaf7c14	-0.0053553674
154	0xbb7156b3	-0.0036825358
155	0x3c553276	0.013012519
156	0x3c182dc7	0.009288258
157	0x3c07f65a	0.008298481
158	0xbb6e57bd	-0.0036368214
159	0x39fc7ca8	0.00048158062
160	0x3a302bcd	0.0006720394
161	0x3bbc837d	0.0057529793
162	0x3c989687	0.018626465
163	0x3b8b97b7	0.004260029
164	0xbc559902	-0.013036968
165	0xbc2761ea	-0.010216216
166	0x3b22db28	0.0024849866
167	0x3c1bd301	0.0095107565
168	0xb89b324c	-7.4003445e-05
169	0x3c356434	0.011071254
170	0x3c6c5288	0.014423974
171	0xbc95a6bc	-0.018267982
172	0x3afb14ee	0.0019156018
173	0x3c1b414e	0.009476019
174	0xbc1c3bfe	-0.009535788
175	0x3c28a9f6	0.010294428
176	0x3c052e8a	0.008128772
177	0xbbd97904	-0.0066367406
178	0x3b8888e9	0.0041667116
179	0x3caa7410	0.020807296
180	0xbc36e885	-0.011163835
181	0xbc349784	-0.011022452
182	0x3c1e07f7	0.009645454
183	0x3b8d6eaf	0.004316173
184	0x3a8d812a	0.001079594
185	0x3c1e0b2b	0.009646217
186	0x3a25568f	0.0006307149
187	0xbc1176a8	-0.0088783875
188	0xbc77d186	-0.015125638
189	0x3881a744	6.182355e-05
190	0x3af4ff61	0.0018691832
191	0xbc0fd501	-0.008778811
192	0xba650383	-0.000873618
193	0xbb076a83	-0.0020662851
194	0xbc9d21b4	-0.01918111
195	0x3bb15517	0.005411755
196	0x3c4e8b3b	0.012606437
197	0xbc5ac1f1	-0.013351903
198	0xbc271a4a	-0.010199139
199	0xbc78cb22	-0.015185149
200	0xbbb92492	-0.0056501115
201	0xbbd01a49	-0.0063507897
202	0x3bda1925	0.0066558295
203	0x3bca1b9d	0.0061678425
204	0xba8a0c7e	-0.0010532287
205	0x3c93ef92	0.018058572
206	0x3a3606b5	0.00069437484
207	0xba785c72	-0.00094742246
208	0x3c88599d	0.016644293
209	0xbbbf35fd	-0.0058352933
210	0xbae0bd03	-0.0017146174
211	0x3b678c1f	0.0035331321
212	0x3ba04c3e	0.0048919013
213	0x39dd4752	0.00042205543
214	0x3a531340	0.00080518797
215	0x3cc2c900	0.023777485
216	0x3bd96e0b	0.0066354326
217	0x3c186198	0.009300612
218	0xbb6dec83	-0.0036304302
219	0x3c463df5	0.012099733
220	0xbc34ec40	-0.0110426545
221	0xbb5a2246	-0.0033284589
222	0xbc011053	-0.007877427
223	0xbb2aa4fe	-0.0026038284
224	0x3b35fa28	0.0027767513
225	0xbba83c20	-0.0051341206
226	0x3a0682e5	0.0005131199
227	0x3ab9a494	0.0014163428
228	0x3c8aa475	0.016924122
229	0x3a3ab3ec	0.00071221474
230	0xbc4df809	-0.012571343
231	0x3ba08af4	0.004899377
232	0xbc3e0f6b	-0.011600356
233	0x3c929ec7	0.017897977
234	0x3b6a7dd4	0.0035780566
235	0xbc0650da	-0.008197987
236	0xbb94157f	-0.004519164
237	0xbb611ff0	-0.0034351312
238	0xb9dc188c	-0.0004197996
239	0xbc429743	-0.011876884
240	0x3b9a1dc5	0.004703256
241	0x3c04a297	0.008095405
242	0xbb05cb6a	-0.0020415434
243	0x3ca77627	0.020442082
244	0xbb0e7595	-0.0021737565
245	0xbc055115	-0.008137007
246	0x378949d7	1.6366057e-05
247	0x3c318354	0.010834534
248	0x3c547b72	0.012968885
249	0x3a8926c2	0.0010463821
250	0x3c88bb25	0.0166908
251	0x3c5efec1	0.013610543
252	0xbc3c6049	-0.011497566
253	0x3bff4db0	0.0077912435
254	0xbc1ce0cc	-0.00957508
255	0x3c5a8fc6	0.013339942

sigma_linear.bias f4 [2]
0	0x3bbbf07c	0.005735455
1	0xbb787d4c	-0.003791648

encoder.0.weight f4 [8, 3, 5, 5]
0	0x3cf852b1	0.030312868
1	0x3d199f21	0.037505273
2	0x3c060705	0.0081803845
3	0x3bc763d7	0.0060849
4	0xbcc6cf19	-0.024268674
5	0xbd502fdc	-0.050826892
6	0xbd4f21e2	-0.050569423
7	0x3b34a43f	0.0027563719
8	0xbce60db5	-0.028082708
9	0x3d7aa484	0.06119205
10	0xbc8cd284	-0.017190225
11	0x3c87ac84	0.016561754
12	0xbd268f5d	-0.040664066
13	0xbd07ab11	-0.033122126
14	0x3c7a0790	0.015260592
15	0x3c75ae48	0.014995165
16	0x3d3d6bd5	0.046245415
17	0x3d00abfa	0.03141401
18	0xbd1b24d3	-0.037876915
19	0xbc970317	-0.01843409
20	0xbda4ebf8	-0.0805282
21	0x3c1368a6	0.008997118
22	0xbd66726f	-0.056261476
23	0x3d52ef91	0.051498
24	0x3d72df39	0.059294913
25	0x3d841df5	0.06451026
26	0x3bf86f3c	0.0075816195
27	0xba803891	-0.0009782483
28	0xbd2dad8f	-0.042401846
29	0xbd1d5c5c	-0.03841816
30	0xbdece228	-0.115665734
31	0xbbb59cd0	-0.005542375
32	0xbd5b7f51	-0.053588215
33	0x39e6706e	0.00043952785
34	0x3d327830	0.04357165
35	0xbc96219a	-0.01832657
36	0xbd792ec3	-0.06083561
37	0xbb8c5aca	-0.004283284
38	0x3c9c4374	0.019075133
39	0x3d0fbd1b	0.035092454
40	0xbd58e446	-0.052952074
41	0xbd1f3d54	-0.038876846
42	0x3d44acef	0.048016485
43	0x3cb48c0b	0.022039434
44	0xbc94f3a9	-0.018182592
45	0x3c67c758	0.014146648
46	0x3c802a44	0.015645154
47	0xbcf7409a	-0.030182172
48	0xbca4efc6	-0.020133864
49	0xbc3c1b49	-0.011481115
50	0x3ca53d3c	0.0201708
51	0xbd464b41	-0.04841161
52	0x3b2d339f	0.0026428474
53	0x3ca87321	0.02056271
54	0xbce4cd91	-0.027930053
55	0xbcba79d9	-0.02276318
56	0x3c24c04b	0.010055612
57	0x3c1fe021	0.009758026
58	0xbd695fbd	-0.05697607
59	0xbbbb7db9	-0.0057217744
60	0x3ca7d1ce	0.020485785
61	0xbd8996c2	-0.06718208
62	0x3d8d5a1b	0.06901952
63	0x3d1a13ed	0.03761666
64	0xbdc5bc06	-0.09655003
65	0x3cda2c52	0.026632462
66	0x3cca0416	0.024660151
67	0x3cd2e991	0.025746139
68	0x3ccdeba7	0.025136782
69	0xbbc42f56	-0.005987088
70	0x3c6fc8f4	0.014635313
71	0x3b8ccc55	0.004296819
72	0xbc1a9ae9	-0.0094363475
73	0xbcc3bc9a	-0.023893643
74	0x3c09cecb	0.00841112
75	0xbbf350c0	-0.0074253976
76	0xbd79608e	-0.060883097
77	0x3dbb190f	0.09135639
78	0xbd31fed9	-0.043455932
79	0xbd760f0c	-0.060072944
80	0x3cc059bd	0.02348029
81	0x3c46487b	0.012102242
82	0xbd55ac2c	-0.05216615
83	0x3d33180a	0.043724097
84	0x3be7f473	0.007078701
85	0xbb1fb9ca	-0.0024372214
86	0x3cfa42a9	0.030549364
87	0x3cd81e52	0.026381645
88	0xbbc42baf	-0.005986653
89	0xbcc97407	-0.024591459
90	0xbb6d366e	-0.0036195773
91	0xbd8641fe	-0.06555556
92	0x3d8bb10e	0.0682088
93	0x3d2e320b	0.042528193
94	0xbdba9703	-0.091108344
95	0xbc6b921f	-0.0143781
96	0xbd9e1894	-0.07719532
97	0xbd7e593c	-0.06209682
98	0xbd2f4fb9	-0.04280064
99	0x398f4a0f	0.00027330263
100	0x3d6a0b3e	0.057139628
101	0xbc197ff3	-0.009368884
102	0xbda9b750	-0.08286917
103	0x3d373734	0.04473038
104	0xbd49a05f	-0.049225207
105	0xbc0d4765	-0.008622979
106	0xbb29e953	-0.0025926426
107	0xbc441b90	-0.011969462
108	0xbbbfe733	-0.0058564185
109	0xbcea9c05	-0.028638849
110	0x3cfb32ac	0.03066381
111	0xbc94e1be	-0.018174049
112	0xbdc1bf62	-0.094603315
113	0x3d2caed8	0.04215893
114	0x3d3bd86f	0.045860704
115	0x3d2af9b3	0.041742038
116	0xbca22476	-0.019792777
117	0x3da020a4	0.07818726
118	0xbd7953e0	-0.060871005
119	0xbce354ba	-0.027750362
120	0xbb4e1540	-0.0031445771
121	0xbc4803f0	-0.01220797
122	0x3d472617	0.04862031
123	0x3d215dba	0.039396025
124	0xbd3fd88d	-0.04683738
125	0x3c841f76	0.016128283
126	0x3c11d3e2	0.008900614
127	0x3b8727b5	0.0041246065
128	0x3bfef15c	0.007780237
129	0x3c90eff5	0.017692545
130	0xbdc27672	-0.09495248
131	0x3da49270	0.08035743
132	0x3d1cb7cb	0.038261216
133	0x39f81b93	0.0004732279
134	0xbcdf2362	-0.027238552
135	0x3c8ad824	0.016948767
136	0x3cc77ac2	0.024350528
137	0x3cfa2088	0.03053309
138	0xbce9b274	-0.028527476
139	0x3ad03f23	0.0015887957
140	0x3d17f840	0.037101984
141	0x3d84d96a	0.06486781
142	0xbcb6c575	-0.022310952
143	0x3cac1118	0.021004245
144	0xbc5a7db0	-0.01333563
145	0xbd1bdce0	-0.03805244
146	0xbd00e504	-0.031468406
147	0x3cf377e8	0.029720262
148	0x3c0e6248	0.008690424
149	0xbd5fa773	-0.05460305
150	0x3bf94c1a	0.007607949
151	0x3d9e171a	0.0771925
152	0xbd60d27c	-0.054888234
153	0xbd140c45	-0.036144514
154	0xbbcbf328	-0.006224055
155	0xbd47ece4	-0.0488099
156	0xbc4e1fa3	-0.012580785
157	0x3d3e3694	0.04643877
158	0x3d564a6d	0.05231707
159	0x3c8a0ce6	0.016851854
160	0xbd953acb	-0.072866045
161	0xbbb88c0f	-0.0056319307
162	0xbc3260e6	-0.01088736
163	0xbdc33473	-0.09531488
164	0x3d0c2a01	0.034219746
165	0xbd8a2be8	-0.06746656
166	0x3cc90654	0.02453915
167	0xbd75e54f	-0.06003314
168	0xbd06a63b	-0.032873373
169	0x3b39ae0c	0.00283325
170	0x3d893d00	0.06701088
171	0xbcdd8713	-0.027041947
172	0xbc285d89	-0.010276207
173	0xbd632ca2	-0.055462487
174	0xbd8673bc	-0.06565043
175	0xbc839482	-0.016062025
176	0x3db2f313	0.08737769
177	0xbd899f46	-0.06719832
178	0xbca9c455	-0.020723501
179	0xbd043dc0	-0.032285452
180	0xbd844c51	-0.06459869
181	0x3c9f6846	0.019458901
182	0xbce4c9ed	-0.027928317
183	0x3c4fbebe	0.012679754
184	0xbcd24756	-0.025668781
185	0xbd900052	-0.07031311
186	0x3dbda6c3	0.09260323
187	0x3d74678d	0.059669066
188	0x3d2ef14c	0.042710587
189	0x3d8c4edf	0.06850981
190	0xbcd04601	-0.025424005
191	0x3a9d4617	0.0011999038
192	0x3be200b0	0.0068970546
193	0xbd7296d9	-0.05922589
194	0xbd2f2aff	-0.042765614
195	0xbd50d358	-0.050982803
196	0xbd158ced	-0.03651135
197	0xbd166901	-0.036721233
198	0xbd6166d2	-0.055029698
199	0xbbe08072	-0.0068512494
200	0x3bd1b2ca	0.006399487
201	0xbd0043bc	-0.031314597
202	0x3cbe69a8	0.02324374
203	0x3cd8731d	0.026422078
204	0x3d970893	0.07374682
205	0x3ccdbd37	0.025114639
206	0x3c4144d8	0.011796199
207	0xbd2378a6	-0.03990998
208	0x3d37a910	0.044838965
209	0x3c03edaa	0.008052269
210	0xbcae6992	-0.021290574
211	0x3da58f94	0.08084026
212	0xbd2f9a5e	-0.042871825
213	0xbccc5f31	-0.024947735
214	0x3d34d823	0.044151437
215	0x3d0e8cf2	0.034802385
216	0xbd4239b2	-0.047418304
217	0x3ad0a5e3	0.0015918579
218	0xbd01c93b	-0.03168605
219	0x3bf20763	0.0073861345
220	0x3c190240	0.009338915
221	0x3cca130a	0.024667282
222	0xbb8df1a7	-0.0043317857
223	0x3c1d76db	0.009610857
224	0x3c808e33	0.015692806
225	0xbd32ce84	-0.04365398
226	0xbd021e74	-0.031767324
227	0xbc45c6d4	-0.01207133
228	0x3d47522e	0.048662357
229	0xbc30b95f	-0.010786383
230	0x3ccfe034	0.025375463
231	0xbcb193ed	-0.021676982
232	0xbca0b34f	-0.019616751
233	0x3a8dea84	0.0010827337
234	0x3d260ebd	0.0405414
235	0x3c44c02b	0.012008707
236	0xbd9b06be	-0.07569645
237	0x3bc0a5bd	0.0058791325
238	0x3ce6406d	0.028106892
239	0x3c8f667c	0.017504923
240	0xbc2eae51	-0.010661677
241	0xbd82660b	-0.063671194
242	0xbcc0e7c2	-0.02354801
243	0x3c8c560e	0.017130878
244	0x3c8bf2eb	0.017083606
245	0xbc447e4f	-0.011993005
246	0xbd822f1d	-0.063566424
247	0x3cab8f2a	0.02094229
248	0xbd6c8226	-0.057741307
249	0x3cb9bc04	0.02267266
250	0x3d957037	0.07296794
251	0xbcd08b8c	-0.025457166
252	0xbdaa7960	-0.08323932
253	0x3d682828	0.05667892
254	0x3afc1624	0.0019232673
255	0x3c4339a0	0.011915594

encoder.0.bias f4 [8]
0	0xbbbd7d88	-0.0057827868
1	0xb9b00131	-0.00033570224
2	0xbcc2d774	-0.023784377
3	0xbb276156	-0.0025540194
4	0x3b872cc1	0.004125208
5	0x3c8861ec	0.016648255
6	0xbc7205b9	-0.014771872
7	0xbb86d8cb	-0.004115199

encoder.3.weight f4 [16, 8, 5, 5]
0	0x39c9372e	0.0003837882
1	0xbd405e0f	-0.0469647
2	0x3c502274	0.012703527
3	0xbd1b5e59	-0.037931774
4	0xbd057e2c	-0.03259103
5	0x3d6dfeb1	0.05810422
6	0xbca4c9d9	-0.02011578
7	0x3c3d343a	0.011548096
8	0x3c36e391	0.0111626545
9	0xbc5840d3	-0.013199049
10	0x3cc233e5	0.023706386
11	0x3b49daae	0.003080051
12	0xbd309f12	-0.04312045
13	0xbcd80514	-0.026369609
14	0xbcb8e447	-0.022569789
15	0xbd2a012f	-0.041505035
16	0xbd2bb1e9	-0.041917715
17	0x3c6a5501	0.014302493
18	0x3cad9307	0.021188272
19	0x3cac7a4d	0.021054411
20	0xbc28486c	-0.010271173
21	0xbd602079	-0.05471847
22	0x3d1903b0	0.037357032
23	0x3d28f1ab	0.041246098
24	0xba2f1b61	-0.00066798
25	0xbd65818a	-0.05603174
26	0x3c8e1506	0.01734401
27	0x3cfc88df	0.030826984
28	0x3d1030b1	0.035202686
29	0x3c3a54aa	0.011372725
30	0xbd078fb7	-0.03309604
31	0xbd8a570a	-0.06754883
32	0xbcd565c8	-0.02604951
33	0xbb7a93ab	-0.003823499
34	0x3c17d95e	0.009268133
35	0x3cf4dcbe	0.029890414
36	0x3ca504da	0.020143915
37	0xba515fb8	-0.00079869805
38	0xbb3915a4	-0.0028241659
39	0x3cad4630	0.021151632
40	0x3bda65ff	0.006664991
41	0xbd258f60	-0.040419936
42	0xbb34cf25	-0.0027589288
43	0xbcba9cce	-0.022779848
44	0x3cf1c870	0.029514521
45	0x3c6af617	0.014340899
46	0x3ce0d5d6	0.027445715
47	0x3c9b4ab4	0.01895652
48	0x3c966c74	0.018362261
49	0x3971e972	0.00023070516
50	0x3dab7114	0.08371177
51	0xbcf270e6	-0.02959485
52	0xbc29875b	-0.010347213
53	0x3c649e72	0.013953792
54	0xbca02077	-0.01954673
55	0x3cd2c356	0.025727909
56	0xbc815c4c	-0.01579108
57	0xbce457c5	-0.027873883
58	0xbca0fe34	-0.019652463
59	0x3c46d901	0.012136699
60	0x3cc33d97	0.02383308
61	0xbd40c207	-0.04706004
62	0xbd001c2b	-0.031276863
63	0x3cacda25	0.021100113
64	0x3ccadfb7	0.024764879
65	0x3c460334	0.012085725
66	0x3cf68fa4	0.03009779
67	0x3c816754	0.015796341
68	0xbc895811	-0.016765626
69	0x3ca903d6	0.020631712
70	0xbc9d1044	-0.019172795
71	0x3c87d199	0.016579436
72	0x3bc41cf9	0.005984899
73	0x3c97bbeb	0.018522223
74	0xbb32a542	-0.0027259146
75	0xbd037441	-0.03209329
76	0xbc7066b7	-0.014672927
77	0x3d188563	0.037236582
78	0x3c27d850	0.010244444
79	0x3d210138	0.039307803
80	0xbc640a23	-0.013918432
81	0x3cf10878	0.029422984
82	0x3c566492	0.013085501
83	0xbcc9dd21	-0.024641575
84	0x3c7d3c22	0.015456231
85	0x3c10111a	0.00879314
86	0x3cc6de0e	0.024275806
87	0xbc22e4e1	-0.009942264
88	0x3ccb3531	0.024805637
89	0x3bca2a18	0.0061695687
90	0x3c0dcd82	0.008654954
91	0xbd81e9ec	-0.06343445
92	0x3ca03eb1	0.019561144
93	0xbd1916bd	-0.0373752
94	0x3d37962f	0.04482096
95	0xbd15c0a4	-0.03656067
96	0xbd2045f4	-0.039129212
97	0xba8541d9	-0.0010166719
98	0xbd2bf829	-0.04198471
99	0xbbf55f68	-0.00748818
100	0xbd2de0df	-0.042450782
101	0x3cadac30	0.02120027
102	0xb98f1f66	-0.0002729848
103	0x3c68328b	0.014172207
104	0x3bbf3b35	0.0058359155
105	0x3bbe3cf0	0.005805604
106	0xbd251979	-0.040307496
107	0x3c9ecdd7	0.019385261
108	0xbc9251d7	-0.01786129
109	0xbc56212e	-0.013069434
110	0xbd058c8b	-0.032604735
111	0xbb583b1a	-0.0032994212
112	0xbc8577f7	-0.016292555
113	0xbc794a0a	-0.015215406
114	0xbd1e243b	-0.03860877
115	0x3cc6195a	0.02418201
116	0xbbab8575	-0.005234415
117	0x3d1013ee	0.035175256
118	0x3a5fef75	0.0008542457
119	0xbc41a6c6	-0.011819547
120	0xbd1c1a8a	-0.038111247
121	0xbcb918af	-0.022594778
122	0x39ac4e0a	0.0003286454
123	0xbd17e63f	-0.037084814
124	0xbd309445	-0.04311015
125	0x3cb1282c	0.0216256
126	0xbd79dddc	-0.061002597
127	0x3d26556b	0.040608805
128	0x3d024bd2	0.03181059
129	0xbcbdb867	-0.023159219
130	0x3cb739cb	0.022366425
131	0xbca77053	-0.020439303
132	0xbd838bcf	-0.06423151
133	0xbc0592ce	-0.008152677
134	0xbcd7a63d	-0.026324386
135	0xbcc5ab0f	-0.024129419
136	0xbb4c0309	-0.0031129739
137	0xbc27b95b	-0.010237063
138	0x3c91df47	0.017806662
139	0xbca42a1c	-0.02003961
140	0xbd5c2a60	-0.05375135
141	0xbc6e48e4	-0.014543746
142	0xbc8aaa1d	-0.01692682
143	0xbd213fb1	-0.03936738
144	0xbc051704	-0.008123163
145	0xbc6d9c97	-0.014502666
146	0xbd5f5db8	-0.054532737
147	0x3d5851b5	0.052812297
148	0x3d0bc47e	0.034122936
149	0xbcffe6db	-0.03123801
150	0xbd66b91a	-0.05632887
151	0xbccefe22	-0.025267664
152	0x3c80844b	0.015688082
153	0x3d1ed384	0.038775936
154	0xbac80706	-0.0015260882
155	0x3c2152ec	0.00984643
156	0x3c33588d	0.010946405
157	0xbca0a6c1	-0.019610764
158	0x3ce5e523	0.028063362
159	0x3d4668db	0.04843984
160	0x3ca74472	0.02041838
161	0xbcc14455	-0.023592154
162	0x3c7b3d4b	0.015334438
163	0x3b94f044	0.0045452435
164	0xbc0d7994	-0.0086349435
165	0xbc6f8b66	-0.0146206375
166	0xbd52b344	-0.051440492
167	0x3d65a035	0.05606099
168	0x3b979bc7	0.0046267244
169	0x3a899b2a	0.0010498513
170	0x3ccbbc8f	0.024870185
171	0xbcd501eb	-0.026001891
172	0xbc9eab0e	-0.019368675
173	0xbcb9257b	-0.02260088
174	0xbba4dde7	-0.0050313356
175	0xbbce836a	-0.006302287
176	0xbc2df3cd	-0.010617209
177	0xbd27ad93	-0.040937018
178	0xbd07622f	-0.03305262
179	0x3d1eb040	0.038742304
180	0x3d016b51	0.031596486
181	0xbbd52701	-0.006504894
182	0xbafd8bcc	-0.0019344031
183	0x3cdc4726	0.026889395
184	0xbd254fdf	-0.040359374
185	0x3c70227e	0.014656661
186	0xba209ce1	-0.00061268924
187	0xbcb959c4	-0.022625811
188	0xbd07c2ab	-0.033144634
189	0xbcf720a5	-0.030166933
190	0xbd48d2a6	-0.049029015
191	0xbd8446f4	-0.06458846
192	0x39b4ac0c	0.0003446046
193	0x3d957f9f	0.072997324
194	0xbb8aeef2	-0.0042399103
195	0xbcb03c04	-0.021512993
196	0x3c8f5bcc	0.017499827
197	0x3c82e450	0.015978009
198	0x3d053711	0.03252322
199	0xbbf51a91	-0.0074799736
200	0x3c8d3ac0	0.017239928
201	0x3cc58865	0.02411289
202	0xbc64b8a4	-0.013960037
203	0xbb3d0ad6	-0.002884557
204	0xbc729082	-0.014804961
205	0xbc4526ab	-0.012033145
206	0xbc91077d	-0.017703766
207	0xbd573366	-0.05253925
208	0xbd884eeb	-0.066556774
209	0x3c524fea	0.012836436
210	0x3c369b1c	0.011145379
211	0x3d0dca4b	0.03461675
212	0xbda65b64	-0.081229
213	0xbd07e35a	-0.033175804
214	0x3d583ed7	0.052794304
215	0xbc3b724d	-0.011440826
216	0xbd6f37f2	-0.058402963
217	0x3ce91fe2	0.028457586
218	0x3d05c2e7	0.032656576
219	0x3c98f139	0.018669711
220	0x3d1c4c10	0.038158476
221	0x3985b16b	0.00025499924
222	0x3b37fc8f	0.002807412
223	0x3c6d1c65	0.014472102
224	0xbc59449e	-0.0132609885
225	0x3c2bb1a2	0.010479363
226	0x3c6f7bfd	0.014616963
227	0xbcb0711c	-0.02153831
228	0xbca315cb	-0.019907853
229	0x3b6bf5f9	0.0036004765
230	0xbcc338e5	-0.02383084
231	0xbd365999	-0.04451904
232	0x3cc706c2	0.024295215
233	0xbc87e2e5	-0.016587684
234	0xbbe85021	-0.0070896302
235	0xbc83b1f7	-0.016076071
236	0xbccf3d8f	-0.025297908
237	0xbcac15ac	-0.021006428
238	0x3ce7316d	0.02822181
239	0x3cbc644c	0.022997044
240	0x3a66013b	0.0008773987
241	0xbbfb258e	-0.007664389
242	0xbd470f11	-0.048598353
243	0x3cd08843	0.0254556
244	0x3aca165a	0.0015418038
245	0xbb89fdbb	-0.004211155
246	0xbc83cfb2	-0.016090248
247	0x3bea3d0d	0.007148391
248	0xbbb09bbf	-0.00538966
249	0x397a489b	0.00023868906
250	0xbd32ddbc	-0.043668494
251	0x3a94bd46	0.0011347912
252	0x39a8b933	0.0003218144
253	0xbcdb4884	-0.026767977
254	0xbcffd604	-0.03122998
255	0x3cdab0ba	0.026695598

encoder.3.bias f4 [16]
0	0x3ad8cfb2	0.001654139
1	0xb86a4bbc	-5.586048e-05
2	0xbb013225	-0.0019713726
3	0xbbb5db2c	-0.005549809
4	0xbc242704	-0.010019068
5	0xbc131009	-0.008975991
6	0x3a80eeb9	0.000983677
7	0xbbb83a53	-0.005622187
8	0xbbdeef01	-0.006803394
9	0xbba5004e	-0.0050354367
10	0xbc49ae6c	-0.012309652
11	0x3bbbb2e3	0.005728112
12	0xbc5b90c3	-0.013401213
13	0xbaca17a6	-0.0015418425
14	0xbb8267cd	-0.003979659
15	0xbb87c6f4	-0.00414359

encoder.6.weight f4 [32, 16, 5, 5]
0	0x3c3ee254	0.0116506405
1	0xbb73ca4b	-0.0037199433
2	0x3c2e64b0	0.010644123
3	0xbc04362e	-0.008069558
4	0x3c111703	0.008855584
5	0x3c90b22a	0.01766308
6	0xbc13903c	-0.009006556
7	0x3d344272	0.04400868
8	0xbade6b6e	-0.0016969272
9	0xbb1c2134	-0.0023823502
10	0x3c827571	0.015925141
11	0xba444613	-0.00074872485
12	0x3c166891	0.009180204
13	0xbc8bcc5d	-0.017065221
14	0xbc44faa9	-0.012022653
15	0x3ce6c4a1	0.028169932
16	0xbca17f3e	-0.019713994
17	0x3b7f78f9	0.0038982017
18	0x3d244c81	0.040112022
19	0xbc30f98c	-0.010801684
20	0xbc1ee450	-0.009697989
21	0xbb8ad22c	-0.00423648
22	0xbd15789a	-0.036491968
23	0xbc7b2aad	-0.015329999
24	0xbd2ad866	-0.04171028
25	0xbb183bb6	-0.002322895
26	0xbc649ea2	-0.013953837
27	0x3c7ebdd9	0.015548193
28	0xbbf16e87	-0.007367912
29	0xbd57f9eb	-0.052728575
30	0x3cdfd008	0.027320877
31	0xbc5c5ded	-0.013450128
32	0xbc21106f	-0.009830578
33	0xbd0fabf8	-0.03507611
34	0x3c02e8d4	0.007990081
35	0xbb0cff54	-0.0021514492
36	0xbbc5e7f3	-0.0060396134
37	0xb9df56e6	-0.0004259862
38	0x3bd583d6	0.00651596
39	0xbcc81c4d	-0.024427557
40	0xbd32f655	-0.04369195
41	0x3ce7cb0a	0.028295059
42	0xbd4e5d57	-0.050381985
43	0xbcf7c0dd	-0.030243332
44	0xbd22ed4a	-0.039777078
45	0x3ca02e55	0.019553343
46	0xbc3288ab	-0.010896842
47	0xbcb17bc5	-0.021665463
48	0xbaff0fb6	-0.0019459638
49	0x3a2c5a47	0.00065747317
50	0x3c87c79d	0.016574675
51	0x3d163753	0.036673855
52	0xbc7cb0ef	-0.015423044
53	0xbb57c13a	-0.0032921568
54	0xbc81ccca	-0.015844721
55	0x3ccffdd5	0.025389591
56	0x3ab21bce	0.0013588609
57	0x3c8d27ff	0.017230986
58	0x3cb58461	0.02215785
59	0xbc86d951	-0.016461046
60	0x3cac6d7a	0.021048296
61	0xbbf00d99	-0.0073258397
62	0xba69e05a	-0.00089216756
63	0xbaba63ca	-0.0014220413
64	0x3cbd54a9	0.023111658
65	0x3b8e4e2e	0.004342816
66	0xbbd070c5	-0.0063610994
67	0xbccf47e0	-0.025302827
68	0x37d784c7	2.5691827e-05
69	0xbbcd3bb1	-0.0062632193
70	0xbd02d911	-0.031945292
71	0x3cc54f22	0.024085585
72	0x3c3fa6b4	0.01169746
73	0xbc4a5f84	-0.012351874
74	0xbc515dc4	-0.012778703
75	0xba371a2c	-0.0006984796
76	0xbc12d7b6	-0.008962562
77	0x3beefd2b	0.0072933636
78	0x3b9589c4	0.004563542
79	0x3cff6d0b	0.031179925
80	0xbc90cd96	-0.017676156
81	0xbca1c06a	-0.01974507
82	0x3b840aa4	0.004029589
83	0x3d014aeb	0.031565588
84	0x3c112e59	0.008861148
85	0xbc835d28	-0.016035631
86	0xbd0ebb9d	-0.03484689
87	0x3c730b82	0.014834287
88	0x3d32cdba	0.043653227
89	0xbc9f6203	-0.019455915
90	0x3ce0fb23	0.027463501
91	0xbc2ba94c	-0.010477375
92	0x3b74a150	0.0037327595
93	0xbc6e986f	-0.01456271
94	0xbc0bbca1	-0.008528859
95	0x3c3c5535	0.011494924
96	0x3ad93501	0.0016571583
97	0x3c30948c	0.010777604
98	0xbcb72e8e	-0.022361066
99	0xba0f3220	-0.00054624863
100	0xbc25cf19	-0.010120177
101	0x3c26bd85	0.010177021
102	0xbbe1dfd6	-0.0068931384
103	0x3c4a80fd	0.012359855
104	0xbbf9a9eb	-0.0076191328
105	0xbcfc6f8e	-0.030814912
106	0x3c8567b4	0.016284801
107	0xbce40589	-0.02783467
108	0xbc5401ee	-0.012939913
109	0x3d55fca6	0.052242897
110	0x3c2dd9b5	0.010610987
111	0xbba8d559	-0.005152386
112	0xbd901aa2	-0.0703633
113	0xbce091d3	-0.027413284
114	0xbc2d0f15	-0.010562678
115	0xbcb797ff	-0.022411345
116	0xbc4a12aa	-0.012333551
117	0x3cc1b7bd	0.023647184
118	0xbbfa7511	-0.00764335
119	0xbb4d59f1	-0.0031334127
120	0xbc9ca0c4	-0.019119628
121	0x3b3d1488	0.002885135
122	0xbcc3ce0a	-0.023901958
123	0xbcb826c4	-0.022479422
124	0x3a960bd5	0.0011447618
125	0xbbd4aec6	-0.006490561
126	0xbcebca71	-0.028783055
127	0x3d04ac77	0.032391038
128	0xbce13957	-0.027493162
129	0x3c02fd62	0.0079949815
130	0xbd504486	-0.0508466
131	0x3ca2b680	0.019862413
132	0x3cba419b	0.022736361
133	0x3d274b99	0.04084358
134	0x3cbc56f9	0.02299069
135	0xbae5390f	-0.0017488318
136	0xbc762014	-0.015022296
137	0xbb8ed84f	-0.004359282
138	0x3c8e9853	0.017406618
139	0xbc6618c6	-0.014043992
140	0x3c5da261	0.013527484
141	0x3b9b7257	0.004743855
142	0x3c2c2dbd	0.010508952
143	0x3add97bb	0.0016906181
144	0x3d0b4124	0.03399767
145	0xbc06d3c0	-0.008229196
146	0x3b9de83a	0.0048189433
147	0xbc1a5954	-0.009420712
148	0xbc8cb4dd	-0.017176086
149	0xbc777843	-0.015104356
150	0xbcede36a	-0.029039104
151	0x3bddfdfc	0.006774662
152	0x3c425fd6	0.011863669
153	0xbc82f5e6	-0.015986394
154	0xbb570968	-0.0032812003
155	0xbce039bf	-0.027371285
156	0xb96ba0e4	-0.00022471283
157	0x3b9fff85	0.004882755
158	0x3c1d1513	0.009587544
159	0x3b94cd7a	0.0045410963
160	0xbcd3efd2	-0.025871191
161	0xbc77d192	-0.015125649
162	0x3d77438f	0.060367163
163	0xbbfbdc76	-0.007686193
164	0xbc7c068a	-0.015382418
165	0x3c3f693a	0.011682803
166	0x3c1220d4	0.00891896
167	0x3be5d73e	0.0070141843
168	0xbbe5583d	-0.006999044
169	0x3c57118f	0.013126745
170	0x3d25a214	0.040437773
171	0x3c7d8835	0.015474369
172	0xbc3cca3d	-0.011522827
173	0x3c78567b	0.015157337
174	0xbbc52cdb	-0.00601731
175	0xbca2acfc	-0.019857876
176	0xb910a34e	-0.00013793746
177	0x3d205bab	0.03914992
178	0x3c3d6828	0.011560477
179	0x3c30cffc	0.010791775
180	0xbc90f80d	-0.017696405
181	0xbbcd56dd	-0.0062664584
182	0xbbf43b79	-0.0074533788
183	0x3d368eff	0.044569965
184	0x3cae8b78	0.021306738
185	0xbc1388ab	-0.009004752
186	0xbc6d345b	-0.014477815
187	0x3c29e581	0.010369659
188	0x3ca5885e	0.020206627
189	0x3d1b16d8	0.037863582
190	0xbcac62f7	-0.021043284
191	0xbd589f3a	-0.052886225
192	0xbc8f3b10	-0.017484218
193	0x3a9f2307	0.0012141176
194	0x3c1613b0	0.009159967
195	0xbcbcc209	-0.023041742
196	0xbaa27802	-0.0012395384
197	0xbd013149	-0.031541143
198	0xbc8b96c2	-0.01703966
199	0xbc6a5492	-0.01430239
200	0xbbdac0ef	-0.0066758315
201	0x3c06f810	0.008237854
202	0xbcdf78ed	-0.027279342
203	0xbd0d2146	-0.03445556
204	0x3caa8926	0.02081735
205	0xbd279006	-0.040908836
206	0xbc4a9825	-0.012365376
207	0xbbbf3c71	-0.0058360626
208	0x3cfca4cf	0.030840306
209	0xbca82452	-0.020525131
210	0xbb0a5f96	-0.0021114103
211	0xbccf2a17	-0.025288625
212	0x3b927b5a	0.004470271
213	0x3cf3435f	0.029695211
214	0x3bab2811	0.005223282
215	0xbd551014	-0.052017286
216	0xbca9508d	-0.020668292
217	0xbcab2b46	-0.020894658
218	0x3d16c2b3	0.036806773
219	0x3cc9b632	0.02462301
220	0x3c90d8d4	0.017681517
221	0x3caa55c4	0.02079285
222	0xba4b91a7	-0.00077655393
223	0xbcab0406	-0.020875942
224	0x3aa286a6	0.0012399748
225	0xbd1a56bb	-0.03768037
226	0xbd79bd5a	-0.060971595
227	0x3c82a82a	0.015949327
228	0x3c06644f	0.008202626
229	0xbd047223	-0.03233541
230	0xbcb74d2f	-0.022375671
231	0x3d2d6aa9	0.042338047
232	0x3c6946d1	0.014238075
233	0x3bd96593	0.006634423
234	0xbb73e6b3	-0.0037216365
235	0xbc0b4e65	-0.008502577
236	0xbd03a63f	-0.032140967
237	0x3caf24b7	0.021379812
238	0xbb7722aa	-0.003770987
239	0xbca93f93	-0.020660197
240	0xbb902100	-0.004398465
241	0xbb7cf0ce	-0.003859568
242	0x3b12e83b	0.0022416252
243	0xbc6ecc9f	-0.014575153
244	0x3c799058	0.015232168
245	0x3a5da367	0.000845483
246	0xbcdfef5b	-0.027335813
247	0xbd1793e9	-0.037006292
248	0x3cb69ad0	0.022290617
249	0xbc1ef8d9	-0.009702885
250	0xbbe7eb79	-0.007077631
251	0xbd599172	-0.053117223
252	0xbd249058	-0.04017672
253	0xbc875d87	-0.01652409
254	0xbbfe1528	-0.007753987
255	0x3c9adc5a	0.0189039

encoder.6.bias f4 [32]
0	0xbb6dde56	-0.0036295853
1	0xba4707ec	-0.0007592428
2	0xbbab0a68	-0.0052197464
3	0xbb9bd516	-0.0047556264
4	0xb998bf9d	-0.00029134462
5	0xbbf485c9	-0.0074622375
6	0xbbe42403	-0.0069623007
7	0xba22c3a2	-0.0006208961
8	0xba0ecfb8	-0.00054478226
9	0xbbc8e7af	-0.0061311345
10	0xbb816f8e	-0.003950066
11	0xbbd65a52	-0.0065415287
12	0xbc11bdaa	-0.008895317
13	0xbada2556	-0.0016643207
14	0xbba425aa	-0.0050093727
15	0xbb8cfac2	-0.0043023536
16	0xbbf17b49	-0.007369433
17	0xbb520f0a	-0.003205242
18	0x3aba7367	0.0014225066
19	0xbb9843c2	-0.0046467492
20	0xbbb614c8	-0.0055566765
21	0xbad5e6e8	-0.0016319426
22	0xbbb57d2f	-0.0055386047
23	0xbc109667	-0.008824921
24	0xbb01ca57	-0.0019804442
25	0xbb582378	-0.0032980125
26	0x3a687cd4	0.00088686985
27	0xbb58112e	-0.0032969224
28	0x3b0306a6	0.0019992976
29	0x39f41a0d	0.00046558716
30	0xbbaa154e	-0.005190528
31	0x3b4417d6	0.0029921434

encoder.9.weight f4 [64, 32, 5, 5]
0	0xbaf23403	-0.0018478635
1	0xbbc8e6d5	-0.006131033
2	0x3c60235d	0.013680306
3	0xbc0fa5bd	-0.008767542
4	0xbbab6c40	-0.0052314103
5	0x3cd23ab6	0.025662761
6	0x3c4a75bb	0.012357171
7	0xbc861fde	-0.016372617
8	0xbbfcd972	-0.007716351
9	0xbce4282e	-0.02785119
10	0x3ae89e50	0.0017747376
11	0x3cbc5aee	0.022992577
12	0x3b867a11	0.004103907
13	0xba3b8cda	-0.00071544724
14	0xbc3421a7	-0.0109943515
15	0x3ce698ff	0.028149126
16	0x3a876e25	0.0010332508
17	0xbb986c56	-0.0046515865
18	0xbc676c95	-0.014125009
19	0xbc58522b	-0.013203184
20	0x3c1ac89c	0.009447243
21	0xbaf2c860	-0.0018522851
22	0x3b265942	0.0025382792
23	0xbc581077	-0.013187519
24	0xbb247ef1	-0.0025100077
25	0x3cad16ff	0.02112913
26	0x3c1b4719	0.0094774
27	0xb91d1186	-0.00014979215
28	0x3cc85771	0.024455758
29	0xbbb6894f	-0.0055705677
30	0x3c7e6fd8	0.015529595
31	0xbcc513fd	-0.024057383
32	0x3a1925f6	0.00058421434
33	0x3c34ea97	0.011042259
34	0x3c7984ff	0.015229463
35	0xbb81cfc6	-0.003961536
36	0x3cc07aa5	0.023495981
37	0xbc157a0b	-0.009123336
38	0x3c1d745f	0.009610265
39	0x3c849af6	0.016187172
40	0x3c45572a	0.012044707
41	0x3cd98327	0.026551796
42	0x3c833e3e	0.01602089
43	0x3d11bbb9	0.035579417
44	0xbc53dd49	-0.012931176
45	0xbc82e912	-0.015980277
46	0x3c6315c6	0.013860172
47	0xbb4aecb0	-0.003096383
48	0x3c9821d8	0.018570825
49	0x3c54d620	0.0129905045
50	0xbc17da25	-0.009268318
51	0xbc11f753	-0.008909064
52	0x3d4afd8d	0.04955821
53	0x3b79c4a4	0.0038111592
54	0x3b8c72fb	0.0042861677
55	0x3a80031a	0.0009766549
56	0x3c3022da	0.010750497
57	0xbc4644dc	-0.012101378
58	0xbce10d62	-0.027472202
59	0x3c958e21	0.018256249
60	0x3d0fd761	0.03511751
61	0xba9de80f	-0.0012047308
62	0xbc4f6566	-0.012658453
63	0x3cd3fa9a	0.025876332
64	0xbc9a1bbc	-0.018812053
65	0x3b8dfc98	0.00433309
66	0x3c6a7468	0.01430998
67	0xbb78e0e9	-0.0037975854
68	0xbba6d616	-0.005091439
69	0xbc13505b	-0.008991326
70	0x3c6c1179	0.014408463
71	0x3cab46b7	0.020907743
72	0xbadbd421	-0.0016771593
73	0xbbd7bab4	-0.006583536
74	0xbc87fb4d	-0.016599322
75	0xbcbc2b06	-0.022969734
76	0xbc2c6ca7	-0.010523952
77	0xbbfc97cd	-0.0077085258
78	0xbb97d1e0	-0.0046331733
79	0x3af30d96	0.0018543478
80	0x3cab918e	0.02094343
81	0x3cb2f48d	0.021845127
82	0xbbed6988	-0.0072452463
83	0xbc9c0267	-0.019044114
84	0xba950ae8	-0.0011371048
85	0x3c5b6857	0.013391576
86	0xbcd3da4f	-0.025860934
87	0xbc8b2be5	-0.016988704
88	0xbc9381f3	-0.0180063
89	0xbb4885a8	-0.0030597243
90	0x3ba43e1c	0.005012287
91	0x3ab89702	0.001408309
92	0xbbc5bb9f	-0.006034329
93	0xbc40dc50	-0.011771277
94	0x3c183a45	0.009291236
95	0xbb500096	-0.003173863
96	0x39bb28b8	0.00035697757
97	0xbbf73d26	-0.0075451313
98	0xbce980f6	-0.028503876
99	0xbc7d8ac0	-0.015474975
100	0xba2af62f	-0.00065216696
101	0xbc32b7b0	-0.010908052
102	0xbb173037	-0.002306951
103	0xbb073a89	-0.0020634255
104	0xbc0c2742	-0.008554282
105	0x3bb5c099	0.005546641
106	0x3ba06f5e	0.0048960885
107	0x3cf006b7	0.029300077
108	0x3c0d8a3c	0.008638915
109	0x3c202554	0.009774525
110	0x3bcd2b55	0.006261269
111	0xbbd7ec07	-0.006589416
112	0x3b78c9ec	0.0037962152
113	0x3ca5abfa	0.020223606
114	0x3ca9a92b	0.020710548
115	0xbb0b7b83	-0.0021283336
116	0x3c53b4b4	0.012921501
117	0xbcb70059	-0.022339033
118	0x3baea76d	0.0053300173
119	0x3c65834a	0.0140083525
120	0x3b9a8709	0.0047158045
121	0xbcf5ecd6	-0.030020159
122	0x3b59d7b8	0.003324015
123	0xbc9dba75	-0.019253949
124	0xbb4c757e	-0.003119796
125	0x3cdf7396	0.027276795
126	0x3b92631d	0.0044673816
127	0x3c13574f	0.008992984
128	0xbac91a2f	-0.0015342886
129	0x3c00232f	0.007820888
130	0xbbdf650e	-0.0068174666
131	0x3b1f6efb	0.0024327624
132	0x3cb57be0	0.022153795
133	0xbc342e8e	-0.010997428
134	0x3b0d17b2	0.0021529016
135	0x3b0d432f	0.0021554937
136	0x3cb6644d	0.022264624
137	0xbcd3f79e	-0.025874909
138	0xbd01dcb1	-0.03170461
139	0x3c77f395	0.015133758
140	0xbcd3f52f	-0.025873749
141	0x3c6dfa6e	0.014525039
142	0xb9e4855a	-0.00043586903
143	0x3cffcbd9	0.031225132
144	0x3cb686e7	0.022281123
145	0x3bef3ada	0.007300717
146	0xbc4fad81	-0.012675644
147	0xbb01308c	-0.0019712774
148	0x3c9acb03	0.018895632
149	0xbc96ab4b	-0.018392226
150	0xbbd38956	-0.0064555807
151	0x3b331b33	0.0027329444
152	0x3c84c8a9	0.016208963
153	0x39dea00f	0.00042462393
154	0x3a7a6cce	0.00095529563
155	0xbbb44841	-0.0055017774
156	0x3cac8ec7	0.021064175
157	0xbc4ea694	-0.0126129575
158	0xbbd3d486	-0.0064645438
159	0x3b96e6c8	0.004605148
160	0xb9db16e5	-0.00041787993
161	0xbc9bcd90	-0.019018918
162	0x3ab4e1de	0.0013800224
163	0x3b9af684	0.004729094
164	0x3c817080	0.015800714
165	0xbc2d750c	-0.010586988
166	0x3afa6f6b	0.0019106691
167	0x3c79930c	0.015232813
168	0xbcba7a3f	-0.02276337
169	0x3c242b81	0.010020138
170	0x3d212e65	0.039350886
171	0xbc39a023	-0.0113296835
172	0x3c2fd7e3	0.010732624
173	0xbc90eb5e	-0.017690357
174	0xbba81b4c	-0.005130207
175	0x3a75f1f3	0.00093820615
176	0x3ba6ac27	0.00508644
177	0x3b5cfdea	0.003372068
178	0xbbd203d0	-0.006409146
179	0x3b8e4f8d	0.0043429793
180	0x3b9a7df6	0.0047147227
181	0xbd02abae	-0.031902008
182	0xbb2224f9	-0.0024741276
183	0x3c0f69e0	0.00875327
184	0x3b86712c	0.0041028466
185	0x3b3bc7be	0.0028652991
186	0xbbf3741e	-0.0074296137
187	0x3c6ddf08	0.014518507
188	0x3bca4b4b	0.0061735264
189	0xbba7baee	-0.0051187193
190	0xba1d5a3f	-0.00060025224
191	0x3caff6b1	0.021479936
192	0x3b9b4869	0.0047388566
193	0xbc4d9d77	-0.01254975
194	0x3d116c60	0.035503745
195	0xbc777ade	-0.015104977
196	0x3cfcc27d	0.030854458
197	0xbb44ab4b	-0.0030009325
198	0x3c22014b	0.009888004
199	0xbba97f80	-0.00517267
200	0xbc03edf2	-0.008052336
201	0x3c8b3777	0.016994221
202	0x3babd4d4	0.005243877
203	0x3c1a438b	0.009415518
204	0x39313779	0.000169007
205	0xbc820d2b	-0.01587542
206	0xbc29ae26	-0.010356462
207	0xbbe4fad0	-0.006987907
208	0xbc034eb2	-0.008014368
209	0x3c99ed27	0.01878984
210	0xbb89234b	-0.0041851155
211	0x3bf2e463	0.0074124797
212	0xbc571a89	-0.013128885
213	0x3b9aba4f	0.0047219167
214	0x3d0eca5a	0.034860946
215	0x3c8be9ee	0.01707932
216	0x3ca945ae	0.020663109
217	0x3bcbb9a3	0.006217198
218	0xbcf9a92d	-0.030476177
219	0xbc7294c0	-0.014805973
220	0x3c60b810	0.013715759
221	0x3b937565	0.0045000785
222	0xbb2fea75	-0.0026842628
223	0xbbaf9a93	-0.005359003
224	0x3bd293ca	0.0064263092
225	0x3c0a4785	0.008439903
226	0xbc4d700d	-0.012538922
227	0xbc9a0420	-0.018800795
228	0x3d327878	0.04357192
229	0x3c9698cd	0.018383408
230	0xbce520a7	-0.027969671
231	0x3cac54a6	0.021036457
232	0x3bc306d0	0.00595174
233	0x3cf6883e	0.030094262
234	0xba253dbc	-0.00063034496
235	0xbc7a2c17	-0.015269301
236	0xbced9634	-0.029002286
237	0xbcce732f	-0.025201408
238	0x3a03dd4b	0.00050302286
239	0x3bf81f80	0.0075721145
240	0x38e70f42	0.0001101778
241	0xbc27964b	-0.010228704
242	0xbd0944d9	-0.033512924
243	0xbc87ccf2	-0.016577218
244	0xbcf29d6d	-0.029616082
245	0x3bc88dd6	0.006120424
246	0xbc3fd324	-0.011708055
247	0xbd6c9ece	-0.057768635
248	0xbbc77076	-0.0060864044
249	0x3c8f69fc	0.017506592
250	0xbbec6845	-0.0072145783
251	0xbcb5be73	-0.02218554
252	0x3b94b824	0.004538553
253	0x399f97f8	0.0003044007
254	0xba4327b8	-0.0007444578
255	0x3b6b6323	0.0035917244

encoder.9.bias f4 [64]
0	0x3c24af8b	0.010051618
1	0x3b488cd0	0.003060151
2	0xbb5f1678	-0.0034040492
3	0xbb5833ef	-0.003298994
4	0xbc7ef391	-0.015561
5	0x3bf2d9e6	0.0074112294
6	0xbae82cee	-0.0017713585
7	0xbbe315d0	-0.0069300905
8	0xbbcf64ea	-0.0063291686
9	0x3b854f13	0.0040682643
10	0xbbe16a7e	-0.00687915
11	0xbbf7d996	-0.00756378
12	0x3c0cea69	0.00860081
13	0xbb1d2c9f	-0.0023982895
14	0x3bc34ef0	0.005960338
15	0x3b117a93	0.0022198304
16	0x3a272b29	0.0006376976
17	0x3b215e9a	0.0024623037
18	0xbb7a2eb1	-0.0038174803
19	0x3a0f7758	0.00054728007
20	0xbc261cf1	-0.010138736
21	0xbb996523	-0.004681246
22	0x3c06124c	0.008183073
23	0xbc1dcc46	-0.009631222
24	0x3b4c805d	0.003120444
25	0x386b9a6f	5.6172194e-05
26	0xbc52f58c	-0.012875926
27	0xbbf6c34c	-0.0075306054
28	0xbc46bf26	-0.012130534
29	0x3b5774b6	0.0032875962
30	0xbc1bd515	-0.009511252
31	0xbb5fa3bd	-0.0034124695
32	0xbbc311ef	-0.0059530656
33	0xbca757de	-0.02042764
34	0xbb35aa79	-0.0027720018
35	0x3b303489	0.0026886782
36	0x3c924c87	0.017858757
37	0xbcb0c12e	-0.02157649
38	0xbb296357	-0.0025846565
39	0xbac18ca5	-0.0014766647
40	0xbc6b00d0	-0.014343455
41	0xbbf0c7ea	-0.0073480504
42	0x3aa31ef9	0.0012445144
43	0xbbe76686	-0.0070617823
44	0xbb03c056	-0.0020103655
45	0xb9b3257a	-0.00034169463
46	0x3bc36204	0.005962612
47	0x3c20c12c	0.009811681
48	0xbb8d69a9	-0.004315574
49	0x3bb23fa0	0.0054397136
50	0xbc8d3908	-0.017239109
51	0x3b71ead2	0.0036913645
52	0xbd120e07	-0.03565791
53	0x3baf5cb1	0.005351626
54	0x3b5033a4	0.0031769061
55	0x3aa2750e	0.0012394504
56	0xbbc77991	-0.00608749
57	0x3b522556	0.003206571
58	0x3b225c23	0.0024774156
59	0xbb2ae5e1	-0.002607696
60	0xbb79cb71	-0.0038115645
61	0xbba7e330	-0.0051235184
62	0xbc6f457d	-0.01460397
63	0xbc1f6a4e	-0.009729935

encoder.10.weight f4 [64]
0	0x3f8000b4	1.0000215
1	0x3f7f58b5	0.9974473
2	0x3f7b5ba3	0.981867
3	0x3f804209	1.0020152
4	0x3f7cf84e	0.9881638
5	0x3f7f008b	0.99610204
6	0x3f7fd6ff	0.99937433
7	0x3f7deed2	0.99192536
8	0x3f79ff90	0.9765558
9	0x3f7accd1	0.97968775
10	0x3f7d2993	0.9889156
11	0x3f76ca88	0.9640279
12	0x3f7d6c0e	0.98993003
13	0x3f7d3568	0.98909616
14	0x3f7f9942	0.9984323
15	0x3f7f0f25	0.99632484
16	0x3f7b8bc6	0.9826015
17	0x3f7f8eb4	0.9982712
18	0x3f7ecfa1	0.99535567
19	0x3f7e7b07	0.99406475
20	0x3f7c0f35	0.98460704
21	0x3f7d83c2	0.9902917
22	0x3f7f2aa0	0.99674416
23	0x3f803493	1.0016044
24	0x3f7f1de9	0.99655014
25	0x3f7d559b	0.9895875
26	0x3f7bd8b6	0.9837755
27	0x3f7d3316	0.98906076
28	0x3f7c26dc	0.98496795
29	0x3f8070a2	1.0034373
30	0x3f7c7671	0.9861823
31	0x3f7c292b	0.9850032
32	0x3f7b8f18	0.9826522
33	0x3f807617	1.0036038
34	0x3f7ce437	0.9878573
35	0x3f7cd8cf	0.98768324
36	0x3f7dc720	0.99131966
37	0x3f7cb505	0.98713714
38	0x3f75b280	0.95975494
39	0x3f7bd724	0.98375154
40	0x3f7b70b6	0.9821886
41	0x3f7d115b	0.9885461
42	0x3f7dd4cf	0.99152845
43	0x3f7b7249	0.9822126
44	0x3f7ead5b	0.9948327
45	0x3f8057d2	1.0026801
46	0x3f7f9802	0.9984132
47	0x3f7e4c64	0.9933531
48	0x3f7c7a4b	0.98624104
49	0x3f7c416e	0.9853734
50	0x3f7ee206	0.99563634
51	0x3f7e275f	0.99278826
52	0x3f7e5c94	0.99360013
53	0x3f7e2182	0.9926988
54	0x3f7f5992	0.9974605
55	0x3f7ae1ae	0.9800061
56	0x3f7c15bb	0.9847066
57	0x3f7da708	0.99082994
58	0x3f7ddbbe	0.99163425
59	0x3f7d3b7c	0.9891889
60	0x3f7feb1f	0.9996814
61	0x3f7dd9c1	0.9916039
62	0x3f7d5e95	0.98972446
63	0x3f7eb2a9	0.99491364

encoder.10.bias f4 [64]
0	0x3acf7254	0.0015826919
1	0xbb91c181	-0.0044481163
2	0xba00677b	-0.00048982323
3	0xbaae8af4	-0.0013316558
4	0xbb5ec38f	-0.0033991074
5	0xbac73c72	-0.0015200509
6	0xbaace47a	-0.001319065
7	0xbbe7d74c	-0.007075226
8	0xbcaf6c2d	-0.021413887
9	0xbd526d1b	-0.051373582
10	0xbc1002bd	-0.008789715
11	0xbc9b4f52	-0.018958721
12	0xbc49bdec	-0.012313347
13	0xbc84271c	-0.01613193
14	0xbb34a00b	-0.0027561213
15	0xbb70b265	-0.0036727425
16	0xbcce4f49	-0.02518429
17	0xbaa3c258	-0.0012493832
18	0xbb68e818	-0.003553873
19	0xbc98ff3c	-0.018676393
20	0xbc3af4c8	-0.011410899
21	0xbc1f7dcd	-0.009734583
22	0xbaea6b67	-0.0017884792
23	0xbbdefd76	-0.0068051172
24	0xbc3a1f87	-0.011360056
25	0xbbd05b82	-0.006358565
26	0xbb9efcc1	-0.004851908
27	0xbc39db93	-0.0113438545
28	0xbbcdef18	-0.0062846057
29	0xbb8266ee	-0.0039795553
30	0xbc26aa89	-0.010172495
31	0xbc8c27f9	-0.017108904
32	0xbc146250	-0.009056643
33	0x3b53a17a	0.0032292292
34	0xbc5993ba	-0.01327985
35	0xbc2cd989	-0.010549911
36	0xbcbb9fac	-0.022903286
37	0xbc118a54	-0.008883078
38	0xbc2601a7	-0.01013223
39	0xbc9bf967	-0.019039823
40	0xbcb9f829	-0.02270134
41	0xbbe025de	-0.0068404516
42	0xbbf72cdf	-0.007543191
43	0xbca7de7f	-0.020491837
44	0xbceb4d01	-0.028723242
45	0x3aeef700	0.0018231571
46	0x3a9de256	0.0012045603
47	0xbc1ba8e6	-0.009500718
48	0xbc80b1dc	-0.01570981
49	0xbc57e0db	-0.013176168
50	0xbc19a2af	-0.009377166
51	0xbbc998cd	-0.0061522485
52	0xbd563288	-0.052294284
53	0xbafbed7d	-0.0019220557
54	0xbb68e110	-0.0035534538
55	0xbc897a2e	-0.016781893
56	0xbc69c50e	-0.014268173
57	0xbc022b97	-0.007944963
58	0xbc3e7887	-0.011625416
59	0xbcc896c3	-0.024485951
60	0xbb5f1f1d	-0.0034045645
61	0xbc9694ea	-0.018381555
62	0xbc34ab1c	-0.011027124
63	0xbcb25974	-0.02177117
