results/dot-ou-final_d=ballsw=8z=2det=0lat=const-sig-ntloss=exactsigma=diag/run2/saved_nets/ae_best_val_0.pth (torch, 681339 bytes, 40 tensors)

mu_linear.weight f4 [2, 4096]
0	0x3be018ae	0.0068388795
1	0xbc3a5d15	-0.011374732
2	0xbc9e9d43	-0.019362098
3	0x3c44dc5e	0.01201543
4	0xb9041319	-0.00012595615
5	0xbb569c75	-0.0032747064
6	0x3c553a22	0.013014348
7	0x3bfe2eb0	0.0077570304
8	0xbc0eef17	-0.008723996
9	0x3b6ac8c4	0.0035825232
10	0x3c7af701	0.015317679
11	0xbd0522d4	-0.032503918
12	0xbc7de872	-0.015497314
13	0x3c6e7c5d	0.014556018
14	0xbc547bab	-0.012968938
15	0xbc468660	-0.012116998
16	0xbbfb5793	-0.007670352
17	0x3b78fb33	0.0037991523
18	0x3b006d03	0.0019596226
19	0x3c9d7fa9	0.019225912
20	0xbb2264b6	-0.0024779267
21	0x3bb1f042	0.0054302523
22	0xbb3e8671	-0.0029071833
23	0xbc73b159	-0.014873826
24	0x3beb8007	0.007186893
25	0xbba0b942	-0.004904897
26	0x3b7d8e36	0.00386895
27	0x3c524c01	0.012835504
28	0x3c980dae	0.01856121
29	0xbb4a4b40	-0.0030867606
30	0x3ca2ba7c	0.019864313
31	0xbbe19447	-0.006884131
32	0x3c159bb7	0.009131364
33	0x3cf3b4ee	0.02974936
34	0x3d119868	0.035545737
35	0x3c9d9142	0.019234303
36	0x3c25eee4	0.010127757
37	0x3ac5220b	0.0015040053
38	0x3a362679	0.0006948482
39	0xbd409a01	-0.04702187
40	0x3b9bcd8f	0.004754729
41	0xbc25f837	-0.01012998
42	0x3bcb598d	0.0062057436
43	0x3c354ad4	0.011065204
44	0xb9b44cd3	-0.00034389514
45	0xbd2e8c24	-0.042614117
46	0xbd29dec1	-0.0414722
47	0xbcaea1db	-0.021317413
48	0xbc0d6a76	-0.008631339
49	0x3d3b5e4c	0.045744225
50	0xbc894466	-0.016756248
51	0x3c4ee7d1	0.0126285115
52	0xbc46c31f	-0.012131481
53	0xbcdeff93	-0.027221477
54	0xbcd3d038	-0.025856122
55	0xbc97e39c	-0.01854115
56	0x3d552a4e	0.052042298
57	0x3c806dd1	0.015677365
58	0xbad59d19	-0.0016297429
59	0xbcc30b54	-0.023809113
60	0xbc8e2f56	-0.017356556
61	0xbd44670c	-0.047949836
62	0xbd3dd31b	-0.046343904
63	0xbd295ffe	-0.04135131
64	0xbc837f60	-0.016051948
65	0xbd164471	-0.036686365
66	0xbcb24960	-0.021763504
67	0xbd1c30ff	-0.038132664
68	0xbc29eebf	-0.010371863
69	0xbc8e20b1	-0.017349573
70	0xbb4f83a1	-0.003166415
71	0x3c5daa50	0.013529375
72	0xbd45f720	-0.04833138
73	0xbd919e5f	-0.07110285
74	0xbd8a96a7	-0.06767016
75	0xbd2fadf8	-0.04289052
76	0xbca7d3e1	-0.020486774
77	0xbc5db2a6	-0.013531363
78	0x3c81dd86	0.0158527
79	0x398fc179	0.00027419234
80	0xbd072780	-0.032996655
81	0xbdd5dcd5	-0.10442511
82	0xbdda8e28	-0.106716454
83	0xbdaa6cae	-0.0832151
84	0xbcaa371c	-0.020778231
85	0x3c0bbf7f	0.008529543
86	0xbb748987	-0.0037313418
87	0x3ca2fdbe	0.019896384
88	0xbd023d45	-0.031796712
89	0xbdb8ecf8	-0.09029573
90	0xbd30b8b4	-0.043144897
91	0xbc2406c7	-0.0100113815
92	0xbba8dfa5	-0.0051536136
93	0x3d153fe4	0.036437884
94	0x3bb7235d	0.0055889324
95	0x3c96424f	0.018342165
96	0xba1d75ec	-0.00060066464
97	0xbd000921	-0.031258706
98	0x3d0e1f77	0.034697976
99	0x3bd4cdc4	0.0064942557
100	0xbc331be2	-0.010931941
101	0x3d650593	0.05591352
102	0x3cd76944	0.026295312
103	0x3cdb2573	0.026751256
104	0xbc1cdb44	-0.009573761
105	0x3c841aa3	0.016125983
106	0x3c072c8f	0.00825037
107	0x3ca3432d	0.019929493
108	0x3c7c975e	0.015416948
109	0x3bfa7b79	0.0076441136
110	0x3cc146a4	0.023593254
111	0xbbd72647	-0.0065658423
112	0x3c88b0bc	0.016685836
113	0xbbf75289	-0.0075476808
114	0x3c4e9a24	0.012609992
115	0x3c2aa72b	0.0104158325
116	0xbac2db6e	-0.001486642
117	0x3cb65e4b	0.02226176
118	0xbb432630	-0.00297774
119	0xbc3b9be1	-0.011450739
120	0xbc731ec2	-0.014838876
121	0x3bc7f5d9	0.0061023054
122	0xbc4cd125	-0.012501036
123	0xbc6b088b	-0.0143452985
124	0x3bf1363f	0.007361203
125	0x3b19c909	0.0023465774
126	0x3c051bd3	0.00812431
127	0xbb90f9b9	-0.0044243005
128	0xbb8bc227	-0.004265088
129	0xbcb0938b	-0.021554729
130	0xbbb91c51	-0.0056491275
131	0xbc77b92f	-0.015119835
132	0xbb2c40c6	-0.0026283725
133	0x3bea8584	0.0071570296
134	0xbc27bfa0	-0.010238558
135	0xbc7d1d00	-0.015448809
136	0x3c5b04f6	0.013367882
137	0x3c664c61	0.014056296
138	0xbd0f4426	-0.0349771
139	0x3c949122	0.018135611
140	0x3cce6f78	0.025199637
141	0xbb7f6f61	-0.00389763
142	0x3c2d6d5f	0.010585158
143	0x3b05f036	0.0020437366
144	0x3cd0a5f9	0.025469767
145	0x3cb0290c	0.021503948
146	0x3c29c35e	0.010361521
147	0xbbc4b9d9	-0.0060036
148	0xbc139e31	-0.009009884
149	0xbcaa473f	-0.020785926
150	0xbcb9ea98	-0.02269487
151	0x3985b999	0.00025506018
152	0x3c6c1621	0.014409573
153	0x3b493d97	0.0030706876
154	0xbc3fd923	-0.011709484
155	0xbccfec2d	-0.025381172
156	0xbc8c385d	-0.01711672
157	0xbba38811	-0.0049905856
158	0xb95aeb72	-0.0002087781
159	0xbb72fb16	-0.0037075928
160	0xbc528dd9	-0.012851202
161	0xbc847366	-0.016168308
162	0xbbac8440	-0.005264789
163	0xbcba137b	-0.022714367
164	0xbda94762	-0.08265568
165	0xbd64e06a	-0.05587808
166	0xba2b618e	-0.0006537669
167	0x3c34e36c	0.01104055
168	0xbc573f89	-0.013137707
169	0xbc9f4d21	-0.019445958
170	0xbd04e54e	-0.032445244
171	0xbcd4abe6	-0.025960874
172	0xbdc32a8b	-0.09529599
173	0xbd5fcd35	-0.05463906
174	0x3aa10d29	0.0012287247
175	0xbae8bb6a	-0.0017756049
176	0x3b15cc32	0.0022857306
177	0xbcab859b	-0.020937731
178	0xbd010bea	-0.031505503
179	0xbce17790	-0.027522832
180	0xbd2b398f	-0.04180294
181	0xbd3ef814	-0.046623304
182	0xbc09f824	-0.008420978
183	0xbcbb4931	-0.022862049
184	0x3c153426	0.009106671
185	0xbcd25fe2	-0.025680486
186	0xbcf44aef	-0.029820887
187	0xbd0c0340	-0.034182787
188	0xbd9fad7b	-0.07796761
189	0x3c4c64bb	0.012475188
190	0xbc3f98ad	-0.011694116
191	0x3bd9b9ae	0.006644449
192	0x3ccb8ecf	0.02484837
193	0x3cf4a5c4	0.0298642
194	0x3d21ef43	0.03953482
195	0x3ceff085	0.029289493
196	0x3c05c5c7	0.00816483
197	0xbab05b21	-0.0013454893
198	0x3a9ffbe0	0.0012205802
199	0xbc43ce85	-0.011951094
200	0x3cd3e041	0.025863769
201	0x3cc7f1c8	0.024407282
202	0xba284a06	-0.0006419722
203	0xbba8aa22	-0.0051472345
204	0xbc238f93	-0.009982961
205	0xbd2f01b8	-0.04272625
206	0xbcf544c6	-0.02994002
207	0xbb953e03	-0.0045545115
208	0x3cc42aaa	0.023946125
209	0xba89cfb9	-0.0010514177
210	0xbc255ccc	-0.010092925
211	0xbc837f0e	-0.016051795
212	0xbcf0ece4	-0.029409833
213	0xbdbaf008	-0.091278136
214	0xbd2c8050	-0.042114556
215	0x39e7a310	0.00044181244
216	0x3be9dbdd	0.0071368054
217	0xbc6f66b6	-0.014611891
218	0xbc297049	-0.010341712
219	0xbca0c370	-0.019624442
220	0xbd0a04ff	-0.03369617
221	0xbda1a7d8	-0.07893342
222	0xbdb8538f	-0.090003125
223	0xbc19e339	-0.009392553
224	0xbc5ff83e	-0.013670025
225	0xbca85419	-0.020547913
226	0xbcd60624	-0.026125975
227	0xbd0d83f2	-0.03454966
228	0xbcf8ed6d	-0.030386651
229	0xbd0adbcf	-0.033901032
230	0xbd0cee04	-0.034406677
231	0x3b5630d2	0.0032682908
232	0xbbdeeb92	-0.0068029845
233	0xbd506695	-0.05087908
234	0xbd85f7eb	-0.06541427
235	0xbd398635	-0.045294005
236	0xbd7414a1	-0.059589986
237	0xbd0d0378	-0.034427136
238	0x3a95d1e9	0.0011430356
239	0x3c12bd7d	0.00895631
240	0xbd3ee779	-0.04660747
241	0xbd9d21c1	-0.07672454
242	0xbd4d9630	-0.050192058
243	0xbd996cf7	-0.074914865
244	0xbd76d0e2	-0.0602578
245	0xbcb6639d	-0.022264296
246	0xbc778f3a	-0.0151098315
247	0xba323c45	-0.0006799142
248	0xbbe6493e	-0.007027774
249	0x3be41aef	0.0069612185
250	0xbb6fb641	-0.0036577138
251	0xbc1884aa	-0.009308973
252	0xbc13a07a	-0.009010429
253	0x3b263ff9	0.002536772
254	0xbc1c9414	-0.009556789
255	0xbc18a706	-0.009317165

mu_linear.bias f4 [2]
0	0x3bae1b46	0.00531331
1	0xbc110b52	-0.008852797

sigma_linear.weight f4 [2, 4096]
0	0xbbb98dc2	-0.005662651
1	0xbc73d3e4	-0.014882062
2	0xbb5c7964	-0.003364169
3	0x3c78f723	0.015195641
4	0xbbc8d72b	-0.0061291656
5	0x3c4c0e15	0.012454529
6	0xbd000b89	-0.031261
7	0xbc1d5a8a	-0.009604106
8	0xbbf4614a	-0.007457887
9	0x3b90f111	0.0044232686
10	0xbc2ccc82	-0.010546805
11	0x3c7089d5	0.014681299
12	0x3a4d52dd	0.0007832477
13	0x3c9cbab1	0.01913199
14	0xbccc2670	-0.024920672
15	0x3c2f8c47	0.010714597
16	0x3a90e8bf	0.0011055692
17	0x3ca045ea	0.019564588
18	0x3c5eaefe	0.013591526
19	0x3a49bbe9	0.00076955423
20	0xbc08f4cb	-0.008359144
21	0x3bff1218	0.0077841394
22	0xbc0ae31e	-0.0084770005
23	0x3c6209af	0.013796254
24	0xbc342e4a	-0.010997364
25	0xba44d594	-0.0007508632
26	0xbc6bb633	-0.014386701
27	0xbb5c3a57	-0.003360411
28	0x3be4fcb0	0.0069881305
29	0xbb951a96	-0.0045502884
30	0x3c1ac894	0.009447236
31	0xbb3cafd8	-0.0028791334
32	0xbbcf915e	-0.006334468
33	0xbc311f35	-0.010810663
34	0x3bcb0278	0.0061953627
35	0x3b9e77e7	0.004836071
36	0xbc4e62b5	-0.012596776
37	0xbc30fe8e	-0.010802878
38	0x3c905d78	0.017622694
39	0xba1d7d22	-0.0006007721
40	0xbcb18226	-0.021668505
41	0xbb00d666	-0.0019659041
42	0xbbe20e07	-0.006898645
43	0x3ba067f8	0.0048952065
44	0x3c2b7f47	0.010467357
45	0x3c6bdb78	0.014395587
46	0xb9ea33e6	-0.00044670625
47	0x3c177dae	0.009246273
48	0xbc0ae5c3	-0.008477631
49	0x3a06ffe7	0.0005149827
50	0x3aa704ee	0.0012742558
51	0xbb10e981	-0.0022111835
52	0x3b819cfa	0.0039554806
53	0xbbdaed7e	-0.0066811433
54	0xbbb19514	-0.005419383
55	0x3b81950a	0.0039545344
56	0xbc8ad89e	-0.016948994
57	0x3aee0c9d	0.0018161718
58	0x3c343fdd	0.011001554
59	0x3bdfb258	0.00682668
60	0xbbd74fea	-0.006570806
61	0xbc7a2f5a	-0.015270079
62	0xbc01a998	-0.007913969
63	0x3c135c0a	0.008994112
64	0xbc291b53	-0.010321456
65	0x3c36e26c	0.011162382
66	0xbc09517b	-0.008381243
67	0xbc3daa3c	-0.011576232
68	0x3a396477	0.00070721604
69	0x3c198922	0.009371074
70	0x3a7e3808	0.00096976804
71	0x3ba3a210	0.0049936846
72	0x3c192e7e	0.0093494635
73	0x3bef60e7	0.007305253
74	0xbc2b656c	-0.010461193
75	0x3b8b0b32	0.004243278
76	0x3c6a39ec	0.014296036
77	0x3bd46671	0.0064819385
78	0x3a75efbe	0.00093817327
79	0xbc388c83	-0.011263969
80	0x3b646114	0.0034847902
81	0x3c15def3	0.0091473935
82	0xbaf91f92	-0.0019006601
83	0x3c116528	0.008874215
84	0xbbffa6c1	-0.007801861
85	0xbc72bb53	-0.014815169
86	0x3c19139d	0.009343055
87	0x3bce8a65	0.006303119
88	0xb7ff07cd	-3.0402001e-05
89	0x3b2c6f2c	0.002631138
90	0xbc92f525	-0.01793916
91	0xbaf52fae	-0.0018706226
92	0xbaf70fb1	-0.0018849281
93	0x3b1185c8	0.0022204984
94	0xb9b0eab2	-0.00033744198
95	0xbc12b0c8	-0.008953281
96	0x3c3ea927	0.011637009
97	0xbb7896fa	-0.0037931786
98	0xbbac31ee	-0.0052549755
99	0x3a821f79	0.0009927592
100	0x3c664669	0.014054873
101	0x3ca6090a	0.020267982
102	0xbbd74a22	-0.0065701166
103	0x3c78a282	0.015175464
104	0x399364bc	0.00028113078
105	0x3b280196	0.002563571
106	0x3ad06c54	0.0015901425
107	0x3c36c763	0.011155936
108	0x3bb024a7	0.005375463
109	0x3b6e5432	0.0036366102
110	0x3c95182c	0.018200003
111	0x3c2c7e0c	0.010528099
112	0x3bc971b4	0.0061475877
113	0x3c2b16cc	0.010442447
114	0xbbeb2dca	-0.0071770893
115	0xbbbd8806	-0.0057840375
116	0xbb154bd6	-0.0022780797
117	0xbb0a6a73	-0.0021120578
118	0xbc19a9c0	-0.00937885
119	0x3c79a4b7	0.015237025
120	0x3c340c6b	0.010989289
121	0x3c5cddd6	0.013480624
122	0x3b278677	0.0025562325
123	0x3bcef2de	0.006315573
124	0x3c1c8d5d	0.009555188
125	0xba1aba4b	-0.00059023936
126	0x3c8d3e45	0.017241606
127	0xbbfc91ad	-0.0077077956
128	0xbbe18ccf	-0.006883241
129	0xbbbb7a1e	-0.0057213446
130	0xbc8b0752	-0.016971264
131	0xbc4c0e36	-0.01245456
132	0xbab8a83e	-0.0014088226
133	0x3a07e2ef	0.0005183657
134	0xbc23cc4b	-0.009997438
135	0x3a08378a	0.0005196264
136	0xba75daba	-0.0009378601
137	0x3b16a2a2	0.002298512
138	0xbb1860a9	-0.0023250973
139	0xbc42a4c9	-0.011880108
140	0x3b03b682	0.0020097797
141	0xbbc320ca	-0.0059548365
142	0x3c4137fa	0.011793131
143	0xbc689278	-0.014195077
144	0xb788e899	-1.6320775e-05
145	0xbc36fd3e	-0.011168776
146	0x3c7e7822	0.015531572
147	0x3c605c19	0.013693833
148	0x3be60762	0.007019923
149	0x3b063bc6	0.0020482405
150	0x3c545e2c	0.012961905
151	0x3b766a80	0.00376001
152	0x3c5dd9a3	0.013540658
153	0xbc337706	-0.01095367
154	0xbaa4779c	-0.0012547853
155	0xbc50ed82	-0.012751939
156	0xbc469775	-0.012121071
157	0xbcd7178f	-0.02625635
158	0xbc963a3c	-0.018338315
159	0x3c983da6	0.018584084
160	0x3c87c6ca	0.016574282
161	0x3b87fbf8	0.00414991
162	0x3aed7895	0.0018117601
163	0x3c1c8bb8	0.009554796
164	0x3b92a8fc	0.004475711
165	0xbd3154a9	-0.04329363
166	0x3c37ff46	0.0112302955
167	0xb9b8bc20	-0.0003523538
168	0x3c5c36a7	0.0134407645
169	0x3c423373	0.011853087
170	0xbc09dab2	-0.008413957
171	0x3b593504	0.0033143172
172	0x3c3e4028	0.011611976
173	0xb95ccc99	-0.00021057054
174	0xbb6651c8	-0.003514396
175	0x3c6f83ec	0.014618855
176	0xbbf7cf4c	-0.0075625535
177	0x3b046136	0.0020199544
178	0xbb928e40	-0.004472524
179	0xbc444f01	-0.011981727
180	0x3af98aa3	0.0019038509
181	0x3bb1a138	0.00542083
182	0xbb674fa9	-0.0035295284
183	0x3c05dc83	0.00817025
184	0xbb5cc191	-0.003368471
185	0x3bf3db95	0.0074419477
186	0x3b73c7bd	0.003719791
187	0xbb2f2ff6	-0.0026731468
188	0xbc356b7e	-0.011072991
189	0x3bf08095	0.007339547
190	0x3c880822	0.01660544
191	0xbaaabf3d	-0.0013026964
192	0x3c952cf8	0.01820992
193	0xbb8c6107	-0.0042840275
194	0xbb1d2d26	-0.002398321
195	0xbc0776c4	-0.008268062
196	0x39edb5d0	0.00045339623
197	0xbc965c10	-0.018354446
198	0xbc6ecae1	-0.014574737
199	0x3caa003e	0.020752069
200	0x3bc214b3	0.0059228777
201	0x3a9635c2	0.0011460113
202	0xbab7aab0	-0.0014012661
203	0xbba51718	-0.0050381534
204	0xbc444b54	-0.01198085
205	0xbb00c923	-0.0019651137
206	0x3c0e75cd	0.008695078
207	0xbcb05872	-0.021526549
208	0x3c0744bc	0.008256134
209	0x3c3f8a44	0.01169068
210	0x3ba167e5	0.0049257153
211	0x3b90b626	0.004416245
212	0x3b9b1c84	0.004733624
213	0x3b7202a6	0.0036927848
214	0xb90efe95	-0.00013637014
215	0x3b923374	0.0044617
216	0x3b6a7f6b	0.0035781513
217	0xbc1ab2dd	-0.009442058
218	0xbc7594d5	-0.014989098
219	0x3bf2ae2c	0.007406017
220	0xbcaf47e3	-0.021396583
221	0x3c772903	0.015085462
222	0xbc62df37	-0.013847164
223	0xbcbcbec7	-0.023040188
224	0x3c8fb087	0.01754023
225	0x3c21dfd7	0.009880028
226	0xbc2198b1	-0.009863065
227	0x3bceb419	0.0063080904
228	0x3bec42d0	0.007210113
229	0x3c2fccd3	0.010729986
230	0xbc1d96fa	-0.009618515
231	0xbb3ff812	-0.0029292149
232	0x3a9501b1	0.0011368302
233	0x3979f442	0.00023837484
234	0x3bed5073	0.0072422563
235	0x3afb26bc	0.0019161324
236	0x3b91c5c4	0.0044486243
237	0xbcb36e47	-0.02190317
238	0x3c445e4e	0.011985375
239	0x3c147214	0.0090604015
240	0xbc78c8d2	-0.015184598
241	0xbc80043d	-0.015627021
242	0xbabf2588	-0.0014583329
243	0x3c25e258	0.010124765
244	0xbc03bc55	-0.008040507
245	0xbb12f278	-0.0022422355
246	0x3c3a01bc	0.011352953
247	0x3b998102	0.0046845684
248	0xbc9b068c	-0.01892402
249	0xbbae7784	-0.005324306
250	0xbc5d9fb1	-0.013526843
251	0xbb605d32	-0.0034235236
252	0x3c8f1a8f	0.017468719
253	0x3c4aac19	0.012370133
254	0x3a4a8d04	0.00077267014
255	0xbb28471b	-0.0025677148

sigma_linear.bias f4 [2]
0	0xbc337b80	-0.010954738
1	0xbc0fc434	-0.008774806

encoder.0.weight f4 [8, 3, 5, 5]
0	0xbd760100	-0.060059547
1	0x3d905be4	0.07048777
2	0x3d135b0d	0.035975505
3	0x3db8cc0c	0.09023294
4	0xbd716562	-0.058934577
5	0xbd042514	-0.032261923
6	0xbd3e48c5	-0.046456117
7	0xbcd9cb74	-0.026586272
8	0x3bd1b2b8	0.0063994788
9	0xbb930ef8	-0.0044878684
10	0xbca76cfd	-0.020437712
11	0xbc90fa90	-0.017697603
12	0xbab6eca7	-0.0013956026
13	0x3cf79831	0.030223938
14	0x3d1f9a2b	0.038965385
15	0xbd3d0bee	-0.046153955
16	0xbbc94677	-0.0061424333
17	0x3c6de647	0.014520234
18	0xbcbd40db	-0.023102215
19	0xbe0fdc3f	-0.14048861
20	0xbcac4162	-0.02102727
21	0x3d03c6e3	0.032172095
22	0x3d6b9376	0.057513677
23	0xbb418b21	-0.002953239
24	0x3bfca3d9	0.007709962
25	0x3d304282	0.043032177
26	0xbbf65f79	-0.0075187054
27	0x3bd27caa	0.0064235525
28	0xbcc776ca	-0.024348635
29	0xbd1e9fa0	-0.03872645
30	0x3d8d6be8	0.06905347
31	0x3d824aef	0.06361949
32	0xbdb1ffaf	-0.08691346
33	0x3c8ff2fa	0.017571915
34	0xbcc2076c	-0.02368518
35	0xbd2ee6a6	-0.042700432
36	0xbb8d79c9	-0.0043174964
37	0x3cb0c842	0.021579865
38	0xbcaf5d30	-0.02140674
39	0xbcb7e87d	-0.022449726
40	0x3d3f5c77	0.04671904
41	0x3d9647a1	0.07337881
42	0xbd6204cc	-0.055180356
43	0x3aabfaf5	0.0013121056
44	0xbc353294	-0.011059422
45	0x3c7675d4	0.015042741
46	0xbdc01770	-0.0937947
47	0xbce532b0	-0.027978271
48	0xbd9d959c	-0.07694551
49	0xbc03bcee	-0.00804065
50	0x3d12b397	0.0358158
51	0x3d1bc354	0.038028076
52	0xbc8b78af	-0.01702532
53	0x3ccc79fe	0.024960514
54	0x3bc472ef	0.0059951465
55	0xbccd373b	-0.02505075
56	0x3c95058f	0.018191127
57	0x3a854d21	0.0010170081
58	0xbc4cb297	-0.012493751
59	0x3cfffc23	0.031248158
60	0x3cb81bc2	0.022474173
61	0xbb5b08b9	-0.0033421947
62	0x3c896cc6	0.0167755
63	0x3a441adb	0.00074808084
64	0xbbb501b2	-0.0055238837
65	0xbc2c2cd7	-0.0105087375
66	0xbc4bbf5f	-0.012435763
67	0x3cc6ea2b	0.024281582
68	0x3cc8668c	0.02446296
69	0xbccbf28c	-0.024895929
70	0xbc08c6e9	-0.008348205
71	0x3ce23642	0.027613763
72	0x3c2e0ee9	0.010623672
73	0xbd3ee906	-0.046608947
74	0xbd59d00d	-0.05317693
75	0x3d0e6f95	0.03477438
76	0xbd2a1cc6	-0.041531347
77	0xbd250c67	-0.04029503
78	0x3cd2d731	0.025737377
79	0x3d510733	0.051032256
80	0xbdb69c0e	-0.08916484
81	0x3d9e0225	0.07715253
82	0xbc69b9e8	-0.014265515
83	0x3d19cad6	0.037546955
84	0xbd70297a	-0.058633305
85	0xbd2a6288	-0.041597873
86	0xbd429aeb	-0.047511023
87	0xbd143031	-0.03617877
88	0xbcdf6960	-0.027271926
89	0x3bd80fbc	0.0065936726
90	0xbc5f2b10	-0.013621107
91	0xbd0ba674	-0.03409429
92	0xbc5f85cc	-0.0136427395
93	0x3b93b9e8	0.0045082457
94	0x3d9c958d	0.07645712
95	0xbd51a92a	-0.051186718
96	0x3d196c0b	0.037456553
97	0xbd4c15f8	-0.04982564
98	0x3d1fd1cf	0.03901845
99	0xbd24a699	-0.040197942
100	0xbcd6397e	-0.026150461
101	0xbb942e1c	-0.004522098
102	0xbc6a204a	-0.014289925
103	0x3d57a41b	0.052646738
104	0x3bc548b4	0.00602063
105	0x3da7b68f	0.08189117
106	0xbb5b52ef	-0.003346618
107	0xbb5c2b32	-0.0033595082
108	0x3cdd632e	0.027024832
109	0x3d9333e8	0.07187635
110	0xbd084f2f	-0.03327864
111	0x3c9b679d	0.018970305
112	0x3bb5a34d	0.0055431486
113	0x3c580e6b	0.013187031
114	0xbc5eaf41	-0.0135915885
115	0xbd74f72b	-0.05980603
116	0xbb97f263	-0.004637049
117	0x3ba73faf	0.005104027
118	0x3b12bba5	0.0022389677
119	0x3c920fc8	0.01782979
120	0xbd04a771	-0.032386247
121	0xbd2681db	-0.040651184
122	0xbd70179b	-0.058616262
123	0x3c313a38	0.010817103
124	0xbd2130c4	-0.039353147
125	0xbcd0dd89	-0.025496261
126	0xbb3445c4	-0.0027507404
127	0xbb60d275	-0.003430513
128	0xbb1408f1	-0.0022588337
129	0xbbe79c66	-0.0070682047
130	0xbb4ffe6d	-0.0031737343
131	0xbbb9c15d	-0.0056688027
132	0xbcf79a28	-0.030224875
133	0xbd7eab84	-0.06217529
134	0xbce48427	-0.027895046
135	0x3cb927b4	0.02260194
136	0xbc0b3b2d	-0.008497995
137	0xbb8e4d2f	-0.004342697
138	0xbc6ac88b	-0.01433004
139	0x3c94c53a	0.018160451
140	0x3ce6c427	0.028169705
141	0x3b6e933c	0.0036403676
142	0x3d1de7d2	0.03855116
143	0xbccd61b8	-0.02507101
144	0x3c8c7f68	0.017150596
145	0xbc814444	-0.015779622
146	0xbd34763c	-0.04405807
147	0xbd76a5c1	-0.06021667
148	0xbd38ec56	-0.045147263
149	0x3d049c1d	0.032375444
150	0x3c267bcf	0.010161354
151	0xbd5641d0	-0.052308857
152	0xbd9148e8	-0.07093984
153	0xbd0521f2	-0.032503076
154	0xbbe6573f	-0.0070294435
155	0xbcbf4f31	-0.023353191
156	0x3d1bde1e	0.038053624
157	0xbd2446f7	-0.04010674
158	0x3d5040ec	0.050843164
159	0x3c868668	0.016421512
160	0xbcd88df8	-0.026434883
161	0xbca262cf	-0.019822506
162	0x3d6746e9	0.05646411
163	0xbdcbe453	-0.09955659
164	0x3cdca579	0.026934372
165	0xbd303d9f	-0.043027516
166	0x3d7ba2cd	0.061434556
167	0x3d202030	0.039093196
168	0xbb9146d8	-0.004433494
169	0xbd8d0576	-0.06885807
170	0x3d68dbf0	0.056850374
171	0xbca1f849	-0.019771712
172	0xbd2b2996	-0.041787706
173	0x3d50ed92	0.051007815
174	0x3af038ea	0.0018327509
175	0xbc0f75c1	-0.008756102
176	0xbc8cd2e5	-0.017190406
177	0x3c2c6024	0.010520969
178	0xbce58384	-0.028016813
179	0xbda018f1	-0.07817257
180	0xb9ae299b	-0.00033218865
181	0xbbbebfb0	-0.005821191
182	0x3d2d2be8	0.0422782
183	0x3d625c3d	0.055263747
184	0x3db9862c	0.090587944
185	0xbd6382c6	-0.055544637
186	0xbd459e0d	-0.048246432
187	0xbab24a69	-0.0013602498
188	0xbd428518	-0.04749021
189	0xbcecbb1c	-0.028897814
190	0x3d391ca6	0.045193337
191	0x3b186f46	0.0023259684
192	0xbd2987f3	-0.041389417
193	0xbd251fc6	-0.040313505
194	0x3d2e629b	0.042574506
195	0xbd07cb0f	-0.033152636
196	0xbd3a9f4a	-0.045562066
197	0xbca46d06	-0.020071518
198	0x3b55345e	0.0032532434
199	0x3beda642	0.0072524855
200	0xbd5fee2c	-0.054670498
201	0x3d6ed2bc	0.05830644
202	0x3c79dda7	0.0152506
203	0x3c0ef794	0.008726019
204	0x3c8104fd	0.015749449
205	0xbd00b146	-0.03141906
206	0xbc02c795	-0.007982154
207	0xbd0054ca	-0.03133086
208	0x3c8d50c4	0.017250426
209	0x3d5f53a0	0.05452311
210	0x3b95d59b	0.004572583
211	0x3d2154b8	0.039387435
212	0x3cfe6bdc	0.03105729
213	0xbcf1f075	-0.029533604
214	0xbcc69f65	-0.024245927
215	0x3a8a0887	0.0010531106
216	0x3cc240b9	0.023712503
217	0xbc96795e	-0.01836842
218	0xbd61c1ba	-0.055116393
219	0x3ca3e24e	0.020005371
220	0x3d7a3f9c	0.06109582
221	0xbc7004be	-0.014649568
222	0xba350c62	-0.0006906447
223	0xbd59b69e	-0.053152673
224	0xbc2cf158	-0.010555588
225	0x3cd36b36	0.025807958
226	0x3c1dc87c	0.009630319
227	0x3c77ddf9	0.015128606
228	0x3c612180	0.013740897
229	0x3d0d5d21	0.034512643
230	0x3d24e7c7	0.040260103
231	0xbc0958e6	-0.008383011
232	0x3d2929a6	0.041299485
233	0xbce1807d	-0.027527088
234	0xbc8ceaef	-0.017201869
235	0xbc85df42	-0.01634181
236	0xbbb5e7ac	-0.005551299
237	0x3d800535	0.06250993
238	0xbc8a9a88	-0.01691939
239	0xbd921e26	-0.071346566
240	0x3cb8ab2d	0.02254256
241	0x3ab9b788	0.0014169076
242	0xbd53bf7f	-0.051696297
243	0xbd7da119	-0.061921213
244	0x3c3d866c	0.011567693
245	0x3d19e6e5	0.037573714
246	0xbce8403b	-0.02835094
247	0x3c431f79	0.011909359
248	0x3d01cf32	0.031691737
249	0xbccde3e4	-0.02513308
250	0xbcf16fe7	-0.029472305
251	0xbd02c3df	-0.03192508
252	0x3b99fa2c	0.0046990123
253	0xbdc147b1	-0.09437502
254	0x3ce1966e	0.02753755
255	0x3bd668ea	0.0065432684

encoder.0.bias f4 [8]
0	0xbc875476	-0.016519766
1	0xbc6b26b3	-0.014352488
2	0xbaa60c42	-0.0012668448
3	0xbb18dc2e	-0.0023324597
4	0xbc9bd04f	-0.019020228
5	0xbc777b49	-0.015105077
6	0xbbc8e1f4	-0.0061304513
7	0xbca717ed	-0.02039715

encoder.3.weight f4 [16, 8, 5, 5]
0	0xbc6ec801	-0.014574052
1	0x3c91bea3	0.017791098
2	0xbcfd9626	-0.030955385
3	0xbd6011c9	-0.05470446
4	0x3c736915	0.0148565965
5	0x3c935d99	0.017988967
6	0x3b9c707d	0.004774152
7	0x3d1d5a94	0.03841646
8	0xbc644394	-0.0139321275
9	0x3c0998ef	0.008398279
10	0x3c4feefc	0.012691256
11	0x3cbf1144	0.023323663
12	0x3cd14f50	0.025550514
13	0x37da5198	2.602562e-05
14	0x3d4c989f	0.04995024
15	0xbb512981	-0.0031915607
16	0x3d4faf80	0.05070448
17	0x3bcf6df7	0.0063302475
18	0x3cadf12d	0.021233166
19	0x3cd603d7	0.026124878
20	0x3cb4d0ca	0.022072215
21	0x3cd7e2d3	0.026353275
22	0xbccdcadb	-0.025121143
23	0x3d239077	0.039932694
24	0x3d44e7ac	0.048072502
25	0xbbbc247b	-0.0057416535
26	0x3ce09cdb	0.027418545
27	0x3c4949ce	0.012285663
28	0xbcd51f17	-0.026015801
29	0x3b377eaf	0.0027999093
30	0x3b3402a8	0.0027467404
31	0xbc5ec032	-0.013595628
32	0xbaf479bb	-0.0018652001
33	0xbd4fd762	-0.050742514
34	0x3a1fe5fd	0.00060996396
35	0x391620dd	0.00014317357
36	0x3d138ea4	0.036024705
37	0xbbaacbe7	-0.0052122953
38	0xbd79bff7	-0.060974088
39	0xbb0d2738	-0.0021538269
40	0x3d1ced81	0.03831244
41	0xbba97287	-0.0051711234
42	0x3c45dc9a	0.012076521
43	0xba95eaec	-0.001143781
44	0x3d94b24d	0.07260571
45	0xbd02b351	-0.03190929
46	0x3ca7ef26	0.020499777
47	0xbbb67c66	-0.0055690287
48	0x3cf4bc65	0.02987499
49	0xbcfab4c2	-0.03060377
50	0xbc154824	-0.009111438
51	0xbc1cf1a8	-0.0095791
52	0x3b3e4f1c	0.0029038852
53	0xbd4bb8b5	-0.049736697
54	0x3b7bcead	0.003842275
55	0xbd5b2cbc	-0.05350946
56	0xbcf3b701	-0.029750349
57	0xbcd57ea7	-0.02606137
58	0xbd040ce7	-0.032238867
59	0xbd402986	-0.0469146
60	0x3ac69783	0.0015151355
61	0x3d08b9a2	0.03338016
62	0xbc522bb9	-0.012827807
63	0xbce55e73	-0.027999138
64	0x39330711	0.00017073403
65	0x3afb2c9f	0.0019163078
66	0xbc28b621	-0.010297329
67	0x3c076dfa	0.008265967
68	0xbcb749ca	-0.022374053
69	0xbc5155b1	-0.012776778
70	0xbd295457	-0.0413402
71	0xbcc3764e	-0.023860123
72	0xbd1693a7	-0.036761906
73	0x3d1f6b4b	0.038920682
74	0xbca1bf2e	-0.019744482
75	0xbc97609b	-0.018478682
76	0xbb8b7f89	-0.0042571467
77	0x3ccac954	0.024754204
78	0x3b4381b8	0.0029831957
79	0xbd2ccbec	-0.042186663
80	0xbd034445	-0.03204753
81	0xbb3f9529	-0.0029233193
82	0x3c2afcc6	0.010436242
83	0xbcd94939	-0.026524173
84	0xbcdeadb6	-0.027182441
85	0xbcc6b588	-0.024256483
86	0xbd81c275	-0.06335918
87	0x3cd641d1	0.02615443
88	0x3d2aa98e	0.041665606
89	0xbc0d4c13	-0.008624095
90	0x3b87e7e2	0.0041475156
91	0x3d2c3f31	0.04205245
92	0xbc825adf	-0.015912471
93	0xbc8a8840	-0.016910672
94	0x3d34cbd0	0.044139683
95	0xbcb22efa	-0.021750916
96	0x3c21ebe7	0.009882904
97	0x3d83cc48	0.06435448
98	0x3d8d2240	0.06891298
99	0xba255949	-0.0006307555
100	0xbb86d286	-0.004114452
101	0xbdba1c5e	-0.09087442
102	0xbc1a09f3	-0.009401786
103	0xbce16eca	-0.027518649
104	0xbaac3cf8	-0.0013140729
105	0xbcc3be62	-0.023894493
106	0x3d8f7d07	0.07006269
107	0x3ce0fb44	0.027463563
108	0xbcbb68d8	-0.022877142
109	0x3d6d75fc	0.057973847
110	0xbcc0c46f	-0.023531167
111	0x3d2d6d43	0.04234053
112	0x3c401e15	0.011725922
113	0xbccdb230	-0.02510938
114	0x3d550b3a	0.05201266
115	0xbca7b509	-0.020472066
116	0x3c92cb56	0.017919224
117	0x3d15c1ba	0.036561705
118	0xbd3e4d7f	-0.046460625
119	0xbd6147bc	-0.05500005
120	0xbce2f344	-0.027703889
121	0x3c2f8c84	0.010714654
122	0x3c58d7f6	0.013235083
123	0xbbaf8d55	-0.0053574243
124	0x3ce027a8	0.02736266
125	0x3ca8dd98	0.020613477
126	0xbd44e8fc	-0.048073754
127	0x3cc18450	0.023622662
128	0xbcfc7697	-0.030818267
129	0x3b0a8816	0.0021138242
130	0x3d0d953c	0.03456615
131	0x3bad6bbd	0.0052923844
132	0xbd0749bc	-0.033029303
133	0xbc9a73b2	-0.018853996
134	0xbccd875b	-0.025088957
135	0x3c27ff9c	0.010253813
136	0x3d2586ed	0.04041188
137	0x3c486642	0.012231411
138	0xbcb1444e	-0.021639016
139	0xbc0cb771	-0.008588658
140	0xbc36b707	-0.011152036
141	0xbb092db3	-0.002093178
142	0x3bb9aed3	0.0056665926
143	0xbd04a7db	-0.032386642
144	0xbc28d44e	-0.010304524
145	0xbcc7b209	-0.024376886
146	0x3bf8a5af	0.0075881104
147	0xbcf524d1	-0.029924782
148	0xbc086ded	-0.00832699
149	0x3c1512ed	0.009098751
150	0xbc75694e	-0.01497872
151	0x3bfc2e24	0.00769593
152	0xbc1dd1c2	-0.00963253
153	0x3cc7bfa4	0.024383374
154	0xbb8b5fdd	-0.004253371
155	0xbd83189a	-0.06401177
156	0x3bda2264	0.0066569317
157	0x3c69897b	0.014253969
158	0x3bf3ccbe	0.0074401787
159	0xbba34c2a	-0.0049834447
160	0xbcb084a8	-0.02154763
161	0xbd141b33	-0.03615875
162	0xbd9caf14	-0.07650581
163	0xbcfd3f65	-0.030914018
164	0xbc160e6e	-0.009158714
165	0xbd626f72	-0.055282064
166	0x3d13f424	0.036121503
167	0x3cc60cdf	0.02417606
168	0xbc4859f9	-0.012228482
169	0xbb33efd8	-0.002745619
170	0xbd95b75f	-0.07310366
171	0xbd3935c1	-0.04521728
172	0xbc79ee07	-0.015254504
173	0x3ce4663d	0.027880782
174	0xbbf403e4	-0.007446753
175	0xbc151fc9	-0.009101816
176	0x3c36cda7	0.01115743
177	0x3ca35f1d	0.019942814
178	0xbce84a68	-0.028355792
179	0xbd9d1bb3	-0.07671299
180	0xbd45ede1	-0.048322562
181	0xbc92b9ee	-0.017910924
182	0x3bcd9a77	0.006274517
183	0xbce294e5	-0.02765889
184	0xbd6ddbbb	-0.05807088
185	0xbd1efbdf	-0.03881442
186	0xbd249b12	-0.04018695
187	0xbd380734	-0.044928744
188	0x3c9109f7	0.017704947
189	0x3bd6872c	0.0065468755
190	0x3d04b93e	0.032403223
191	0x3c968b2c	0.01837691
192	0xbcb53f4a	-0.022124905
193	0x3ca22074	0.019790865
194	0xbc611e98	-0.013740204
195	0xbbd4a0f8	-0.0064889155
196	0x3c3c4238	0.011490397
197	0xbc1c95cc	-0.009557199
198	0x3d00ecaa	0.0314757
199	0xbcae337b	-0.021264782
200	0x3cd2771b	0.02569156
201	0xbcd2c1f9	-0.025727259
202	0x3b9830a5	0.0046444708
203	0xbb874208	-0.0041277446
204	0xbcbe11b8	-0.023201808
205	0x3d279d29	0.040921364
206	0xbcf77209	-0.030205743
207	0xbcdc6294	-0.026902474
208	0x3d1195c1	0.035543207
209	0x3cfa2e09	0.03053953
210	0xbda41823	-0.08012416
211	0x3be43b7b	0.0069650984
212	0xbba236f6	-0.0049503995
213	0x3cb43fa7	0.022003008
214	0xbd967564	-0.07346609
215	0xbd42828c	-0.04748778
216	0xbcf20e40	-0.02954781
217	0xbcc34047	-0.02383436
218	0x3c867fb6	0.01641832
219	0xbd20f930	-0.039300144
220	0xbc735860	-0.014852613
221	0xbc722341	-0.014778913
222	0x3b8afe39	0.0042417315
223	0x3c9ed1f4	0.019387223
224	0x3cb7219a	0.02235489
225	0xba9592ef	-0.0011411587
226	0xbcaf443a	-0.021394838
227	0xba0460d2	-0.0005049828
228	0x3befadc1	0.0073144143
229	0xbcf0c431	-0.029390426
230	0x3d2dbf7e	0.04241895
231	0x3c1179a4	0.008879099
232	0xbd14e022	-0.036346562
233	0x3ce5ce3e	0.028052446
234	0x3c8e2ff3	0.017356848
235	0x3d4ffb10	0.05077654
236	0xbcc6fcd9	-0.024290489
237	0xbd03c7b1	-0.032172862
238	0xbd5eddd2	-0.054410763
239	0x3ca76a68	0.02043648
240	0x3c4c3407	0.012463576
241	0xbd05e6be	-0.032690756
242	0x3c54b456	0.012982449
243	0xbbb6518c	-0.0055639204
244	0x3c02a469	0.007973769
245	0xbd70ae68	-0.058760077
246	0xbd550c87	-0.0520139
247	0xbbb0dbdc	-0.005397303
248	0x3b6bf7a3	0.0036005757
249	0xbc24612e	-0.010032935
250	0x3c97f7f6	0.018550854
251	0xbd703d25	-0.058652062
252	0x3d2a7325	0.041613717
253	0xbd3de991	-0.046365324
254	0x3d638f62	0.055556662
255	0x3db12e28	0.08651382

encoder.3.bias f4 [16]
0	0xbb3448c3	-0.002750919
1	0x3c12e96e	0.008966787
2	0x3bc58ecd	0.006028986
3	0xbc85792b	-0.016293129
4	0xbb6bd934	-0.0035987617
5	0xbc158f4c	-0.009128403
6	0xbbd55b98	-0.006511163
7	0xbbb26dfc	-0.00544524
8	0xbc72a384	-0.014809493
9	0xbb32fb0c	-0.002731028
10	0xbc2317d8	-0.009954415
11	0xbca133c1	-0.019677998
12	0xbbacf2cb	-0.0052779666
13	0xb9d887b6	-0.00041299843
14	0x3b8a2a07	0.004216436
15	0xbc8b9a18	-0.017041251

encoder.6.weight f4 [32, 16, 5, 5]
0	0x3b7579e8	0.0037456695
1	0xbd1ff1e6	-0.03904905
2	0x3c83dfd2	0.016097937
3	0x3ba22a90	0.0049489215
4	0x3c1dc0e3	0.009628507
5	0x3aaa613f	0.0012998952
6	0x3cb99e68	0.022658542
7	0xbc1ee464	-0.009698007
8	0x3c600e99	0.013675355
9	0xbc5f14c9	-0.013615795
10	0x3d02e11d	0.031952966
11	0x3cec2323	0.028825348
12	0xbc6c1f22	-0.0144117195
13	0xbc907b1f	-0.017636834
14	0x3b5567be	0.0032563056
15	0x3b747059	0.003729841
16	0x3b3ea316	0.0029088906
17	0xbceb6818	-0.02873616
18	0x3d081a6c	0.033228323
19	0x3b9fd53f	0.004877716
20	0x3d3b2974	0.04569383
21	0xbb4f097f	-0.0031591353
22	0x3d095fbc	0.033538565
23	0xbd3938d8	-0.045220226
24	0xbceec99c	-0.02914887
25	0x3cfcb817	0.0308495
26	0xba435817	-0.0007451786
27	0x3c5491fd	0.012974259
28	0x3ba5af46	0.0050562946
29	0x3b333b12	0.002734844
30	0x3afad6ff	0.001913756
31	0xbc7b4c33	-0.0153379915
32	0x3cde1bf8	0.027112946
33	0xbd137010	-0.035995543
34	0xbafbbcc1	-0.0019206033
35	0x3c4bba1c	0.012434509
36	0x3c73eaba	0.014887506
37	0xbd29f150	-0.0414899
38	0xbd4229ee	-0.04740327
39	0xbcedb40a	-0.029016513
40	0x3c4f4ad8	0.0126521215
41	0xbd4cf01a	-0.050033666
42	0xbcd5053b	-0.02600347
43	0xbc89fb27	-0.016843392
44	0xbd009b82	-0.031398304
45	0x3b29451a	0.0025828541
46	0xbaa4e2fd	-0.0012579855
47	0x3aeaaf98	0.0017905114
48	0x3c9030f0	0.01760146
49	0x3cbcceca	0.023047823
50	0xba46c18c	-0.00075819413
51	0xbcb44415	-0.02200512
52	0xbc0d2ab3	-0.008616137
53	0xb97493a5	-0.00023324655
54	0x3c986973	0.01860497
55	0xbc96bff0	-0.01840207
56	0x3991389b	0.0002769873
57	0xbc5fc38a	-0.01365746
58	0x3ca0c29e	0.01962405
59	0xbbeb04e0	-0.007172212
60	0xbc8265b3	-0.015917635
61	0xbc35cd2c	-0.01109628
62	0xbc2f7fd8	-0.010711633
63	0xbb2bec84	-0.0026233504
64	0xbcb9073a	-0.022586454
65	0xbc210b8b	-0.009829412
66	0xbd08b93a	-0.03337977
67	0x3cec1e8f	0.028823165
68	0x3c217a91	0.009855882
69	0xbc00ec40	-0.007868826
70	0xbba6bab4	-0.0050881747
71	0xba6b7986	-0.0008982647
72	0x3caec2d1	0.02133313
73	0xbcc4b2d9	-0.024011062
74	0xbb0de2a5	-0.0021649983
75	0x3a4db326	0.00078468246
76	0xbc79fcad	-0.0152579965
77	0xbd346347	-0.04403999
78	0x3ca130c7	0.01967658
79	0x3b913db7	0.004432406
80	0x3d0dfa91	0.034662787
81	0xbbff100b	-0.007783895
82	0xbc384685	-0.011247282
83	0x3c77ce7a	0.015124911
84	0xbbcca8a9	-0.006245692
85	0x3aa76fc2	0.0012774395
86	0x3cdd8a17	0.027043385
87	0xbb1ebbcc	-0.0024220822
88	0xbd36691c	-0.044533834
89	0x3cbdba11	0.023160012
90	0x3c957b2e	0.018247213
91	0xbbfaacef	-0.00765001
92	0x3cdd3981	0.027004959
93	0x3b75c0b9	0.0037498905
94	0xbca55d6d	-0.02018615
95	0xbbee41f1	-0.0072710444
96	0xbc4c0149	-0.012451478
97	0x39910240	0.00027658232
98	0xbbe7b18a	-0.007070725
99	0xbbf181ee	-0.007370225
100	0xbc86f7ce	-0.016475584
101	0x3b771049	0.0037698916
102	0xbc27137f	-0.010197519
103	0x3c8582c0	0.016297698
104	0x3cd3175d	0.025767976
105	0xbd44e3c3	-0.048068773
106	0x3c8eb9a3	0.017422503
107	0x3cd1d036	0.025611978
108	0x3b9321f9	0.004490134
109	0xbcf5d00f	-0.030006437
110	0xbc951a37	-0.018200977
111	0xba1b6707	-0.0005928133
112	0xbc1de3ac	-0.009636801
113	0x3cd43ad6	0.025906961
114	0x3ca4c669	0.02011414
115	0xbc733cce	-0.01484604
116	0xbc418093	-0.01181044
117	0x3c29a629	0.010354557
118	0x3d6b3cd1	0.057431046
119	0x3d1bcc00	0.038036346
120	0x3cc7fcf7	0.024412615
121	0xbc1b7345	-0.009487932
122	0xbb2dc844	-0.0026517073
123	0x3c523838	0.012830786
124	0xbcc7cb3d	-0.024388904
125	0x3b9d5b1d	0.0048021213
126	0x3c82a0eb	0.015945872
127	0x3c48a541	0.012246431
128	0x3cebc106	0.028778564
129	0x3a93a133	0.0011263251
130	0xbbd36f93	-0.0064525097
131	0xbcfeb7f7	-0.03109358
132	0xb92b5e36	-0.00016342927
133	0xbc2b57dc	-0.010457959
134	0x3cf32bd4	0.029683985
135	0xbc531760	-0.012883991
136	0xbbb8f52a	-0.00564446
137	0xbc45c0a9	-0.01206986
138	0x3b0d1a16	0.002153044
139	0xbb1633d5	-0.0022919078
140	0x3cd03832	0.025417421
141	0xbcb699d4	-0.022290148
142	0x3cac0ef1	0.021003218
143	0x3b734fc4	0.0037126401
144	0x3ca04fa4	0.019569226
145	0xbd0867e9	-0.03330222
146	0xbd3b86a5	-0.045782704
147	0xbc962921	-0.018330159
148	0x3c31cc09	0.010851868
149	0x3cecd7a9	0.028911429
150	0xbcb0586d	-0.02152654
151	0x3d20b3d2	0.03923399
152	0xbad1e686	-0.0016014136
153	0xbb9a3d41	-0.004707009
154	0x3c6b2d81	0.014354111
155	0x3c83b8fb	0.016079416
156	0xbce1b95d	-0.027554208
157	0x3d13e319	0.03610525
158	0x3d1214a8	0.03566423
159	0xbc8a2d63	-0.016867345
160	0x3c69d410	0.014271751
161	0x3c88f213	0.016716992
162	0x3cd2fac2	0.025754336
163	0xbc933ac6	-0.017972361
164	0x3b990063	0.0046692356
165	0xbd0f7281	-0.03502131
166	0x3c2caa83	0.0105387
167	0xbc508325	-0.01272658
168	0x3b66abd3	0.003519763
169	0x3c8a4a46	0.01688112
170	0xbd0fdeef	-0.035124715
171	0xbcfe776f	-0.03106281
172	0xbd0214b1	-0.031758014
173	0x3af7c449	0.0018903102
174	0xbcb6ef82	-0.022331003
175	0xbc81b5a3	-0.015833681
176	0xbb60ad6a	-0.003428305
177	0x3c2e9a3d	0.01065689
178	0x3a990b1e	0.0011676287
179	0xbcb1bb70	-0.021695822
180	0xbc49b1eb	-0.012310485
181	0xbcc2f9df	-0.023800788
182	0x3ce52f63	0.027976697
183	0xb9ca0203	-0.0003852994
184	0xbcf2565c	-0.029582195
185	0x3c7f299f	0.015573888
186	0xbc7d9442	-0.015477242
187	0xbbe5a421	-0.007008091
188	0x3c8c4614	0.01712326
189	0x3a7ac18d	0.00095655845
190	0xbd439cca	-0.047756948
191	0xbbd63452	-0.006536999
192	0xbc96b495	-0.018396655
193	0x3c7ebe9e	0.015548376
194	0xbc71e3b7	-0.014763764
195	0x3b2588d6	0.0025258563
196	0xbc0bc130	-0.008529946
197	0xbce0543a	-0.027383912
198	0x3cc0e377	0.023545964
199	0xbc5a1769	-0.0133112455
200	0xbc2205be	-0.009889064
201	0x3c395932	0.01131277
202	0x3d8c5c07	0.0685349
203	0xbbd9785c	-0.0066366624
204	0xbc05c4f8	-0.008164637
205	0xbc968d66	-0.01837797
206	0x3cd4b8ef	0.02596709
207	0xbd008db8	-0.031385154
208	0x3d165d99	0.036710355
209	0x3c6f8599	0.0146192545
210	0xba807667	-0.0009800912
211	0x3cf74d96	0.030188363
212	0x3ba7b56a	0.005118062
213	0xbd187d99	-0.037229154
214	0x3d931139	0.07181019
215	0x3b8821b2	0.0041544074
216	0x3bfd69de	0.0077335676
217	0xbb4d5d30	-0.0031336062
218	0x39d0161f	0.00039689333
219	0xbc46fc32	-0.012145089
220	0x3c9fe04b	0.01951613
221	0xbd14fe3d	-0.036375273
222	0x3c35b30a	0.0110900495
223	0xbbaf8c7a	-0.0053573223
224	0x3d332c00	0.043743134
225	0xbc556df9	-0.013026708
226	0x3c361f29	0.011115828
227	0xbcb4c902	-0.022068504
228	0xbce28712	-0.027652297
229	0x3c04f8d3	0.008115965
230	0x3c4307f9	0.011903756
231	0xbc219e72	-0.009864436
232	0x3ceeac9f	0.029135047
233	0x3cb32457	0.021867914
234	0x3cbc456c	0.022982322
235	0x3d52a538	0.051427096
236	0xbaa6efb4	-0.0012736232
237	0x3ce97242	0.028496865
238	0x3b71c5cd	0.003689158
239	0x3b2460d1	0.002508212
240	0xbb1dc1b1	-0.0024071748
241	0xbcd267cb	-0.025684258
242	0xbc97638b	-0.018480083
243	0xbcc99baa	-0.02461036
244	0x3bb0943d	0.005388765
245	0x3c9752ba	0.018472064
246	0xbd49968b	-0.049215835
247	0x3cd9871f	0.026553689
248	0xbbb90f98	-0.005647611
249	0x3cf52e95	0.029929439
250	0x3c19640b	0.009362231
251	0xbc5dba9c	-0.013533261
252	0x3c352840	0.01105696
253	0xbc8fb2ab	-0.01754125
254	0x3b889b50	0.0041689053
255	0xbb2b1f1a	-0.0026111067

encoder.6.bias f4 [32]
0	0xbc1def97	-0.009639642
1	0xbb9a06e0	-0.0047005266
2	0xbb1cdd64	-0.002393567
3	0xbb2a4979	-0.0025983735
4	0xbb11cf71	-0.002224889
5	0xbb610ff4	-0.0034341784
6	0xbb566aec	-0.003271754
7	0xba15a785	-0.0005708861
8	0xbb26839b	-0.0025408033
9	0xbc2b4a01	-0.010454656
10	0x3a177454	0.0005777527
11	0xbbe487b5	-0.0069741854
12	0xbb168a5b	-0.002297065
13	0xbbfaa540	-0.007649094
14	0xbba28653	-0.0049598604
15	0xbaae6c5b	-0.0013307439
16	0x3b227e28	0.0024794433
17	0xbb439454	-0.002984305
18	0xbc217b6b	-0.009856085
19	0x3b56fca1	0.0032804387
20	0xbbb4cefb	-0.005517838
21	0xbb8a6934	-0.004223967
22	0xbc0998f2	-0.008398281
23	0xbc3a6bf3	-0.011378276
24	0xbc1c70c0	-0.009548366
25	0xbc07d736	-0.008291056
26	0xbbbf6835	-0.00584128
27	0xbb61c40b	-0.0034449126
28	0xbb405640	-0.0029348284
29	0x3a595fd5	0.0008292173
30	0xbbc3e0b0	-0.0059777126
31	0xbbd0e5ea	-0.006375064

encoder.9.weight f4 [64, 32, 5, 5]
0	0x3c9a0887	0.018802894
1	0x3c9f61e5	0.01945586
2	0x3ca099d4	0.019604601
3	0x3bc74051	0.006080665
4	0x3c35c0b1	0.0110933045
5	0x3d375ebd	0.044768084
6	0x3c328ef6	0.010898342
7	0x3d17888e	0.036995463
8	0xbbbbff50	-0.0057372227
9	0xbae99bbe	-0.0017822904
10	0x3ce593a9	0.028024511
11	0x3d18cdaf	0.03730553
12	0xbc94f1be	-0.018181678
13	0xbc627ba1	-0.013823421
14	0x3c79a375	0.015236725
15	0x3caecc61	0.02133769
16	0x3cdf3882	0.027248625
17	0xbb9f22a3	-0.004856424
18	0x3b9b9656	0.004748146
19	0x3c728375	0.01480185
20	0xbc387c43	-0.011260095
21	0xbc224d90	-0.009906188
22	0xbbee45d7	-0.007271509
23	0xbd10f902	-0.035393722
24	0xbc802d98	-0.01564674
25	0x3ab6b4c8	0.0013939375
26	0x3c998c42	0.018743638
27	0xbc505075	-0.012714495
28	0x3be56dc0	0.0070016086
29	0xbc21fde4	-0.009887192
30	0x3ad1a684	0.001599506
31	0x3bdef37e	0.006803929
32	0xbc881eb0	-0.016616195
33	0xbd19e103	-0.037568104
34	0x3a9b666e	0.0011856088
35	0xbb0b7f22	-0.0021285494
36	0x3c560776	0.013063302
37	0xbb7fc77c	-0.0039028814
38	0x3cabac16	0.02095608
39	0xbc453182	-0.012035729
40	0x3cc35273	0.023843026
41	0xbb72a277	-0.0037023106
42	0xbb742722	-0.003725477
43	0x3bfc3be1	0.007697568
44	0x3c8c7e37	0.017150028
45	0xbc8bb9e8	-0.01705642
46	0xbcb32abf	-0.021870969
47	0xbb45c91f	-0.0030179692
48	0x3bd75cad	0.006572327
49	0xbb5c917e	-0.0033656056
50	0xbca6c7b8	-0.020358905
51	0xbaf87767	-0.0018956483
52	0x3c385b0b	0.011252175
53	0x3cefc55d	0.029268915
54	0xbb43d45d	-0.0029881217
55	0xbbe8a4ac	-0.0070997085
56	0x3c5360b3	0.012901473
57	0x3ca138b7	0.019680364
58	0xbbf36a09	-0.007428412
59	0x3d3b3fac	0.04571502
60	0x3bd3457e	0.006447493
61	0x3b875703	0.0041302457
62	0x3aeb9e44	0.0017976244
63	0x3c3e72d3	0.011624056
64	0xbcb1bff2	-0.021697972
65	0x3c20c362	0.009812208
66	0x3c494eed	0.012286884
67	0xbca51885	-0.020153293
68	0x3a8fb534	0.0010964037
69	0xbafe5315	-0.0019403422
70	0x3c092a5b	0.008371915
71	0xbca2c2f4	-0.019868352
72	0xbb06ddfa	-0.0020579086
73	0xbcb0dc3f	-0.021589397
74	0xbcd98bdf	-0.026555954
75	0x3c419e6b	0.011817555
76	0x3b82c41b	0.0039906627
77	0xbcf8b6e2	-0.030360643
78	0xbc959482	-0.01825929
79	0x3b17ed23	0.0023182116
80	0xbc767cf2	-0.015044438
81	0x3c588419	0.013215088
82	0x3bad83ed	0.005295268
83	0x3c534ab5	0.0128962295
84	0xbbeeb9c2	-0.0072853277
85	0xbbac5b99	-0.0052599427
86	0x3c695586	0.014241582
87	0x3b89471b	0.0041893846
88	0xbba85b9c	-0.005137874
89	0x3b9ac3f7	0.004723068
90	0xbb9a068d	-0.004700488
91	0x3cc2e294	0.023789681
92	0xbc2fa602	-0.010720732
93	0xbc65b82e	-0.014020963
94	0xbcd49075	-0.025947789
95	0xbcf6d11a	-0.030129004
96	0xbbebf72d	-0.0072010965
97	0xbc481cc3	-0.012213889
98	0x3c4af2d5	0.012386997
99	0x3c3fe889	0.011713156
100	0x3caf8094	0.021423616
101	0x3cc1cf12	0.02365831
102	0x3cb7e07e	0.022445913
103	0xbca4ddcb	-0.02012529
104	0xbccb2a37	-0.024800403
105	0xbd02fcbc	-0.031979308
106	0xbc138f9a	-0.009006405
107	0xbc568b15	-0.013094683
108	0x3b1f8482	0.0024340455
109	0x3a51d154	0.00080039096
110	0x3bc15622	0.0059001604
111	0xbc617b25	-0.01376227
112	0xbc17eb30	-0.009272382
113	0x3ab7d8cb	0.0014026401
114	0x3b8eefcb	0.0043620816
115	0x3c85e98f	0.016346721
116	0x3c5e0bae	0.013552589
117	0x3bd9fa30	0.006652139
118	0xbc84c33f	-0.016206382
119	0x3a619c91	0.0008606399
120	0xba22f967	-0.00062169734
121	0xbcb4664d	-0.022021437
122	0x3c4003f2	0.011719691
123	0x3bc6a3ef	0.006062023
124	0xbcf2af8c	-0.029624723
125	0x39cdb056	0.00039232027
126	0x3bd90120	0.0066224486
127	0xba93078d	-0.001121746
128	0x3c80040a	0.015626926
129	0xbbff1943	-0.007784994
130	0xbb0d060f	-0.0021518504
131	0x3ce0aa6c	0.027425013
132	0x3b89cdec	0.004205456
133	0x3cfa7b40	0.030576348
134	0xba358a33	-0.00069251953
135	0x3c2d0c23	0.010561976
136	0x3c0e5e87	0.008689529
137	0x3cc3b724	0.02389104
138	0xbc22d16d	-0.009937626
139	0x3c5eda80	0.013601899
140	0xbb74beaa	-0.003734509
141	0xbc65480a	-0.013994226
142	0xbcc57b50	-0.024106652
143	0x3c2e99cf	0.010656788
144	0x3c6c411e	0.014419822
145	0xbc03f0d5	-0.008053024
146	0xbcd8ac6d	-0.026449407
147	0xbad60e43	-0.0016331155
148	0x3bcd3953	0.006262937
149	0xbc738924	-0.01486424
150	0xbcd83155	-0.02639071
151	0xbd056e3e	-0.03257584
152	0xbc552c31	-0.013011024
153	0x3c9e1974	0.019299246
154	0x3cf1aa0e	0.029500034
155	0xbc98ed4c	-0.01866784
156	0x3a9fbe8a	0.0012187522
157	0xbc81e7a0	-0.015857518
158	0x3c3a0ffe	0.011356352
159	0x3ca0f315	0.01964716
160	0x3c90286d	0.017597402
161	0x3c927346	0.017877232
162	0xbcb85d98	-0.022505566
163	0x3c168392	0.009186642
164	0x392eee77	0.00016682768
165	0xbd0ead2e	-0.034833126
166	0xba3da25c	-0.0007233971
167	0xbcb18793	-0.021671092
168	0x3c7a8bae	0.015292091
169	0x3c8e9cb4	0.017408706
170	0xbb9d0b56	-0.004792611
171	0xb9fa25ec	-0.0004771197
172	0xbbe20903	-0.006898047
173	0x3cab532b	0.020913681
174	0x3b123f15	0.0022315432
175	0xbc5c6c83	-0.013453606
176	0xbc879165	-0.016548822
177	0x3bb36ed6	0.005475859
178	0xba4dfbb2	-0.0007857635
179	0x3c5d15b9	0.013493949
180	0x3c05aa76	0.008158317
181	0xba8f7336	-0.001094437
182	0xbb512e77	-0.0031918564
183	0x3c93cf1c	0.018043093
184	0xbc9fbf61	-0.019500436
185	0x3bbf4a53	0.0058377176
186	0x3bba9435	0.005693937
187	0x3c9a8c52	0.018865738
188	0xbc5273b9	-0.012844973
189	0xbac5dbff	-0.0015095471
190	0xbcd54707	-0.026034845
191	0xbbad5b72	-0.005290442
192	0x3b872a1f	0.0041248943
193	0xbc98686a	-0.018604476
194	0x3c767c73	0.015044319
195	0xbce51e3f	-0.027968524
196	0xbcd0340a	-0.02541544
197	0xbc6d9570	-0.014500961
198	0xbbbb2cf3	-0.0057121455
199	0xbbb7940a	-0.0056023644
200	0x3d1f7b06	0.038935684
201	0xbc82e9be	-0.015980598
202	0xbb004b8c	-0.001957628
203	0x3ccb31e0	0.024804056
204	0x3cb9b808	0.02267076
205	0xbb728b09	-0.003700914
206	0xbc3fc126	-0.011703765
207	0xbcf1f044	-0.029533513
208	0xbb0b46e5	-0.0021251973
209	0xbc7448e6	-0.0149099585
210	0x3c0d8974	0.008638728
211	0xbca9ffcb	-0.020751854
212	0xbcf94117	-0.030426545
213	0x3b2d653a	0.002645804
214	0xbb39c589	-0.00283465
215	0x3c29674f	0.010339572
216	0xbc2fe6e9	-0.010736206
217	0x3c467c8d	0.012114656
218	0x3c97963c	0.018504255
219	0x3ca457b1	0.020061346
220	0xbc61035c	-0.013733711
221	0xbb863e28	-0.004096765
222	0x3b67f71c	0.0035395091
223	0x3c193f8b	0.009353529
224	0x3d909769	0.07060129
225	0xbc32c477	-0.010911099
226	0xbc2e260a	-0.010629186
227	0x3c8d6d6c	0.01726409
228	0xbbdc7d82	-0.006728829
229	0xbcb50c5c	-0.02210062
230	0xb9e46a5f	-0.00043566801
231	0x3bb37eaf	0.0054777483
232	0x3ccec9bf	0.025242684
233	0xbd05b1a5	-0.03264012
234	0xbc59a955	-0.013285001
235	0xbb8a4d15	-0.0042206147
236	0x3c35c294	0.011093754
237	0xbbd06fae	-0.0063609695
238	0xbc04e7a4	-0.008111868
239	0x3ce2e50b	0.027697107
240	0x3cac1da2	0.021010224
241	0x3bbb7d8b	0.005721753
242	0x3ca24bfc	0.019811623
243	0xbcc4ab49	-0.024007456
244	0xbc8c2ebf	-0.017112134
245	0xbb344b2c	-0.0027510626
246	0x3c23defb	0.010001893
247	0xbca44a01	-0.020054819
248	0xbc52e8f8	-0.012872927
249	0xbbf312d8	-0.007418018
250	0xbbe6d025	-0.0070438557
251	0x3cdd7ba5	0.027036497
252	0x3b5faf60	0.0034131631
253	0x3c84e6ee	0.016223397
254	0x3cb410f6	0.021980744
255	0x3cf98261	0.030457677

encoder.9.bias f4 [64]
0	0x3ab0b8af	0.0013482774
1	0xbb656a23	-0.003500589
2	0x3c92ec73	0.017935013
3	0xbbd545b6	-0.0065085543
4	0x3c9be556	0.019030254
5	0x3ae993ab	0.0017820498
6	0xbc2b7c7e	-0.010466693
7	0xbc1e8590	-0.0096753985
8	0x3c0b2cd9	0.008494579
9	0xbbefd45a	-0.0073190155
10	0x3c823ef0	0.015899152
11	0xbbdfc76e	-0.006829194
12	0x3c82d402	0.015970234
13	0x3b18ff20	0.0023345426
14	0x3c307d5a	0.010772074
15	0xbc72f6c7	-0.014829344
16	0xbc72dbda	-0.0148229245
17	0x3aba85d5	0.0014230559
18	0xbb863360	-0.00409548
19	0xbc5b6930	-0.013391778
20	0x3c152020	0.0091018975
21	0xbca1ef1a	-0.019767333
22	0xbc300872	-0.010744201
23	0xbbf94634	-0.007607246
24	0xb73cae7c	-1.12462985e-05
25	0xbc2fbfc7	-0.010726876
26	0xbc814c72	-0.015783522
27	0x3cb8dc0d	0.022565866
28	0x3bfcd9e7	0.0077164057
29	0x39b55a68	0.00034590368
30	0xbb832f13	-0.0040034144
31	0xba65365d	-0.00087437575
32	0xbbd6885d	-0.0065470175
33	0x3c54dcfd	0.012992141
34	0x39f496eb	0.0004665175
35	0xbcf5fd3d	-0.03002798
36	0xbbc3d564	-0.005976366
37	0xbb56c9fa	-0.0032774196
38	0x3945ca47	0.00018862738
39	0xbbe0c348	-0.006859217
40	0xbb0c0fb1	-0.0021371657
41	0x3b190d61	0.0023353922
42	0xbc027168	-0.0079616085
43	0x3af30d4f	0.0018543395
44	0xbb816177	-0.0039483863
45	0xbc49ec8d	-0.0123244645
46	0x3c968776	0.01837514
47	0xbc82a8d2	-0.01594964
48	0xbaa3ad77	-0.001248761
49	0xbc58b620	-0.013227016
50	0xbbf1a3c1	-0.0073742573
51	0xbb64797e	-0.0034862454
52	0x3be39260	0.0069449395
53	0x38cafac9	9.678823e-05
54	0x3aaddad2	0.0013264066
55	0xbc34ef6e	-0.011043413
56	0x3b9547d4	0.0045556817
57	0xbbcf04d0	-0.0063177124
58	0x3c3c830e	0.011505855
59	0xbc7d3379	-0.015454167
60	0x3bf1d86e	0.0073805368
61	0xbc6a47b7	-0.014299325
62	0x3c8e8d47	0.01740135
63	0x3c445f29	0.011985579

encoder.10.weight f4 [64]
0	0x3f7d4e52	0.9894763
1	0x3f7a3db0	0.9775038
2	0x3f7d7a32	0.9901458
3	0x3f791865	0.9730285
4	0x3f7bf0bf	0.98414224
5	0x3f7f6920	0.99769783
6	0x3f79be12	0.9755565
7	0x3f7de027	0.99170154
8	0x3f7b0733	0.9805786
9	0x3f7d3db8	0.989223
10	0x3f80f143	1.0073627
11	0x3f7d2415	0.9888318
12	0x3f80c436	1.0059879
13	0x3f7dbd5f	0.9911708
14	0x3f7b3b10	0.98137
15	0x3f7e0ef2	0.99241555
16	0x3f7c23cf	0.9849214
17	0x3f7b9761	0.9827786
18	0x3f7feb16	0.9996809
19	0x3f79bee1	0.97556883
20	0x3f81a158	1.0127363
21	0x3f7e26e6	0.99278104
22	0x3f7993b5	0.9749101
23	0x3f7bd5af	0.9837293
24	0x3f801c0b	1.0008558
25	0x3f7d022d	0.98831445
26	0x3f7d9847	0.9906048
27	0x3f7a8acc	0.9786804
28	0x3f7f0106	0.99610937
29	0x3f7c7a8a	0.9862448
30	0x3f7c7151	0.9861041
31	0x3f7a98aa	0.97889197
32	0x3f7773a9	0.9666086
33	0x3f7e2108	0.9926915
34	0x3f7d53bf	0.9895591
35	0x3f7b10a9	0.98072296
36	0x3f7cae06	0.9870304
37	0x3f7a64ae	0.97809875
38	0x3f7f7a97	0.9979643
39	0x3f7e91f6	0.9944147
40	0x3f7b6c94	0.9821255
41	0x3f7e1815	0.99255496
42	0x3f7c7a7a	0.98624384
43	0x3f79fd27	0.97651905
44	0x3f7d4705	0.9893649
45	0x3f804d2b	1.002355
46	0x3f7de065	0.99170524
47	0x3f7d6937	0.9898867
48	0x3f7b8a69	0.9825807
49	0x3f7dac5c	0.99091125
50	0x3f7c02c5	0.98441726
51	0x3f7d5455	0.98956805
52	0x3f79c88e	0.9757165
53	0x3f7c8307	0.9863743
54	0x3f7948a0	0.9737644
55	0x3f817a66	1.0115478
56	0x3f7bc083	0.98340625
57	0x3f7fbf84	0.99901605
58	0x3f7db739	0.991077
59	0x3f77afab	0.96752423
60	0x3f7f6611	0.99765116
61	0x3f7c2d4a	0.98506606
62	0x3f800910	1.0002766
63	0x3f7b0201	0.9804993

encoder.10.bias f4 [64]
0	0xbcc68cb0	-0.024237007
1	0xbc1f7a2c	-0.009733718
2	0xbbfef258	-0.0077803545
3	0xbcd07861	-0.025448026
4	0xbc248b1e	-0.010042934
5	0xbb55e3be	-0.0032636966
6	0xbca89b39	-0.020581828
7	0xbc907c9c	-0.017637543
8	0xbc2d4524	-0.010575566
9	0xbbad9a27	-0.0052979174
10	0x39d92a0e	0.00041420799
11	0xbc3bccb2	-0.011462377
12	0x3c63a8aa	0.013895193
13	0xbc31fd2a	-0.010863582
14	0xbcc45652	-0.023966942
15	0xbc22920a	-0.009922514
16	0xbc6195df	-0.013768642
17	0xbcbbd71c	-0.02292972
18	0xbc0d9ec3	-0.008643809
19	0xbc86f1fa	-0.016472805
20	0x3ab81ad8	0.0014046086
21	0xbbbed866	-0.0058241365
22	0xbcf651ea	-0.030068357
23	0xbc1eb6bf	-0.009687125
24	0xbac16f83	-0.0014757965
25	0xbc424147	-0.011856384
26	0xbc518467	-0.012787915
27	0xbc81e92c	-0.015858255
28	0x3bbc7dff	0.0057523246
29	0xbbd047cd	-0.0063562156
30	0x3b7c4bbc	0.003849729
31	0xbc9de9c2	-0.019276503
32	0xbc3330b3	-0.010936904
33	0xba580d36	-0.00082417147
34	0xbc37379b	-0.011182691
35	0xbca61edb	-0.020278385
36	0xbc81fdc9	-0.015868085
37	0xbb1b8f2c	-0.002373646
38	0xbca57f68	-0.020202354
39	0xbc04d05c	-0.008106317
40	0xbc03c716	-0.008043071
41	0x3a9f5e13	0.0012158774
42	0xbc936b62	-0.01799554
43	0xbbbf4d5e	-0.0058380803
44	0xbc2bbd23	-0.010482105
45	0x3aaf04a8	0.0013352828
46	0x393b4cf1	0.00017862373
47	0xbc5f4759	-0.01362785
48	0xbc7c02fd	-0.015381572
49	0xbc24dd97	-0.010062597
50	0xbb2a7b05	-0.0026013267
51	0xbb642416	-0.0034811548
52	0xbcd73576	-0.02627061
53	0xbc8a5cca	-0.016889948
54	0xbcb2900f	-0.021797208
55	0x3b0090d1	0.0019617567
56	0xbcba0a9e	-0.02271014
57	0x3b7abb8d	0.0038258762
58	0xbbdbe40d	-0.0067105354
59	0xbcea0f0a	-0.028571624
60	0x3bf173bf	0.0073685343
61	0xbc010fcb	-0.0078773005
62	0xbbcb4115	-0.0062028267
63	0xbc6be4de	-0.014397828
