results/dot-ou-final_d=ballsw=8z=2det=0lat=const-sig-ntloss=exactsigma=diag/run2/saved_nets/ae_best_val_bt.pth (torch, 681339 bytes, 40 tensors)

mu_linear.weight f4 [2, 4096]
00000000: b113 e1ba 4033 6fbb 83ad 93bc c29f 87bb
00000010: e291 7f38 68f0 90bb 85be 2ebb d23d 153d
00000020: 11a2 c3bc 7872 5a3a 327d 46bc 7db5 003b
00000030: 8407 d6bb 7f84 b33c 001b 0ebd 6777 103d
00000040: 219a eebb 0853 d7bb 61cd 143c f846 c43a
00000050: 3e77 833c aa9a a73c c0e1 9abc 96d0 313c
00000060: 9965 91bc 9be0 81bc 1b21 8dbb b824 2a3c
00000070: d9db 0fbc f8d7 31bb 07be 57bc 34ac ce3c
00000080: 55fc bdbc f30f 02bd 8aa9 51bc 9f4f 113c
00000090: b3c6 a43c 6806 003b 5775 eab9 c30f af3c
000000a0: 48d9 27bd 6f26 67bc 6855 9cbc 3332 99bc
000000b0: 7fa7 ec3a 9304 bcbc f922 58bc 0229 42bc
000000c0: 5eef 1cbd a621 d2bc b002 a6bc 8c52 8bbc
000000d0: 0e6c ac3c a316 953c a48e 953b 669f cb3a
000000e0: 0eb7 f9bc 1996 2ebd f647 0fbc 3f55 acbb
000000f0: 4026 88bb 5bde 0cbc a96f 1ebc 360d 983c
00000100: fd38 a3bb ece0 9bbc 39fe cdba cf2f 273b
00000110: d35e 9ebc d631 fabb ebe1 873c db47 c93c
00000120: 91be b1bb d23f 14bd c43d 07bd 9efd 9bbb
00000130: ab3b e13b aa39 b5bb 2bf5 c6bb 3a53 db3c
00000140: f0fe 1abc bfd9 0c3d 4532 35bd 9563 013b
00000150: 7886 223b a5d1 f4bc 517e 393c 3918 9d3c
00000160: 11bf 993c 7ae7 c2bc 193e 1ebc 604e ebbc
00000170: b0b8 a73b e9e5 0fba 313f 8dbc 5755 24bb
00000180: b1f8 87bc c036 32bd 68a9 7c3b a1aa 85bc
00000190: 1112 693c b250 b2bc 23c0 d53b 4565 bc3a
000001a0: 5f67 a3bb 7cb0 3bbd f7e8 debc d3fe 86bb
000001b0: fedb 733a 9845 0ebb 091f 0bbd e276 c53a
000001c0: 749f 32bd e07e 94bc c0da e7b9 0f68 e7bc
000001d0: 5450 3ebb 675b c93b 19c9 793b 8c5b 8bbc
000001e0: d016 483c d017 18bd d6df cebc 6ddf d0bb
000001f0: 4368 efbc 996c 1ebd 4012 52bd 6f9c 29bc
00000200: cdf5 2b3c 4a84 24bd a467 e43b 2902 cd3c
00000210: 9dd1 173d 4ecb 8e3c c0db 103d 6a0a 063d
00000220: 4e3d 4b3c 13fb 21bd 5110 e7bb 0d81 9b3a
00000230: 8fc4 ca3b 77f1 e3ba cf83 6c3c 0e81 743d
00000240: 7f72 be3b d022 c9bc 834c 02bd a085 66bc
00000250: 464d 1f3c 6309 873c b04e 5e3c 50b5 203d
00000260: 54ef 473c 4b8e c2bb 4a69 a5bc 3732 29bd
00000270: 613f b3bc 95f7 3a3c 088a 623c 95ac 5d3d
00000280: 5814 c4bc 2efb ddbb acbd 30bd b44e 8abd
00000290: 752c c6bc 687a 6bbc 0827 be3b 5ddd fd3c
000002a0: 9f50 bebb 05ad 0cbd 6527 b2bd 7e8e d3bd
000002b0: 0b2f 01bd 0946 dbbc 5d07 c03b b70a 2b3d
000002c0: 2eb8 9d3b 850e f9bc 3665 15be 043d eebd
000002d0: a39f 7dbd e067 6cbd 909f 36bb 0c62 fdb9
000002e0: 6d3d 0bbc ad14 a1bb 7fae ffbc 4cd1 68be
000002f0: 0f93 29be f988 ccbd 7713 52bd 17c2 d1bc
00000300: ea46 6d3c 6116 d83c fa58 2c3c 9941 883c
00000310: 03c0 0d3b f2f9 153d ef60 b33c 398d ce3c
00000320: 8c3e e13a 6d53 97bc 532a 07bc 7689 4c3c
00000330: 50a1 7b3c e6ed 7e3d 2faf 003d ecd0 f03a
00000340: c387 44bd f563 aebc 6a3e 1ebc 5db3 1a3b
00000350: 33f4 db3b d4d3 853d 2e39 4d3d 41ca f23c
00000360: 6951 3cbd 85ae c6bc b5bf 9fbc d6aa 38bb
00000370: 068f c0bb c0bd 203d 1d38 c43d 2693 753c
00000380: 6ad7 63bd e34e fabc 4b97 89bb c9df 0bbb
00000390: d813 483c e148 283d e2d1 6c3d 2fee 4fbc
000003a0: d2af 62bd 3ccc 23bd 2de4 23bd f1be afbc
000003b0: 85ef 80bc 8ec9 d83c 6621 703d 5053 463c
000003c0: 6778 85bd 2b88 98bd 3863 fabc 97f8 d3bc
000003d0: a613 bfb8 1987 123c b871 ec3b 3c1d 153c
000003e0: f43a 39bd efcf a2bd a6b9 95bd 7104 60bd
000003f0: ca33 d6bc 901b edbc fc40 6cbb 6afe 6fbb
-0.0017172006 -0.0036499053 -0.018027073 -0.0041389177 6.09326e-05 -0.00442319 -0.0026663851 0.03643591
-0.02388099 0.0008333097 -0.01211481 0.0019639425 -0.0065316577 0.021913765 -0.034693718 0.03527012
-0.007281557 -0.0065711774 0.009082169 0.0014974764 0.01604807 0.020459492 -0.018906474 0.010852953
-0.01774864 -0.01585417 -0.004306925 0.010384731 -0.008780443 -0.0027136784 -0.013167865 0.025228597
-0.02319161 -0.03175349 -0.012796769 0.008869081 0.020114278 0.0019535068 -0.00044719383 0.02136982
-0.0409787 -0.014108284 -0.019083694 -0.018700695 0.0018055289 -0.0229514 -0.013191932 -0.011850597
-0.038314216 -0.02565081 -0.020264953 -0.017007135 0.021047618 0.01819927 0.004564123 0.0015535175
-0.030482795 -0.042623613 -0.008745184 -0.0052591856 -0.0041549504 -0.008597936 -0.009670177 0.018560987
-0.0049811588 -0.01902815 -0.0015716023 0.0025510674 -0.019332325 -0.0076353354 0.016587218 0.024570396
-0.0054243286 -0.036193676 -0.03301789 -0.004760458 0.006873568 -0.0055305557 -0.006071707 0.026773084
-0.009460196 0.034387346 -0.044237394 0.0019743193 0.0024799388 -0.029885123 0.01132162 0.01917659
0.018767865 -0.023792017 -0.00965836 -0.028723896 0.005118452 -0.00054892764 -0.017242046 -0.002507528
-0.016598077 -0.043509245 0.0038553122 -0.016316714 0.014225499 -0.021766994 0.0065231486 0.0014373442
-0.004986688 -0.045822605 -0.027210696 -0.004119733 0.0009302496 -0.0021708962 -0.033965144 0.0015065337
-0.043609098 -0.018126905 -0.00044222735 -0.028247861 -0.0029039579 0.006144929 0.0038114248 -0.017011426
0.01221247 -0.037132084 -0.025253218 -0.0063742907 -0.02922452 -0.038677786 -0.051286936 -0.010352238
0.010495615 -0.040165223 0.0069703627 0.025025444 0.037065137 0.017430928 0.03536582 0.032724775
0.012404753 -0.039546084 -0.0070515056 0.0011864022 0.0061879824 -0.0017390688 0.0144357225 0.05969339
0.005811989 -0.024552733 -0.03181125 -0.014069945 0.009723013 0.016483968 0.013568565 0.039235413
0.012203056 -0.005937373 -0.020191807 -0.041307654 -0.021880807 0.011411567 0.0138268545 0.054119665
-0.023935482 -0.0067743277 -0.043149635 -0.06753293 -0.02419112 -0.014372446 0.0058029927 0.030989343
-0.0058079506 -0.03434469 -0.0869892 -0.103299126 -0.031539004 -0.026766794 0.005860253 0.041758265
0.0048132157 -0.030402431 -0.1458939 -0.116327316 -0.06191982 -0.05771625 -0.0027866103 -0.0004832897
-0.008498532 -0.004915795 -0.031211136 -0.2273609 -0.16560005 -0.09987063 -0.051288094 -0.025605245
0.014482239 0.026377859 0.010519261 0.016632842 0.002162934 0.03661532 0.021896807 0.025213825
0.0017184778 -0.018472398 -0.008249837 0.012483945 0.015358284 0.062238596 0.031417068 0.001837281
-0.047981035 -0.021287898 -0.009658435 0.0023605444 0.0067124604 0.06534544 0.05010336 0.029637458
-0.045976076 -0.02425314 -0.019500593 -0.0028177998 -0.0058764247 0.03924346 0.09581015 0.014988696
-0.055625357 -0.030555194 -0.0041989437 -0.0021343103 0.012211762 0.041085128 0.057817347 -0.012691065
-0.055343457 -0.039989695 -0.040012527 -0.021453353 -0.015739212 0.026463296 0.0586256 0.012104824
-0.065171055 -0.07447847 -0.03056489 -0.025875373 -9.1112495e-05 0.008943343 0.007215705 0.009101208
-0.045222238 -0.079498164 -0.073108 -0.054691736 -0.026147742 -0.028943807 -0.0036049476 -0.0036620148

mu_linear.bias f4 [2]
00000000: 2602 e4bb 9570 d2bb
-0.006958264 -0.006422112

sigma_linear.weight f4 [2, 4096]
00000000: 9538 4b3c e302 3d39 f9a3 70bc 85ae 7839
00000010: eeb3 823a 3a19 05bc bf8d dfbb 2516 003c
00000020: 400f 7ebc 59b3 93bc 0630 efba c9f5 653b
00000030: ee4c 233a 53cb 213c c7c9 443c aeff 6ebb
00000040: 4fd8 39bc 1ed8 033d 63e4 f93c 80e9 473c
00000050: 0fa6 f9bb 8630 a7bc dd14 0abc 7f19 9bbc
00000060: 37b7 4a3c 24a6 113b bdc5 6d3c fb56 e3bb
00000070: d2ba 973b 4e44 8dba e765 103c 3154 4d3c
00000080: b6b2 3a3c b879 51ba 970d bdbb adc5 d23c
00000090: 839d f73b f7ca c1ba 6e32 efbb e26b bbbb
000000a0: 0cd5 bbbb 3e43 6abc ac47 a33b 6b7d 3d3c
000000b0: da01 efbb bfef 89bc 3bb2 64bc 37ea e53a
000000c0: a938 183c 1760 b5ba 5ef4 25bb 64b8 f23b
000000d0: 98f1 95bc dd6b abbc cf36 33bc 1e44 24bc
000000e0: 668a 61b9 6319 ae3b a7b4 b9bb 7d14 87bb
000000f0: 9eec c63b 1503 053c 3434 24bc f934 8c3c
00000100: f4ec 9abb d5d2 683c 7fc7 69bb 5327 e0bb
00000110: 2e86 4cbc 893d 333c 7f1e febb 5025 b13c
00000120: 8551 eeb9 6d0d d83c 2dac 023c adf7 123b
00000130: ffea 31bc ddc5 853b e836 50bc 5ed3 53bc
00000140: a3f4 49bc 07e5 9d3b dd27 2aba 96c1 773c
00000150: b297 ccb8 4c46 41bb 542a 78bb 6374 6abb
00000160: b0dd 89bc 2f67 62bc 5ffa 993b d73d 2dbb
00000170: 03f5 f13a a733 0fbc b21c 05bc 2e0e 1ebb
00000180: cbcc a9bc 5eb1 9dbc 9fbc a0bc 2dc1 91ba
00000190: a5e1 b5bc d8a6 833c 707c 393c 9df1 12bc
000001a0: 7b30 e1bb 3f5e f9bb ff16 a0bc 3d72 be3c
000001b0: 696e 5a3c aefa 3cbc 51e1 e23c 2d01 9cbb
000001c0: c50b 31bb 6724 533c 0c84 e9bb d950 7eba
000001d0: 34e7 9fbb 3303 b2bb 3eb2 883b b584 2a3c
000001e0: 3e3d 973b 9652 dc3a abf0 acbb c646 f4bb
000001f0: 6856 f2bb 8457 883b 34ec 603b 3257 bb3c
00000200: 3d3c 0b3c 09dc cebb c1ea bc39 db9c 0fbc
00000210: 6e52 2dbc 402e f8bb 7940 853c 1f50 0cbc
00000220: 2777 403c 12bd 39b8 ecdc 14bc b688 d33a
00000230: 0405 453c ec9e 35bc 1931 6c3c 9979 6fba
00000240: 5a38 0cbc 80e7 23bc 4081 bfbc ead1 0dbc
00000250: 58bc c5bb 8a03 10bb e7ed 8dbb 6a2c 9bbb
00000260: 9c09 47ba d61a 61bc 4b6c 873b c4cb b6bb
00000270: 6ba3 833c 6e4b e8bb 6496 6bbb 2856 27bc
00000280: 318d 6f3b c2a3 d0bb d5b1 d4bb 36c4 6f3c
00000290: 7fe7 ed3a ee42 8b3c 92c2 05bb bff6 d8bb
000002a0: 148f e4bb d227 74bc 9be0 ff3b 6337 993c
000002b0: fb2c 10bb c06a a73b d0a7 d7bb fcc1 7f3c
000002c0: ea50 babb b722 88bc d4c5 c53b 93bf 8eba
000002d0: 716c 1ebb 5bc4 57bb 9b5f b1bb ca51 b73c
000002e0: 7985 b33b 5e8e 36bc a5ad 4ebc 54fe b6bb
000002f0: ae4e a8ba 6eeb 34bc 550a b13b 5a44 b83c
00000300: 1bde a7bb 7677 b93c 9093 0c3b 7ef7 103c
00000310: 798e 1b3b ba63 8dbc 9bd4 4ebc 7d71 b73c
00000320: 0ba6 8dbc b76f c63b dc41 eabb 3605 3abc
00000330: 47e4 8abc 8d25 c23b e217 8e3a a9fe a33c
00000340: 8292 13bc 8928 87bb 638e 533c 2468 0e3b
00000350: f4ae 54bb 39e2 303b d373 f43b 10ee cc3c
00000360: 3fe5 7c3c 80a5 4bbb 684d 253c 9cb5 08bc
00000370: 6fc2 ee3b 53fc 99bb b298 913c f472 ae3c
00000380: 3f5d 43bc 1373 cabb fae0 133c 4906 f03b
00000390: 3556 49bc 183a 303c 5ae1 333b 87fa 17bc
000003a0: aed9 be3b 734a 8b3b ffc8 73bc 7968 f63b
000003b0: ef62 24bc d0e8 6f3c 53cf a33c d040 d13b
000003c0: 5633 f03a 84da 3ebc a933 2e3c 3a87 af3a
000003d0: f7db 0dbb 6ffb 6fbc c109 6fbb 3757 64bc
000003e0: a2ac d33b be7b 713c dee2 c23b a27e 15bc
000003f0: 29b8 86ba 0ccc a1bb 0383 63bb cbef 0a3b
0.012403627 0.0001802552 -0.014687532 0.00023716137 0.0009971836 -0.00812369 -0.0068223174 0.00781778
-0.015506566 -0.018029856 -0.0018248565 0.0035089126 0.000622942 0.009875136 0.012010998 -0.0036468315
-0.011343076 0.032188527 0.030504411 0.012201667 -0.0076186727 -0.02040888 -0.008427826 -0.018933056
0.012372783 0.0022224272 0.0145124765 -0.006937859 0.004630425 -0.0010777803 0.008813358 0.01253228
0.011395147 -0.0007990855 -0.0057694423 0.025729025 0.0075566187 -0.001478522 -0.007299713 -0.0057196477
-0.0057321843 -0.014298258 0.004982909 0.0115655465 -0.007293922 -0.016837953 -0.013958509 0.0017541115
0.009290853 -0.0013837841 -0.0025322656 0.007407235 -0.018303677 -0.020925457 -0.01093836 -0.010026006
-0.0002150923 0.005313085 -0.0056672874 -0.0041223154 0.0060706874 0.008118411 -0.010022212 0.017115103
-0.004727954 0.0142104225 -0.0035671887 -0.0068406253 -0.012483163 0.010939964 -0.0077551003 0.021624237
-0.00045455634 0.02637359 0.00797562 0.0022425458 -0.01085925 0.004082425 -0.012708403 -0.012928812
-0.012326392 0.004818562 -0.00064909254 0.015121838 -9.7557335e-05 -0.0029491363 -0.0037867026 -0.0035774938
-0.016829342 -0.013818546 0.004699036 -0.0026434564 0.001845986 -0.008740342 -0.008124517 -0.0024117338
-0.020727536 -0.019249614 -0.019621192 -0.0011120193 -0.022202322 0.016070768 0.011321172 -0.008968738
-0.0068722344 -0.007610112 -0.019542215 0.023247832 0.013331988 -0.011534376 0.02769533 -0.0047608824
-0.0027015072 0.012887097 -0.007126337 -0.00097013783 -0.0048798565 -0.0054325103 0.0041716387 0.010407616
0.004615455 0.001680928 -0.0052777133 -0.007454726 -0.0073955543 0.0041608233 0.0034320476 0.022868726
0.008498249 -0.0063128513 0.0003603306 -0.008765425 -0.010578735 -0.007573873 0.016266095 -0.008564024
0.011747158 -4.4283523e-05 -0.009085875 0.0016138765 0.012025122 -0.011085253 0.014416003 -0.0009135246
-0.008558357 -0.010003924 -0.02337706 -0.008656004 -0.006034415 -0.0021974766 -0.0043313387 -0.004735519
-0.00075926795 -0.013739308 0.0041327826 -0.00557849 0.016069135 -0.00708907 -0.0035947794 -0.010213412
0.0036552662 -0.0063671777 -0.006490926 0.014634183 0.0018150656 0.016999688 -0.0020410162 -0.0066212113
-0.006975064 -0.014902072 0.0078087575 0.018703168 -0.0021999467 0.005109161 -0.006581284 0.015610214
-0.0056859152 -0.016618116 0.006035546 -0.0010890834 -0.0024173523 -0.0032923433 -0.0054130084 0.022377867
0.0054785577 -0.011142341 -0.012614642 -0.0055845175 -0.0012840831 -0.011042459 0.005402843 0.02249353
-0.0051229126 0.022639971 0.0021450259 0.008848069 0.0023736043 -0.017259467 -0.012623931 0.022392983
-0.01729109 0.006055798 -0.0071489643 -0.011353781 -0.016954554 0.0059248866 0.0010840858 0.020018892
-0.009007098 -0.004124705 0.012912366 0.0021729553 -0.0032452913 0.0026990308 0.0074600964 0.02501586
0.015435516 -0.0031073987 0.010089256 -0.00834408 0.007286362 -0.004699269 0.017773006 0.021295048
-0.011924087 -0.0061782687 0.009025807 0.007324968 -0.01228862 0.010756038 0.0027447552 -0.009276039
0.0058242893 0.0042508184 -0.014879464 0.0075197783 -0.010033353 0.014642909 0.01999632 0.0063859
0.0018325846 -0.011648778 0.010632434 0.0013391741 -0.0021646002 -0.014647349 -0.003647432 -0.013936809
0.0064597884 0.014738975 0.005947455 -0.00912443 -0.0010278273 -0.0049376544 -0.003471554 0.0021200057

sigma_linear.bias f4 [2]
00000000: 0d53 703c 86f0 a33b
0.014668238 0.005003038

encoder.0.weight f4 [8, 3, 5, 5]
00000000: 3e5f 133d 2558 17bc 5278 8abd c65e 093d
00000010: bc43 0bbd ba5b a4bc 68fe 293d 73f7 803c
00000020: 4706 83bd 2b00 babc 4bcc 213c 8f29 ea3b
00000030: 417d d6bc 2d21 1b3c 11f2 533c 50b6 87bc
00000040: 436a 01bd 4c85 b9bc 403e 66bc 765a 2c3d
00000050: e7b8 8c3c b0f3 a23a 5e41 9fbc f33c 3e3b
00000060: e637 3ebd ae17 0abd 3d58 953d 4011 073c
00000070: 9578 d03c 2490 023d 677e 01bb 442c 053c
00000080: a307 4fbd a3e1 31bc ba29 e03a 5d69 01bc
00000090: ad1a 47bd d7a9 85bb d309 04ba e64d cfbd
000000a0: 4cd8 dc3b 2b7b 12bd eb3d a53b 546e 203d
000000b0: f593 c43b 07df 91bd 51ae a53c f814 11bc
000000c0: 5f0d d13c 7735 343c 5d49 d2bc e7e8 ae3c
000000d0: 44bc 5a3d 27a6 f6bc a1f1 ff3c b9be 3dbb
000000e0: ce71 37bd 1d38 70bc 57cd d63c 938f a2bb
000000f0: c0e2 16bd 4c96 1b3c 0289 a2bc a093 51bc
00000100: 29ef 663c 2bc1 273c 0b86 b6bc d5d3 f33c
00000110: a60f 163c 5b86 363c e63c 62bc d70a db3a
00000120: b589 143d 70bd 16bd 5225 eabc 95d9 dfbd
00000130: 9344 c7bd 6b70 ba3d 952c b2bb 1e26 febc
00000140: f100 c53c 5f1f 4f3c 08d3 84bc 7cbc 883c
00000150: fd0f e93b d6cb d93d 22f5 343c 2e94 1c3d
00000160: 6445 1cbb b04b 363c bae9 d73d ab25 2f3d
00000170: 3944 8f3c ea44 17bc 06d7 f93c d28c 9bbb
00000180: 2c34 b43c 5e4a abbc ca62 d03c acf0 4ebd
00000190: 6eba 163d 960b 893c 5b7f 27bd 7801 cebc
000001a0: 0da4 b7bd ba66 23bd dc87 c0bd b8ef 80bd
000001b0: 47c9 0ebd f34b 903d 0c53 14bd 5dfc 133d
000001c0: 83b6 babd c6ab 803d fc07 12bd f31d 8dba
000001d0: fc59 c1bc bfd2 91bd 4aa9 9fbd c67b a13b
000001e0: 07f8 12bd 6a9f 5cbd 1ef8 3fbd d593 83bc
000001f0: 83b8 79bc 8c9c 223d 5b68 62bc 7296 a7bc
00000200: a5e3 133c bed2 423d a324 ef3c e70a ef3c
00000210: b9eb 533a daff b33c 7d3f 243d 9f15 383d
00000220: 0153 ae3c ac5c 3f3c dc75 6aba e08d 5abc
00000230: 9358 883d f8be b0bb 9513 28bc a456 7f3c
00000240: e1c2 61bc 1d1e 6b3c a7fb 163d 1b20 33bd
00000250: e705 183c 4d74 403d d4e4 86bc c44b d63b
00000260: b09a 243d 729e e7bc e9cf bdbc 9fd0 ce3c
00000270: 667d f3bc 094d 183d d824 813d 37d8 7e3d
00000280: 3e50 5d3c fc71 193c e86c 1f3d ae61 80bc
00000290: 9722 15bc b213 453c bd60 55bc c648 d7bc
000002a0: fe20 8a3d 738b 663d 8f39 6d3d 0574 4c3d
000002b0: d05d 0abd 97dd 0cbc a908 65bd d509 adbc
000002c0: 9eaa a3ba 7d49 09bd d68f c1bd 28d2 b3bc
000002d0: 962f 60bd dc6f 8cbd 6a65 9bbc 2962 d3bc
000002e0: 86a2 d73c 3488 cfbc 4808 9abd ed6b b43c
000002f0: 8a19 52bc ed8c aeb9 8cef e03c 2bd4 763c
00000300: 45e5 fabc 45f7 9b3d a5cc 44bd 705f c0bd
00000310: c919 81bd bbf1 81bc 9c1b e5bd 60ce a1bc
00000320: 6915 12bd 7b62 9dbc 7676 aa3c f46f b33c
00000330: b0e5 473d c1e4 61bb f637 873d 065e 143c
00000340: 8bec ca3b 86d7 16bd 0a36 c33c 9232 bbbc
00000350: c39b b6ba 0578 2dbd 89fc 7cbc 9072 743d
00000360: 2e83 91bd eaf4 df3c 22aa dbbc 3367 523d
00000370: 7c7a 44bd e6b7 8d3c cd6d 3bbd 5722 3a3d
00000380: 26db 4ebc 2b1b a43c 7288 08bc f1ab 6c3d
00000390: 3494 7d3b 4d91 0f3c e8c5 753d 7ae5 61bd
000003a0: 8f93 803b 7657 c7bc b21f b2ba d095 9e3c
000003b0: a94a 1abd 7ab6 6d3d 21fb 6dbd 1d3c 18bd
000003c0: bd99 98bc 0098 9cbd eadd 453d bfe4 b6bd
000003d0: 8d32 aa38 126c fb3c 99c6 153c 18b5 2c3d
000003e0: 9f97 6ebc 898f ce3b 370c 95bc a52a f43c
000003f0: 6ab9 94bc 3780 c1bd b204 f53b 609f 303c
0.035979502 -0.009237324 -0.067612305 0.03353765 -0.034000143 -0.02006327 0.041502386 0.015742993
-0.06397682 -0.022705158 0.009875367 0.0071460675 -0.026182773 0.009468359 0.012936131 -0.016566426
-0.03159548 -0.022646569 -0.0140529275 0.042078458 0.017178012 0.0012432244 -0.01944035 0.0029028028
-0.046440028 -0.03371399 0.07292221 0.008243859 0.025448123 0.031875744 -0.001975918 0.0081282295
-0.050544392 -0.010857019 0.0017102279 -0.007898656 -0.048609424 -0.0040790844 -0.00050368643 -0.1012228
0.006739652 -0.035761993 0.0050427816 0.039167717 0.005999083 -0.07122617 0.020224722 -0.008855097
0.025519071 0.010999075 -0.025669748 0.02135129 0.0534022 -0.030108524 0.031243147 -0.002895279
-0.044786267 -0.014661816 0.02622096 -0.004960963 -0.03683734 0.009496283 -0.019840721 -0.012791544
0.014095106 0.010238926 -0.022280714 0.029764095 0.009159004 0.011140431 -0.013808465 0.0016711605
0.03626414 -0.036801755 -0.028582249 -0.10930172 -0.09729876 0.09103473 -0.0054374435 -0.031024035
0.0240483 0.012641757 -0.016213909 0.016691439 0.0071125017 0.10634582 0.011044772 0.038227253
-0.002384507 0.011126444 0.10542627 0.042760532 0.017488586 -0.009232739 0.030498039 -0.0047470117
0.021997534 -0.020909484 0.025437731 -0.05052249 0.036798887 0.016729157 -0.04089294 -0.025147185
-0.08966837 -0.03989289 -0.09400913 -0.06295723 -0.03485992 0.07045736 -0.036212012 0.036129344
-0.091168426 0.06282763 -0.035652146 -0.0010766372 -0.023602478 -0.07120275 -0.07795961 0.004928085
-0.03588107 -0.053862967 -0.046867482 -0.016061703 -0.015241745 0.039700076 -0.013818826 -0.02045748
0.009026443 0.04756426 0.029192274 0.029180003 0.00080841366 0.021972585 0.04009961 0.044942494
0.021279814 0.01167981 -0.0008943954 -0.01333949 0.06657519 -0.005393859 -0.010258575 0.015584622
-0.013779373 0.014350441 0.036861088 -0.04373179 0.009278751 0.046985913 -0.016466536 0.0065397937
0.040186584 -0.028273795 -0.023170428 0.025245963 -0.02972288 0.03718284 0.063058555 0.062217917
0.013507901 0.009365555 0.03892222 -0.015671577 -0.009102485 0.0120286215 -0.0130235525 -0.026279818
0.06744574 0.056285333 0.05791622 0.049915332 -0.033780873 -0.008597753 -0.055916462 -0.021122852
-0.0012486761 -0.03351735 -0.09451263 -0.021950796 -0.05473288 -0.06857273 -0.018969256 -0.025803642
0.026322614 -0.025333501 -0.07521111 0.02202412 -0.012823472 -0.00033292864 0.027457975 0.015065233
-0.030626902 0.07615522 -0.048046727 -0.09393203 -0.06303746 -0.015862336 -0.11186907 -0.019751728
-0.03566495 -0.019211998 0.02080844 0.02190397 0.04880303 -0.0034468623 0.066024706 0.00905562
0.006192749 -0.036826633 0.023829479 -0.022851262 -0.0013931919 -0.042350788 -0.015441068 0.059679568
-0.07105099 0.027338464 -0.026814524 0.05136795 -0.047968373 0.017299604 -0.04575901 0.045442905
-0.012625491 0.020032486 -0.008333312 0.057781164 0.0038693072 0.00876267 0.06000319 -0.055150487
0.0039238404 -0.024333697 -0.0013589768 0.019358546 -0.037668858 0.05803535 -0.058100823 -0.037166703
-0.018627996 -0.07646179 0.048307337 -0.089303486 8.1156475e-05 0.03069118 0.009141588 0.042164892
-0.0145625165 0.006303732 -0.018194301 0.02980549 -0.018154819 -0.09448283 0.0074773664 0.010780185

encoder.0.bias f4 [8]
00000000: 78ee 113c 2f5a f6bb 3e4b 1dbc 9413 38bc
00000010: d6c7 3a3a aa83 4e3b 35ac 2dbc d6d0 a83b
0.008906953 -0.007518075 -0.009600459 -0.011235137 0.0007125115 0.0031511583 -0.010600139 0.0051518483

encoder.3.weight f4 [16, 8, 5, 5]
00000000: 7b4c 853b 239e 1d3c b648 5cbc 2aa7 8e3d
00000010: 0539 143d 9ab5 a03c 3cdb cfbc 33b9 d23c
00000020: eb0e 133d fb69 813c b13c 903c 6894 ddbc
00000030: 92c4 92bc 314e 99bc d72e ed3c 9f29 00ba
00000040: 35c2 843d 3d1a f73b e2bb 8c3d 3b50 193d
00000050: c2a5 fabc 679b 74bc 12c3 9a3d fb2a 0fbc
00000060: 0495 cb3c a4c7 883c bdb1 6bbb 6fe2 0fbc
00000070: cb7b a0bc 2855 3ebd b583 6f3c 3c44 0b3d
00000080: 26dc 5c3d f6b1 3bbb d57e b13b d680 10bc
00000090: 452a da3b 68bf 8cbc a5b8 213a 98e0 e4bb
000000a0: 342f 703d f084 e93c 9440 a6bb 2e3f 26bd
000000b0: 7af8 bc3b 5b4f 8bbb 252b 30bc 79da f83c
000000c0: 3f18 bcbc f6b5 07bd a54f e93b 23b7 0cbd
000000d0: 1af2 02bd e283 be3b 747a 003c b3a4 e1bc
000000e0: 79bc 2ebd ab4b 1f3a d4a0 643a b317 2cbc
000000f0: fbc7 43bd 60b6 2d3d 2d7b cabc 2b68 6dbc
00000100: 7704 46bd 967e 0ebd b9b8 1bbd 5e64 c33c
00000110: 489d 2bbd ced2 163d 7bc4 103c 4efd f83b
00000120: 62d4 273d f358 0f3c a0a3 603c 8cfa 97bc
00000130: 773b e8b9 f299 48b9 c092 8eba 6921 3bbd
00000140: 2571 e6bb cde6 9b3c 5e5a c3bc d021 02bd
00000150: 82a2 c83b 7898 013d c976 643b 414e 0d3c
00000160: 9be0 aabc f126 c8bc 60fd 51bc 57f7 823b
00000170: 2aaf acbc eb6c 06bd 7a91 7ebd 4b3b 9bba
00000180: 7c1b 86bc 4fa0 b4bc 668e 343b 435c 983b
00000190: d877 1fbd aeb3 89bb 44eb 703d 5b31 b8bb
000001a0: 7015 25bd e92e 60bd a4b1 143d 893c d0b9
000001b0: 6565 a03a 0b52 57bd 2955 123c cd40 15bd
000001c0: 5722 b83c 6ebf bcbc 12f1 353c b0a2 75bb
000001d0: c68b b4bc 92af 213d a4ee f8bc d3ae 893d
000001e0: 5562 263d 25c4 99bc 10e9 99bd 5372 d83b
000001f0: f2c0 98bc bbce ddbc 83cc 05bc 7f41 8c3c
00000200: 5946 d73c 9969 be3c b7c1 923b 49d1 9d3a
00000210: cc03 243c 27cb debc 561c 6f3d 7ecb 81bc
00000220: 47d8 6a3c 7f00 89bc 3648 09bd a1c1 613c
00000230: 20c7 253b 33e3 3f3c d267 85bd 20b9 8fbd
00000240: 0d04 c6bc 2bb3 66bc f1bb 5f3c c942 1abd
00000250: 3f41 4e3d 6409 1abd 181c 213d 915d dbbc
00000260: b2cb 453d 9f00 9f3c 5530 6ebd 4fac 0e3b
00000270: 952e 3a3c d83c d03c 64ba a23c bd6a 633c
00000280: b005 d8bc 2efd babb a31c 84bd e381 19bd
00000290: fa4a 433c 39f7 5d3c 7349 e1bc 5bf2 2f3d
000002a0: 07ac 813c 4ec1 c53b c4eb 313d 576e dd3c
000002b0: 613f 8f3c 37a3 29bb 940b 29bc 563d 32bd
000002c0: ab21 20bc aefd 07bd e220 5f3c 7a47 89bc
000002d0: 6f0a ae39 38a6 83bc 930d 1e3d eb49 0e39
000002e0: fd6e 30bb 9c96 0ebc dc20 823c 3cb7 20bd
000002f0: 5193 85bc cfc0 c5bc bcb1 acbc e786 e03c
00000300: 1b25 d53c d6e2 9fbb eaa0 953c c5f6 4f3c
00000310: 3954 75bc 2cdc 353d f9f9 8abc 7025 193d
00000320: 3276 03bd c45b 28bd b7c7 12bd bc2d 913c
00000330: 1011 1ebd c07e 4a3d 4716 0dbd aba0 66bc
00000340: 1a24 02bc d3d4 3e3c 1039 c43c c213 31bc
00000350: 1c00 1abd 03ff 9ebc 3a00 18bd bd31 c23b
00000360: 70fd 973b 3386 19bd 7a81 a039 008a 75bc
00000370: 2192 d23c 5233 f03b 84fb 25bd 8fc4 e4bb
00000380: 4105 01bc 9ef4 493c 9d8f e53c 48ba ed3c
00000390: 4e77 6f3c 95d7 1d3d af50 fdbc 3f7c d93b
000003a0: fac7 c6bc b735 75bc ce1d 55bd 6da6 d23c
000003b0: 4cc5 9d3c 332e 0c3d 6c29 80bc c355 2fba
000003c0: 51f3 f4bc a4e7 ca3c 2b8e f7bc b5b3 2bbc
000003d0: e8d8 87bc 0a6d d63c b773 9f3c 57ee b73c
000003e0: c6e9 e1bc d665 19bd 6555 9e3b 1951 6d3c
000003f0: 1b34 9a3b 8e10 0f3d 2e25 9e3c e7cd dc3c
0.004067955 0.009620222 -0.01344507 0.06965478 0.03618719 0.019617844 -0.025373094 0.025723075
0.0359029 0.015797606 0.017607065 -0.027048305 -0.017915998 -0.018714042 0.028952999 -0.00048890145
0.064823546 0.0075409696 0.06871773 0.03743003 -0.030596618 -0.014929629 0.07556738 -0.008738275
0.02485133 0.016696759 -0.0035964095 -0.008782013 -0.01959028 -0.04646793 0.014618804 0.03400062
0.053920887 -0.0028640009 0.005416731 -0.008819779 0.006657871 -0.017181113 0.0006169177 -0.0069847815
0.058638766 0.028505772 -0.0050736163 -0.040587597 0.0057669254 -0.0042514033 -0.010752474 0.030377613
-0.02296078 -0.033132516 0.00712009 -0.03435434 -0.031969167 0.0058140615 0.007841695 -0.027544355
-0.04266021 0.0006076644 0.0008721475 -0.010503697 -0.047798138 0.042410254 -0.024716938 -0.014490168
-0.0483441 -0.03478869 -0.038017962 0.02385157 -0.041898042 0.036822133 0.008835907 0.0075985556
0.04097403 0.0087492345 0.013710886 -0.018552087 -0.00044294793 -0.00019130835 -0.0010877475 -0.04568616
-0.007032531 0.019030953 -0.023846801 -0.031770527 0.006122888 0.031639546 0.003486084 0.008624614
-0.020859053 -0.024432631 -0.012816757 0.0039967704 -0.021079618 -0.032818716 -0.062150456 -0.0011843232
-0.016370527 -0.022049097 0.0027550696 0.0046496703 -0.03893265 -0.0042023277 0.058818117 -0.005621118
-0.040303648 -0.054732237 0.036302224 -0.00039717954 0.0012237249 -0.052568477 0.008931437 -0.036438752
0.022477312 -0.0230405 0.011104839 -0.0037481003 -0.022039305 0.039474078 -0.03038723 0.06722798
0.04062112 -0.018770287 -0.07515156 0.0066054254 -0.018646691 -0.027076116 -0.008166435 0.017121075
0.026278662 0.023243712 0.004478659 0.0012040521 0.010010671 -0.02719648 0.058376633 -0.015844103
0.014333791 -0.01672387 -0.03351613 0.013779075 0.002529569 0.011711883 -0.06513943 -0.07017732
-0.024171853 -0.014080803 0.013655649 -0.037661348 0.050355192 -0.03760661 0.039333433 -0.026778014
0.048289962 0.019409476 -0.05815156 0.0021770184 0.011363645 0.025419638 0.019864269 0.013880429
-0.0263699 -0.005706451 -0.064507745 -0.037477385 0.011919731 0.013547712 -0.027500844 0.042955738
0.0158291 0.0060350066 0.043437734 0.027030153 0.017486276 -0.0025884637 -0.010317702 -0.043515526
-0.009773652 -0.033200912 0.01361868 -0.016757715 0.0003319564 -0.01607047 0.038587164 0.00013569712
-0.0026921623 -0.0087029 0.01588481 -0.039237246 -0.016305597 -0.02413979 -0.021080844 0.027408076
0.02601867 -0.004879336 0.018265206 0.012693112 -0.0149736935 0.044399425 -0.0169649 0.03738922
-0.03209514 -0.04110314 -0.035834994 0.017722003 -0.03859049 0.049437284 -0.034445073 -0.014076392
-0.007943178 0.011647421 0.02395299 -0.010807933 -0.03759776 -0.019408708 -0.03710959 0.0059263394
0.0046383664 -0.037481498 0.00030614046 -0.014986515 0.025704445 0.0073303366 -0.040523067 -0.0069814394
-0.007874788 0.012326388 0.028022582 0.02901949 0.014615847 0.038535673 -0.030922262 0.0066371257
-0.024265278 -0.01496642 -0.052030377 0.025714124 0.019259118 0.034223747 -0.015644751 -0.00066884997
-0.029901179 0.024768658 -0.030219158 -0.010479857 -0.016582921 0.02617504 0.019464357 0.022452516
-0.027577292 -0.037450634 0.004831957 0.014484667 0.0047059185 0.034927897 0.019304838 0.02695365

encoder.3.bias f4 [16]
00000000: d794 fe3a f549 a9ba cdda 37bb 2a24 0ebb
00000010: 6e73 8dbc 1dd1 03bc c99d a6bb 7807 7ebc
00000020: dc34 82bc 0be3 54bc 21f9 3abc edb2 efbb
00000030: 7671 043a 5021 33bc 3541 a0bb a894 5abc
0.001942302 -0.0012915718 -0.0028054 -0.0021689036 -0.017266955 -0.008045462 -0.0050847274 -0.01550471
-0.015894346 -0.012993584 -0.011411936 -0.007315031 0.00050523074 -0.010933235 -0.004890586 -0.0133411065

encoder.6.weight f4 [32, 16, 5, 5]
00000000: b1c1 16bc 165d 58bb 6f24 0e3c 7a89 6bbb
00000010: 80dd f9bb e37d 29bc b90f b4bb 7777 62bb
00000020: 9b39 ad3c 590b e9bb 0e09 ffbc 2bb2 1d3d
00000030: 5b15 c0bc 73a8 d7bb 750e 1d3d 46b0 8ebb
00000040: f187 7a3c c222 b03c 8fa6 a4bc dca8 673c
00000050: d0bb a7ba 22c8 fa3b 2574 ddbc 6902 bcbc
00000060: 6823 91bc 8905 593c c18f be3b f3da 8b3b
00000070: b240 72bc 4153 23bc 88d4 93bb 7e20 38bd
00000080: 5f2c 403a 6a7e b1bb 944a ebbc 865c 243c
00000090: c711 a63c cb27 093d e5ef 65bb a557 9a3c
000000a0: 28a7 8d3b c702 4e3d 7dd2 8dbc 92eb 003a
000000b0: ac4e b03c 75fb e43a 28ec c5bb fb04 2c3c
000000c0: 8e33 28bb e0da 8cbc 8141 b53c 48b7 b0bc
000000d0: 83fe 3c3c 5c58 863b 35b1 7fbc 6e4a 7cbc
000000e0: d905 d7bb 23f1 dabc 9f5a 15bd dc23 cebb
000000f0: 02c7 17bd 13f0 08bd 6b53 f3bb 0a69 9bbc
00000100: 112d 973c 046d 563c cfcd 263b 3569 07bc
00000110: ec9d 993c a201 213c 3ee7 1e3b 56d0 3a3c
00000120: 4ef4 c13c 829a 2ebc 8267 e6bb 8d7a 4b3d
00000130: 6567 59bc 04aa 663d 1663 393c 4f05 cd3c
00000140: 53ab b03c 100d ecbc 5480 963c 91e8 323d
00000150: bbc6 463c 31cc c6bc 5e88 513c da41 a6ba
00000160: 5818 9fbc 84af e3bb 2284 debc 6c37 2c3c
00000170: 491c b1bc dd0a 0f3d ca76 d2bc 2ff4 223c
00000180: 6a3e 3dbc 7cba ba3a 343f c5bc b452 d6bc
00000190: 3ec4 4cbc 5ed4 fa3b 7769 e6bb d22d c6bc
000001a0: 5ae6 543d b164 1c39 59ff 32bc dfa8 493c
000001b0: 567e 99bc 5fe8 d2ba 69db ed3a 628b 393c
000001c0: 6c45 9cbc c20e e9bc 8043 23bd 7412 c4bc
000001d0: bb61 5b3d 2a03 80bc f7ca d5bc d886 cebc
000001e0: 1035 4c3d dfc0 bebc 3ae5 ef3b dd95 c5bb
000001f0: a8fb e1bc ddf8 d13b f5e9 b5bc 1990 623c
00000200: 3a87 6bbc b139 193d 9169 49bc 1396 b33c
00000210: ef7b febb d946 0ebd fecf 94bc f541 fdba
00000220: 731e 9ebc 8011 1b3c f02c de3c df5a 6b3c
00000230: 8e44 97bc e3ba 013d ad3b 19bc 9608 c2bc
00000240: 2bb4 45bd e26a dd3c 7edd c43b 35a8 033d
00000250: a51d 9a3c b7ff 553c 40af b73c 640d 203d
00000260: efe0 7a3c ab2b 0ebc c128 9d3c e0a5 ebbc
00000270: d7ac b9bc c4c9 9b3b f791 b83b eff5 1bbd
00000280: 5add 1bbd 8643 cf3b 6fe2 eebc 99f2 f9bc
00000290: 854b 2f3d 7777 c93b e9bc ca3c 787a 4f3c
000002a0: 941b e2bc 959d 23bd d179 a13b e385 cdbc
000002b0: 0a4b 643c 9ccf 9dbc 6a39 2ebc 5bc9 b739
000002c0: 0ad6 bbbc da46 b23b 4117 183c 9e90 98bc
000002d0: 6fe6 a43c 95b0 a33a 7e15 463c 87c5 8e3c
000002e0: 7320 21bc 0847 b8bc e475 71bc 7cce 0fbd
000002f0: 467e 07bd c8f2 bcbc dab5 573d 5378 47bd
00000300: 9a40 a0bc 29eb 513c 4d01 fdbc e895 96bc
00000310: 44ea 8839 b451 11bd cadc 9cbb 9faf 9c3c
00000320: 139e edba 3052 973c 5967 89bb adaa 373c
00000330: 11e5 203d 6277 6dbd 9bc9 c6bc 1e48 faba
00000340: 5610 babb 7b92 6e3c 8842 923b 8e50 7e3c
00000350: 8968 293d 5c11 75bd f7de 083b a5e3 b3ba
00000360: 7f6d 80bc d6bc 0bbc 7bdf 383d 6ac1 76bc
00000370: 2bf7 1dbc 5c3f a83c bc22 da3b 2e74 143d
00000380: d2ed 3abd 4fd7 463d 5949 9c3b 8341 8dbc
00000390: ea77 fabc c8fb fc3c 52a8 28bc 6423 97bc
000003a0: 6aec 8ebc 8e21 1fbc ff1e fa3a b8e8 50bc
000003b0: 8737 053c 0678 2c3c ed91 1abb 7248 b3bc
000003c0: 9a37 51bc 6393 b3bc f5a4 033d 08bf f73c
000003d0: 0b28 75bb 248d 693c 312b fc3c a04d 843c
000003e0: 0e13 72bc 5aa5 c0bb 87d2 89bc 99f3 833a
000003f0: 74cd daba c459 fab9 cd1b b4bc ce9c 2e3c
-0.009201453 -0.0033014468 0.008675679 -0.0035940097 -0.007625282 -0.010344955 -0.0054950383 -0.003455607
0.021145632 -0.0071119484 -0.031132247 0.038499992 -0.023447683 -0.00658136 0.038343865 -0.0043545095
0.0152912 0.021500949 -0.020098953 0.01413938 -0.0012797061 0.007653252 -0.027032921 -0.022950368
-0.017717078 0.013245949 0.0058154766 0.004268044 -0.014785932 -0.00996858 -0.0045114197 -0.044952862
0.00073308306 -0.005416681 -0.028722085 0.010031825 0.020272149 0.033485215 -0.0035085615 0.01884062
0.004322905 0.050295617 -0.017312283 0.0004917915 0.021521889 0.001746996 -0.006040115 0.010499234
-0.0025665495 -0.017194211 0.022125961 -0.02157177 0.01153529 0.0040998887 -0.015606214 -0.015398605
-0.0065619764 -0.026726311 -0.036463376 -0.006290896 -0.037055023 -0.033432078 -0.0074257157 -0.018970985
0.018454107 0.013087515 0.0025452261 -0.008264829 0.01875206 0.009827049 0.0024246718 0.01140221
0.023676064 -0.010656955 -0.007031382 0.04967742 -0.01326928 0.056314483 0.011315128 0.025026945
0.021566069 -0.028814822 0.018371738 0.043678824 0.012132342 -0.024267288 0.01278886 -0.001268442
-0.019420788 -0.0069484133 -0.027162615 0.0105112605 -0.021619933 0.03492247 -0.025691409 0.009945913
-0.011550525 0.001424625 -0.02407799 -0.026162483 -0.01249796 0.0076547107 -0.0070316154 -0.02419177
0.051977493 0.0001491483 -0.010925137 0.012308328 -0.018737 -0.001609098 0.0018147054 0.011324735
-0.019076072 -0.02844942 -0.039859295 -0.02393458 0.05356 -0.015626509 -0.026097758 -0.025210783
0.04985529 -0.023285327 0.007321027 -0.006029828 -0.02758582 0.0064078406 -0.022206286 0.013828301
-0.014375502 0.037408534 -0.012293235 0.021922147 -0.007766239 -0.034735534 -0.018165585 -0.0019322025
-0.019301629 0.009464622 0.027121037 0.014364927 -0.018465307 0.03167237 -0.009352607 -0.023685735
-0.048267525 0.027028505 0.0060078492 0.032142837 0.018812964 0.013061455 0.022422433 0.03907527
0.015312417 -0.008677403 0.019184472 -0.028765619 -0.022665424 0.004754277 0.0056326347 -0.038076337
-0.038052894 0.006325188 -0.029160706 -0.030511187 0.04279663 0.0061482745 0.024748283 0.012663476
-0.02760104 -0.039945204 0.0049278517 -0.025088256 0.013933906 -0.019264035 -0.010633806 0.00035054501
-0.02292921 0.005440575 0.009282888 -0.018623646 0.02012941 0.0012488539 0.012090085 0.017428173
-0.009834397 -0.022494808 -0.01473758 -0.03510903 -0.033079408 -0.023064986 0.05266366 -0.048698734
-0.019562054 0.012812414 -0.03088441 -0.018382028 0.00026114483 -0.03547831 -0.0047870623 0.019126711
-0.0018128775 0.018471807 -0.004193228 0.011210126 0.039280955 -0.05797518 -0.024266055 -0.0019094979
-0.005678217 0.014561291 0.0044634975 0.015522135 0.041359458 -0.05983101 0.002088485 -0.001372446
-0.015677212 -0.008528909 0.045135003 -0.015060762 -0.009641449 0.020538025 0.0066569727 0.03624361
-0.04563696 0.048545178 0.004769486 -0.017243152 -0.030574758 0.030881777 -0.010294037 -0.018449493
-0.017446715 -0.00971259 0.0019082724 -0.012750797 0.0081309145 0.010526663 -0.0023585514 -0.02188513
-0.012769604 -0.021920865 0.032139737 0.030242458 -0.00374079 0.014254842 0.030782314 0.016150296
-0.014775051 -0.0058790864 -0.01682402 0.0010067105 -0.001669331 -0.00047750596 -0.021985913 0.010657502

encoder.6.bias f4 [32]
00000000: 4e87 01bc 8f8f a8ba 0f93 e4bb 114a 6c3b
00000010: 4ce4 01bc f4aa dbbb 4a00 32bb 65ff 03bb
00000020: 0ae8 b43b 699a f6bb c109 09bc 58bc b0bb
00000030: 4a7d 3f38 3c63 aa3a d1d2 33bb 18ca b5bb
00000040: 615c 233b 6db5 13bc 48f2 57bc de2d 0bba
00000050: d57c 373b 0882 2bba 1c5e 08bc 4494 c6bb
00000060: e6f6 04bc 766c f2bb 1689 24bb b45e 5ebb
00000070: 17d3 9abb 1b1f 473a 503a 183a d58c d0bb
-0.007905794 -0.0012860167 -0.0069755386 0.003605489 -0.007927965 -0.006703729 -0.0027160817 -0.002014124
0.0055208253 -0.0075257313 -0.008364142 -0.005393546 4.5654633e-05 0.0012999545 -0.0027438889 -0.005547773
0.0024926888 -0.009015423 -0.013180323 -0.0005309264 0.002799799 -0.00065425085 -0.008323219 -0.006060155
-0.008115506 -0.0073981835 -0.0025106124 -0.003393096 -0.004724871 0.00075958826 0.0005807029 -0.0063644447

encoder.9.weight f4 [64, 32, 5, 5]
00000000: 9f9b ad3c 740b 103c 8c8a 06bc 0567 4dbc
00000010: 187d fd3b d630 46bb 653f 3d3c aa88 35bc
00000020: 0656 943c 2183 41bc 1ce3 743c 2922 593b
00000030: 14d8 36bc c240 083b 4d51 0fbc 9837 93bc
00000040: 16a0 8b3c 6f11 383c a45d 76bc 8c8f e43b
00000050: 3dee a9bc 0508 a4bc c205 223c d57f 973b
00000060: 1ec3 e1bb 0532 4a3b 933a d8bb a10e 89bc
00000070: e745 393c 7591 c73b 49d5 003b b1cd d3bc
00000080: 15ae c3bc b4b3 fdbc 54d9 22ba ef42 77ba
00000090: 1dc3 173c d921 94bc 581f 45bc 7faa c53c
000000a0: 6804 ce3c 49c1 323b 07ca 1e3b 8272 3e3b
000000b0: 013b 163b bb8e e3bc 33ab 5e3c b33d 82bc
000000c0: 443c 81bc 7b57 403a ddb1 96bc a6d7 c63c
000000d0: 688a 2f39 43ee ffbc d10e 003c 05b9 1a3c
000000e0: dc18 9abc f45c 47bc 5d1e 02bc 538a dbbc
000000f0: 7c1d aabc 3d34 363c a9a6 943c 20fa 113c
00000100: 53a6 243d 0c56 d1ba 37e2 323d c73f e23c
00000110: c458 173d c878 823b 854d 503c ed58 8f3b
00000120: 5901 833c a041 da3b 74ac fc3b 1edf 093c
00000130: ff2c af3c 9f4f 803a 2543 ee3b d691 47bc
00000140: 7c44 27bc 5152 44bc 4247 933c a2c9 35bc
00000150: 1241 f9bc 097e 57bc 4707 51bb f1f0 46bb
00000160: ca6c 89bb eac2 d3bb 4cb8 3ebc 48cf 06bd
00000170: 29c8 06ba bdda 013d f19b 73bc 56b8 273d
00000180: bc03 9c3c 7931 97bb f6a3 aa3b 429f 5c3b
00000190: 7e9f c63b f93e dabc cbd9 c3bc ed47 3abb
000001a0: 2b59 9e3c a506 223b fd20 d2b9 ee75 b53c
000001b0: 9f9c d8bb cc22 e83c f767 d1bb d323 9ebc
000001c0: 5eac 86bc 9515 313c ca02 c1bc da4d 3dbc
000001d0: 3448 96bc a25a aabb 54f5 f03b d1cb 7c3c
000001e0: 8bf9 343b 0ae2 0cbc beec 693c 79e8 af3c
000001f0: 9cab 07bc c88f 193c 052f 57bb da19 a33b
00000200: 9fcf 4b3c d221 c6bc 587f babb 7a8b 6f3c
00000210: e0b6 18bc 6dbd 1a3b 87d9 493b 54a7 17bd
00000220: 6662 fe3c b858 593d e3d6 90bc 4a73 c2bb
00000230: ad96 e43b adc9 873c 1c19 4d3c baaa 75bb
00000240: e780 493c 9d60 1f3a 54f6 03bc 734b 04ba
00000250: 2f5d 0d3d fb2a 8ebc 4539 40bc cd78 4a3c
00000260: 3848 b4bc fb30 983a 48a3 a5bc ab2c adbb
00000270: 81af d63b 1430 c6bc 1cdc 71bb 5263 9bbb
00000280: c26f 83bb 42ce 823c 584d a13c 1c03 3b3c
00000290: 31fa c0bc 9462 553c 1f0d d5bc 0899 abbb
000002a0: fdc6 133c d097 913b 81b8 b33c 54a2 c5bb
000002b0: f725 613b b3e4 3b3c 2812 dfbb abc8 863b
000002c0: 4f07 bbbb f374 f139 406b 7c3c 7559 92bc
000002d0: bc64 383b eb88 9cbc 0a6f d8bb ee43 7dbc
000002e0: 9375 19bb 7b57 b23c c382 eabc 29ae ffbb
000002f0: 4b4f 473a 3adb 20bc 3b92 403c 605c e4bc
00000300: c268 45bc fcb6 4e3b e15a ea3b 855a 4e3b
00000310: b817 28bb 0c47 923a 4901 abbc 64b6 043c
00000320: 0707 313c b0cc c23c ceee 473c 9268 df3c
00000330: 91d3 d2ba a01d dbbb 9f86 7c3c 4b0f be3c
00000340: 1638 d03b 800a a23c 2747 4e3c f2a4 70b9
00000350: 14c8 3bbc 7ff1 54bc 8989 073d aabf 0a3c
00000360: 095a e53c 9415 2e3b b4ba 013c da2e dfbc
00000370: 1f35 acbb 49b4 933c ce16 823c ae1c 40bc
00000380: 45ec 88bd fdab ea3c 2666 4a3b 96bd 58bc
00000390: 3d25 58bb 4c59 143d da32 fa3b add5 11bc
000003a0: 33f7 093c 21ce 423c a4ee d8bb 2942 bfba
000003b0: 10e2 e1bb 716a e9bc 56eb 92bc 4f84 79bc
000003c0: 2a11 9e3a 9584 2bbc 10f3 72bb 8f9a abbc
000003d0: 3679 773a d5d0 a1bb 9736 2c3c 8c13 fc3b
000003e0: 7fba eebc b3ea a7ba 0ea2 9c3b 5810 3d3c
000003f0: 7e9b e4bb fbc9 babc 11f5 bc3b e044 bf3b
0.02119237 0.008791793 -0.008211743 -0.012536769 0.0077358596 -0.003024151 0.011550759 -0.0110799465
0.018107425 -0.011811049 0.014946725 0.0033131933 -0.0111599155 0.0020790552 -0.008747411 -0.017970845
0.017044108 0.011234625 -0.015036974 0.00697512 -0.020743484 -0.020023355 0.009889068 0.004623393
-0.006889715 0.0030852568 -0.0065987795 -0.016730608 0.01130817 0.006090338 0.0019658378 -0.025854917
-0.02388672 -0.030969478 -0.0006212194 -0.0009432276 0.009262827 -0.018082546 -0.012031399 0.02412915
0.025148585 0.0027275851 0.0024229304 0.0029059951 0.0022923353 -0.02777802 0.013590622 -0.015898561
-0.015775807 0.00073372544 -0.018395359 0.024272751 0.00016740861 -0.031241542 0.0078160325 0.009443526
-0.018810682 -0.012168158 -0.0079418095 -0.026799357 -0.020766012 0.011120853 0.018145876 0.008909732
0.04019768 -0.0015971079 0.043672767 0.027618302 0.036949888 0.0039816834 0.012713795 0.0043746145
0.015991854 0.006660655 0.0077109877 0.008415012 0.02138376 0.0009789354 0.007271188 -0.012180766
-0.010209199 -0.011982516 0.017978314 -0.011095436 -0.030426536 -0.013152608 -0.0031895207 -0.0030356015
-0.004193877 -0.0064624446 -0.0116406195 -0.032912523 -0.00051415205 0.031702746 -0.014868722 0.04094728
0.01904475 -0.004614052 0.005207534 0.003366426 0.0060614934 -0.026641356 -0.023907563 -0.0028424219
0.019329628 0.0024723199 -0.000400789 0.02215096 -0.0066104676 0.028336905 -0.0063905674 -0.019304192
-0.016439613 0.010808368 -0.0235609 -0.011554206 -0.018344976 -0.0051987926 0.007353464 0.015429453
0.002761456 -0.008598814 0.014277635 0.021473156 -0.008280661 0.009372659 -0.0032834422 0.004977447
0.012439637 -0.024186049 -0.00569145 0.014620656 -0.009320945 0.0023611442 0.0030799822 -0.03702481
0.03105278 0.053063124 -0.017680591 -0.0059341537 0.0069759698 0.016575659 0.012518194 -0.0037485794
0.012298799 0.0006079765 -0.008054335 -0.0005046643 0.034512695 -0.017354479 -0.011732404 0.012357903
-0.022007093 0.0011611277 -0.02021946 -0.005284866 0.0065516834 -0.024192847 -0.0036904877 -0.0047420645
-0.0040111253 0.015967492 0.0196902 0.011414316 -0.0235568 0.013023991 -0.026007233 -0.0052367486
0.0090196105 0.0044431463 0.021938564 -0.006031314 0.0034354904 0.0114681 -0.0068075843 0.004113277
-0.0057076584 0.00046054236 0.01540643 -0.017864922 0.0028136214 -0.019108256 -0.0066050338 -0.01545809
-0.0023416027 0.02177023 -0.028626805 -0.007802744 0.0007603063 -0.009817893 0.011753614 -0.02787608
-0.012048902 0.0031542173 0.007151947 0.003148706 -0.0025648903 0.001116009 -0.020874636 0.008100126
0.010804898 0.023779243 0.012202932 0.027271543 -0.001608478 -0.006686881 0.015412956 0.023200652
0.006354342 0.019780397 0.012590206 -0.0002294963 -0.011461277 -0.01299703 0.033090148 0.008468548
0.027997034 0.0026563155 0.007918049 -0.02724402 -0.005255356 0.018030303 0.015880015 -0.011725588
-0.0668569 0.028646464 0.003088364 -0.013228795 -0.003298118 0.036217973 0.0076354565 -0.008901042
0.008420753 0.011889965 -0.006620245 -0.0014591861 -0.006893404 -0.028493138 -0.017934483 -0.015229299
0.0012059559 -0.010468622 -0.0037071146 -0.020947723 0.0009440364 -0.004938225 0.010511062 0.00769276
-0.029141663 -0.0012811035 0.0047800606 0.011539541 -0.006976544 -0.02280139 0.005766519 0.005837068

encoder.9.bias f4 [64]
00000000: 9f7a a8bc 6343 56bc 1b80 ef3b 0d2e f0ba
00000010: 6bf5 6738 68c2 e0bb 4df9 d4bb 145d bfbb
00000020: 9e71 fb3b 6032 38bb b9d1 413b 6c70 0aba
00000030: 0a54 31bc f97f 6d3c 04a4 b23b 0590 4e3b
00000040: 7f47 83b8 5745 38bc ff36 803c d0fa f2bb
00000050: ca2b d5bb 10de db3a 35d4 a5bc ac8c c1bc
00000060: 4609 5f3b 31f7 2fbb 8a65 3fbc 1e4a da3b
00000070: b8ab b53c c556 59bc a2e6 b5bb 6eae 21bc
00000080: 673e 3fbc 83d9 293c e365 71bc a87c 0f3c
00000090: 7dd0 133c e2c5 c5bb 833d 92bc 7d9e 913c
000000a0: 4255 8ebc 2fc8 58bb 6846 b63b 3753 b1bb
000000b0: ead1 64bb 492c 6e3b 8a61 3bbb c667 6cbb
000000c0: e56f c238 2fc5 003c b327 09bc de4e b53b
000000d0: 4016 66bb 7ab8 1bbc a8c1 07bc 28d8 95bb
000000e0: 0a1e 4d3a 8d12 f3bb ee64 daba f9e6 c7bb
000000f0: 70dc 8dba d2b2 4e3c 9f0b aeba 8b88 3f3c
-0.020566283 -0.01307759 0.0073089725 -0.0018324271 5.5303255e-05 -0.0068591125 -0.0064994455 -0.005839953
0.0076734563 -0.0028106198 0.0029574467 -0.00052810344 -0.010823259 0.014495843 0.005451681 0.0031518948
-6.259884e-05 -0.011247001 0.015651224 -0.007415153 -0.006505464 0.0016774554 -0.02024279 -0.023626648
0.0034032627 -0.0026850218 -0.011681924 0.0066616675 0.022176608 -0.013265316 -0.005551175 -0.009868247
-0.011672593 0.0103668 -0.014733764 0.008757748 0.009021875 -0.0060355524 -0.017851597 0.017775768
-0.017374638 -0.0033078303 0.0055625923 -0.0054115313 -0.0034915158 0.0036342314 -0.0028592073 -0.0036072596
9.271483e-05 0.007859512 -0.008371281 0.0055330833 -0.0035108477 -0.009504432 -0.008285917 -0.004572887
0.00078246056 -0.007417983 -0.001666216 -0.006100532 -0.0010823142 0.012615876 -0.001327861 0.011690269

encoder.10.weight f4 [64]
00000000: add5 7a3f fea1 7b3f 95dc 7e3f fac7 7c3f
00000010: f4ec 7c3f 20b3 7d3f ac55 7a3f 1896 793f
00000020: 38fa 7b3f 0bae 7d3f fc3f 773f 9ee8 7b3f
00000030: 404b 803f 048e 7f3f 861c 7d3f 4503 803f
00000040: f9ed 7c3f 0a1d 7e3f 6474 783f b3e3 773f
00000050: 1f0e 7b3f c6c3 7a3f a0e4 7c3f eed3 793f
00000060: f9b3 7b3f 74a4 7b3f 0547 783f 8a89 7d3f
00000070: 8bbd 7f3f ba59 7e3f f50c 7b3f 8a44 7b3f
00000080: 14da 7c3f 9e87 7d3f ab4b 7c3f 40b6 7a3f
00000090: 1c86 7a3f 12a6 7f3f c8b9 773f 21ac 7b3f
000000a0: 5900 7b3f 82d6 793f 237a 803f 9be2 7c3f
000000b0: 818a 7e3f 89d8 7f3f 77ff 7d3f 1549 7b3f
000000c0: 58be 7f3f 9316 7f3f 544a 7a3f c57b 793f
000000d0: c28b 763f 0c8f 7b3f 76b9 7d3f 24c9 763f
000000e0: 5c28 7b3f f271 7c3f bfd2 7e3f 1ed3 793f
000000f0: 1ff9 793f b09e 7e3f 5c16 7d3f 3d28 7c3f
0.97982293 0.98294055 0.9955533 0.9874264 0.9879906 0.9910145 0.97786975 0.9749465
0.9842868 0.99093693 0.9658201 0.9840182 1.0022964 0.99826074 0.9887165 1.0000998
0.9880062 0.9926306 0.970526 0.96831816 0.9806842 0.97954977 0.98786354 0.97589004
0.9832149 0.9829781 0.9698337 0.9903799 0.99898595 0.9935566 0.98066646 0.9815146
0.9877026 0.9903506 0.9855296 0.9793434 0.97860885 0.9986278 0.96767855 0.9830952
0.98047405 0.9759294 1.0037273 0.9878327 0.9943009 0.9993978 0.99217933 0.9815839
0.99899817 0.9964382 0.97769666 0.9745448 0.96307003 0.9826515 0.99111116 0.96400666
0.9810846 0.98611367 0.99540323 0.97587764 0.97645754 0.9946089 0.9886224 0.984989

encoder.10.bias f4 [64]
00000000: c311 d9bc a91c 2cbc 5a1d 333b ac88 87bb
00000010: 829b 17bc 2e93 45bc e4f7 4fbc b45c e9bc
00000020: 9038 ceba 6ed6 c2bb 5703 adbc ff4f 05bc
00000030: edd2 933b d519 263c 424d fdbb a77b 2cbc
00000040: 6df2 2bba d5d3 e73a c03a b4bc 02cc c3bc
00000050: 01f1 61bc d01d f2bc 89b4 54bc 322a 96bb
00000060: 7ef5 debb 0005 68bc 34a7 38bc eff6 063b
00000070: 8c7f 1f3c 05e2 06b8 6da1 d3bb c0bd 25bb
00000080: 7614 3dbb 498e 2ab9 a3d0 7bbc dbf4 5ebc
00000090: 8276 9abc 581f 903b 2a87 d5bc bd53 87bc
000000a0: d888 acbc 3647 a2bc 5f11 67bc a05e 5ebc
000000b0: d5ad f13a 83f1 73bc 27e3 b0bb fd2f b8bb
000000c0: 733b fd3b 4f7b 9e3b bf60 86bc de9e 44bc
000000d0: 4d77 e8bc 706d 74bc abc0 e43a ed53 8dbc
000000e0: 4c53 c0bc 082a acbc 9285 a23b c579 0cbc
000000f0: af70 8fbc 12bb 98bb 3fda 5fbc 4cad 26bb
-0.026497727 -0.01050488 0.0027330727 -0.0041361656 -0.009253385 -0.012059016 -0.012693379 -0.028486587
-0.001573341 -0.005945972 -0.021119757 -0.008136748 0.0045112283 0.010137995 -0.007730157 -0.010527528
-0.00065592566 0.0017687032 -0.02200067 -0.02390099 -0.01379037 -0.029555231 -0.012982496 -0.004582667
-0.0068041673 -0.014161348 -0.011270333 0.0020593961 0.009734999 -3.2158587e-05 -0.0064584524 -0.0025290102
-0.0028851307 -0.00016265469 -0.015369567 -0.013608183 -0.018855337 0.0043982677 -0.026065428 -0.016519422
-0.021061346 -0.019809347 -0.014103263 -0.013572365 0.0018438647 -0.014889124 -0.0053981724 -0.005620955
0.007728034 0.004836477 -0.016403554 -0.0120007675 -0.0283772 -0.01491867 0.0017452439 -0.017251933
-0.023477219 -0.021016136 0.0049597705 -0.008573954 -0.017509786 -0.0046609724 -0.013662874 -0.0025432883

encoder.10.running_mean f4 [64]
00000000: 29a3 a3bc 9bf3 5bbc f1fa 113c 288c b1b9
00000010: ca25 3e39 5cc5 b8bb 76e0 9bbb 4aa2 bcbb
00000020: ad74 093c 2750 24bb ea04 8e3b e67e 7aba
00000030: 2486 21bc bd4c 7a3c 9af1 a23b 27b0 103b
00000040: a95d c1b9 31d4 3cbc 04c1 823c 38ef debb
00000050: 19ac f6bb 95a3 e53a 3f9c a0bc 4f73 bfbc
00000060: 39f3 703b cf98 63bb e953 34bc b5fb cc3b
00000070: 70e3 b63c d60f 4dbc 6d80 5ebb 5431 1fbc
00000080: 8ae6 41bc 585f 393c eb08 6fbc 9c05 083c
00000090: 2185 183c a436 a7bb 9988 93bc a30a 9a3c
000000a0: 8326 84bc 7e41 8fbb 8ce0 ce3b 5d0a c2bb
000000b0: b78e 4fbb 0b90 9f3b 1b75 0cbb d0ba 37bb
000000c0: 378a d63a bdb4 0a3c 597c 00bc bb3c ef3b
000000d0: 4267 13bb 3ca0 0abc 8e0a 00bc 9927 a8bb
000000e0: 83c6 ae3a 6ac0 0dbc 7ee6 18ba 1b11 e9bb
000000f0: 3a3a c3ba ed77 513c 4c87 21bb 11a5 473c
-0.019975262 -0.013424779 0.008909927 -0.00033864495 0.0001813389 -0.0056387614 -0.0047569824 -0.005756651
0.008389634 -0.0025072189 0.004334082 -0.00095556525 -0.009858642 0.015277085 0.004972649 0.0022077651
-0.0003688161 -0.0115252 0.015961178 -0.0068034194 -0.00752784 0.0017520065 -0.019605754 -0.023370413
0.0036766066 -0.0034728532 -0.011006334 0.0062555918 0.022325248 -0.012515983 -0.003395106 -0.009716351
-0.01183475 0.011314236 -0.014589529 0.008302119 0.009309084 -0.005102949 -0.01800947 0.0188039
-0.016131645 -0.004371821 0.006313389 -0.0059216456 -0.0031670758 0.004869466 -0.0021432105 -0.0028034933
0.0016368096 0.008465943 -0.007842147 0.007300941 -0.0022491966 -0.008461054 -0.007815016 -0.0051316735
0.0013334308 -0.008651832 -0.0005832686 -0.007112635 -0.0014894672 0.01278494 -0.0024647294 0.012185351

encoder.10.running_var f4 [64]
00000000: 6774 1835 ac8f 8c34 5267 8b35 56f0 c035
00000010: 22ec b434 d1c7 6935 cd41 a135 a79b 8534
00000020: 7a7b a835 dad2 1e35 cbba 8e34 dbd1 bd34
00000030: 77ef 7b35 9f77 8735 24c8 b234 9e05 2b35
00000040: c723 2534 d1c4 a634 f0ad 6934 ac94 9735
00000050: 87d4 3135 f7e6 0935 cd76 b235 c4c9 0535
00000060: f299 5534 bf64 ec34 88cf 4535 5046 1735
00000070: 819f b934 82b2 b335 23c0 3835 03fb 8a34
00000080: e882 0435 6b2e 6835 b2da b634 2d0c 6134
00000090: 50b3 8335 68fa 8535 85c3 1a35 a127 dc35
000000a0: 9eb5 0d35 f816 1b35 9b51 ba34 6fa0 1c35
000000b0: 394b e534 bc8a cb35 5ba6 bb34 a928 7a34
000000c0: 88dc 5435 eabc 2235 d17b b234 ab35 6535
000000d0: 6d69 be34 f1f3 e634 b008 2c35 2751 1635
000000e0: 0e83 b034 5e82 3a35 5b05 8535 9afe 5c34
000000f0: 645e 1935 7d2a eb34 4999 c134 1e5e 6735
5.67938e-07 2.6181567e-07 1.0386377e-06 1.4375062e-06 3.3699422e-07 8.7090035e-07 1.2014585e-06 2.4886432e-07
1.2552912e-06 5.9166416e-07 2.658547e-07 3.5356683e-07 9.3853254e-07 1.0093098e-06 3.3300705e-07 6.371064e-07
1.5379838e-07 3.1063112e-07 2.1763094e-07 1.1293646e-06 6.6246906e-07 5.1372575e-07 1.3296609e-06 4.983997e-07
1.9893176e-07 4.4031728e-07 7.3690217e-07 5.63542e-07 3.457499e-07 1.3388492e-06 6.882494e-07 2.5887138e-07
4.9364326e-07 8.649428e-07 3.4059263e-07 2.0959187e-07 9.812447e-07 9.98215e-07 5.765399e-07 1.6402811e-06
5.279088e-07 5.7775424e-07 3.4704576e-07 5.834799e-07 4.2709306e-07 1.5165056e-06 3.4952504e-07 2.3297856e-07
7.929707e-07 6.062461e-07 3.3245172e-07 8.5387245e-07 3.5466965e-07 4.301833e-07 6.4087635e-07 5.5997447e-07
3.287791e-07 6.948011e-07 9.910831e-07 2.058172e-07 5.71343e-07 4.3803075e-07 3.606058e-07 8.6191164e-07
