results/dot-ou-final_d=ballsw=8z=2det=0lat=const-sig-ntloss=exactsigma=diag/run2/saved_nets/mu_best_val_0.pth (torch, 7662 bytes, 7 tensors)

first_layer.linear.weight f4 [16, 2]
0	0x3c884ec0	0.016639113
1	0x3e16bbae	0.14720032
2	0xbe714e01	-0.23564912
3	0xbd96f8a4	-0.07371643
4	0x3ef22e1b	0.473008
5	0x3e4b5a3a	0.19858637
6	0xbdec86c8	-0.11549145
7	0xbe274aba	-0.163371
8	0x3ccf1644	0.025279172
9	0xbe2e4c4c	-0.17021292
10	0xbe6bb659	-0.23018779
11	0x3e0a9cf7	0.1353644
12	0xbd7aff12	-0.06127841
13	0x3ea1d65c	0.31608856
14	0x3d8ee1ce	0.069766626
15	0xbd32349f	-0.043507215
16	0x3e1e48a7	0.15457402
17	0xbced4f58	-0.028968498
18	0x3c2a6da6	0.010402119
19	0xbd5812c8	-0.052752286
20	0x3d562aef	0.05228704
21	0xbe5435a3	-0.20723586
22	0x3cac0bf4	0.021001793
23	0x3e93c9fd	0.28865042
24	0xbe02333f	-0.12714861
25	0xbe882a5f	-0.26594827
26	0xbe27fef4	-0.1640585
27	0xbea91f0b	-0.33031496
28	0x3e9314b2	0.28726727
29	0x3e27513f	0.16339587
30	0xbd98a263	-0.07452848
31	0x3dd45568	0.103678524

hidden_layers.0.linear.weight f4 [16, 16]
0	0x3dc6245a	0.09674902
1	0x3dcfcb1f	0.10146164
2	0x3dec233c	0.11530158
3	0xbc3a2295	-0.011360784
4	0x3dc505be	0.09620236
5	0x3d51a65c	0.051184043
6	0xbe386fd1	-0.18011405
7	0xbe3b642f	-0.18299936
8	0x3e32c524	0.17458016
9	0xbe12fdf8	-0.14354694
10	0x3e07bbb4	0.13255197
11	0x3db2ef5d	0.08737061
12	0xbe9492d1	-0.29018262
13	0x3df6acf7	0.12044709
14	0xbd72ca71	-0.059275094
15	0xbe60f8d1	-0.21969916
16	0x3e4724f4	0.1944769
17	0x3cbd70e5	0.023125121
18	0x3ddf5d4a	0.10906465
19	0xb9afc98b	-0.00033528762
20	0xbe30d89b	-0.17270128
21	0xbe055e43	-0.13024239
22	0x3e8134d9	0.25235632
23	0x3c84cc7b	0.016210785
24	0x3e0b604e	0.13610956
25	0x3dd0f958	0.102038085
26	0xbc8f10f0	-0.017464131
27	0x3e76202a	0.24035707
28	0xbdfccd38	-0.1234383
29	0xbdf3d149	-0.11905152
30	0x3e1e618f	0.15466903
31	0x3e13df8f	0.1444075
32	0xbdd74eea	-0.105130985
33	0xbcfb05d5	-0.03064243
34	0xbe03fb06	-0.12888727
35	0x3d80b4ab	0.0628446
36	0xbc68187b	-0.014165993
37	0x3d9a4b95	0.075339474
38	0xbc7474bf	-0.014920413
39	0xbdfc55fc	-0.12321088
40	0x3e1e53c5	0.15461643
41	0x3d87b73e	0.066267475
42	0x3cdb5811	0.026775392
43	0xbe216107	-0.15759669
44	0xbdcffc37	-0.10155528
45	0xbe86ac2a	-0.26303226
46	0xbd803645	-0.06260351
47	0x3c947b8d	0.01812532
48	0x3de8e255	0.113712944
49	0xbda53729	-0.080671616
50	0xbd4d7e9a	-0.050169565
51	0xbd8e111a	-0.069368556
52	0xbb7719aa	-0.0037704506
53	0xbd09f4c1	-0.03368068
54	0x3e114178	0.1418513
55	0xbd262c53	-0.040569615
56	0xbd51b747	-0.051200178
57	0xbe230bd6	-0.15922484
58	0x3bc8ca8d	0.0061276616
59	0xbdcb120c	-0.099155515
60	0x3d8ff044	0.07028249
61	0xbde9f2af	-0.11423241
62	0x3e450d5a	0.19243374
63	0xbcf8ffa8	-0.030395344
64	0x3dddf774	0.108382136
65	0xbe169c43	-0.14708047
66	0x3e323ba7	0.17405568
67	0xbdd09a11	-0.10185636
68	0x3d313c8c	0.043270633
69	0x3ccb5320	0.02481991
70	0x3d7cc165	0.061707873
71	0x3bc7dd09	0.0060993475
72	0x3e3422c0	0.17591381
73	0x3c042360	0.008065075
74	0x3d1de20f	0.038545664
75	0x3b2948dc	0.002583078
76	0x3ccaffd0	0.024780184
77	0xbdb14913	-0.08656516
78	0x3db39411	0.08768476
79	0x3e10bb46	0.14133939
80	0x3c7bd234	0.015369941
81	0x3e61b21d	0.22040601
82	0xbd6cd763	-0.057822596
83	0xbd4006a4	-0.046881333
84	0xbd25a4c5	-0.04044034
85	0xbd834b49	-0.06410844
86	0x3d4ffdd9	0.050779197
87	0x3c376b3b	0.011194999
88	0xbd8727d7	-0.06599396
89	0xbd39237d	-0.04519986
90	0x3e9e3699	0.3090103
91	0xbe5041de	-0.20337626
92	0x3e99ad95	0.30015245
93	0xbcb3b54e	-0.021937039
94	0x3d73298d	0.059365798
95	0xbd5ce062	-0.053924926
96	0x3d42fe69	0.047605906
97	0xbdf4497a	-0.11928077
98	0xbdc7a4b4	-0.097482115
99	0xbe08e9f9	-0.13370503
100	0xbd9165b5	-0.07099477
101	0xbe34e1d7	-0.17664276
102	0xbd3b569e	-0.0457369
103	0xbe0ebd25	-0.1393934
104	0xbe213297	-0.15741955
105	0xbd60facc	-0.05492668
106	0xbd9a77ca	-0.07542379
107	0x3d1874de	0.03722083
108	0xbe678e7f	-0.22612952
109	0xbd161a0f	-0.036645945
110	0x3b5e5cb6	0.0033929772
111	0xbe245747	-0.16048919
112	0xb9b887a5	-0.00035196278
113	0xbd3f7bae	-0.04674881
114	0xbd720fb5	-0.05909701
115	0x3da0d9ce	0.07854043
116	0x3d48a6c4	0.048987165
117	0x3d804b7e	0.06264399
118	0x3da2673c	0.07929847
119	0xbd7a8180	-0.061158657
120	0xbda48dbf	-0.080348484
121	0x3dd16c70	0.10225761
122	0xbea4cec9	-0.32189015
123	0xbd0d8902	-0.03455449
124	0x3e18e352	0.14930466
125	0x3e075f7d	0.1322002
126	0xbd7c3b2c	-0.06157987
127	0xbd9bf572	-0.07615174
128	0x3e3f4414	0.18678313
129	0xbdddc1d5	-0.10827986
130	0xbc9060b8	-0.017624244
131	0x3e8b7e73	0.2724491
132	0x3d5e3fc7	0.05426004
133	0xbe335f28	-0.17516768
134	0x3d029261	0.03187788
135	0x3e3ad29c	0.18244404
136	0xbdda3bee	-0.10655962
137	0xbd4447f2	-0.047920175
138	0x3dbf3d89	0.09337909
139	0x3e4b7819	0.19870032
140	0xbdfb37e7	-0.12266522
141	0xbe2566aa	-0.16152444
142	0xbe27c65c	-0.16384262
143	0xbd8caaf1	-0.06868542
144	0xbeb02ecd	-0.34410706
145	0x3ca11a90	0.019665986
146	0xbd89b75c	-0.06724426
147	0xbd2dc01e	-0.042419545
148	0x3d8c3d6c	0.06847653
149	0x3e05fb4f	0.13084148
150	0x3dceb285	0.10092644
151	0xbe2f092e	-0.17093346
152	0xbd1b39a7	-0.03789678
153	0xbaa650f4	-0.0012688921
154	0x3e462e09	0.19353499
155	0x3e060931	0.13089444
156	0xbdadb2cc	-0.084813684
157	0xbe19a3c6	-0.15003881
158	0x3d074b69	0.0330309
159	0x3db12dff	0.08651351
160	0x3caada26	0.020855974
161	0xbdee4122	-0.11633517
162	0x3d9dd25f	0.07706141
163	0x3e71dcd9	0.23619403
164	0xbdf149bd	-0.117816426
165	0xbdf45333	-0.119299315
166	0x3e29547e	0.16536137
167	0xbb45b867	-0.0030169727
168	0x3e78214c	0.24231452
169	0x3d32a3c3	0.043613207
170	0xbe3b421b	-0.18286936
171	0x3dbe47dc	0.0929105
172	0xbdd15fc2	-0.102233425
173	0x3d72b41f	0.059253808
174	0x3ddcbd18	0.10778254
175	0xbdc6135e	-0.09671663
176	0xbe04beb1	-0.12963368
177	0x3eccfabe	0.4003505
178	0xbe14d2df	-0.14533566
179	0x3e78f1c1	0.24310972
180	0xbc5fbdc0	-0.01365608
181	0xbce93d2e	-0.028471556
182	0x3c4d1a75	0.012518515
183	0x3d91a03d	0.07110641
184	0x3bc92d59	0.006139439
185	0xbca1c188	-0.019745603
186	0x3e62038b	0.22071664
187	0xbe05db59	-0.13071956
188	0x3e10d484	0.14143568
189	0x3ea1b6ef	0.3158488
190	0xbe5efa69	-0.21775211
191	0x3c3eae2f	0.011638208
192	0x3c0f14ac	0.008732956
193	0x3d65307d	0.055954445
194	0xbbfbc4d1	-0.0076833745
195	0x3cedec05	0.029043207
196	0xbc82155e	-0.01587933
197	0xbe35ebbc	-0.17765707
198	0x3e28622f	0.16443704
199	0xbd0e9057	-0.034805622
200	0x3d5dc64b	0.054144185
201	0xbcf2ae5e	-0.02962416
202	0xbd1d7bb9	-0.03844807
203	0x3ca3654c	0.019945763
204	0xbdf385c8	-0.11890751
205	0xbe82cdb7	-0.25547573
206	0x3d44aea2	0.048018105
207	0x3de0b957	0.10972851
208	0x3da929fb	0.0825996
209	0x3e0912ec	0.13386124
210	0x3ddf307a	0.10897918
211	0x3c09309d	0.008373407
212	0xbe45358b	-0.19258706
213	0x3e07edee	0.13274357
214	0x3e3c27d6	0.18374571
215	0x3d24c95b	0.04023109
216	0xbe120bcf	-0.14262317
217	0x3d2e578c	0.04256396
218	0xbe0588e4	-0.13040501
219	0x3e5706df	0.20998715
220	0xbda944e6	-0.082650945
221	0x3e2d5daf	0.16930269
222	0x3b2580e8	0.0025253836
223	0xbd080349	-0.033206258
224	0x3dbff0d1	0.09372104
225	0xbd3733c4	-0.044727102
226	0xbe3be9a0	-0.1835084
227	0xbdf1375a	-0.117781356
228	0xbddab7d2	-0.10679592
229	0xbd9cf491	-0.07663835
230	0xbdc06866	-0.093949124
231	0x3ce596be	0.028025981
232	0x3d652889	0.05594686
233	0xbcd0a7c1	-0.025470616
234	0xbcd94983	-0.026524311
235	0xbe10e806	-0.1415101
236	0xbcfc8dd8	-0.030829355
237	0xbdd6699f	-0.104693644
238	0xbd0a9a7d	-0.033838738
239	0x3e9557f7	0.29168674
240	0x3e5a2448	0.21302903
241	0x3d49e249	0.049288068
242	0xbdaca212	-0.0842935
243	0x3db3cc7e	0.08779238
244	0xbde78395	-0.11304394
245	0x3dbfff82	0.09374906
246	0x3e8f13db	0.27944836
247	0xbdab7ae0	-0.08373046
248	0x3e1661c1	0.14685728
249	0x3c022181	0.007942558
250	0x3d2ac9f0	0.04169649
251	0xbd47b810	-0.04875952
252	0x3ce32c69	0.027731137
253	0xbceb787f	-0.02874398
254	0x3d720a3b	0.059091788
255	0xbc979193	-0.018502032

hidden_layers.1.linear.weight f4 [16, 16]
0	0xbd37aba8	-0.04484144
1	0x3d9e84ec	0.077401966
2	0xbd9ce9ab	-0.07661756
3	0x3e72cd35	0.23711093
4	0xbd819fec	-0.06329331
5	0xbd8e3f1e	-0.069456324
6	0xbde6bab5	-0.1126608
7	0xbda6c1dd	-0.08142445
8	0x3e45b761	0.19308235
9	0xbe392df1	-0.18083932
10	0x3e72d42c	0.2371375
11	0xbc387010	-0.0112571865
12	0x3e172030	0.14758372
13	0x3ca9027c	0.020631067
14	0xbe3a5af6	-0.18198761
15	0x3df01b96	0.117240116
16	0xbe8db34f	-0.27675864
17	0x3d8f4854	0.06996217
18	0x3cb03d85	0.02151371
19	0xbdbed0fe	-0.09317206
20	0xbd03d574	-0.032185987
21	0xbc8f2b67	-0.01747675
22	0x3de82fc8	0.113372386
23	0xbe6c8f31	-0.23101498
24	0x3e208e5e	0.15679309
25	0x3e338838	0.17532432
26	0x3d462df9	0.048383687
27	0xbd49421c	-0.049135312
28	0xbe057939	-0.13034524
29	0x3e08d3ab	0.13361995
30	0x3e37ca8d	0.1794836
31	0xbe437b9d	-0.19090123
32	0xbe2e4fa3	-0.17022566
33	0x3d918f87	0.07107454
34	0x3dee9e26	0.11651258
35	0x3d800ed8	0.06252831
36	0xbcbaf58a	-0.02282216
37	0xbbbb5dc0	-0.005717963
38	0x3e069490	0.1314261
39	0x3d3b32d6	0.045702778
40	0x3dbd1eb7	0.09234374
41	0x3e288c14	0.16459686
42	0x3da6faa6	0.08153276
43	0xbdf30cfa	-0.118677095
44	0x3e2d9d43	0.16954522
45	0x3e171a71	0.1475618
46	0xbd2d5be5	-0.042323966
47	0xbe501512	-0.20320538
48	0xbdf08fbb	-0.117461644
49	0x3d8bae0b	0.068203054
50	0xbe041627	-0.12899075
51	0x3cd50c42	0.026006822
52	0xbd7fe850	-0.06247741
53	0x3de275a4	0.110575944
54	0x3e302f0c	0.17205447
55	0xbe483e6d	-0.19555064
56	0x3c0eebf8	0.0087232515
57	0xbd8be4da	-0.06830759
58	0x3e0df188	0.13861668
59	0xbe8cb446	-0.27481288
60	0x3e833883	0.25629053
61	0xbea60aaa	-0.3243001
62	0xbda7b976	-0.08189671
63	0x3bb40f41	0.0054949825
64	0x3d67fa03	0.056634914
65	0xbe06f288	-0.13178456
66	0x3e0701a8	0.13184226
67	0x3e1e131c	0.15436977
68	0x3ddb775d	0.10716126
69	0x3dd65a89	0.10466487
70	0x3ca8f9c2	0.020626906
71	0xbe86e130	-0.2634368
72	0xbe69bb97	-0.22825466
73	0x3d9b4b0a	0.07582672
74	0xbd1c9cbe	-0.03823542
75	0xbd18f00f	-0.037338313
76	0x3e74407d	0.23852725
77	0xbdc5d7ab	-0.09660276
78	0x3e36162a	0.17781892
79	0x3de82953	0.11336007
80	0x3d66ed98	0.05637893
81	0xbdea402f	-0.11438023
82	0xbc823d3c	-0.01589834
83	0x3e635953	0.22202043
84	0xbcb3db05	-0.021955023
85	0xbdf0f2c0	-0.11765051
86	0xbdfe8942	-0.124285236
87	0x3e413ed6	0.18871626
88	0xbd892b1a	-0.06697674
89	0x3e9c716f	0.30555293
90	0xbe189b27	-0.14902936
91	0xbc129763	-0.008947226
92	0xbdbbf0e4	-0.091768056
93	0x3e1312b8	0.1436261
94	0xbd56f82c	-0.05248277
95	0x3e187665	0.14888914
96	0xbe201448	-0.15632737
97	0x3de8a319	0.113592334
98	0xbd0af459	-0.033924434
99	0x3cba611f	0.02275139
100	0xbdcfa802	-0.10139467
101	0xbe8b1ab1	-0.271688
102	0xbd30fce5	-0.04320993
103	0x3e366839	0.17813195
104	0xbd9b6164	-0.07586935
105	0xbceeb843	-0.029140597
106	0xbdf8990b	-0.12138566
107	0x3d3acabf	0.04560351
108	0x3eace2b3	0.33766708
109	0x3e9b4ae4	0.30330575
110	0x3dab5446	0.08365683
111	0x3cd367c4	0.025806315
112	0xbd169e5e	-0.036772124
113	0x3da2d927	0.07951575
114	0x3d9eb14b	0.0774866
115	0x3da026d1	0.07819904
116	0x3e48fa14	0.19626647
117	0x3e5fc08f	0.21850799
118	0xbdc1db2d	-0.094656326
119	0xbe161bb9	-0.14659013
120	0x3cfd4de2	0.030920926
121	0x3cf42195	0.02980117
122	0x3c7a0b58	0.015261494
123	0xbda0aa2a	-0.07844956
124	0x3e9e6991	0.30939916
125	0xbb41d306	-0.0029575243
126	0xbe298bf7	-0.16557299
127	0xbd81a31f	-0.06329941
128	0x3e8231e7	0.25428697
129	0xbc514da9	-0.012774863
130	0x3cb30fb8	0.021858081
131	0x3d65db02	0.056117065
132	0xbb131860	-0.0022444949
133	0x3caa57a9	0.020793753
134	0xbda1b1e2	-0.078952566
135	0x3de09fc7	0.10967975
136	0xbcb83fd1	-0.022491368
137	0x3df8d7a2	0.12150504
138	0x3ce712fa	0.02820729
139	0xbd9dad14	-0.07699028
140	0xbcbc4366	-0.022981357
141	0xba98b45b	-0.001165043
142	0xbc666d42	-0.014064135
143	0xbcbf6a09	-0.023365991
144	0x3c2fdc0c	0.010733616
145	0x3e03911c	0.12848324
146	0x3df3c3ff	0.11902618
147	0x3dc1fe78	0.09472364
148	0x3d189744	0.037253633
149	0xbe5dc38a	-0.21656623
150	0xbe0342d7	-0.12818466
151	0xbd236274	-0.039888814
152	0x3e7bca0b	0.24588792
153	0x3d95f9a7	0.07323008
154	0x3e1a5b34	0.15073854
155	0xbe55c757	-0.20876823
156	0xbd6442ed	-0.055727888
157	0x3c884745	0.016635546
158	0x3e5af9f4	0.21384412
159	0x3d3437d1	0.043998543
160	0x3db0047a	0.08594604
161	0x3e2dd042	0.16973975
162	0xbd1a443e	-0.037662737
163	0xbe26eb36	-0.16300663
164	0x3d804cf0	0.06264675
165	0xbe189b53	-0.14903001
166	0xbdd33692	-0.10313143
167	0xbe0d025f	-0.13770436
168	0xbe12f42b	-0.14350955
169	0x3c3a6a42	0.011377873
170	0x3c710c5f	0.014712422
171	0xbdfec9c8	-0.124408305
172	0x3d8feb3d	0.0702729
173	0x3d5ca7a6	0.05387082
174	0x3d7cca59	0.06171641
175	0x3dabfd3b	0.08397909
176	0x3d675c11	0.056484286
177	0x3da8346d	0.082131244
178	0xbd625a0f	-0.055261668
179	0x3dc28c42	0.09499408
180	0x3e1d4ab7	0.15360533
181	0x3bc637dc	0.0060491394
182	0xbd43a169	-0.047761355
183	0x3e3fb572	0.1872156
184	0x3dc2ed9b	0.09517976
185	0xbdce2a3a	-0.10066648
186	0x3c08bbd4	0.008345563
187	0xbd0b4af1	-0.034007017
188	0x3e251bcf	0.1612389
189	0xbb20af4f	-0.0024518555
190	0x3d54fc35	0.051998336
191	0xbc9899e9	-0.018628078
192	0xbd18954c	-0.037251756
193	0x3e99d8ce	0.3004822
194	0x3dab5e48	0.08367592
195	0xbd23ba85	-0.0399728
196	0x3e2bab40	0.16764545
197	0x3d214091	0.039368216
198	0x3cf2cf19	0.029639767
199	0xbe2ae52d	-0.16688986
200	0x3d98cf29	0.07461388
201	0x3e143d6b	0.14476554
202	0xbc64e859	-0.013971412
203	0x3b37360d	0.00279558
204	0x3e85c6b5	0.26128164
205	0x3dd7ad21	0.105310686
206	0x3d877bb8	0.06615394
207	0xbca13275	-0.01967738
208	0xbd9d2086	-0.07672219
209	0x3a400e02	0.0007326306
210	0xbd98b1b2	-0.07455768
211	0xbe0bb452	-0.13643005
212	0xbd9d6cfe	-0.07686804
213	0xbe7fd370	-0.24983001
214	0x3d775a37	0.06038877
215	0xbe0af830	-0.13571239
216	0x3d70f4ee	0.058827333
217	0x3e9869d5	0.29768243
218	0xbd802f25	-0.06258992
219	0xbe0d5631	-0.1380241
220	0xbe879cad	-0.26486722
221	0x3dacf78d	0.08445654
222	0xbce7ccbd	-0.028295869
223	0xbe6ed01f	-0.2332158
224	0x3cb15f51	0.021651896
225	0x3d48f805	0.049064655
226	0xbe4b2959	-0.19839992
227	0x3dcf6660	0.10126948
228	0x3e46cd32	0.19414213
229	0xbd80aeaa	-0.062833145
230	0x3d3b6321	0.045748834
231	0xbd45476f	-0.048163828
232	0xbc7568cc	-0.014978599
233	0xbe0df975	-0.13864692
234	0xbda402b3	-0.08008327
235	0xbe55a5a6	-0.20863971
236	0x39b214a1	0.00033966175
237	0xbde878ec	-0.11351189
238	0x3e6109f7	0.21976458
239	0x3e0c4d1a	0.13701287
240	0x3c53c7f0	0.012926087
241	0xbd2b1de6	-0.04177656
242	0xbcdb16c7	-0.02674426
243	0xbd513df8	-0.05108449
244	0xbcd0209b	-0.025406172
245	0x3d4686bf	0.048468348
246	0xbe154b19	-0.14579429
247	0xbe055a0b	-0.1302263
248	0x3e084e84	0.13311201
249	0x3d820461	0.063484915
250	0x385741a8	5.132114e-05
251	0xbd4ea67b	-0.050451737
252	0x3da83a33	0.082142256
253	0x3d754bef	0.05988687
254	0x3d1c1e53	0.038114857
255	0xbdb34fc7	-0.08755451

hidden_layers.2.linear.weight f4 [16, 16]
0	0x3d31ba91	0.043390814
1	0x3e5bf146	0.21478757
2	0x3dcaa806	0.09895329
3	0x3e5d46b6	0.21609005
4	0x3d4838cb	0.048882287
5	0x3cf0ef82	0.029411081
6	0xbd266aee	-0.04062932
7	0xbd841831	-0.06449927
8	0x3e05778c	0.13033885
9	0x3e8a93da	0.27065927
10	0xbbdbe039	-0.006710079
11	0x3e04aa75	0.12955649
12	0x3e07db9e	0.13267371
13	0xbd71749a	-0.05894909
14	0x3e0726d2	0.13198403
15	0xbe515017	-0.20440708
16	0xbda89ecf	-0.08233415
17	0x3e3a5b76	0.18198952
18	0x3d7456f5	0.05965324
19	0x3bf659b9	0.00751802
20	0xbe195a0d	-0.14975758
21	0xbdb07d3b	-0.08617636
22	0xbd982b1f	-0.074301
23	0xbd888894	-0.06666675
24	0x3eb8cca1	0.3609362
25	0x3ddffef0	0.10937297
26	0xbc8a3ddb	-0.016875198
27	0xbd5ace93	-0.05341966
28	0x3e817aca	0.25288993
29	0x3e4163fe	0.188858
30	0x3da4a278	0.08038801
31	0x3e271fc7	0.16320716
32	0x3838479a	4.3935703e-05
33	0xbde3225d	-0.11090539
34	0x3d4917eb	0.049095076
35	0x3da038d6	0.078233406
36	0x3e55ad54	0.208669
37	0x3d6bee04	0.057600036
38	0x3d6684cb	0.056278985
39	0xbe0a64a1	-0.1351495
40	0xbe4ae3c5	-0.1981345
41	0x3d9a0a09	0.07521445
42	0xbd3263bb	-0.04355214
43	0x3e598054	0.2124036
44	0x3dabe523	0.08393314
45	0x3cbe0d84	0.023199804
46	0x3db6b5df	0.08921408
47	0x3d563345	0.05229499
48	0x3d1573be	0.036487333
49	0xbe0115f4	-0.1260603
50	0xbcf5ae98	-0.02999048
51	0xbe135b7b	-0.14390366
52	0x3e0d6581	0.13808252
53	0xbcd26497	-0.02568273
54	0xbc9cd005	-0.01914216
55	0xbdfa8bc7	-0.12233692
56	0xbcc5d34f	-0.024148611
57	0x3ca1389a	0.01968031
58	0x3ef90c40	0.48642159
59	0xbd62b2f6	-0.05534645
60	0x3e82b100	0.25525665
61	0xbd610a56	-0.054941498
62	0xbd048415	-0.032352526
63	0x3d32c23d	0.04364227
64	0xbd29c925	-0.041451592
65	0x3d47673f	0.048682448
66	0x3e32580d	0.17416401
67	0xbdb5c6b5	-0.08875791
68	0xbe36a205	-0.17835243
69	0xbd8d49cb	-0.068988405
70	0x3e9876ce	0.2977814
71	0xbd5f8fbe	-0.054580443
72	0xbd52d728	-0.05147472
73	0x3d8237e1	0.06358314
74	0x3d8a55d1	0.067546494
75	0xbda05785	-0.07829193
76	0x3d8214f8	0.06351656
77	0x3e3523e7	0.17689477
78	0x3e25f173	0.16205387
79	0x3c2d7a7d	0.0105882855
80	0x3e37a526	0.17934093
81	0xbdb249f4	-0.08705512
82	0x3dc214ef	0.09476649
83	0x3e4c396e	0.19943783
84	0x3e631548	0.22176087
85	0x3eb583ce	0.35452121
86	0xbe37cf7c	-0.17950243
87	0x3e1c077c	0.1523723
88	0x3e0e0adb	0.13871329
89	0x3e072307	0.13196956
90	0x3cd2440b	0.025667211
91	0x3e292156	0.16516623
92	0x3e7847a8	0.24246085
93	0xbdea3f62	-0.114378706
94	0x3ceac507	0.028658403
95	0x3cf6ee49	0.03014292
96	0x3dd531b8	0.10409874
97	0x3dfb54a5	0.12272004
98	0xbdb0e320	-0.08637071
99	0xbe3f5f38	-0.18688667
100	0xbe3a9be3	-0.18223529
101	0xbe214eeb	-0.15752761
102	0xbe37211d	-0.17883725
103	0x3e8d3311	0.27578023
104	0x3ccdea20	0.025136054
105	0x3d2164f4	0.039402917
106	0x3e2602c8	0.16211998
107	0x3df6e462	0.12055279
108	0x3e429dd7	0.19005524
109	0xbe3e4096	-0.18579325
110	0xbe29242e	-0.16517708
111	0xbc1ce576	-0.009576192
112	0xbd9d4fd3	-0.07681241
113	0xbdbdba3e	-0.092640385
114	0x3de5c9ee	0.11220156
115	0xbc9ef586	-0.019404184
116	0xbd30506e	-0.043045454
117	0xbd878699	-0.06617469
118	0x3e52661b	0.20546763
119	0x3d5deece	0.05418282
120	0x3e3e790a	0.1860086
121	0x3e2dc6c0	0.16970348
122	0xbc762ffc	-0.015026089
123	0x3ca3c679	0.0199921
124	0xbd1008fc	-0.03516482
125	0xbcac2653	-0.021014368
126	0x3e7d591d	0.24741025
127	0xbe0a1b91	-0.13487078
128	0xbe65da51	-0.22446562
129	0x3d36aeea	0.044600405
130	0x3e054051	0.13012816
131	0x3e1ea506	0.15492639
132	0x3b29f8b6	0.0025935597
133	0x3e2a7783	0.16647153
134	0x3c8e7d50	0.017393738
135	0x3d137524	0.036000386
136	0xbd176ba0	-0.036967874
137	0xbd21670a	-0.039404906
138	0x3d4f64d5	0.05063327
139	0x3d89b1ec	0.06723389
140	0x3d920bdb	0.071311675
141	0x3c4418bd	0.011968789
142	0xbe2600c8	-0.16211236
143	0x3e94484c	0.28961408
144	0xbc852b3a	-0.016255964
145	0x3d0e1b0e	0.03469377
146	0xbe6c17aa	-0.23055902
147	0x3ddb2248	0.10699898
148	0xbe12b0e6	-0.14325294
149	0xbd1688b2	-0.036751457
150	0x3c8dc7c1	0.017307164
151	0xbc6934e9	-0.014233806
152	0x3df4724f	0.11935865
153	0x3e3487f2	0.17629984
154	0xbe1f38e4	-0.15549046
155	0xbdbd65c0	-0.09247923
156	0xbdc7cfd0	-0.09756434
157	0xbd8f2434	-0.06989327
158	0xbe0cf5f9	-0.13765706
159	0xbd6d9e06	-0.05801203
160	0xbe68d407	-0.22737132
161	0x3cbd33a7	0.023095919
162	0xbdad6ed6	-0.08468406
163	0xbd8ca288	-0.06866938
164	0xbd4653b4	-0.04841967
165	0xbe71f2ba	-0.23627749
166	0xbdcbf125	-0.09958104
167	0xbdaa24c4	-0.08307794
168	0x3b1dd536	0.0024083382
169	0x3e3ff65c	0.18746322
170	0xbe2bce94	-0.16778022
171	0xbd88bce1	-0.06676651
172	0xbe4d6cc8	-0.20061028
173	0xbd5a058c	-0.053227946
174	0x3dca9469	0.09891588
175	0xbe79b074	-0.24383718
176	0x3dc4218f	0.09576713
177	0xbc38d5ef	-0.0112814745
178	0x3e47055c	0.19435638
179	0xbd7b8f53	-0.06141598
180	0xbc4d4b73	-0.0125301955
181	0x3c467ae9	0.012114265
182	0xbc0f4dfc	-0.00874662
183	0x3da6ffff	0.08154296
184	0x3d86c888	0.06581217
185	0xbe5a94ac	-0.21345776
186	0x3e963899	0.29340056
187	0xbaee376d	-0.0018174477
188	0x3dd4d972	0.10393037
189	0xbbe62668	-0.0070236214
190	0x3dde0ded	0.108425
191	0x3e366618	0.17812383
192	0x3e274599	0.16335143
193	0xbd2de00b	-0.042449992
194	0x3c5f79c7	0.013639874
195	0xbdb5eefc	-0.08883473
196	0xbe0a8561	-0.13527443
197	0x3e2a368f	0.16622375
198	0x3ea2baf8	0.3178327
199	0x3ea58bad	0.32333127
200	0x3b87686a	0.00413232
201	0x3e321523	0.17390876
202	0x3e81c9da	0.25349313
203	0x3e5a4021	0.21313526
204	0x3d6ba032	0.05752582
205	0xbd0eb56b	-0.034840982
206	0xbb446dfe	-0.0029972787
207	0xbe2d6153	-0.16931657
208	0xbdbab427	-0.091163926
209	0x3dbd35bb	0.09238764
210	0x3d73bb68	0.059504896
211	0xbdbd4824	-0.09242275
212	0xbdfb1c97	-0.122613125
213	0xbcb77632	-0.022395227
214	0xbe067d02	-0.13133624
215	0xbc6b9afa	-0.014380211
216	0xbe29f49b	-0.16597216
217	0xbb3b4c3e	-0.002857938
218	0xbe252f2f	-0.1613128
219	0x3d68c58a	0.056829013
220	0xbd9733ad	-0.07382903
221	0xbe11a8dc	-0.14224571
222	0xbe5cfb44	-0.21580225
223	0xbdd992af	-0.10623681
224	0x3e53bf81	0.20678522
225	0x3e2a5005	0.16632088
226	0x3e3482d5	0.17628033
227	0x3daa9726	0.083296105
228	0x3d757ff5	0.059936482
229	0xbe0149f7	-0.12625872
230	0x3e08f0a9	0.13373055
231	0xbe4f022c	-0.20215672
232	0xbc7aa1d2	-0.01529737
233	0x3db3e793	0.08784404
234	0xbd354b36	-0.04426118
235	0x3dbb5f55	0.091490425
236	0x3ddaefa8	0.10690242
237	0xbdc95e6e	-0.09832464
238	0x3ea237ea	0.31683284
239	0x3c89a6eb	0.016803226
240	0x3d0d6fb3	0.034530353
241	0x3da50e8d	0.08059416
242	0x3dc72e5b	0.097256385
243	0x3e57df24	0.21081215
244	0x3e5ddfcb	0.21667401
245	0xbe145e2e	-0.14489052
246	0x3e0ed745	0.13949306
247	0x3d47510a	0.04866127
248	0x3d075559	0.03304038
249	0xbd93aca6	-0.072106645
250	0x3e49fb06	0.19724664
251	0xbe980500	-0.29691315
252	0x3d9bbadd	0.07604001
253	0x3e0eb16d	0.1393487
254	0x3e45490f	0.19266151
255	0xbc818be3	-0.015813773

hidden_layers.3.linear.weight f4 [16, 16]
0	0xbde2a2fa	-0.110662416
1	0x3d843a47	0.06456428
2	0x3c78f542	0.015195193
3	0xbcbefbc9	-0.02331342
4	0xbdbe5fb3	-0.09295597
5	0x3dc10cbc	0.09426257
6	0xbb900e86	-0.0043962626
7	0x3df7472c	0.12074122
8	0x3af717f9	0.0018851749
9	0xbd945d70	-0.07244384
10	0x3e182bf4	0.14860517
11	0x3dab8ad6	0.0837609
12	0x3e0ddfb8	0.13854873
13	0xbeab17c8	-0.3341658
14	0xbdab7dc1	-0.08373595
15	0x3e577851	0.21041991
16	0x3e15605d	0.14587541
17	0x3dc446e6	0.09583835
18	0xbb3af675	-0.0028528247
19	0x3e16561b	0.14681284
20	0xbdfae93a	-0.12251516
21	0x3d95bc60	0.0731132
22	0xbdcb4f40	-0.09927225
23	0xbd6e4c43	-0.058178198
24	0xbc9f3d19	-0.019438313
25	0x3e2633eb	0.16230743
26	0xbe981358	-0.29702258
27	0x3e0c2276	0.13685021
28	0x3e4c9e1f	0.19982193
29	0x3d4b9750	0.04970485
30	0xbdc7fd17	-0.0976507
31	0x3dc8f8e1	0.09813095
32	0x3e868599	0.26273802
33	0x3da57cd9	0.080804534
34	0x3eaf8c45	0.34286705
35	0xbc4ace3e	-0.0123782735
36	0xbda7183b	-0.081589185
37	0x3e0f3188	0.13983738
38	0x3de74a5d	0.112934805
39	0x3d091000	0.033462524
40	0xbc8da6b3	-0.017291402
41	0xbe1707ef	-0.1474912
42	0x3dea58ab	0.11442693
43	0x3d4e9e79	0.0504441
44	0x3d7eba50	0.0621894
45	0xbcf18a4c	-0.02948489
46	0x3e870ab9	0.26375368
47	0x3b80e0a4	0.0039330292
48	0x3c1cfe90	0.009582177
49	0x3e66ac72	0.2252672
50	0xba5382ed	-0.00080685207
51	0xbb262cf5	-0.0025356386
52	0x3e91b7ff	0.2846069
53	0x3d0c03d2	0.03418333
54	0x3e092a56	0.13395056
55	0x3e4e14eb	0.20125167
56	0xbdd28abb	-0.10280367
57	0x3ac9ac5e	0.0015386452
58	0x3e22e243	0.15906624
59	0xbe5a96f8	-0.21346653
60	0x3d965bbc	0.07341716
61	0xbe5643c4	-0.20924288
62	0x3de809d8	0.113300025
63	0x3e05c932	0.13065031
64	0x3d87dadc	0.06633541
65	0x3e32a89d	0.17447133
66	0xbe1449a7	-0.14481221
67	0x3c1a6923	0.009424481
68	0xbd0b0cec	-0.03394787
69	0x3e03d502	0.12874225
70	0xbdd6b93a	-0.10484548
71	0xbcf71c62	-0.030164901
72	0x3e1b39b3	0.1515873
73	0x3d9ed6de	0.077558264
74	0x3e3a0908	0.18167508
75	0xbe72728d	-0.2367651
76	0xbd38138b	-0.044940513
77	0x3d98ace6	0.07454853
78	0x3e1d7ef8	0.15380466
79	0x3d21f7ed	0.03954308
80	0x3d919430	0.07108343
81	0xbdd337fd	-0.10313413
82	0x3d828299	0.06372566
83	0x3e6906b3	0.22756462
84	0x3ea98460	0.33108807
85	0xbca77102	-0.020439629
86	0xbe26a41c	-0.1627354
87	0x3e5fafbb	0.2184438
88	0x3dd35e79	0.103207536
89	0xbdc39c08	-0.09551245
90	0xbe259055	-0.1616834
91	0x3e22e478	0.15907466
92	0x3db9a7f7	0.0906524
93	0x3e5f6307	0.2181512
94	0x3d4d7319	0.050158594
95	0x3e53aa81	0.20670511
96	0x3de93db3	0.11388721
97	0x3d91f2c9	0.07126386
98	0x3e6c435f	0.23072575
99	0xbd9f08d8	-0.07765359
100	0x3e1b4afa	0.1516532
101	0x3e7168b2	0.23575094
102	0x3e880515	0.26566377
103	0x3e11fd0a	0.14256683
104	0xbe894a6d	-0.26814595
105	0xbc5f5add	-0.013632503
106	0xbda9bcc3	-0.082879566
107	0x3e8e5c44	0.27804768
108	0x3db7f8a3	0.089829706
109	0x3de51712	0.11186041
110	0x3dc6ada4	0.09701088
111	0x3d96fa13	0.073719166
112	0x3a3ffd1c	0.0007323788
113	0x3e7323bd	0.23744102
114	0xbba80c4f	-0.0051284204
115	0x3d792ce3	0.060833823
116	0x3b5ae72d	0.0033401952
117	0x3e55cf65	0.20879896
118	0x3db5cd00	0.08876991
119	0x3e24528c	0.16047114
120	0xbcdd2fb9	-0.027000295
121	0xbdf2aa27	-0.1184886
122	0xbda50cf5	-0.08059112
123	0xbe518fc8	-0.20465004
124	0x3cab85f2	0.020937894
125	0xbe257cf4	-0.16160947
126	0x3d86ed2f	0.06588208
127	0x3e3ab31e	0.1823239
128	0x3e51efbf	0.20501612
129	0x3df62da2	0.120204225
130	0xbc2027ee	-0.009775145
131	0xbdee5d44	-0.11638883
132	0xbdbc3547	-0.09189849
133	0x3d30b624	0.043142453
134	0x3cb60be7	0.022222472
135	0x3e97b767	0.29632112
136	0xbd780fff	-0.06056213
137	0xbd097227	-0.03355613
138	0x3e840f1d	0.2579278
139	0x3d885fae	0.066588745
140	0xbe502e24	-0.20330101
141	0xbe2c2de4	-0.16814381
142	0x3e09d7a9	0.13461174
143	0x3dee735d	0.116430975
144	0x3c4a9b66	0.012366151
145	0x3e36e519	0.17860831
146	0xbd14a411	-0.03628928
147	0x3d0e6ccd	0.03477173
148	0x3dfdaf9f	0.12387013
149	0x3e02e23c	0.12781614
150	0x3c3228d7	0.010873995
151	0x3e618e82	0.22027019
152	0x3e18da29	0.14926971
153	0x3e4d3ffd	0.20043941
154	0xbe21ec05	-0.1581269
155	0x3e8ff38b	0.28115496
156	0x3d9d07e9	0.07667524
157	0x3d5a0129	0.053223763
158	0x3d2f8fa3	0.042861592
159	0xbd6d37be	-0.057914488
160	0x3d9f9f9a	0.077941135
161	0x3e11a155	0.142217
162	0x3c51d274	0.012806524
163	0x3e3f9e64	0.18712765
164	0xbe30f50e	-0.17280981
165	0x3cbc50b0	0.022987694
166	0x3bad2431	0.0052838554
167	0x3e39b658	0.18135965
168	0x3d55c282	0.05218745
169	0x3e3f6c23	0.18693595
170	0x3e3e0277	0.18555628
171	0xbcf5e041	-0.03001416
172	0x3ec4c789	0.38433483
173	0xbca6ab17	-0.020345254
174	0xbc50c7b0	-0.012742922
175	0x3dbbe10c	0.09173784
176	0xbccf7f40	-0.025329232
177	0xbc2d0901	-0.010561229
178	0x3e492c11	0.19645716
179	0x3e8a43fe	0.27005
180	0x3e2db295	0.16962655
181	0x3c9a3977	0.01882623
182	0xbbc6afbc	-0.0060634296
183	0xbe06313d	-0.1310472
184	0x3d2ad192	0.041703768
185	0x3d2b59e2	0.041833766
186	0xbe0c7cfb	-0.13719551
187	0x3e1f2505	0.15541466
188	0x3e70c0ae	0.23511001
189	0x3e1af632	0.15132979
190	0x3d7522ab	0.059847515
191	0x3dbbb2aa	0.09164937
192	0x3df71363	0.120642446
193	0xbc50d620	-0.012746364
194	0x3e6ae061	0.22937156
195	0xbdb5ff27	-0.08886557
196	0xbddd64c5	-0.10810236
197	0xbdfec4ce	-0.12439881
198	0x3c708be6	0.014681792
199	0xbd7efe76	-0.06225439
200	0x3e338769	0.17532124
201	0xbd84c0dd	-0.06482098
202	0x3da53522	0.08066775
203	0xbe31c21e	-0.17359206
204	0x3e45139f	0.19245766
205	0x3e22a051	0.15881468
206	0x3e03c454	0.12867862
207	0xbe549652	-0.20760468
208	0xbdea73f6	-0.11447899
209	0xbd3757ab	-0.04476134
210	0x3e255d3b	0.16148846
211	0x3c4fd8c4	0.012685958
212	0x3dac7a2d	0.08421741
213	0xbddb3471	-0.10703362
214	0xbdc34de6	-0.09536342
215	0x3e61009d	0.2197289
216	0x3d9b32e9	0.0757807
217	0xbdb83813	-0.0899507
218	0xbd0dab9e	-0.034587495
219	0x3e651434	0.22370988
220	0xbc93c661	-0.01803893
221	0xbd72cd12	-0.0592776
222	0xbc133297	-0.0089842295
223	0xbd81a064	-0.0632942
224	0x3bc0a224	0.0058787037
225	0x3da948c0	0.08265829
226	0xbcdee47d	-0.027208561
227	0x3e75432b	0.23951404
228	0xbbf682c4	-0.0075229127
229	0x3d1e42c5	0.038637895
230	0xbb9bf199	-0.0047590253
231	0x3d2816a9	0.041037235
232	0x3dc7f2ea	0.09763129
233	0xbddb9a9f	-0.10722851
234	0xbe0bf0b1	-0.13666035
235	0xbcb41750	-0.021983773
236	0x3e79df92	0.24401692
237	0x3d6d3811	0.057914797
238	0x3dd1f6a2	0.102521196
239	0x3d1321c4	0.035920873
240	0x3eb6d67d	0.35710517
241	0x3e6de3d6	0.23231444
242	0x3e3c8f84	0.18414122
243	0x3e14f76e	0.14547512
244	0xbcecfdeb	-0.028929671
245	0xbb5b8297	-0.0033494586
246	0x3da485fe	0.080333695
247	0xbd054aca	-0.032542028
248	0x3d0f301f	0.034958
249	0x3d84a275	0.06476299
250	0x3eb618fe	0.35565943
251	0x3e10079c	0.14065403
252	0x3db9c185	0.09070114
253	0xbda84348	-0.08215958
254	0x3daf99a5	0.08574227
255	0x3dd288d5	0.10280005

out.weight f4 [2, 16]
0	0xbd4a50ee	-0.049393587
1	0xbd490e49	-0.04908589
2	0xbd4d2831	-0.050087158
3	0xbd48f647	-0.049062993
4	0xbd4612c2	-0.048357733
5	0xbd456d50	-0.04819995
6	0xbd4af5ce	-0.049550824
7	0xbd4cc973	-0.049996804
8	0xbd4d2c29	-0.050090943
9	0xbd4548b0	-0.048165023
10	0xbd486405	-0.04892351
11	0xbd44f9ec	-0.048089907
12	0xbd426cf0	-0.047467172
13	0xbd438af3	-0.047739934
14	0xbd4768ae	-0.048683815
15	0xbd4ad3de	-0.04951846
16	0xbd48b3b3	-0.0489995
17	0xbd491b36	-0.049098216
18	0xbd4bbed1	-0.049742524
19	0xbd4a047b	-0.04932068
20	0xbd41bd95	-0.04729994
21	0xbd4a5312	-0.04939563
22	0xbd4a90b6	-0.049454413
23	0xbd4af8a3	-0.049553525
24	0xbd4651bb	-0.048417788
25	0xbd462b39	-0.048381064
26	0xbd4a0616	-0.04932221
27	0xbd486cf9	-0.04893205
28	0xbd41d0cf	-0.047318276
29	0xbd43df72	-0.047820516
30	0xbd4a5820	-0.04940045
31	0xbd4939fe	-0.04912757

out.bias f4 [2]
0	0x3f74577f	0.9544601
1	0x3f747c7b	0.9550244
