results/dot-ou-final_d=ballsw=8z=2det=0lat=const-sig-ntloss=exactsigma=diag/run2/saved_nets/mu_best_val_1.pth (torch, 7662 bytes, 7 tensors)

first_layer.linear.weight f4 [16, 2]
00000000: 2f3c 5e3e a2fc 903d af69 0ebe f1e7 fbbd
00000010: 777e babe a6ba 81bd 7d9a 6bbd b720 a6bb
00000020: 1e8d 243e f902 b03e 4d94 abbe cacd 5fbd
00000030: 3965 4a3c 9d1f d73c 997a f0bc 846e 0fbe
00000040: e91b 14bb 135b a93d 54bd cf3c 4829 e5be
00000050: c81e 713e 70e2 183e 0edf 97be 29cf cc3d
00000060: b769 5bbe adf2 bbbd 1c0a 8e3e 6896 303e
00000070: 57e3 923e e37d 1c3e afde 13be d145 b93d
0.21702646 0.07079436 -0.13907503 -0.12300099 -0.3642461 -0.063344285 -0.05752038 -0.005069818
0.16069457 0.34377268 -0.33511582 -0.054639615 0.012353235 0.026260192 -0.029355334 -0.14007002
-0.0022599644 0.08269324 0.025358833 -0.44758058 0.23546898 0.14930129 -0.29662365 0.1000045
-0.21427046 -0.09177146 0.27742088 0.17244875 0.28689072 0.15282397 -0.14440416 0.090465195

hidden_layers.0.linear.weight f4 [16, 16]
00000000: 337f b53d b77c 8abe fc2c f53d 15a8 a3bc
00000010: 6736 1a3e e7f3 15be 9649 fd3d 39b7 e5bb
00000020: 3737 1f3d 019e 503c 7de7 853e 0b5d 18bd
00000030: 7865 0fbe 1411 e93d ec6b a73e 43cb 1d3e
00000040: af59 90be 3429 c73d 60ac ad3d 502b 07be
00000050: 43e7 963b beb4 e23c 5f9d 88bb a863 1abe
00000060: 40ee ce3c 0e10 073d b931 c63d 845a edbd
00000070: 452e 5aba e4e6 cf3b 9882 af3d 8813 35bd
00000080: 45c2 253e b279 0a3e 3ca4 9d3c 51ea e43c
00000090: 1419 0d3c b43e 22be 960b 8f3e 9041 9f3d
000000a0: b536 203c 0de1 dbbc 0188 b6bd f997 9cbd
000000b0: 5ec3 a8bd 8aac 703c a90e a43e 8deb 07be
000000c0: fd37 163d 8c2e 0ebe 4d92 9bbd 6d1c 4abe
000000d0: a59a 923e b188 26bd 054b b13d f38b 793d
000000e0: 333d 193e d314 fd3c f38a 773e df89 37be
000000f0: 7995 efbb cd1d fe3d 5f6c 393e 620f 973d
00000100: 84ef 613e 3ad6 ca3d 3137 adbe 16d8 de3d
00000110: 83b2 5b3e 49d1 c6bd e795 113d 61cc 823e
00000120: 64c5 d33d b84d 39be fbe6 273e 677e c2bc
00000130: 955b 11be 9a7a 083e 5cd4 133e b926 bb3d
00000140: 8689 213d dcea 19bd a05a 0dbe 0db4 f93d
00000150: 743e 8abd 63f9 35bd 9d06 1b3d 3f19 063e
00000160: cfcf 9fbd 0979 f2bd 274e a5bd 0a35 4d3e
00000170: 609b c6bd 36a8 eb3d 2a2d 4dbd ecc0 5abb
00000180: cf0f 13be 87a9 bb3d eef1 66be d481 a73c
00000190: ed8d 213e 87f2 f4bc 1a40 fe3d 17da 9dbd
000001a0: 4e0d ec3b 0736 56bd 4ad9 383d 8484 5f3d
000001b0: 1d86 213e 371f aabd 0479 a63e be04 8cbc
000001c0: 0a22 223d fd09 09bd 86dc 923d c6b7 943d
000001d0: 050d 5a3d b327 febd a7cd 1e3e 02ec b63d
000001e0: 0ca2 353d f2e6 f4bd d9a6 aebd 761c 5e3d
000001f0: 58bb 713d 023e a03c de45 a23d 4d98 83bc
00000200: 65b1 803e 7e5b babd c6ef bd3d 3ad5 d8bc
00000210: 1f19 0e3e 6405 35bc e138 11be 7de6 23bd
00000220: 8f2c 1a3e 23e0 2dbe 4821 a93c 04f0 54bd
00000230: 00bc 553d 2992 5f3e 258e 8a3e 3e9d 723d
00000240: 99c5 173e 6a94 b53d 125b e5bd cf43 883d
00000250: 8c39 373e 6341 3cbe c47b c93d acb7 a43d
00000260: e451 b0bd 10e8 e93d 27b3 8c3e 4c08 633d
00000270: 2c47 adbd dfcf ca3e cd89 7b3d e1f2 80bd
00000280: ed00 b23d 30e1 81bd dfe5 7abd 1e9f 41bd
00000290: 011a 1d3e 8d2d 2fbe 61c9 0c3c 60c1 20be
000002a0: 61ee 713c 402b a43a 6755 42bd d7f9 643d
000002b0: 4542 083d c37e 0e3e 67a3 8a3e dacd 843d
000002c0: 2b0a da3d 66a0 fabc da28 22be 7d09 79bd
000002d0: 1f0d 8abc 6b84 c7bd b7f6 7e3e 4458 69bd
000002e0: dc81 493e d387 05be 5fb2 823e fbcd c13d
000002f0: 194c 83be d0ca 353d e791 7b3e 23f7 133c
00000300: dd4b 85bc 9882 adba cc1a ba3e 745f bc3a
00000310: 610f 943c b3a0 2dbe e032 e83c 6c23 f5bd
00000320: ae69 bfbb 79a9 17be 5cba 11bd bd7d 753e
00000330: 8e79 4bbe 9338 a23c 6bba 233e ab10 0cbd
00000340: 6683 343e 4107 a93c c0e6 3abd fff5 eabd
00000350: 4bd8 b83e c9a6 2abe f648 d9bc b6c4 49bd
00000360: dffb 83bc 67d9 98bd 1a1b a23d 50bc 05be
00000370: 6ac1 efbd 5187 27bc 94bc be3d 67aa fcbc
00000380: 0296 d0bd c1f1 943e fe17 8f3d da22 243d
00000390: 99d9 78be 6c87 ea3d 583f 0a3d af53 743e
000003a0: 3044 14be 3a82 c9bc 9218 a1bd 6b19 4abe
000003b0: 3b8b 843e 83e0 4bbe a715 50bc 3f44 a63d
000003c0: 22c1 a4bd 6c85 0dbe bb80 3cbb 6216 2e3e
000003d0: 2002 cbbd 5a86 3d3e 7fdd acbe 7362 3ebe
000003e0: 2dae fc3b b64a b13a f2ea ff3d 0554 713d
000003f0: d7d6 463e 63e8 97bb 2ca9 463e 3a36 1a3e
0.08862152 -0.27048275 0.11971471 -0.019977609 0.15059815 -0.14643823 0.12367551 -0.0070103672
0.038871016 0.012732984 0.26153174 -0.037198108 -0.14003551 0.113802105 0.32699525 0.1540957
-0.28193423 0.09724656 0.084801435 -0.13200116 0.0046052053 0.027674075 -0.0041691507 -0.15077078
0.02526009 0.032974295 0.096774526 -0.1158953 -0.0008322935 0.006344663 0.08569831 -0.04420808
0.16187389 0.13522986 0.019243352 0.027943762 0.008611936 -0.15844232 0.27938527 0.07776177
0.009778668 -0.026840711 -0.089126594 -0.07646174 -0.08240388 0.014689574 0.32042435 -0.13273449
0.03667449 -0.13884944 -0.07596264 -0.19737406 0.2863361 -0.040657703 0.08656887 0.06092448
0.14964752 0.030893719 0.24174099 -0.17923687 -0.0073115197 0.12408028 0.18107747 0.07375981
0.22064024 0.09904142 -0.3383117 0.10881059 0.21454816 -0.09707887 0.03554335 0.25546554
0.10340384 -0.18096054 0.16396706 -0.023741914 -0.14195092 0.13328019 0.14436477 0.09138245
0.039437793 -0.037577495 -0.13804102 0.12192545 -0.06750193 -0.044427287 0.037848104 0.13095568
-0.07803308 -0.11839492 -0.08071547 0.20039764 -0.09697604 0.11506693 -0.0500919 -0.003337915
-0.14361499 0.09163194 -0.22553226 0.020447649 0.15776797 -0.029900802 0.1241457 -0.07707613
0.0072037345 -0.05229762 0.045129098 0.054569736 0.15773816 -0.08306735 0.32514203 -0.017092105
0.039583243 -0.03345679 0.07170968 0.072616145 0.053235073 -0.12409916 0.15508138 0.08931734
0.044343993 -0.11958112 -0.085279174 0.05422636 0.059016556 0.019560818 0.07923482 -0.016063834
0.2513534 -0.09099482 0.09274249 -0.026468862 0.1387677 -0.0110486485 -0.14181854 -0.040014733
0.1505606 -0.16980033 0.020645753 -0.05198671 0.052181244 0.218331 0.27061573 0.05923199
0.14821471 0.08866198 -0.11199011 0.066535585 0.17893046 -0.18384318 0.098380595 0.08042845
-0.086093694 0.114212155 0.27480432 0.055427834 -0.084608406 0.39611718 0.061410714 -0.062963255
0.08691583 -0.06341779 -0.06125438 -0.047270887 0.15341951 -0.1710722 0.008592934 -0.15698767
0.014766307 0.0012525097 -0.047444727 0.05590233 0.033266325 0.13915543 0.2707779 0.064845756
0.10646471 -0.030594062 -0.15835896 -0.060800064 -0.01685196 -0.097420536 0.24898802 -0.056968942
0.19678444 -0.13040094 0.2552671 0.09463116 -0.25643995 0.04438287 0.24567376 0.00903109
-0.016271526 -0.0013237773 0.3634857 0.0014371709 0.01807374 -0.16955833 0.028344572 -0.11969647
-0.0058414554 -0.14810742 -0.035578117 0.23973747 -0.19870588 0.019802367 0.15989082 -0.034195583
0.1762825 0.020633342 -0.045630217 -0.11472701 0.36102518 -0.16665186 -0.026524048 -0.049259864
-0.016111312 -0.07463341 0.079153255 -0.13060117 -0.11706813 -0.010225133 0.09313312 -0.030842973
-0.10184862 0.29090694 0.06986998 0.0400723 -0.24301757 0.11451611 0.033751816 0.23860048
-0.14479136 -0.02459823 -0.078660145 -0.19736259 0.25887474 -0.19909863 -0.012700475 0.08118486
-0.0804465 -0.13820428 -0.0028763253 0.17000726 -0.09912515 0.18508282 -0.33762738 -0.18592243
0.007711193 0.0013526294 0.12495984 0.058918018 0.19417892 -0.004635857 0.19400471 0.15059748

hidden_layers.1.linear.weight f4 [16, 16]
00000000: 8192 3d3d d32d b63d 32a3 543e d1a4 83bd
00000010: 1c92 46be 8d6f 2a3e f768 b43d 4756 c83c
00000020: 6026 cfbd 79da dd3b c168 aebd 4d97 583d
00000030: 6c29 3ebd 6ae3 c13d 12aa a8be 290f febd
00000040: 9d7b 1c3e 877e a8bd 5abc af3d bb95 183e
00000050: 0bac b93e f8df 70be a6b6 1a3d 603d 0b3e
00000060: 5dbf 503e 8d11 f23d 34eb 55bd 0b91 533e
00000070: 66a7 093e 7c84 073e b3f7 de3d 3d07 353e
00000080: e479 e03e 1e34 4abe 30dd e53d 243b e73d
00000090: e111 ae3e 4f7b afbd d225 2b3e cdd2 033e
000000a0: 522a c13e 4380 163e 2120 243e 8e32 bebc
000000b0: 411f 883d 8d82 a63d 07b5 4e3c 62b2 a23d
000000c0: c200 3b3c c5a1 7cbc a121 c8bc 34ef 133d
000000d0: 7719 793e b593 ea3d a183 e3bd 8397 88be
000000e0: b304 f93d 62ac 713d bf14 3a3d 0999 a8bb
000000f0: 6bcb 1dbe f5b6 f7bd cfc2 c8bd 0e12 acbd
00000100: 1c24 303e 10cc 7cbd 3a7d ae3d 57a8 be3d
00000110: 6fe3 5f3e b9b6 2abb 6d4a 883d 7b81 b7bd
00000120: 0ec4 a13d 1c2b 173e 5137 a33d 8eb3 a03d
00000130: e78b 813c 3e51 733e a4cd 10bd 2bf5 263e
00000140: 8277 dd3d 30cd 843d ff67 813c 3476 713e
00000150: 0a15 8d3e eba4 3c3e b54f 733c 37da 7ebd
00000160: 448d 893e 007e 853e 750e 5a3e 6a4b c13d
00000170: 0290 23bc fafa 64bb 6554 a5bd f2ba bc3c
00000180: 397f ea3d e91f 453d af14 033d 7320 2d3e
00000190: 3282 aa3e b699 133c 85a9 323e b4e8 973d
000001a0: be6c 63bd 1876 4f3e 3d77 0d3e 7d9b 7f3e
000001b0: 7a98 4cbe f40a 953e 2386 34bc 309f eb3d
000001c0: 2edf a8be e9dd c1bd bcf0 e5bd dcd5 d5bd
000001d0: d597 8fbe 120d afbe 4b6c b5bd 5446 893e
000001e0: d29b 1d3d 0fdd debd 2705 0cbd 6ed6 28be
000001f0: 3bde 853d 8cbf e5bd 3e1e b03d 6ddc 403d
00000200: 41f8 a6ba 8272 a2be 4505 113e 8d9e 783d
00000210: 7dbf 013e ad90 a13e 6036 adbc 499c 463c
00000220: 9151 ebbd 2e5d 87bd 22ac 1e3e d6b9 b2bd
00000230: f2a1 a5bd 9d14 3a3e 94a3 1abe 2415 c6bd
00000240: 5de6 8c3e 46d4 a23e a74a 803d 7c8d bc3d
00000250: 1d0a eb3d 7017 a03d 6106 6c3e 3a5b 013d
00000260: aba3 1a3e cf4d 003e 7b29 de3c ab13 ab3e
00000270: 7d5d a3bd cf43 5e3e dce9 9a3c 958a 0cbd
00000280: fe00 0c3e d8f4 6fbd b436 c23d 18c5 11bd
00000290: 5e67 07bd 1450 d6bc b2d8 15bc baa1 3cbe
000002a0: c442 a73d 8bed 303e 1515 1cbe c16c 683c
000002b0: cba8 11be 9295 953d a5ac cebc fc5d 733d
000002c0: 5113 03bd 04af 60bc 0c9e 0d3e e0a6 973e
000002d0: 27a1 80be c57b 7dbe a8ca 2a3e 93a1 d8bc
000002e0: 6abf 00bd 782f f6bd dfc5 6abe 0815 3e3d
000002f0: ce51 d5bd 7037 9ebb a52c 7f3d 7a58 52bd
00000300: 9f56 00be 0151 6cbe b982 243c 4a76 d0bd
00000310: b9fc a13d 5bfc d6bd 3d78 9b3d ce91 1ebe
00000320: e3f5 813c edd7 9a3b 6d7f 2ebe 9ae2 83bc
00000330: 0d42 46be bbd6 96bd 092e 063e 1200 663d
00000340: fcaa 05be 312d 9cbd 1c2b 363e a350 7a3e
00000350: 5dd6 523e 9ace a93d ff62 d8ba dacc f2bc
00000360: a1ea ddbd 6f94 093e 3732 7c3d 8cc4 ef3d
00000370: 4b05 0a3d bb3e 3d3e 5c3f 64bd a175 9cbd
00000380: bbfc 6b3b c974 50be a7cb 823c b4a5 88be
00000390: 50e2 e83d 1e7d 1fbd a5d4 1cbe 110e e73d
000003a0: d5e6 2c3d 03aa 853d e1ab 063d 8850 99be
000003b0: a3a9 8dbc 6b18 4f3e 298f e0bd 28c9 e2bd
000003c0: 8c55 22be 2c7e 323d 058b de3c 12c2 853e
000003d0: 2a13 013e ea6d 52bd 02ba c53d 688b 273d
000003e0: fe00 143b 5bfa 833e d2dd a03d fe9b b0bc
000003f0: d8fb 9f3d 0011 95bc b47e c1bd 5de3 1b3e
0.046282295 0.08895459 0.20765379 -0.064279206 -0.19391674 0.16644116 0.08809083 0.024455203
-0.10114741 0.0067704287 -0.08516074 0.052878667 -0.04642622 0.09467204 -0.32942253 -0.12405235
0.1528153 -0.08227258 0.08580847 0.14900868 0.3626407 -0.23522937 0.037771843 0.13597631
0.203855 0.11819754 -0.05222626 0.20660798 0.13442764 0.13234133 0.108870886 0.17678542
0.43842995 -0.19746444 0.11223829 0.11290577 0.33998016 -0.08568441 0.16713646 0.12873383
0.377276 0.14697365 0.16027881 -0.023217466 0.06646586 0.08130369 0.0126164025 0.0794418
0.011413755 -0.015419428 -0.024430098 0.036116794 0.2432612 0.11453954 -0.111090906 -0.26678094
0.121590994 0.059002288 0.04542994 -0.0051451963 -0.15409629 -0.12095443 -0.09802782 -0.08401881
0.17201275 -0.061718047 0.08519979 0.09309452 0.21864103 -0.0026048853 0.066548206 -0.08960243
0.078987226 0.14762539 0.07969535 0.07846747 0.015813781 0.2376146 -0.035352364 0.16304462
0.1081381 0.06484449 0.01579666 0.23580247 0.27555114 0.18422286 0.014850547 -0.062219825
0.2686559 0.26072693 0.21294577 0.09438212 -0.009983065 -0.0034939633 -0.080727376 0.023038361
0.11450047 0.048126135 0.032002147 0.1690691 0.33302456 0.0090088155 0.17447479 0.074174315
-0.055523627 0.20259893 0.13815017 0.24961658 -0.1998004 0.2910992 -0.011018309 0.11504972
-0.32982773 -0.09466154 -0.11227557 -0.10441181 -0.28045526 -0.3418966 -0.08858546 0.2681147
0.03847868 -0.10882007 -0.0341846 -0.16488048 0.06536528 -0.11218175 0.08599518 0.047085214
-0.001273878 -0.31727988 0.14162166 0.06069808 0.12670703 0.3155569 -0.021144092 0.012122222
-0.11490167 -0.066095695 0.15495351 -0.08726852 -0.08087529 0.18171926 -0.15101463 -0.09672001
0.27519503 0.31802577 0.06264239 0.092066735 0.11476538 0.0781697 0.23049308 0.03158114
0.15101497 0.12529682 0.027119389 0.33413443 -0.07976816 0.21705554 0.018910341 -0.03431185
0.13672253 -0.05858311 0.0948309 -0.035588354 -0.033057563 -0.026161231 -0.0091459025 -0.18421069
0.081670314 0.17278115 -0.15242417 0.014186085 -0.14224546 0.07303919 -0.025228808 0.059415802
-0.032000843 -0.013713602 0.13829821 0.29619503 -0.2512295 -0.24754246 0.1667887 -0.026444232
-0.031432547 -0.12020773 -0.22927044 0.046406776 -0.10415994 -0.004828386 0.062298436 -0.05135391
-0.12533043 -0.23077776 0.010040932 -0.10178812 0.07909531 -0.10497352 0.07591293 -0.15485308
0.015864318 0.0047254474 -0.17040797 -0.016099263 -0.19361134 -0.07365175 0.13103499 0.05615241
-0.13053507 -0.07625807 0.17789882 0.24444823 0.20589586 0.08291359 -0.0016508995 -0.029638696
-0.108357675 0.13435529 0.061571326 0.1170741 0.033696454 0.18480961 -0.055724487 -0.076396234
0.0036008793 -0.2035705 0.01596625 -0.2668892 0.11371291 -0.03893768 -0.15315492 0.1128198
0.042212326 0.06526568 0.03287876 -0.29944253 -0.017292803 0.20224158 -0.10964806 -0.11073524
-0.15852946 0.043577358 0.027165899 0.26124626 0.12604967 -0.051374353 0.09654619 0.040904433
0.00225836 0.25776944 0.07854809 -0.021558758 0.07811707 -0.018196583 -0.09447995 0.15223451

hidden_layers.2.linear.weight f4 [16, 16]
00000000: e437 42be feed 48be d0f8 bd3b a6a2 7e3e
00000010: d6ba debd 5f9b 283e 678b 8dbe a8b9 a33d
00000020: 4de1 883c 756a ff3d 59fb 59bc 726c 0dbd
00000030: 7123 6dbe 39b5 d8ba 7678 863d d83f 37bd
00000040: 8e29 49be b80b bcbd 4328 e0bd 8e44 c13c
00000050: f6d1 063e e39b 9e3d 7eca 613d 05ac f6bc
00000060: 47cd b2bd cd21 91bd 9f5c 233d 5642 bb3d
00000070: d772 18bc 8161 bebc c299 e4bd bf6f 10bd
00000080: cfb3 ba3d aba2 063e 7bf8 793d d8f3 4abd
00000090: 237c 0b3e 5cd3 973d 8fce 813e 4d2a 7ebe
000000a0: 9247 9d3d 7bd8 c43d f357 b63d bc12 b6bd
000000b0: c43a a0bd ea7a 9f3e 405b 3a3d 2d09 003d
000000c0: 669e 653d 6aa0 a13d 8542 933c a238 4d3a
000000d0: e756 ca3d 5309 b73d 1770 d83c 6027 a9bd
000000e0: f12d bc3d 759c 5a3e ce58 633c 5a45 ba3b
000000f0: 214c 4fbe d04a 373e 02c9 07be dedf d43e
00000100: 79b0 233e 822c 29be 472c 9dbd 49b5 c3bd
00000110: 3724 a2bd ff37 1abe 9fc4 183e d143 a4bd
00000120: 2290 86be b127 c9bc f158 c93d 9193 ccbb
00000130: 937e cabc 881a f4bc ecc0 42bc 2e34 b6bd
00000140: dd81 a13b 406c ea3c 6c34 03be 716b 96bd
00000150: 31c2 cfbc 0473 cd3c 48b4 25be 854e 923d
00000160: ddae c7bd 457b 883d b408 3abd 7f15 60bd
00000170: 0712 343d 143c 0abc 99b1 c93d 3427 92be
00000180: 0db3 e33d 0cbd e13d ac0d 213e 959f 843d
00000190: 49b7 2d3e 6da7 95be e754 36bd 4cd3 ff3d
000001a0: 8ba5 dcba ba00 083e e832 433d 3fba 2f3e
000001b0: a934 89bd f48c 6f3e d939 9c3e 847c b3bd
000001c0: f810 49be f01e a53d c68c 94bd da8f f03d
000001d0: 47db 7dbe 8b45 003c 46f2 683d c9b9 14bd
000001e0: fa52 2cbd 17d3 8c3d f8fa 563e 9445 2abe
000001f0: 96d5 d83c 74c9 383e c74b 1ebd ac61 fcbd
00000200: af04 0e3e a989 82bd c332 d03d dea0 8f3d
00000210: 09c3 98be 1179 533e de92 d13d b6af b23d
00000220: 10f9 febc 9b9c 883d a8a7 a43d 332f 453d
00000230: 3df9 853e 5fea f83c b4a6 c23c 9cca b53d
00000240: fe34 85bc 9627 463d b1bc 883e b364 3b3e
00000250: de49 c83d f813 853e e04c 343e 31c2 67be
00000260: f30c 3d3e 2b00 1c3d d22a 7d3c 40c3 07be
00000270: 7189 d8bd 78c8 493e 3ebb 343e bdef 8abd
00000280: 04b6 6c3d fd32 fabd 72cb 433e adca 3b3d
00000290: 1ce9 c8bd 886c 32ba bf6f febd 04a1 e7bd
000002a0: 4bdd 5e3d efae d4bd 93ab 623e 187d 393d
000002b0: 3f99 9e3d c93e 023e 9720 223d ba06 9e3c
000002c0: c8d2 eb3d abe3 e33d 7b87 8bbe 874c f93c
000002d0: 4007 94bd f2a7 3ebc c6d8 1bbd b0de 48be
000002e0: f25d 41be a4b0 a23d 0dae 77be efb4 473e
000002f0: 6bdd 0abe 40be 103d 34b2 87be f55b dbbd
00000300: 2d2d b63c af34 47be d235 09bd 9c05 45bd
00000310: 6cb8 b43c 8391 85bd d1e1 afbe 4fc7 ccbd
00000320: 29e3 383e 014d c53d 953a 5a3e 051a c8bd
00000330: ab9e 13be 9de3 4a3d fd44 d73d be41 293e
00000340: f01c ca3d 0420 783d eb1c 0c3e 0285 c73d
00000350: 7895 d5bd 8223 703e 323d cebd 78d7 5f3e
00000360: 57c4 983d e114 bc3e 24f4 d7bd fa6e a7bd
00000370: 0136 863d 148d 97bd 1a1f 2dbe 3ed7 68be
00000380: 1e62 4a3d 25c0 ad3d 81e1 0a3c 83ad 1139
00000390: eb24 01be 0e37 50bc 0b43 723e 883e 39bd
000003a0: 56a4 d5bd 1359 483e 731a ad3c 935d 903e
000003b0: a381 1c3e 159c 07bd c886 f13d a6bf f6bd
000003c0: bb99 2b3e 0952 9b3e 7e88 893d 91cf a3bd
000003d0: 2d6d eb3d 7066 c43e a33b 1e3e badf 543d
000003e0: 8b4e 383e 9e4e 5abc 42a3 1cbd bcfd cd3d
000003f0: d721 04bd cd51 46bd 7594 84bd 59db 443d
-0.18966633 -0.19622037 0.005797483 0.24866733 -0.1087548 0.1646552 -0.27645418 0.079943955
0.016708994 0.12471477 -0.013304555 -0.03452725 -0.23158051 -0.0016533501 0.06565945 -0.04473862
-0.19644758 -0.09181923 -0.10945179 0.02359226 0.13166031 0.07744577 0.055124752 -0.030111322
-0.0873056 -0.07086525 0.039883252 0.09143512 -0.009304724 -0.023239853 -0.111621395 -0.03526282
0.09116327 0.1314799 0.061027985 -0.049548954 0.13621573 0.074133605 0.25352904 -0.24820824
0.076796666 0.09611603 0.08903494 -0.08890292 -0.07823709 0.31148463 0.04549718 0.03125875
0.056059264 0.07891925 0.017976055 0.00078285683 0.098798566 0.08937325 0.026420636 -0.08259463
0.0918845 0.21348746 0.013876153 0.005684537 -0.20243885 0.17899632 -0.13260272 0.41577047
0.15985288 -0.16520885 -0.07674461 -0.09556062 -0.07917064 -0.15060423 0.14918755 -0.080207475
-0.2628184 -0.02455506 0.09831417 -0.006243177 -0.024718558 -0.029797807 -0.0118868165 -0.08896671
0.004928811 0.02861607 -0.12812966 -0.073447116 -0.025361152 0.025079258 -0.16182053 0.07143883
-0.097501494 0.06664137 -0.045418456 -0.054708 0.043962505 -0.008437175 0.09848327 -0.28545535
0.111181356 0.11022386 0.15727872 0.0647575 0.16964449 -0.29229298 -0.044514563 0.124914736
-0.0016834004 0.13281527 0.04765597 0.17160891 -0.06699497 0.23393613 0.30512884 -0.08763984
-0.1963538 0.080625415 -0.07253413 0.117461875 -0.24790679 0.00782908 0.056871675 -0.03630999
-0.04207132 0.068762 0.20994174 -0.16628104 0.026469033 0.18045598 -0.038646486 -0.12323317
0.13868974 -0.06373913 0.10165932 0.07013105 -0.298363 0.20651652 0.10233091 0.087249205
-0.031124622 0.06670495 0.080397904 0.048140716 0.26166716 0.030385194 0.02376113 0.08876535
-0.01626062 0.048377596 0.2670646 0.18300132 0.09779714 0.25991797 0.1760745 -0.22632672
0.18461971 0.038086098 0.015452104 -0.13258076 -0.1057309 0.19705379 0.17649552 -0.06784008
0.05779077 -0.122167565 0.19120577 0.045847584 -0.09810087 -0.00068063335 -0.124236576 -0.11310008
0.05441026 -0.103849284 0.22135763 0.045285314 0.07744073 0.12719263 0.03958186 0.019290317
0.11514813 0.111274086 -0.272518 0.030431999 -0.07227945 -0.011636721 -0.038048528 -0.19616199
-0.18883494 0.07943848 -0.24187489 0.19502614 -0.13561027 0.035337687 -0.26503146 -0.10710899
0.022238338 -0.19453691 -0.033498593 -0.048101053 0.022060595 -0.06521895 -0.34351972 -0.099989526
0.18055405 0.09633828 0.2131141 -0.09770588 -0.14415996 0.049533475 0.10511205 0.16528985
0.09868801 0.060577407 0.13682906 0.09742166 -0.104288995 0.23451045 -0.10070266 0.21859539
0.07459324 0.3673468 -0.10544613 -0.08175464 0.06553269 -0.073999554 -0.16906396 -0.22738358
0.049409978 0.08483914 0.008476616 0.00013892916 -0.1261174 -0.012708439 0.23658387 -0.04522565
-0.10431735 0.19565229 0.021130776 0.2819639 0.15283827 -0.033107836 0.117932856 -0.12048273
0.16757862 0.30336025 0.06715487 -0.079985745 0.11495433 0.38359404 0.15452437 0.051971175
0.17998712 -0.013324408 -0.038241632 0.100581616 -0.032258835 -0.048417855 -0.064736284 0.04806075

hidden_layers.3.linear.weight f4 [16, 16]
00000000: 3c5f 05bd 6241 da3d 6651 a83d 3586 963d
00000010: 329c 123d 4c80 933d 7ef0 8b3d 7e93 6cbd
00000020: acd7 273e de56 8a3d 1055 6e3e f83c 4abe
00000030: 4174 b4bd 763f 71be 118b d03c c771 4f3d
00000040: d8e1 d23c 1c05 0d3e 43f0 133e f9ae 653e
00000050: 349a aabd cd51 7cbd 6e6c 183d 2b6f 1a3d
00000060: 0fa6 a2bd 5534 3b3e 545e 363d 2c3f 213e
00000070: f8fb 053e 693f ed3d 20fc 8e3e a80d 233e
00000080: c11b 383c 6a31 58be f830 fc3d 9159 803e
00000090: e699 c13d 53af 90bd b388 463e b7ab 073e
000000a0: 0f3f ae3d 42fd 843d dbfa 0dbe a54e e63d
000000b0: 13e6 74bd b506 7e3d 1458 cfbd 157d 463e
000000c0: 5bd3 cabb 271d 163c 178b ee3d 5ef4 bdbd
000000d0: 4ce3 093c 3f98 f6bd 3316 1b3c 4451 efbd
000000e0: c377 b73d e68b 9b3d 683e d43c bc73 b0bd
000000f0: 14fd 3d3e 81bf 8a3d cd89 cd3d 2918 263e
00000100: 324e 483d 607d 463e 0e5a 9b3c 4395 1dbe
00000110: 62ee eebd c851 ff3d 0ad3 78bd 6950 39be
00000120: 92b6 9d3d 6737 bc3d 8e72 95bc dae7 153e
00000130: 1322 3f3d c4c9 ab3d 41c9 ccbd 7c7a 26bc
00000140: ceef c13c a890 c53d 0783 513d 62c5 d7bc
00000150: d3dc f23d 1a2d 5e3e 8007 633d cd22 27be
00000160: b982 89bd 9bcf ca3e b1e8 69bd 40ff dfbc
00000170: ca6e 3fbe da4d 63bd 946c 3bbd 78a7 663d
00000180: 66fe 10be aac0 823d 8515 803e ee5c 873d
00000190: 494a b53c 225d 9c3c 2e63 0ebe 54b3 8c3d
000001a0: 2594 083b 0457 f13c 1296 77be 627c fabd
000001b0: 52cc d1bd 51d4 a1bd 3733 87bc cef6 0c3e
000001c0: 280b fdbd c5f0 323d 058d 3c3e 87a0 d43c
000001d0: 3b59 86bd 14dc 86bd da7b 153e 2a5b cdbd
000001e0: d937 3dbd 1799 093d 8b1f f0bd 7ae2 41be
000001f0: d8df 253e 8483 093e 5981 d9bc 7e37 273d
00000200: 20f2 613e d5f7 c13c 7456 813c 4c30 dabc
00000210: f8c6 103e a82a 043e 9a13 363e 7ebc b23d
00000220: 4b26 a0bb b445 97bd 868e 1cbc 5131 903d
00000230: eabc 88bd b5f4 043e 59f8 85bd 218c ad3d
00000240: c64d 2e3e 8d34 2d3c d015 303e 24ee b53e
00000250: 06f8 87bd 7e04 da3c 6ed4 813d 9ca8 b23d
00000260: ed50 38bc 3ed4 b93c bda0 313e f67d ac3d
00000270: 2e42 d1bb 78bd b63e a242 663e 3507 293e
00000280: 4596 ec3d 29c9 2c3d 2be9 f339 0ed7 d53d
00000290: df6c 48bd fe7b 973d 3363 02bc a39d 573c
000002a0: ffc9 babb 2bca bebc e683 113e 8cc3 37bd
000002b0: a9f4 eebd 9131 023d f936 c23d 0d62 a03d
000002c0: dda5 96be e564 17be 0313 0d3e 7279 813e
000002d0: 66cf 403c 6efe ff3d 1609 d5bc 6cff 043e
000002e0: dc85 e4bc e423 0c3e 0d72 2abe 8515 c0bd
000002f0: 83a3 573e 3348 5c3e 5368 20bc 97d4 463d
00000300: 7028 09bd 5786 4bbe 13cc 633e ae4a b63d
00000310: af00 4f3e 2aa9 fbbe 057d fa3d b5e1 9c3c
00000320: 0376 a5bc f282 3a3d edf8 64bd c1d1 fd3d
00000330: e46d b5bd 5c92 293e 6e86 e13d 149f 0d3c
00000340: dbcf 843e 5381 7c3d b749 e3bd 6f2f 623e
00000350: 7784 c83b fee8 efbd ee9a 443e 0503 673d
00000360: fba0 7e3e 6b7b b8bb 2df3 763e 600f 4f3d
00000370: 7261 40bd c8d3 443e 0c1c 01bd 3809 d3bd
00000380: dacc 44bd 8235 b73d f64e 6ebe 5cf3 64be
00000390: e420 dc3d 819e 0a3e d80c 373c 2f74 ea3d
000003a0: f50c 813e a16b d1bc a305 2c3e aadc 153e
000003b0: 0261 133d 78cf f9bd 01bd 613e 6f57 50be
000003c0: f15f a03c 05b7 de3d b272 dd3e 33a3 7e3e
000003d0: 626d 04be 761e eb3d cdde 60bd a848 58bc
000003e0: 4c02 b6bc 50d3 e4bb c3e5 003e 732a 0fbe
000003f0: 64ac c0bd 0a5a a1bd c5e0 96bd a176 e83d
-0.032561526 0.10657002 0.082186505 0.07349817 0.03579349 0.07202205 0.068329796 -0.057757847
0.16390866 0.0675485 0.23274636 -0.1974982 -0.08811236 -0.23559365 0.025456937 0.050645616
0.025742456 0.1377148 0.14447121 0.22430028 -0.08330193 -0.06160145 0.03721278 0.037703674
-0.079418294 0.18281682 0.044523552 0.15746754 0.130844 0.1158436 0.2792673 0.15923178
0.011237086 -0.211126 0.123140275 0.25068334 0.09453182 -0.070646904 0.19388084 0.13249098
0.08508121 0.064936176 -0.13865225 0.11245469 -0.05978973 0.062018115 -0.101242214 0.19383653
-0.0061897463 0.009162224 0.11647623 -0.09275125 0.008416008 -0.120407574 0.009465742 -0.11685422
0.089583896 0.07595043 0.025908664 -0.086158246 0.18553573 0.06774808 0.10036049 0.16220154
0.048902698 0.19383764 0.01896384 -0.1538897 -0.11666562 0.124667704 -0.060748138 -0.1809708
0.07700838 0.09190255 -0.0182431 0.14639226 0.046663355 0.08388093 -0.09999324 -0.0101610385
0.023673918 0.096467316 0.051150348 -0.026339237 0.11858525 0.21696892 0.055427074 -0.16321869
-0.067143865 0.39611515 -0.057106677 -0.027343392 -0.18694606 -0.055494167 -0.045757845 0.056312054
-0.14159545 0.06384404 0.25016418 0.06609522 0.022130148 0.019087378 -0.13905022 0.068701416
0.0020840254 0.029460438 -0.24178341 -0.122307554 -0.10244049 -0.07901824 -0.016503913 0.13766024
-0.123556435 0.043686647 0.1841317 0.025955452 -0.06559988 -0.06584945 0.14598027 -0.10027154
-0.04619584 0.033593263 -0.11724766 -0.1893405 0.16198671 0.13429075 -0.026550936 0.040824406
0.2206502 0.023677746 0.015788294 -0.026634358 0.141384 0.12906897 0.17780915 0.08727358
-0.0048873774 -0.07386342 -0.009555465 0.07040656 -0.066766575 0.12983973 -0.06541509 0.08473993
0.17021856 0.010571611 0.17195821 0.3553325 -0.066391036 0.02661347 0.06339346 0.08723566
-0.011249763 0.022684213 0.17346473 0.08422463 -0.006386063 0.35691428 0.22486356 0.16506656
0.11552099 0.04218403 0.00046522295 0.10441409 -0.048931953 0.073966965 -0.007958221 0.013160142
-0.0057003493 -0.02328976 0.14210472 -0.044864222 -0.11667759 0.03178555 0.094831415 0.07831202
-0.2942342 -0.14784582 0.13776784 0.25287968 0.011768198 0.124997005 -0.02600531 0.1298806
-0.02789586 0.13685566 -0.1664507 -0.093791045 0.21058469 0.21511917 -0.009790498 0.048542585
-0.03348583 -0.19875465 0.22245817 0.08900963 0.20215105 -0.491525 0.12230877 0.019150594
-0.020197874 0.045535035 -0.055901457 0.12393523 -0.088588506 0.16559738 0.110119686 0.008643884
0.2593983 0.06164677 -0.11098044 0.22088407 0.0061193067 -0.117143616 0.19199726 0.056399364
0.24866097 -0.005629947 0.24116202 0.050551772 -0.04696793 0.19221413 -0.03152089 -0.10304493
-0.048046924 0.08945753 -0.23272309 -0.22358459 0.10748461 0.13537027 0.011172496 0.114479415
0.25205198 -0.025564017 0.16799025 0.14634958 0.035981186 -0.12197775 0.22044756 -0.20345853
0.019576998 0.10874752 0.43251568 0.24866943 -0.12932351 0.11480419 -0.05489998 -0.013200916
-0.022217892 -0.006983198 0.12587647 -0.13981037 -0.09407881 -0.07878502 -0.0736709 0.11350752

out.weight f4 [2, 16]
00000000: 51bb 43bd 8d32 4ebd 1b39 4fbd df4d 46bd
00000010: 1f4c 38bd e44b 4cbd a0c3 4ebd 829d 49bd
00000020: ed3b 38bd 6238 4cbd 6a74 3fbd 6f8a 4ebd
00000030: d356 52bd 5307 3bbd 474e 29bd 42cc 53bd
00000040: 8f8a 41bd 9eab 45bd b76f 48bd 487c 44bd
00000050: e2eb 3fbd 1c01 47bd 07a5 47bd dde8 47bd
00000060: f1ed 3ebd 710d 46bd 6738 42bd 7a25 48bd
00000070: 15ee 48bd 8043 3fbd 57f6 31bd 5a00 49bd
-0.04778606 -0.050341178 -0.05059157 -0.048414107 -0.04499447 -0.049877062 -0.05047953 -0.049222477
-0.044979025 -0.04985846 -0.04674188 -0.05042499 -0.051352333 -0.04566128 -0.041334417 -0.051708467
-0.04725128 -0.04825937 -0.048934665 -0.047970086 -0.046855815 -0.048585042 -0.048741367 -0.04880606
-0.046613637 -0.048352662 -0.04741707 -0.048863865 -0.049055178 -0.046695232 -0.04344782 -0.0490726

out.bias f4 [2]
00000000: e8c4 743f 6b7f 743f
0.95612955 0.95506924
