results/dot-ou-final_d=ballsw=8z=2det=0lat=const-sig-ntloss=exactsigma=diag/run2/saved_nets/mu_best_val.pth (torch, 7662 bytes, 7 tensors)

first_layer.linear.weight f4 [16, 2]
0.062603764 0.23350473 -0.017215049 0.014529697 0.2424748 0.21362193 0.03307816 0.19150263
-0.26505375 -0.18166758 0.264212 0.312396 0.15030941 0.24197721 0.24143995 0.22512329
-0.121761315 0.028053613 0.04999395 -0.36551112 0.21561661 0.15319727 0.075530164 0.23888287
-0.24078645 -0.041242495 0.045115236 0.40002346 -0.16105099 -0.029919397 0.35882095 -0.02789234
00000000: 6736 803d dd1b 6f3e 9306 8dbc f70d 6e3c
00000010: 504b 783e b5bf 5a3e f77c 073d 4419 443e
00000020: 20b5 87be 1107 3abe cc46 873e 5ef2 9f3e
00000030: b6ea 193e e0c8 773e 093c 773e b886 663e
00000040: ff5d f9bd b1d0 e53c 75c6 4c3d 4624 bbbe
00000050: 9aca 5c3e bfdf 1c3e 8faf 9a3d b69d 743e
00000060: b990 76be e4ed 28bd c1ca 383d e0cf cc3e
00000070: 8dea 24be 8619 f5bc 61b7 b73e 7a7e e4bc

hidden_layers.0.linear.weight f4 [16, 16]
0.053448606 -0.066424824 -0.2475655 0.1404154 0.2074642 -0.071877085 -0.21432428 -0.010581085
0.0007604178 0.102274165 0.038330685 -0.05641796 0.11696117 -0.10534122 -0.055806685 -0.20922501
-0.06355114 -0.041710034 0.3442284 0.13039505 -0.03576462 0.20791773 -0.18624619 0.16774155
-0.009870184 -0.08794228 0.24102627 0.25814134 0.062037338 0.053463012 -0.026346687 0.092760175
0.23167735 0.19327755 0.021001376 0.15715423 -0.18103693 0.18359567 0.21225487 0.19256142
0.09326049 -0.14309494 0.12157064 0.1639023 -0.06052173 0.17700025 -0.27084762 0.10587035
0.15662044 -0.09537244 0.20039023 -0.055953294 -0.33029604 0.16023396 0.08033603 0.18171242
0.16592245 -0.068113305 0.083713464 0.056259897 -0.15025881 0.05306536 0.03674044 0.1408574
0.09973809 -0.10099158 -0.10702339 -0.13098395 -0.07703882 0.14847614 0.027999593 -0.024987394
-0.09502676 0.25152797 -0.032759838 -0.04973792 -0.32806432 0.16298297 0.015902575 -0.05602003
0.017373787 0.12767859 0.09844067 0.07858764 -0.073689185 0.29628173 0.14066246 -0.0071308194
-0.123311065 -0.042699877 0.05206738 0.20625412 0.005581672 0.025301713 -0.1265077 0.18724805
0.12144222 0.054442316 0.048407573 0.07582097 -0.1909814 0.23291466 0.41185176 0.2913687
0.07020937 -0.072942615 0.116913386 0.008813489 -0.07791612 0.21673809 -0.0944797 0.037658233
-0.10640886 0.0009989231 -0.12952873 0.0076493206 0.17329966 0.1911487 -0.06290474 -0.01055154
-0.05762092 0.041401595 -0.26567093 -0.09343406 0.1303339 -0.028414136 -0.058515288 -0.3655646
0.10231151 0.009470325 -0.17317407 0.07394778 0.015606803 -0.07302551 0.15237574 -0.18874648
0.07261115 -0.122886576 0.10193159 -0.03754643 -0.0100758355 -0.03960384 0.06527303 0.05387152
-0.15758039 0.10702869 0.04829735 -0.17975402 -0.066914625 0.01594168 -0.16098875 -0.13085404
0.15047759 0.13332091 -0.007364664 -0.036865667 0.019369531 0.02205208 0.052454237 -0.17283708
0.030880485 -0.20631139 -0.046216194 0.2673254 0.08283608 -0.15767598 -0.089911684 -0.107304625
0.021754626 -0.06508294 -0.04496209 -0.23858072 -0.16566189 -0.03257968 0.014775183 -0.056324653
-0.023165565 -0.027914664 0.11304399 -0.14780746 0.1821346 -0.104006305 -0.048616398 0.08302542
0.056354016 -0.17393196 0.0807253 0.1564349 -0.039117932 -0.0043790955 -0.33808476 -0.108840555
0.40227297 0.11877627 0.16986594 0.34027842 -0.22386992 0.21044628 0.38079354 0.06998408
-0.07047345 0.08900828 0.03161841 0.14991443 -0.1813703 0.11454013 0.32906836 0.097171344
-0.28116184 0.08105635 -0.05369607 -0.12271387 0.013906092 -0.04043126 0.07149644 -0.18288144
0.22297467 0.13133302 -0.10914881 -0.1652572 0.11790579 -0.0032391304 0.13379557 -0.26848698
0.0034862082 -0.026840363 -0.17999384 -0.10631846 -0.2632129 -0.04377547 0.065574035 -0.038369738
0.18569362 0.2423531 0.02627446 -0.055714916 0.009907363 -0.05517061 -0.14738075 0.01974742
0.037713613 0.035525188 0.17625584 -0.19275278 0.19794701 -0.00569091 0.036459364 -0.1780886
-0.010125449 -0.043578427 -0.06060324 -0.040975682 -0.030973092 0.060431458 0.071872175 -0.1989911
00000000: edec 5a3d bd09 88bd cf81 7dbe 0ec9 0f3e
00000010: 7f71 543e 4b34 93bd d377 5bbe 4a5c 2dbc
00000020: c656 473a 1e75 d13d a300 1d3d 8516 67bd
00000030: 5789 ef3d 23bd d7bd 8d95 64bd 153f 56be
00000040: 1a27 82bd 24d8 2abd b43e b03e 4886 053e
00000050: ec7d 12bd 63e8 543e 52b7 3ebe 71c4 2b3e
00000060: 8db6 21bc 151b b4bd 97cf 763e 1a2b 843e
00000070: dd1a 7e3d 08fc 5a3d 02d5 d7bc 0cf9 bd3d
00000080: d43c 6d3e 8dea 453e 140b ac3c 0aed 203e
00000090: bf61 39be 8100 3c3e 5759 593e d22e 453e
000000a0: 5bff be3d 7b87 12be 07fa f83d 01d6 273e
000000b0: a2e5 77bd 8e3f 353e 8aac 8abe 8ed2 d83d
000000c0: 1c61 203e a052 c3bd 1933 4d3e 482f 65bd
000000d0: 901c a9be 5f14 243e 3787 a43d d212 3a3e
000000e0: 93e7 293e fd7e 8bbd f771 ab3d c770 663d
000000f0: 72dd 19be 105b 593d 257d 163d ec3c 103e
00000100: 7c43 cc3d acd4 cebd 142f dbbd a820 06be
00000110: 87c6 9dbd 210a 183e 675f e53c 5db2 ccbc
00000120: 649d c2bd 46c8 803e 2e2f 06bd fdb9 4bbd
00000130: 0cf8 a7be 02e5 263e 1e46 823c 4275 65bd
00000140: 7953 8e3c 2dbe 023e 439b c93d 8ef2 a03d
00000150: 5bea 96bd 3db2 973e d209 103e a6a9 e9bb
00000160: 838a fcbd 11e6 2ebd 9b44 553d 4834 533e
00000170: 75e6 b63b 8a45 cf3c 3c8b 01be f4bd 3f3e
00000180: b3b6 f83d e8fe 5e3d 0547 463d 0648 9b3d
00000190: a190 43be 2e81 6e3e 3cde d23e 472e 953e
000001a0: eec9 8f3d f062 95bd 4970 ef3d 7466 103c
000001b0: 7d92 9fbd 97f0 5d3e 937e c1bd 853f 1a3d
000001c0: e3ec d9bd 4cee 823a 2ea3 04be 27a7 fa3b
000001d0: 7775 313e 7cbc 433e 33d4 80bd 5ee0 2cbc
000001e0: ea03 6cbd b894 293d 0506 88be 5b5a bfbd
000001f0: 4076 053e c3c4 e8bc baad 6fbd 492b bbbe
00000200: b288 d13d 6c29 1b3c 8b54 31be ef71 973d
00000210: adb3 7f3c 668e 95bd 6308 1c3e c246 41be
00000220: 28b5 943d f5ab fbbd 82c1 d03d 49ca 19bd
00000230: 1e15 25bc a337 22bd dead 853d 62a8 5c3d
00000240: c15c 21be dc31 db3d 71d3 453d 7011 38be
00000250: 890a 89bd 2098 823c 3cda 24be 9afe 05be
00000260: cc16 1a3e 4785 083e 4853 f1bb 7400 17bd
00000270: daac 9e3c 90a6 b43c 41da 563d 34fc 30be
00000280: 12f9 fc3c 4b43 53be 314d 3dbd e0de 883e
00000290: f6a5 a93d d075 21be 9e23 b8bd 87c2 dbbd
000002a0: c236 b23c 344a 85bd 2b2a 38bd 814e 74be
000002b0: 45a3 29be 4572 05bd 9c13 723c aeb4 66bd
000002c0: b6c5 bdbc 4bad e4bc 9c83 e73d d75a 17be
000002d0: 7e81 3a3e 4201 d5bd fd21 47bd 3b09 aa3d
000002e0: 78d3 663d 381b 32be 4e53 a53d 7830 203e
000002f0: 203a 20bd 847e 8fbb 7219 adbe cce7 debd
00000300: b9f6 cd3e f940 f33d 56f1 2d3e f938 ae3e
00000310: 283e 65be 3b7f 573e 5ff7 c23e d053 8f3d
00000320: 6254 90bd f949 b63d 4e82 013d 2b83 193e
00000330: 23b9 39be 0494 ea3d a67b a83e c501 c73d
00000340: 72f4 8fbe df00 a63d 69f0 5bbd 6951 fbbd
00000350: 61d6 633c 409b 25bd ba6c 923d 4645 3bbe
00000360: 7953 643e 2a7c 063e 6989 dfbd 2f39 29be
00000370: 9778 f13d 9747 54bb b501 093e 2077 89be
00000380: de78 643b 52e0 dbbc 4e50 38be 7ebd d9bd
00000390: d7c3 86be e84d 33bd ae4b 863d 9629 1dbd
000003a0: 7826 3e3e 692b 783e 893d d73c 5335 64bd
000003b0: 7e52 223c 94fa 61bd fbea 16be 57c5 a13c
000003c0: 9779 1a3d dc82 113d 697c 343e fc60 45be
000003d0: 9fb2 4a3e d07a babb 6a56 153d dc5c 36be
000003e0: 36e5 25bc 4b7f 32bd 1a3b 78bd 1ed6 27bd
000003f0: 48bb fdbc fa86 773d b831 933d 53c4 4bbe

hidden_layers.1.linear.weight f4 [16, 16]
0.046272397 -0.26446134 0.04326034 0.18625586 -0.3026856 0.0486779 0.18789293 -0.04162449
-0.14556025 0.075314276 -0.009515583 0.10466558 -0.041094277 -0.1290097 -0.1940491 0.13613337
-0.2120327 -0.0100602 -0.26780733 -0.30117747 0.18234062 0.09335824 -0.19027674 0.16583546
0.052367967 -0.055025853 0.0006329369 -0.2447059 -0.21473601 -0.06539774 -0.130728 0.11364692
-0.22513956 0.18718085 0.26685506 0.044697646 0.12380353 0.044084985 -0.029513571 -0.060478788
-0.061999545 0.05249474 0.06718673 0.17908135 0.09529275 -0.105532 0.15385126 -0.04958238
-0.09851207 0.046920523 0.12653981 0.06400535 -0.10721205 0.15692903 0.020448433 -0.13116351
0.12464487 -0.00998856 0.019222483 0.08288856 0.073018834 -0.1746358 0.012467678 -0.031756263
-0.0032761875 0.28123584 0.23140115 0.15148391 0.08450366 0.302813 -0.026790237 -0.104542434
0.23618844 -0.1929848 -0.13702808 0.01748319 0.1112611 -0.11371036 0.24428639 -0.16552943
-0.10721247 -0.055209164 -0.013337182 -0.046181962 -0.022525746 -0.17654532 0.18378845 0.21514812
-0.02414545 -0.016935209 -0.025420932 0.11300213 0.12248531 -0.19442484 0.033840638 -0.15885083
0.23440312 0.09140597 0.17008737 0.11274897 0.1988537 -0.1432773 0.08655876 -0.3341847
0.0027238105 -0.032954745 0.1075809 -0.24099018 0.1260079 0.02631386 0.11906803 -0.081743196
0.05930761 -0.03849626 -0.085141875 -0.0021945252 0.18872647 -0.2859779 0.15810515 -0.07344031
0.14086972 0.4530392 0.014404117 -0.14630285 0.16665676 -0.1559961 0.22570746 -0.019751038
-0.029456293 -0.07359297 0.035276216 0.020860309 -0.21176629 0.10237249 0.15474755 -0.077019274
0.054322444 -0.14729023 -0.22231355 0.27500853 0.14331986 -0.22321993 0.04591723 0.29435453
0.2845569 -0.09920043 0.11678861 -0.14218798 -0.10336913 0.10013921 0.06145996 -0.027340323
-0.061962556 -0.02515904 -0.053889375 0.046531666 -0.155173 -0.022229627 -0.19299577 -0.047592834
-0.29305625 0.19314753 -0.0032217167 0.113694936 0.10931567 -0.04848888 0.101568945 -0.12966095
0.19642214 0.10929188 -0.028242605 -0.037944715 0.2009285 0.07888944 -0.10505984 -0.08286991
-0.18776006 0.10005451 -0.047419224 0.04026824 -0.25369176 0.15458964 0.051268652 0.008352403
-0.100798 -0.08219409 0.09546925 -0.17456722 0.010457358 0.11908485 -0.12506717 -0.24301523
-0.052776996 0.35148713 0.24934556 0.40632856 -0.031502742 0.021199834 0.20698638 0.03137805
-0.16821824 -0.10058621 -0.1590871 -0.02061848 0.23815422 0.066275924 -0.071615644 -0.11031057
0.06652008 0.14642632 0.30725783 0.21419482 0.022708036 0.24841356 0.15414117 0.043429386
-0.110367686 -0.23732553 0.04190572 0.18479367 0.16264202 -0.3769892 -0.09516529 0.29653808
-0.27477786 0.016926501 0.16893749 0.1098755 0.042081576 0.09686586 0.08981782 -0.16270424
-0.043359403 -0.094146766 0.21185826 0.19115312 0.044500273 -0.020326648 -0.13405298 0.087343924
-0.075657055 0.15400364 0.1496123 0.1040896 0.05238217 0.30152038 0.18049134 -0.096778035
0.20250364 -0.10938411 0.12957151 -0.14269523 0.31060478 -0.023986386 0.11739942 -0.020848993
00000000: 2088 3d3d 7a67 87be c131 313d dbb9 3e3e
00000010: 9bf9 9abe 7a62 473d 0167 403e 717e 2abd
00000020: bf0d 15be 5f3e 9a3d 3fe7 1bbc e85a d63d
00000030: 7952 28bd 1e1b 04be cfb4 46be 8c66 0b3e
00000040: 1a1f 59be 89d3 24bc 0b1e 89be ef33 9abe
00000050: 80b7 3a3e 9b32 bf3d e8d7 42be c5d0 293e
00000060: cb7f 563d ca62 61bd adeb 253a 2f94 7abe
00000070: c2e3 5bbe 40ef 85bd 90dd 05be b7bf e83d
00000080: fc8a 66be 56ac 3f3e 3aa1 883e e114 373d
00000090: b58c fd3d 7592 343d 72c6 f1bc 9bb8 77bd
000000a0: 3cf3 7dbd b904 573d 3299 893d 1a61 373e
000000b0: d828 c33d 2921 d8bd 2f8b 1d3e e516 4bbd
000000c0: b2c0 c9bd bc2f 403d a793 013e 3d15 833d
000000d0: fe91 dbbd 01b2 203e 7983 a73c ba4f 06be
000000e0: cf45 ff3d 0fa7 23bc 7878 9d3c 7ac1 a93d
000000f0: e68a 953d bad3 32be 3b45 4c3c db12 02bd
00000100: 4eb5 56bb 25fe 8f3e 6cf4 6c3e 991e 1b3e
00000110: 4110 ad3d 4e0a 9b3e 3377 dbbc 581a d6bd
00000120: 62db 713e cf9d 45be 1751 0cbe e838 8f3c
00000130: dcdc e33d fae0 e8bd 3626 7a3e 8c80 29be
00000140: 3692 dbbd 0123 62bd 3284 5abc 4c29 3dbd
00000150: ea87 b8bc 4cc8 34be 0a33 3c3e ca4f 5c3e
00000160: aecc c5bc b5bb 8abc 8f3f d0bc a96d e73d
00000170: 94d9 fa3d 4e17 47be 7b9c 0a3d cba9 22be
00000180: 5f07 703e 0e33 bb3d 622b 2e3e efe8 e63d
00000190: 4ea0 4b3e 49b7 12be b845 b13d 421a abbe
000001a0: f581 323b 8efb 06bd 6053 dc3d 21c6 76be
000001b0: 3708 013e 2a90 d73c f0d9 f33d fa68 a7bd
000001c0: 89ec 723d 41ae 1dbd dd5e aebd 06d2 0fbb
000001d0: 8341 413e b26b 92be 51e6 213e e067 96bd
000001e0: 2740 103e c1f4 e73e 3fff 6b3c 6ad0 15be
000001f0: 12a8 2a3e 71bd 1fbe db1f 673e eecc a1bc
00000200: 534e f1bc e9b7 96bd cb7d 103d 3de3 aa3c
00000210: 43d9 58be aba8 d13d 2476 1e3e 48bc 9dbd
00000220: 3681 5e3d 40d3 16be 2aa6 63be ebcd 8c3e
00000230: 71c2 123e c493 64be b513 3c3d a3b5 963e
00000240: 71b1 913e 9829 cbbd de2e ef3d ba99 11be
00000250: 32b3 d3bd c915 cd3d 70bd 7b3d d0f8 dfbc
00000260: 73cc 7dbd 551a cebc 1bbb 5cbd fd97 3e3d
00000270: ace5 1ebe e81a b6bc afa0 45be b4f0 42bd
00000280: 780b 96be 77c8 453e 7023 53bb e4d8 e83d
00000290: e5e0 df3d 479c 46bd 6103 d03d d7c5 04be
000002a0: e322 493e 6cd4 df3d 095d e7bc eb6b 1bbd
000002b0: 33c0 4d3e c990 a13d 9d29 d7bd b3b7 a9bd
000002c0: 2c44 40be 61e9 cc3d a93a 42bd 4ff0 243d
000002d0: e3e3 81be bf4c 1e3e 14ff 513d 84d8 083c
000002e0: 2f6f cebd 6055 a8bd 6285 c33d c0c1 32be
000002f0: 5755 2b3c c2e2 f33d 9c11 00be fcd8 78be
00000300: b12c 58bd 1ff6 b33e 7154 7f3e 4c0a d03e
00000310: 0509 01bd 46ab ad3c 3df4 533e 4586 003d
00000320: 6741 2cbe 2500 cebd bbe7 22be 16e8 a8bc
00000330: b3de 733e acbb 873d 39ab 92bd 82ea e1bd
00000340: ae3b 883d c8f0 153e e650 9d3e e355 5b3e
00000350: 3406 ba3c 2060 7e3e 2fd7 1d3e 03e3 313d
00000360: 7408 e2bd 7705 73be 55a5 2b3d 8d3a 3d3e
00000370: a18b 263e ba04 c1be 05e6 c2bd d7d3 973e
00000380: afaf 8cbe 72a9 8a3c f3fd 2c3e 6806 e13d
00000390: bb5d 2c3d 9c61 c63d 68f2 b73d f19b 26be
000003a0: a199 31bd 05d0 c0bd 5ff1 583e a5bd 433e
000003b0: eb45 363d 1284 a6bc 2f45 09be 5fe1 b23d
000003c0: 16f2 9abd 21b3 1d3e f733 193e ee2c d53d
000003d0: b08e 563d e160 9a3e b9d2 383e 9033 c6bd
000003e0: 1d5d 4f3e c704 e0bd 65ae 043e b31e 12be
000003f0: 9707 9f3e 197f c4bc 1b6f f03d 82cb aabc

hidden_layers.2.linear.weight f4 [16, 16]
0.19494177 -0.1850718 0.25609934 0.036760468 0.05664759 0.12559022 -0.233886 0.16448614
-0.28837723 0.100003235 0.023881549 -0.05879749 -0.007697626 0.0009219467 0.15576375 0.20637703
0.27491194 -0.023618843 -0.1431002 -0.104913466 0.12938853 0.11361404 -0.14701724 0.14380254
-0.083586276 -0.07794811 -0.32002887 -0.0008379276 -0.07941484 -0.053421926 -0.20753779 -0.04165508
0.21318771 0.06371287 0.18327262 0.13036989 0.09726309 0.10449265 0.22728248 -0.06241861
0.02365492 0.019628266 0.029758368 -0.09072806 0.1357197 -0.107611865 -0.2922791 0.009353471
0.2921886 -0.05089732 0.021064268 -0.10605596 0.21487625 0.17417313 0.064406686 0.1225375
0.124598645 0.26179293 0.2174157 0.08566165 0.24617521 0.077824466 0.06441147 -0.0033073588
0.21595684 -0.026880844 0.053323 -0.06413687 0.41362274 0.23794533 0.048985906 0.20043561
-0.10516952 0.114519805 -0.11869757 0.04766633 9.681461e-06 0.14842641 0.017598767 0.04415649
-0.0007319292 0.0100362785 -0.046746895 -0.13829671 -0.15440519 -0.053771563 -0.07073338 0.034379754
0.15719384 0.085383326 0.0875219 0.044918217 0.0049633207 0.09669789 0.15827945 0.17756766
0.14402194 -0.08880541 -0.24143197 0.031090777 0.15848546 0.0015607891 0.13591467 -0.014361426
0.192626 -0.040865988 -0.11012522 0.038195528 0.035073526 -0.008144409 -0.13396874 -0.08498474
-0.102604784 -0.1043802 0.13923779 0.11698382 0.04530909 -0.04446533 0.20481838 -0.09737293
0.06935935 -0.013586416 -0.039141484 0.11142626 0.01597229 5.6268445e-06 0.13478117 -0.22707176
0.16667199 0.22882527 -0.035906147 -0.07564132 0.124510236 0.383736 0.08416409 0.08193338
0.16530465 -0.04165829 -0.004263336 0.08388004 0.19764319 0.3549598 0.17162043 0.120842375
-0.15498571 -0.11372 0.02832875 0.19176006 0.2576549 -0.1261833 0.21902585 0.032443672
0.16909021 -0.14129 -0.02736237 0.09998746 0.30541813 0.053276427 0.14963396 0.15420723
-0.048740104 0.105145805 0.0046647186 0.06517794 -0.09597669 -0.041583214 -0.018099358 -0.030036671
0.032667752 -0.12333557 0.051972616 -0.027442686 0.18513969 0.07818455 -0.05042184 0.1506931
-0.19269465 0.07041903 0.039915886 -0.06881224 -0.10537759 0.10486235 0.18584363 -0.15671378
0.1726337 0.16007325 0.28611946 0.019105667 0.12982829 0.16831608 -0.036951505 0.17842396
0.1375443 -0.19210567 -0.047176287 0.21657348 -0.04308257 -0.034783036 -0.04124602 0.002506757
-0.01606121 0.061551586 0.059968643 0.068335615 0.046454903 -0.08727912 0.2583885 0.08432688
0.085375056 -0.01507204 0.32197288 -0.017775377 0.075751714 -0.012174136 -0.081382655 -0.13836715
0.07201566 -0.20497222 -0.07010731 -0.20625657 0.09792269 0.02910661 0.24072999 0.07966336
0.021073267 -0.039738107 0.05161317 0.25411904 0.08945666 -0.08166355 0.06235847 0.05926356
0.1325585 -0.064613 0.27918828 -0.13210554 0.14768542 0.091589615 0.02959985 0.19612946
-0.0855217 -0.1673889 0.026978811 0.09767644 0.31521532 -0.058325835 -0.2401814 0.052206405
0.13292186 0.15725225 -0.007834343 0.049777694 -0.07127999 -0.18028483 0.023274152 -0.02444234
00000000: d19e 473e 7683 3dbe 741f 833e 2592 163d
00000010: 4e07 683d b99a 003e d07f 6fbe 0e6f 283e
00000020: 2ea6 93be 7fce cc3d 3da3 c33c a3d5 70bd
00000030: 5e3c fcbb ccae 713a 8880 1f3e 8054 533e
00000040: 42c1 8c3e 4e7c c1bc dc88 12be dfdc d6bd
00000050: 6d7e 043e 7aae e83d b08b 16be f940 133e
00000060: 482f abbd 42a3 9fbd d3da a3be 5fa8 5bba
00000070: 3fa4 a2bd f3d0 5abd c984 54be 849e 2abd
00000080: e14d 5a3e e57b 823d d1ab 3b3e af7f 053e
00000090: df31 c73d 3e00 d63d bdbc 683e a8aa 7fbd
000000a0: f6c7 c13c 75cb a03c d2c7 f33c a2cf b9bd
000000b0: 1bfa 0a3e 9c63 dcbd 9ba5 95be 4d3f 193c
000000c0: bf99 953e b579 50bd f98e ac3c de33 d9bd
000000d0: 8508 5c3e 715a 323e a7e7 833d f1f4 fa3d
000000e0: 932d ff3d b909 863e 39a2 5e3e 606f af3d
000000f0: 5b15 7c3e 6f62 9f3d 29ea 833d 46c0 58bb
00000100: ca23 5d3e 3735 dcbc 3869 5a3d 315a 83bd
00000110: 5cc6 d33e f1a7 733e 72a5 483d fe3e 4d3e
00000120: 1e63 d7bd 5c89 ea3d b617 f3bd c53d 433d
00000130: 8f6d 2237 18fd 173e 4a2b 903c 70dd 343d
00000140: f0de 3fba 346f 243c ac79 3fbd a79d 0dbe
00000150: 651c 1ebe 923f 5cbd aadc 90bd c9d1 0c3d
00000160: 6cf7 203e 74dd ae3d af3e b33d 2afc 373d
00000170: 5aa3 a23b 8b09 c63d 0214 223e 4cd4 353e
00000180: 7d7a 133e 9cdf b5bd f139 77be 16b2 fe3c
00000190: 034a 223e 6493 cc3a 372d 0b3e 304c 6bbc
000001a0: c03f 453e 1863 27bd 5589 e1bd ea72 1c3d
000001b0: 42a9 0f3d 2170 05bc 1a2f 09be 7b0c aebd
000001c0: 7522 d2bd 49c5 d5bd 5a94 0e3e 3795 ef3d
000001d0: 0696 393d 4721 36bd e9bb 513e 756b c7bd
000001e0: 460c 8e3d 8f99 5ebc d252 20bd 7333 e43d
000001f0: 52d8 823c 3ace bc36 1304 0a3e 8085 68be
00000200: 10ac 2a3e 2c51 6a3e 5312 13bd d6e9 9abd
00000210: 39ff fe3d 0c79 c43e 395e ac3d b0cc a73d
00000220: 9f45 293e e2a1 2abd 74b3 8bbb 4cc9 ab3d
00000230: fa62 4a3e 4abd b53e 44bd 2f3e 357c f73d
00000240: 93b4 1ebe 08e6 e8bd b211 e83c c05c 443e
00000250: 58eb 833e 3236 01be 5048 603e a8e3 043d
00000260: fc25 2d3e 53ae 10be 0d27 e0bc 3ac6 cc3d
00000270: c45f 9c3e 6238 5a3d a539 193e 80e8 1d3e
00000280: b4a3 47bd af56 d73d 7fda 983b 037c 853d
00000290: 6d8f c4bd 2953 2abd 1b45 94bc 770f f6bc
000002a0: 9fce 053d 5c97 fcbd 3de1 543d 7ccf e0bc
000002b0: 4295 3d3e 391f a03d 2287 4ebd 4b4f 1a3e
000002c0: bf51 45be da37 903d d77e 233d 6fed 8cbd
000002d0: 35d0 d7bd 12c2 d63d cb4d 3e3e 9479 20be
000002e0: e3c6 303e 3eea 233e 407e 923e 7d83 9c3c
000002f0: b5f1 043e 0d5b 2c3e 765a 17bd c5b4 363e
00000300: 6ad8 0c3e 59b7 44be ec3b 41bd 70c5 5d3e
00000310: 5977 30bd a878 0ebd 96f1 28bd 6748 243b
00000320: cc92 83bc 841d 7c3d aea1 753d 8bf3 8b3d
00000330: 7f47 3e3d 65bf b2bd 7f4b 843e 92b3 ac3d
00000340: 1ed9 ae3d b8f0 76bc a1d9 a43e ab9d 91bc
00000350: b723 9b3d 0776 47bc f3ab a6bd 1eb0 0dbe
00000360: f27c 933d 3de4 51be 6c94 8fbd ec34 53be
00000370: b18b c83d fc70 ee3c ec81 763e 8b26 a33d
00000380: d8a1 ac3c 6dc4 22bd 5568 533d e41b 823e
00000390: 0e35 b73d 383f a7bd 986b 7f3d 59be 723d
000003a0: 6abd 073e d253 84bd c4f1 8e3e ad46 07be
000003b0: d93a 173e 5693 bb3d 627b f23c 29d6 483e
000003c0: 0026 afbd ff67 2bbe ab02 dd3c 960a c83d
000003d0: e763 a13e 12e7 6ebd 1df2 75be 62d6 553d
000003e0: ab1c 083e bc06 213e 9e5b 00bc b2e3 4b3d
000003f0: 3efb 91bd 969c 38be 6fa9 be3c 4d3b c8bc

hidden_layers.3.linear.weight f4 [16, 16]
0.0034927786 -0.091501236 0.14656882 -0.08390043 0.20967035 -0.015455708 -0.15048741 -0.12077299
0.010647539 0.1360642 0.08948299 0.11474791 0.080970965 -0.115428135 0.2490436 0.2407097
-0.098629035 0.023506947 -0.0896117 0.09870384 -0.3220682 -0.003996874 0.038601637 -0.10671118
0.09220342 0.0238677 -0.0014596551 -0.08951143 0.14107397 -0.020568913 0.18828341 0.24779919
0.02448291 0.041476663 -0.08812403 0.20443824 -0.052450128 -0.04332059 0.17546125 0.002857361
0.14634226 0.07965425 -0.13190429 0.18664919 -0.2543105 0.10979397 0.038072407 -0.036977015
-0.0709826 -0.049707327 -0.23767269 -0.08074987 0.07498361 0.07855882 0.047513526 -0.059149608
0.25335118 0.14908327 0.12014564 -0.13503854 0.0327926 0.04879308 0.11783445 0.110418096
-0.07527464 0.08257497 0.22865552 0.14725454 0.082528256 0.061280355 0.099592894 0.18898384
-0.04118443 -0.10081134 0.13427845 0.063749 0.12462277 0.07623818 0.23344277 0.06198762
0.022932783 -0.015050229 0.027166631 0.010806203 -0.07235424 -0.11978226 -0.07316711 0.044920754
0.14676362 -0.16850898 0.09597735 -0.023107933 -0.025154993 -0.2567217 0.12623282 -0.06052413
-0.076752074 -0.10595314 0.05152613 0.15913405 0.113919064 -0.07764678 0.16425788 0.10826521
0.03602803 -0.108046144 0.16533528 0.022400435 -0.010389891 0.07590428 0.05643896 0.043517504
0.29122752 0.23462364 0.14658834 -0.0520222 0.043345433 0.008873839 0.20159997 -0.030065566
0.04282955 0.17198102 0.0145019125 0.19265619 0.31970382 0.23791565 0.14824629 0.15065776
0.10886389 -0.1731058 0.011363448 0.10846058 0.20603478 0.0023970434 -0.049984615 0.03300711
0.10346131 0.23493889 0.22710422 0.24928597 0.10261868 0.0815441 0.023714744 0.0968369
-0.022002716 -0.12402402 -0.045577444 0.13454802 0.061613712 -0.0028014134 -0.062110648 -0.1581628
0.17137831 0.07187357 -0.06755088 0.17498401 0.0030109046 0.059155256 0.25045082 -0.012265762
0.09739056 -0.059175607 -0.054418553 0.105821356 0.029620802 0.13635363 0.02453964 0.11983243
0.10305061 0.029022383 0.077905186 -0.047405608 0.2911403 -0.019216347 0.090280086 -0.026490912
0.17326899 -0.15778264 0.15744323 0.008230518 0.029872872 -0.032109212 0.1899568 0.029841255
0.13058794 0.011799692 0.15577474 0.05615992 0.020558553 -0.070894614 0.013068957 0.023007216
0.036894258 0.04276665 0.1253942 0.16143692 -0.022824723 0.08911574 -0.07356298 0.19603814
0.1706169 0.19192457 0.112945534 0.18081503 0.3564891 0.236439 0.03228124 0.07418722
-0.0016080337 0.25641736 -0.122752994 0.035495706 0.21524318 0.09847899 -0.027935209 0.36246243
0.0014557063 0.030771557 -0.068900555 -0.17917217 0.07452975 0.15617654 0.22541973 0.09601282
0.07548778 0.12214255 0.050470404 0.33722442 0.17726105 0.039151814 -0.037135717 0.02992866
-0.04267407 0.22860508 -0.09286249 -0.02455647 0.16467993 -7.6817014e-05 0.09275194 -0.1274112
0.08896094 0.21153486 -0.072296165 -0.06473258 -0.16626814 0.26456898 -0.116000675 0.015538063
0.14215255 0.15638535 0.006563795 0.38990062 -0.024824154 -0.008372508 -0.026639163 -0.06982539
00000000: 1ae7 643b 0065 bbbd 2316 163e fdd3 abbd
00000010: d3b3 563e f039 7dbc 5f19 1abe d457 f7bd
00000020: 0473 2e3c 6a54 0b3e dc42 b73d f400 eb3d
00000030: 1bd4 a53d 9665 ecbd 4905 7f3e 9b7c 763e
00000040: 05fe c9bd a491 c03c 5786 b7bd 3d25 ca3d
00000050: 20e6 a4be 36f8 82bb c01c 1e3d 648b dabd
00000060: 26d5 bc3d 3286 c33c e651 bfba c551 b7bd
00000070: b275 103e 2380 a8bc 5ecd 403e 12bf 7d3e
00000080: 6290 c83c 6fe3 293d 5f7a b4bd 4258 513e
00000090: f2d5 56bd ee70 31bd 1dac 333e 9042 3b3b
000000a0: bfda 153e c421 a33d eb11 07be f720 3f3e
000000b0: fc34 82be a9db e03d d0f1 1b3d 3675 17bd
000000c0: 535f 91bd e999 4bbd 7860 73be 3060 a5bd
000000d0: 0291 993d 72e3 a03d 8b9d 423d dc46 72bd
000000e0: 3fb7 813e 49a9 183e eb0e f63d 8b47 0abe
000000f0: 8951 063d 41db 473d 3053 f13d e222 e23d
00000100: 9729 9abd 111d a93d ac24 6a3e e5c9 163e
00000110: 9304 a93d 1c01 7b3d 5cf7 cb3d fb84 413e
00000120: 01b1 28bd 2d76 cebd 4a80 093e d68e 823d
00000130: 393a ff3d c322 9c3d 9f0b 6f3e bbe6 7d3d
00000140: 88dd bb3c 3c95 76bc 8e8c de3c 800c 313c
00000150: 762e 94bd 6750 f5bd a3d8 95bd d3fe 373d
00000160: 3449 163e 9e8d 2cbe c68f c43d d94c bdbc
00000170: d811 cebc 0771 83be 2d43 013e 26e8 77bd
00000180: 3130 9dbd f6fd d8bd 100d 533d 09f4 223e
00000190: 664e e93d 4605 9fbd 3833 283e 27ba dd3d
000001a0: 2192 133d 4c47 ddbd a74d 293e 1e81 b73c
000001b0: 5d3a 2abc b473 9b3d 8a2c 673d 693f 323d
000001c0: c61b 953e 2e41 703e 411b 163e 3b15 55bd
000001d0: fb8a 313d 9463 113c 3970 4e3e 104c f6bc
000001e0: 0a6e 2f3d cb1b 303e 6e99 6d3c aa47 453e
000001f0: 38b0 a33e 29a0 733e e0cd 173e 0746 1a3e
00000200: 08f4 de3d a642 31be c12d 3a3c 9520 de3d
00000210: c8fa 523e b717 1d3b abbc 4cbd 7732 073d
00000220: 86e3 d33d d293 703e 028e 683e d244 7f3e
00000230: be29 d23d 9800 a73d 6c45 c23c 6d52 c63d
00000240: 0a3f b4bc 4e00 febd 6aaf 3abd f5c6 093e
00000250: a95e 7c3d eb97 37bb bc67 7ebd 6ef5 21be
00000260: cc7d 2f3e 7332 933d 1e58 8abd 022f 333e
00000270: 9952 453b c84c 723d 173b 803e 56f6 48bc
00000280: b474 c73d 1f62 72bd fde5 5ebd deb8 d83d
00000290: 53a7 f23c 49a0 0b3e 5b07 c93c b46a f53d
000002a0: 330c d33d 59c0 ed3c c18c 9f3d 622c 42bd
000002b0: 5710 953e 9a6b 9dbc c4e4 b83d 7803 d9bc
000002c0: 6d6d 313e c691 21be cc38 213e 4bd9 063c
000002d0: f4b7 f43c f384 03bd 0984 423e a675 f43c
000002e0: d8b8 053e 7f53 413c 6a83 1f3e f207 663d
000002f0: 696a a83c 3231 91bd 2e1f 563c a179 bc3c
00000300: 6f1e 173d 152c 2f3d 5667 003e b84f 253e
00000310: eafa babc 5082 b63d 30a8 96bd 39be 483e
00000320: 32b6 2e3e e087 443e fd4f e73d 9327 393e
00000330: bd85 b63e 111d 723e 5539 043d 78ef 973d
00000340: a8c4 d2ba 2349 833e ec65 fbbd f263 113d
00000350: b568 5c3e 5aaf c93d 61d8 e4bc ad94 b93e
00000360: 66cd be3a a214 fc3c bc1b 8dbd e978 37be
00000370: 0ea3 983d beec 1f3e 6ed4 663e 5fa2 c43d
00000380: 5699 9a3d e025 fa3d 0eba 4e3d aea8 ac3e
00000390: ec83 353e a75d 203d 9f1b 18bd f32c f53c
000003a0: 01cb 2ebd 7317 6a3e b02e bebd a62a c9bc
000003b0: dba1 283e d218 a1b8 bbf4 bd3d 1578 02be
000003c0: 2731 b63d 989c 583e 0310 94bd 8492 84bd
000003d0: 3242 2abe 9675 873e c391 edbd 5c93 7e3c
000003e0: 7090 113e 7b23 203e 1a15 d73b 0ea1 c73e
000003f0: 065c cbbc d82c 09bc 603a dabc 9d00 8fbd

out.weight f4 [2, 16]
-0.039588384 -0.038705777 -0.038372606 -0.038735643 -0.038663268 -0.038936306 -0.03873206 -0.038709465
-0.038651362 -0.03824433 -0.038307805 -0.03872353 -0.03818742 -0.03920784 -0.03879959 -0.0381752
-0.03876083 -0.03710394 -0.03986299 -0.039895736 -0.037734047 -0.03504103 -0.03742482 -0.039394174
-0.04228123 -0.042607255 -0.03949669 -0.038151085 -0.041858297 -0.03701721 -0.040340453 -0.039432794
00000000: 6e27 22bd f389 1ebd 982c 1dbd 44a9 1ebd
00000010: 605d 1ebd ad7b 1fbd 82a5 1ebd d18d 1ebd
00000020: e450 1ebd 16a6 1cbd a5e8 1cbd 909c 1ebd
00000030: 6a6a 1cbd 6698 20bd 52ec 1ebd 995d 1cbd
00000040: adc3 1ebd 4dfa 17bd 6047 23bd b669 23bd
00000050: 048f 1abd 2f87 0fbd c54a 19bd c95b 21bd
00000060: 152f 2dbd f284 2ebd 48c7 21bd 5044 1cbd
00000070: 9b73 2bbd 5c9f 17bd 083c 25bd 4884 21bd

out.bias f4 [2]
0.9616689 0.96492565
00000000: ef2f 763f 5e05 773f
