results/dot-ou-final_d=ballsw=8z=2det=0lat=const-sig-ntloss=exactsigma=diag/run1/saved_nets/ae_best_val_0.pth (torch, 681339 bytes, 40 tensors)

mu_linear.weight f4 [2, 4096]
0	0x3c773960	0.015089363
1	0xbad81bd2	-0.0016487783
2	0xbc6e18bf	-0.014532267
3	0x3cad8815	0.021183053
4	0xbcb7ce1a	-0.022437144
5	0xbc881b4b	-0.016614577
6	0xbc9bcb0d	-0.01901772
7	0x3be62fd3	0.007024744
8	0x3b76b418	0.0037643965
9	0x3b5ef6f7	0.0034021714
10	0x3cc55e69	0.02409287
11	0xbb7bf418	-0.0038445052
12	0xbcc2adcc	-0.023764513
13	0xbba3ced7	-0.0049990225
14	0xbc98f5c2	-0.018671874
15	0x3c74d168	0.014942504
16	0xbb344d8e	-0.0027512047
17	0x3b353e97	0.0027655715
18	0x3c67960d	0.014134896
19	0xbb9345cf	-0.004494406
20	0xbb277559	-0.0025552122
21	0xbc2593fa	-0.010106081
22	0xbcce1eca	-0.025161166
23	0x3be54417	0.0069966423
24	0xbcabee5a	-0.020987678
25	0x3c3e1405	0.011601453
26	0x3cf066a7	0.029345823
27	0x3c511afe	0.012762783
28	0x3ccc37a5	0.024928877
29	0x3c6ebd96	0.014571568
30	0x3cec9c02	0.028882984
31	0x3cc05f78	0.023483023
32	0x3cc83bfd	0.024442667
33	0x3c768f5c	0.015048828
34	0x3b8f1c57	0.004367392
35	0x3b868b93	0.004105994
36	0x3b9084e2	0.004410372
37	0x3ccc7a27	0.02496059
38	0x3cf450a7	0.029823614
39	0x3cb77b28	0.022397593
40	0xbbe9bbb5	-0.007132972
41	0x3bded07f	0.006799757
42	0x3c963c1d	0.018339211
43	0xba0cff7e	-0.00053786475
44	0xbcc2357c	-0.023707144
45	0x3c816335	0.015794376
46	0x3bb16f94	0.0054149125
47	0x3accf435	0.0015636744
48	0x3d19570e	0.037436537
49	0x3d1bae2c	0.0380079
50	0xbd0e52cc	-0.03474693
51	0xbc9e9d6b	-0.019362172
52	0xbbbc7ab3	-0.0057519316
53	0xbbe314ee	-0.0069299852
54	0xbac8319b	-0.0015273573
55	0x3c940238	0.018067464
56	0x3c816a24	0.015797682
57	0x3c87b767	0.016566945
58	0x3b988dc1	0.0046555703
59	0x3c6e7ba9	0.01455585
60	0xbcaaf582	-0.02086902
61	0xbb83da87	-0.004023853
62	0x3b00eb6f	0.001967158
63	0xbb049bb2	-0.0020234403
64	0xbba8aece	-0.0051477915
65	0x3cb4dac8	0.02207698
66	0xbc0bd0d0	-0.0085336715
67	0x3c4f54a3	0.012654456
68	0xbc12a318	-0.008950017
69	0x3c71531a	0.014729286
70	0x3cc254e1	0.023722114
71	0x3cba653f	0.022753356
72	0x3c3f9919	0.011694216
73	0xbd2a2495	-0.041538794
74	0x3c2d9e82	0.010596873
75	0xbbc235dd	-0.005926831
76	0x3b6c56cc	0.0036062477
77	0x3d016eaf	0.031599697
78	0x3ceb2ffd	0.028709406
79	0x3c4d95fe	0.012547968
80	0x3c8e88ca	0.01739921
81	0xbbb340e1	-0.0054703807
82	0x3c13e907	0.009027726
83	0xbb757ee2	-0.0037459661
84	0xbc742224	-0.014900718
85	0xbc97f9b1	-0.01855168
86	0x396e5887	0.00022730428
87	0x3cd5ca62	0.02609748
88	0x3c94077c	0.018069975
89	0x3ce32469	0.027727323
90	0x3d4ad7e0	0.04952228
91	0xba24d693	-0.00062880776
92	0xbba4d962	-0.005030797
93	0x3c222e86	0.009898787
94	0x3c004491	0.0078288475
95	0x3cc4ff1d	0.024047429
96	0x3c53786d	0.01290713
97	0xbb9a22c5	-0.004703852
98	0x3cd62836	0.026142221
99	0x3c355955	0.011068662
100	0x3aed45b9	0.0018102444
101	0xbc80614c	-0.015671395
102	0x3c3b38f8	0.011427157
103	0x3c6e2a8c	0.014536511
104	0x3cc913a0	0.02454549
105	0x39815764	0.00024669908
106	0x3ba892f3	0.005144471
107	0xbb87cc20	-0.0041442066
108	0xbc36441f	-0.01112464
109	0xbc8ca410	-0.017168075
110	0xbc67619e	-0.014122395
111	0x3c634b4d	0.013872934
112	0xbc2854e6	-0.010274148
113	0xbc527094	-0.0128442235
114	0xbc2735a3	-0.010205659
115	0xbb6c76bd	-0.0036081516
116	0xbc8b43ac	-0.017000042
117	0xbaa68cc1	-0.0012706743
118	0xbc9df520	-0.019281924
119	0x3c789bef	0.015173896
120	0x3bafd69b	0.005366159
121	0xbb3baf62	-0.0028638472
122	0xbc57eeac	-0.013179462
123	0xbb757df4	-0.0037459107
124	0x3c35df54	0.011100609
125	0x3aa3fa03	0.0012510422
126	0x3c2bcb1c	0.010485437
127	0xbc02b48d	-0.007977617
128	0x3c69d1ad	0.014271182
129	0x399964c7	0.0002925752
130	0x3b5768e3	0.0032868914
131	0xbc3c6c4b	-0.011500428
132	0x3c99e9e5	0.018788287
133	0x3c566629	0.01308588
134	0x3cb87a6d	0.022519315
135	0x3cb80d31	0.022467228
136	0x3b2ab026	0.0026044934
137	0x3c9cce02	0.0191412
138	0xbc4c1809	-0.012456902
139	0xbce10c99	-0.027471827
140	0xbc78d95e	-0.015188543
141	0xbcd6c2b3	-0.026215887
142	0xb9538265	-0.00020171104
143	0x3c1c91d5	0.009556253
144	0x3c484a7f	0.0122247925
145	0x3c58d485	0.013234262
146	0xbd0a5cea	-0.033780016
147	0x3bbc217d	0.005741297
148	0xbb7c73cd	-0.003852117
149	0xbcbb2d1e	-0.022848662
150	0x3ce32004	0.027725227
151	0x3c15bb73	0.00913893
152	0xbc270d81	-0.010196091
153	0x3b593e17	0.003314858
154	0x3cfaa67f	0.03059697
155	0x3d185ea1	0.03719962
156	0x3d1088a9	0.03528658
157	0xbbd4d908	-0.0064955987
158	0xbcb9faf4	-0.022702672
159	0xbca0dae1	-0.01963562
160	0x3a07df6b	0.0005183133
161	0xbd03872d	-0.032111336
162	0x3caa32a0	0.020776093
163	0x3d11af86	0.035567783
164	0x3cece462	0.028917495
165	0x3cf58729	0.029971676
166	0xba72cce3	-0.0009262098
167	0xbc955195	-0.018227378
168	0xb6c69838	-5.9185804e-06
169	0x3a45beac	0.0007543366
170	0xbc0e5760	-0.008687824
171	0xbc5e1a40	-0.013556063
172	0xbc45f124	-0.012081418
173	0x3c8053bf	0.015664933
174	0x3946ba0f	0.00018952064
175	0xbc503d97	-0.012709997
176	0xbc82d190	-0.015969068
177	0xbc4408a7	-0.0119649535
178	0xbcadc71c	-0.021213107
179	0xbbc10784	-0.0058907885
180	0xbcff09e1	-0.03113264
181	0xbbafead4	-0.00536857
182	0xbd01cbff	-0.031688686
183	0x3c96158f	0.018320827
184	0x3cb789b5	0.022404531
185	0xbbd879a2	-0.0066062966
186	0x3c7f2960	0.015573829
187	0x3c81e56f	0.015856473
188	0xbbcedab8	-0.0063126944
189	0xbc6e9a20	-0.014563113
190	0x3c2e591a	0.010641361
191	0xbc0f7260	-0.0087552965
192	0x3c0c64a3	0.008568916
193	0x3d087452	0.033314057
194	0xb689d269	-4.107413e-06
195	0xbbb6be0a	-0.0055768536
196	0xbc778e5d	-0.015109626
197	0x3b7b1b53	0.0038315847
198	0xbc1dde33	-0.009635496
199	0x3ade475b	0.0016958521
200	0xbc77985e	-0.015112011
201	0x3c97e26b	0.018540582
202	0x3c89317a	0.016747225
203	0xbc48a334	-0.012245942
204	0xb9b578f2	-0.00034613122
205	0xbb0d4b01	-0.0021559598
206	0xba5f9462	-0.00085288857
207	0x3c16b64e	0.009198738
208	0xbc4f268f	-0.01264347
209	0xbcdc67ce	-0.026904967
210	0x3ce24e38	0.027625188
211	0x3d310da5	0.043225903
212	0x3d284b08	0.04108718
213	0x3d2ba471	0.04190487
214	0x3cc74b7a	0.024327982
215	0xba891403	-0.0010458234
216	0x3c73dc5a	0.014884079
217	0xbc8cb85d	-0.017177755
218	0xb9e834e1	-0.00044289886
219	0x3cb87c5d	0.022520239
220	0x3daae929	0.08345253
221	0x3d8c1bce	0.06841241
222	0x3cb2523e	0.021767732
223	0xbb66d1c1	-0.0035220238
224	0xbc289204	-0.010288719
225	0x3bd5750e	0.006514198
226	0xbb6890ce	-0.00354867
227	0xba236c12	-0.000623406
228	0x3db268be	0.08711384
229	0x3da8c7b6	0.08241217
230	0x3d355e25	0.044279236
231	0x3c4020e9	0.011726596
232	0xbc6d591b	-0.014486576
233	0xbca23c7e	-0.019804236
234	0x3cb2c62b	0.02182301
235	0xbc557deb	-0.013030509
236	0x3c2c074a	0.010499785
237	0x3d52b4fe	0.05144214
238	0x3d4e5c7c	0.05038117
239	0xbbe5bde8	-0.007011164
240	0xbbc421c7	-0.005985472
241	0xbd98fe9c	-0.07470438
242	0xbd29d7c8	-0.04146555
243	0xbc1f371c	-0.009717729
244	0x3c807038	0.01567851
245	0x3d919f61	0.07110477
246	0x3e033ea9	0.12816872
247	0x3c29a8a4	0.010355148
248	0xbc8b15b0	-0.016978115
249	0xbce3b245	-0.027794966
250	0xbd193f1d	-0.037413705
251	0xbc618231	-0.01376395
252	0x3adf301f	0.0017027891
253	0x3d0e3e04	0.03472711
254	0x3c31a77a	0.010843152
255	0x3c827568	0.015925124

mu_linear.bias f4 [2]
0	0x3caab0fc	0.020836346
1	0x3bd682ab	0.0065463386

sigma_linear.weight f4 [2, 4096]
0	0xbc8c7863	-0.017147249
1	0x3971a687	0.00023045587
2	0xbc0d2e58	-0.008617006
3	0x3aa3b8c7	0.0012490981
4	0xbb2b93c9	-0.0026180616
5	0xbc36b018	-0.011150382
6	0xbbaa5db7	-0.00519916
7	0x3c0d5929	0.0086272145
8	0x3b81620f	0.003948457
9	0xb958b2f1	-0.00020666026
10	0xbc8117b4	-0.015758373
11	0x3b1e05a3	0.0024112246
12	0x3c6d341d	0.014477757
13	0x3bcfd2a1	0.0063422476
14	0x3c82e07d	0.015976185
15	0xbc0cc28a	-0.008591304
16	0xbb147321	-0.002265163
17	0xbbab8769	-0.005234648
18	0x3c25549f	0.010090976
19	0xbc48f070	-0.012264356
20	0xba012b02	-0.0004927368
21	0xbc68454e	-0.01417668
22	0x3c536f3c	0.012904938
23	0xbc8732f3	-0.016503787
24	0xbc8e3805	-0.017360697
25	0x3c62aa4e	0.013834549
26	0xbc9cb8cc	-0.019131087
27	0xbc8527e5	-0.016254375
28	0xbb4f8fb2	-0.0031671342
29	0x3bb1d913	0.0054274886
30	0xbc280766	-0.01025567
31	0x3ba282b8	0.0049594305
32	0x3a8c9d06	0.0010727949
33	0xb98b471f	-0.00026565135
34	0xbc981a0b	-0.018567106
35	0xbb7b55a4	-0.0038350606
36	0x3c45010f	0.012024178
37	0x3c3b53f1	0.011433587
38	0xba024410	-0.00049692485
39	0x3b319e67	0.0027102472
40	0x3c04adfc	0.008098122
41	0xbc01506c	-0.007892709
42	0xbace182a	-0.0015723754
43	0x3b3452df	0.0027515215
44	0xbc8befc5	-0.017082104
45	0xbb581cd6	-0.0032976172
46	0x3b0288d9	0.0019917993
47	0x3bffb79a	0.0078038694
48	0xbbd53a94	-0.006507227
49	0xba0cbf90	-0.0005369121
50	0xbb89f5c8	-0.0042102076
51	0xbb07d723	-0.0020727597
52	0x3b4850fd	0.003056585
53	0xbc8c4a09	-0.017125146
54	0xbc95efd0	-0.018302828
55	0xbc8e28f7	-0.017353518
56	0xba910114	-0.0011062943
57	0xbb29b3d4	-0.002589454
58	0xbb04b28d	-0.0020248026
59	0xbbc7a89b	-0.0060930974
60	0xbc7582fe	-0.014984844
61	0xbc2ce793	-0.0105532585
62	0xbc8ff7ad	-0.017574156
63	0xbc9f1ba9	-0.01942237
64	0xbc40fc21	-0.011778862
65	0xbc0e2caa	-0.008677641
66	0xbc169b47	-0.009192294
67	0xbc6473fe	-0.01394367
68	0x3bf56fa6	0.007490116
69	0x3c0442c5	0.00807256
70	0x3d0191dd	0.031633247
71	0x3ca62bbb	0.020284524
72	0xbc5e72eb	-0.013577203
73	0xbc0800a9	-0.008300939
74	0xbc8c6436	-0.017137628
75	0xbcdde9c5	-0.027089009
76	0x3c17506d	0.009235484
77	0x3bfc4426	0.0076985536
78	0x3d24d3c0	0.040241003
79	0x3c87038d	0.016481185
80	0x39dba9ff	0.00041897592
81	0xbc36484e	-0.011125637
82	0xb879e73f	-5.958159e-05
83	0x3c6d1c24	0.014472041
84	0xbb27af9b	-0.0025586847
85	0x3bff6586	0.007794085
86	0x3d27ed90	0.04099804
87	0xbc0c5b97	-0.008566759
88	0xbb365d15	-0.0027826477
89	0x3c90e3a3	0.01768667
90	0x3cb6f2b4	0.022332527
91	0xbb0697b5	-0.0020537202
92	0xbbf00636	-0.007324959
93	0x3c7a3a01	0.015272618
94	0x3c678098	0.01412978
95	0x3b2e56e2	0.002660208
96	0x3c9b527b	0.018960228
97	0xbc46c98d	-0.012133014
98	0x3be4cbea	0.0069823163
99	0x3c9d3022	0.01918799
100	0x3ad43e3a	0.0016192861
101	0x3c4839ec	0.012220841
102	0x3c8e74a5	0.017389605
103	0xbc65153a	-0.013982112
104	0x3cb04702	0.021518234
105	0xbc336248	-0.010948725
106	0x3c61bb71	0.0137776
107	0x3b1ba770	0.0023750924
108	0x3aad0d33	0.0013202786
109	0xbbb7fe8d	-0.0056150616
110	0x3bc11859	0.005892795
111	0xbc20af1c	-0.009807374
112	0x3ccaf56f	0.024775235
113	0xbbc9608f	-0.006145544
114	0xbca74196	-0.020417016
115	0xbc3c1f2f	-0.011482044
116	0x3b19ec48	0.0023486782
117	0x3c8658a6	0.016399693
118	0x3b458252	0.0030137491
119	0xbc734a93	-0.014849323
120	0x3cf4df3f	0.029891608
121	0x3cab10da	0.020882059
122	0x3bf40a5f	0.0074475254
123	0xbc3cc225	-0.011520897
124	0xbb0fa158	-0.0021916237
125	0x3c3eec50	0.011653021
126	0x3bf18383	0.0073704137
127	0xbaa89c7e	-0.0012864021
128	0x3b39d414	0.0028355168
129	0x3c3dbfcf	0.011581375
130	0xbbb40d19	-0.0054947254
131	0xbcae2f8e	-0.02126291
132	0xbbaf5fe6	-0.005352008
133	0xbc823e60	-0.015898883
134	0x3bb8ba5b	0.0056374497
135	0xbbe73e3a	-0.0070569785
136	0x3a9adf0e	0.0011815743
137	0xbb403efb	-0.0029334414
138	0x3b951252	0.004549303
139	0x3ba57b0d	0.005050069
140	0x3b4ee6b6	0.003157062
141	0x3ba76691	0.0051086624
142	0xbad78a39	-0.0016444392
143	0xbc90bd51	-0.017668398
144	0x3bac715e	0.005262538
145	0xbc6d1937	-0.014471344
146	0xbc1c22ac	-0.009529751
147	0xbcc9460c	-0.024569534
148	0x3bb91d64	0.0056492556
149	0xbb159661	-0.0022825229
150	0xbc0aef59	-0.0084799165
151	0x3c2603cf	0.010132744
152	0xbc080afd	-0.008303401
153	0x3cae42a8	0.021272019
154	0xbbf0e445	-0.0073514306
155	0xbbbc9977	-0.005755599
156	0x3a6edc22	0.0009111782
157	0x3c9b073a	0.018924344
158	0x3c3f03c2	0.011658611
159	0x3c465b58	0.012106739
160	0x3c77599d	0.015097049
161	0x3ba847fa	0.0051355334
162	0xbc700668	-0.014649965
163	0xbcbc381f	-0.02297598
164	0xbca5d146	-0.02024139
165	0x3c166220	0.009178668
166	0x3c27494f	0.010210349
167	0x3c834b0d	0.016026998
168	0x3b10178f	0.0021986698
169	0x3c28adb1	0.0102953175
170	0xbbfe2f11	-0.0077570756
171	0x3aefcb13	0.0018294774
172	0xbc03f7b6	-0.008054664
173	0x3a9529f2	0.0011380299
174	0x3c029356	0.007969698
175	0x3b2eb872	0.002666023
176	0xbbbc58dd	-0.005747898
177	0x3b9a3348	0.00470582
178	0x3a8d9bbc	0.0010803859
179	0x3c5fc85b	0.013658608
180	0xbbb041ee	-0.005378953
181	0xbc7e25c5	-0.015511935
182	0xbc208e31	-0.009799526
183	0x3b5f9b94	0.0034119831
184	0x3c363d68	0.011123039
185	0xbbd96477	-0.006634291
186	0xbc3e66ab	-0.011621158
187	0x3999c82b	0.0002933157
188	0xbc5fb750	-0.013654545
189	0xbc526ed4	-0.012843806
190	0x3a27b960	0.00063981675
191	0x3c149e50	0.009070948
192	0x3b9e6113	0.0048333495
193	0xbc531172	-0.012882577
194	0xbc433a12	-0.0119157005
195	0xbc794854	-0.015214998
196	0x3b7d702d	0.0038671598
197	0xbba990ff	-0.0051747556
198	0xbc8fd7dc	-0.017558984
199	0x3adca31c	0.0016833278
200	0x3b5114ee	0.0031903344
201	0xbc8c63d0	-0.017137438
202	0x3a152047	0.00056887086
203	0xbc473d37	-0.012160591
204	0xbca41c39	-0.020032989
205	0xbbae9d3d	-0.005328803
206	0xbbc3b2ad	-0.0059722275
207	0x3b891e39	0.004184511
208	0x3c411a4b	0.011786054
209	0x3b4cf246	0.0031272336
210	0xbba87ed8	-0.005142074
211	0xbbdc98e6	-0.006732094
212	0x3bb168ec	0.005414119
213	0xb9de949d	-0.00042453865
214	0xbb9a0b94	-0.0047010873
215	0x3b5fdbf8	0.0034158211
216	0xbc638588	-0.013886817
217	0xbbf9cf0b	-0.0076235584
218	0x3c1b9f9b	0.009498502
219	0x3c90a131	0.017654987
220	0x3c360a85	0.0111109065
221	0xbcf0bc53	-0.029386675
222	0x3b81ee26	0.003965157
223	0xbbefeb50	-0.0073217526
224	0xbb172b8c	-0.0023066727
225	0x3a22d8c6	0.00062121113
226	0xbc9677d4	-0.018367685
227	0x3bc01d4b	0.005862867
228	0xbc6e10a4	-0.014530335
229	0xbc2abc2f	-0.010420843
230	0xbbb74744	-0.0055932123
231	0xbc1a3efe	-0.009414433
232	0xbb4187fe	-0.002953052
233	0x3bce534a	0.00629655
234	0x3b990b1f	0.004670515
235	0x3c84e41a	0.016222049
236	0xbc183fdd	-0.00929257
237	0x3c9686ea	0.018374879
238	0x3bb6bbdc	0.005576594
239	0xbc0280ca	-0.007965276
240	0x3bd23ce0	0.0064159483
241	0xba9a5cc2	-0.0011776912
242	0xba5f0df1	-0.00085088523
243	0xbcb7cdf4	-0.022437073
244	0x3aad373d	0.0013215315
245	0x3c157960	0.009123176
246	0xbc8e19df	-0.01734632
247	0x3b410d35	0.0029457335
248	0xbc9dc7c6	-0.019260298
249	0xbbc71096	-0.0060749752
250	0x3938a41c	0.00017608743
251	0x3b00fae9	0.0019680804
252	0xbc8b0830	-0.016971678
253	0xbc3ed214	-0.011646766
254	0xbc15286a	-0.009103874
255	0xbc3e4f94	-0.011615653

sigma_linear.bias f4 [2]
0	0x3c29faee	0.010374768
1	0x3c171eff	0.009223699

encoder.0.weight f4 [8, 3, 5, 5]
0	0xbd47e066	-0.048797987
1	0xbd045dbc	-0.032315955
2	0x3b921b25	0.0044588023
3	0xbd861ff5	-0.06549064
4	0xbd314c52	-0.043285675
5	0xbd24b0f9	-0.040207837
6	0x3c79ecaa	0.015254179
7	0xbd9558a8	-0.072923005
8	0xbd6776b2	-0.05650968
9	0xbca085a7	-0.01959498
10	0xbd0762e4	-0.033053294
11	0xbca9fda6	-0.020750832
12	0x3d957b97	0.072989635
13	0xbc38bc6a	-0.01127539
14	0x3d691537	0.056904998
15	0x3c8be3e5	0.017076442
16	0xbc87439a	-0.016511727
17	0xbd92f269	-0.07175142
18	0xbd9852ce	-0.07437669
19	0x3ab8df3c	0.0014104615
20	0xbd97e26f	-0.07416236
21	0x3da7a09e	0.08184932
22	0x3cbe6bac	0.023244701
23	0xbd4fd4c7	-0.05074003
24	0x3dad8aaf	0.084737174
25	0x3d1ed501	0.038777355
26	0xbd503d15	-0.050839502
27	0x3b869289	0.004106824
28	0xbd12c4f9	-0.03583238
29	0x3cf8816b	0.030335149
30	0x3d520759	0.05127654
31	0xbcbcde97	-0.023055358
32	0xbc131595	-0.0089773135
33	0x3c19b0ea	0.0093805585
34	0xbcb6f640	-0.022334218
35	0xbd0fd461	-0.03511465
36	0x3d1d11aa	0.038346924
37	0xbc27007b	-0.010192986
38	0xbd0090e2	-0.03138817
39	0xbd407615	-0.04698761
40	0xbd5eedcb	-0.054425996
41	0xbcfeea52	-0.031117592
42	0x3cf3575e	0.029704746
43	0xbc991f54	-0.018691696
44	0xbd89885c	-0.067154616
45	0xbcdddae2	-0.02708191
46	0x3d14269d	0.036169637
47	0xbc9eebfb	-0.019399634
48	0x3d35be51	0.044370953
49	0xbbe10322	-0.0068668285
50	0xbd32a11a	-0.04361067
51	0x3cd3abb4	0.02583871
52	0x3a4f2d15	0.0007903141
53	0x3cd2f7fc	0.025753014
54	0x3ccfe74a	0.025378842
55	0x3d29dc18	0.041469663
56	0xbca0be35	-0.019621948
57	0xbbbd52de	-0.005777701
58	0x3d00f307	0.03148177
59	0xbb0c5821	-0.0021414834
60	0xbb8ea4f3	-0.0043531596
61	0xbd319859	-0.04335818
62	0x3c56b151	0.013103799
63	0xbdac2986	-0.084063575
64	0xbcab7276	-0.020928603
65	0x3c9d4bc7	0.019201173
66	0xbd2edeab	-0.04269282
67	0x3cc77a39	0.024350272
68	0xbcba0a39	-0.022709953
69	0x3caf8f8d	0.021430755
70	0x3cca699f	0.024708567
71	0xbd0f0b5f	-0.034922954
72	0xbcdc7966	-0.026913356
73	0xbc734d45	-0.014849965
74	0xbc8dff7d	-0.01733374
75	0x3d21f09a	0.039536096
76	0x3c9a9d1e	0.018873747
77	0x3c9c5ccf	0.019087223
78	0xbc66a294	-0.014076848
79	0x3b307ebc	0.0026931008
80	0xbbe96581	-0.007122696
81	0x3cc3cf76	0.023902636
82	0xbd62da48	-0.05538395
83	0x3b5e20af	0.0033893993
84	0x3be1e243	0.0068934276
85	0x3b0f2321	0.0021841007
86	0x3ccc5817	0.024944348
87	0x3c87d583	0.016581303
88	0xbcf22ec1	-0.02956331
89	0xbd129047	-0.035782125
90	0xbaf3ab83	-0.0018590543
91	0x3d19f69f	0.03758871
92	0x3cae4e8a	0.021277685
93	0x3c30b57c	0.010785457
94	0x3c34776e	0.011014802
95	0x3ca5ad08	0.02022411
96	0xbcf37e0d	-0.029723192
97	0xbd4ffa98	-0.050776094
98	0x3d7ea9fe	0.062173836
99	0x3c76c8c1	0.015062512
100	0x3d5f39fb	0.054498654
101	0xbc937af0	-0.018002957
102	0x3d1df67b	0.03856514
103	0xbd8e65f1	-0.069530375
104	0x3cc14ead	0.023597086
105	0xbd074275	-0.033022363
106	0xbd597669	-0.05309144
107	0x3c5b2e78	0.013377778
108	0xbccf02bd	-0.02526986
109	0x3c86bd50	0.016447693
110	0x3d204a44	0.039133325
111	0xbdc0247e	-0.0938196
112	0xbd1fbed3	-0.039000344
113	0xbca68de2	-0.020331327
114	0xbb40a24f	-0.0029393618
115	0xbc7f6094	-0.015586991
116	0x3cd409d7	0.025883598
117	0xbb105561	-0.0022023546
118	0xbd14369c	-0.036184892
119	0x3c8103be	0.015748855
120	0x3d30dc82	0.043179043
121	0x3d86a3c7	0.06574207
122	0xbd60f756	-0.054923378
123	0x3c633e58	0.013869844
124	0xbd8b82e6	-0.06812076
125	0xbbb000b8	-0.0053711794
126	0xbd8949f8	-0.067035615
127	0x3c926b35	0.017873386
128	0x3bbcdcde	0.005763634
129	0xbd0dbf62	-0.034606345
130	0xbc956b8a	-0.018239755
131	0x3d1383c6	0.03601434
132	0xbaf41186	-0.0018620945
133	0x3d05f561	0.032704715
134	0xbd578095	-0.05261286
135	0xbc9208e7	-0.01782651
136	0xbcf48726	-0.0298496
137	0xbd4b9689	-0.04970411
138	0xbb11e0b2	-0.0022259173
139	0x3aee36fb	0.0018174344
140	0x3d1ae662	0.037817366
141	0xbb8fa816	-0.004384051
142	0xb900bbf4	-0.00012277049
143	0x3caef328	0.02135618
144	0x3d6b57da	0.05745683
145	0x3cf0baa9	0.029385881
146	0x3d8f067f	0.06983661
147	0xbd414b55	-0.047190983
148	0xbcc8844d	-0.024477148
149	0xbd02c8ed	-0.0319299
150	0x3c2d1ab1	0.010565446
151	0x3c80eccb	0.015737912
152	0xbc44abfb	-0.012003894
153	0xbd177b17	-0.036982622
154	0xbcd09a73	-0.025464272
155	0x3d76ed82	0.0602851
156	0x3d2a02fa	0.041506745
157	0x3d32af4b	0.043624204
158	0xbcf4483a	-0.029819597
159	0xbd4ba034	-0.04971333
160	0xbc225e85	-0.0099102305
161	0x3d12eab2	0.035868354
162	0xbd01a93e	-0.031655543
163	0x3c709ec7	0.014686293
164	0x3bf8e115	0.0075951912
165	0x3d2fb0fd	0.0428934
166	0xbd4510e4	-0.04811181
167	0xbd0879db	-0.033319335
168	0xbc73101c	-0.014835384
169	0xbd9f7f24	-0.07787922
170	0xbcbc9015	-0.023017922
171	0x3cf2b672	0.029628012
172	0x3d423ade	0.04741942
173	0x3c6025e7	0.013680912
174	0x3db3bfee	0.08776842
175	0xbcfe6c22	-0.031057421
176	0x3d0f4f47	0.034987714
177	0xbb3cb25e	-0.0028792839
178	0xbd7afbba	-0.06127522
179	0xbc289c12	-0.010291116
180	0xbd05c830	-0.032661617
181	0xbb531a2f	-0.0032211652
182	0xbc41d36a	-0.01183019
183	0xbcb3bf6b	-0.021941861
184	0xbd07727c	-0.033068165
185	0xbbbe8e3c	-0.0058152955
186	0xbc7f630d	-0.01558758
187	0xbc584279	-0.013199442
188	0x3d6e89ce	0.05823689
189	0xbc4de5b1	-0.01256697
190	0xbd4dbca8	-0.050228745
191	0x3c586697	0.013208053
192	0x3d161c51	0.0366481
193	0x3c9798fe	0.01850557
194	0xbbc4045a	-0.005981964
195	0xbc0302fa	-0.007996315
196	0xbc54fdc3	-0.012999955
197	0xbd8bcb00	-0.068258286
198	0xbbc2611a	-0.0059319856
199	0xbd272cdc	-0.040814266
200	0xbc882197	-0.01661758
201	0x3cee2c98	0.029073998
202	0x3b36ddef	0.0027903279
203	0xbd4fae72	-0.050703473
204	0xbd08e1ae	-0.03341835
205	0xbc3976c8	-0.011319824
206	0x3c79a3ff	0.015236854
207	0xbd129f21	-0.03579629
208	0xbd1ce6a5	-0.038305897
209	0xbc02cecd	-0.007983875
210	0x3d297891	0.041374747
211	0xbc3499c1	-0.011022986
212	0xbc83e2ad	-0.016099298
213	0x3d81a7f5	0.063308634
214	0xbcd383ac	-0.025819622
215	0x3cf9c26b	0.030488214
216	0xbd6a3759	-0.05718169
217	0x3daad00d	0.08340464
218	0xbbb73261	-0.0055907224
219	0xbd7a2f01	-0.061079983
220	0x3ce126f4	0.027484395
221	0xbd0b6c6f	-0.034038957
222	0x3ce7c626	0.028292727
223	0x3bcbd25d	0.0062201456
224	0xbc755f52	-0.014976339
225	0xbdebf0ac	-0.11520514
226	0x3c932fab	0.017967066
227	0xbc295816	-0.010335943
228	0xbd9b7139	-0.07589955
229	0x3cbb6eed	0.022880042
230	0xbd06bef8	-0.032896966
231	0x3d7b86af	0.06140774
232	0x3d4465be	0.04794859
233	0x3c38b294	0.011273045
234	0x3b6f6e5a	0.003653428
235	0x3bead269	0.007166196
236	0x3c99dcee	0.018782105
237	0xbd4f53df	-0.050617095
238	0x3baeac62	0.005330608
239	0xbd325c77	-0.043545213
240	0xbcd37caf	-0.02581629
241	0x3c220940	0.009889901
242	0x3c8beefc	0.01708173
243	0xbd69bdb6	-0.057065688
244	0xbc8f5830	-0.017498106
245	0x3caf4689	0.021395938
246	0xbd28595b	-0.04110084
247	0xbdcc341c	-0.099708766
248	0xbbe0687b	-0.0068483925
249	0x3d49411a	0.04913435
250	0xbd1b5e22	-0.03793157
251	0x3b98dbdb	0.0046648807
252	0x3d0d04cc	0.034428403
253	0x3ca2694f	0.019825606
254	0x3cc7506c	0.02433034
255	0xbcaac270	-0.020844668

encoder.0.bias f4 [8]
0	0xbc521350	-0.012821987
1	0xbba25fe4	-0.0049552787
2	0xbc9f7b00	-0.01946783
3	0xbc74f57e	-0.014951108
4	0xbc38bd17	-0.011275551
5	0xbc46221d	-0.012093094
6	0xbc3da3ca	-0.011574695
7	0xbcc8b5e8	-0.024500802

encoder.3.weight f4 [16, 8, 5, 5]
0	0xbc2dc71e	-0.010606555
1	0xbcf99939	-0.03046857
2	0xb9b0fc72	-0.00033757422
3	0xbcf7b18f	-0.030236034
4	0x3c0b5fb1	0.008506701
5	0xbc83c242	-0.01608384
6	0xbcb5167c	-0.022105448
7	0xbd914c94	-0.07094684
8	0x3ca396c1	0.019969346
9	0x3d849033	0.06472816
10	0xbcc7a478	-0.024370417
11	0x3c91dcd7	0.0178055
12	0xbd2305d9	-0.0398005
13	0xbd40de50	-0.047087014
14	0xbd4accd9	-0.049511764
15	0x3c780d92	0.015139954
16	0xbcd5b8f3	-0.026089167
17	0xbbe51cc7	-0.006991956
18	0xbcb2ed37	-0.021841628
19	0x3d107794	0.03527029
20	0xbbc022a8	-0.0058635063
21	0xbc8339cc	-0.01601877
22	0x3cde929c	0.027169518
23	0xba9273c3	-0.0011173416
24	0x3ccf86a4	0.025332756
25	0xbd44047c	-0.04785584
26	0xbda6d533	-0.08146133
27	0x3c54e72b	0.012994568
28	0xbcd4efb7	-0.025993211
29	0x3c639ed2	0.013892846
30	0xbca5a610	-0.020220786
31	0x3d304808	0.043037444
32	0xbce52b59	-0.027974771
33	0xbb69c874	-0.0035672458
34	0xbc39e33d	-0.011345682
35	0x3c07ea59	0.008295619
36	0x3c0384f8	0.008027308
37	0x3c818477	0.015810234
38	0x3cb71bde	0.022352155
39	0x3cf2c831	0.029636474
40	0x3c3a649c	0.011376526
41	0xbacde554	-0.0015708604
42	0x3bd6e712	0.0065583074
43	0x3d13bdeb	0.03606979
44	0x3b548871	0.0032429958
45	0xbd646ac8	-0.055765897
46	0x3c21f800	0.009885788
47	0xbd5f9141	-0.054581884
48	0xba0ac469	-0.00052935496
49	0x3d0ffa53	0.035150837
50	0xbc2167fb	-0.009851451
51	0x3c3223e6	0.010872817
52	0x3c2c330f	0.01051022
53	0xbce713d0	-0.02820769
54	0xbcaf7f20	-0.021422923
55	0xbccd8142	-0.025086049
56	0xbcae046e	-0.021242347
57	0xbb433ada	-0.0029789717
58	0x3c9f99b5	0.019482473
59	0xbb34534a	-0.0027515464
60	0xbd378b4f	-0.04481059
61	0x3c5e484c	0.013567042
62	0x3c944006	0.018096935
63	0x3c0cee47	0.008601732
64	0x3c1bb0d1	0.009502606
65	0xbc690a50	-0.01422365
66	0x3d2c8ff8	0.042129487
67	0x3d10cda3	0.03535236
68	0xbd6da5a0	-0.05801928
69	0x3c389216	0.011265298
70	0xbba22248	-0.0049479343
71	0x3caf8597	0.021426005
72	0x3b9aeb5e	0.004727765
73	0xbcd4f036	-0.025993448
74	0x3c596ffc	0.013271328
75	0x3c654943	0.013994518
76	0xba7c0b24	-0.0009614697
77	0xbd2e701f	-0.042587396
78	0xbce09279	-0.027413594
79	0xbc16fcfc	-0.00921559
80	0xbd1ac839	-0.037788603
81	0xbd3ec9ea	-0.04657928
82	0xbd274301	-0.040835384
83	0xbcc2fb6e	-0.023801532
84	0x3cdb0ffd	0.026741022
85	0x3caf09ad	0.021366918
86	0xbc2f4043	-0.0106964735
87	0xba9f05f3	-0.001213251
88	0x3d43e9f3	0.047830533
89	0xbc84410e	-0.016144302
90	0xbc108efb	-0.008823152
91	0xbc8bb97f	-0.017056225
92	0xbc16a3be	-0.009194313
93	0xbcb72915	-0.022358457
94	0x3d335964	0.04378642
95	0x3d0d1284	0.034441486
96	0xbc43f6fc	-0.011960741
97	0xbc2245f5	-0.009904374
98	0xbc6f520e	-0.014606966
99	0x3a5ea529	0.0008493239
100	0x3c432d95	0.011912723
101	0xbd5a1f16	-0.053252302
102	0xbba9ee42	-0.0051858732
103	0xbcd354b3	-0.025797224
104	0x3be92b9d	0.007115795
105	0xbd000e1e	-0.031263463
106	0x3a7e401b	0.00096988835
107	0xbcf12060	-0.029434383
108	0xbc14be56	-0.009078583
109	0xbc9c0314	-0.019044437
110	0xbc0cfbb8	-0.008604936
111	0x3cbcdda5	0.023054907
112	0xbc239dcd	-0.009986353
113	0xbb9a4387	-0.004707757
114	0xbc468d2b	-0.012118618
115	0xbcf8d009	-0.030372636
116	0x3c25de48	0.010123797
117	0xbb93a3ad	-0.0045055957
118	0xbabb690b	-0.0014298273
119	0xb9f6a750	-0.00047045434
120	0x3c073bd9	0.008254015
121	0xbc7c8e2b	-0.015414755
122	0xbd5513c4	-0.052020803
123	0xbbbc0def	-0.0057389657
124	0xbd0811f3	-0.033220243
125	0xbd04427a	-0.03228996
126	0x3b3b069b	0.0028537873
127	0x3bbdef05	0.0057963156
128	0x3d1d2e8b	0.038374465
129	0xbcbbaa40	-0.02290833
130	0xba3e0d2d	-0.0007249888
131	0xbae238ca	-0.0017259356
132	0xbd00c22b	-0.031435173
133	0xbca2043a	-0.019777406
134	0x3c430596	0.011903187
135	0xbd5e2e5a	-0.054243423
136	0x3c2163e2	0.009850474
137	0xbc4053cc	-0.011738729
138	0xbbfb02d2	-0.0076602483
139	0xbc74490d	-0.014909995
140	0xbb867908	-0.0041037835
141	0xbb688300	-0.0035478473
142	0xbb33314c	-0.0027342616
143	0xbc82afc1	-0.015952947
144	0xbbcb4f66	-0.0062045334
145	0x3be1cec9	0.006891106
146	0xbd308edd	-0.043104995
147	0xbd81c456	-0.06336276
148	0xbc97afc8	-0.018516436
149	0xbd98f79c	-0.07469103
150	0xbd1fa5a9	-0.038976345
151	0xbcaf8ec9	-0.02143039
152	0xbc139519	-0.009007716
153	0xbc0abf50	-0.008468464
154	0xbbcde141	-0.006282956
155	0xbbf02248	-0.0073283054
156	0x3bd7c2f2	0.0065845186
157	0x3c565d81	0.0130838165
158	0xbca19c31	-0.019727798
159	0x3b8ba48b	0.0042615584
160	0x3c87a4cc	0.016558073
161	0xbcce970b	-0.025218507
162	0xbc1392de	-0.009007184
163	0xbd419007	-0.047256496
164	0xba6203a6	-0.00086217595
165	0xbbe1e58f	-0.0068938206
166	0xbc2b6f53	-0.0104635535
167	0xbd239113	-0.039933275
168	0xbccce717	-0.025012536
169	0x3ca991e0	0.020699441
170	0x3c858119	0.01629691
171	0x3d019f63	0.031646144
172	0xbbcc5eb2	-0.0062368745
173	0x3c337d95	0.010955234
174	0x3d5b0c2b	0.0534784
175	0xbcd20d61	-0.025641145
176	0xbb985c13	-0.004649648
177	0x3c9a8859	0.018863844
178	0xbd1636b9	-0.03667328
179	0x3d9da2f6	0.07697098
180	0xbca47fb0	-0.020080417
181	0xbccd26f7	-0.025042994
182	0xbd14e3fb	-0.03635023
183	0xbd469ff0	-0.048492372
184	0xbd39b435	-0.045337874
185	0xbccf3daa	-0.025297958
186	0x3b919094	0.004442284
187	0x3c8c6a9c	0.017140679
188	0xbc0cd4ce	-0.0085956585
189	0xbc708f0b	-0.014682542
190	0xbcee3f32	-0.029082868
191	0x3cba42fe	0.022737022
192	0x3c3d1f07	0.011543042
193	0x3cf87d75	0.03033326
194	0x3d1f42c0	0.038882017
195	0x3d3de3aa	0.046359695
196	0xbcfd66ed	-0.030932868
197	0x3c272d39	0.010203653
198	0xbd36536a	-0.044513144
199	0x3d78b694	0.060720995
200	0x3b9745c9	0.0046164733
201	0x3c2c7e16	0.010528108
202	0x3badbe0f	0.0053021978
203	0x3bde3937	0.006781723
204	0x3d26d222	0.040727742
205	0xbcea1837	-0.028576
206	0x3d231e77	0.039823975
207	0xbca67fdd	-0.020324642
208	0x3c895552	0.016764317
209	0x3cbdfb76	0.023191195
210	0xbcd11bca	-0.025525946
211	0x3cd5b37f	0.026086567
212	0x3c64e184	0.013969783
213	0xbb367758	-0.002784213
214	0x3b804006	0.003913882
215	0xbcdc6eda	-0.026908327
216	0xbc254931	-0.010088251
217	0xbc312fb5	-0.010814597
218	0xbc89c1b3	-0.016815996
219	0x3d1e3347	0.03862312
220	0xbd7a7107	-0.061142948
221	0xbcf2c9a7	-0.029637171
222	0xbc4ca56d	-0.012490612
223	0xbaf61db1	-0.0018777159
224	0x3c4850ab	0.012226264
225	0x3a30b7b6	0.0006741242
226	0x3c048daf	0.008090421
227	0xbd2c441d	-0.042057145
228	0xbd73b178	-0.05949542
229	0xbb953007	-0.0045528444
230	0x3b96d4e8	0.004603017
231	0x3b434efd	0.002980172
232	0xbd0569e1	-0.032571677
233	0x3cc69272	0.024239752
234	0x3bf3631a	0.0074275853
235	0xbc335547	-0.010945625
236	0xbc0161b4	-0.007896829
237	0xbc31185d	-0.010809031
238	0xbd457a0e	-0.048212104
239	0x3d22a671	0.039709512
240	0xbcfb592d	-0.03068217
241	0xbd0edd2a	-0.034878887
242	0xb9da0034	-0.00041580352
243	0xbd19a6c4	-0.037512556
244	0xbc1d792f	-0.009611412
245	0xbcd16cca	-0.02556457
246	0x3c96f98b	0.018429538
247	0xbcb04812	-0.02151874
248	0x3b934547	0.0044943425
249	0xbb9b6ac3	-0.0047429516
250	0x3b309d55	0.0026949246
251	0xbc834ecb	-0.016028782
252	0x3ab87ffa	0.0014076226
253	0xbcd1e068	-0.0256197
254	0xbbaea13a	-0.0053292783
255	0xbc28da18	-0.010305904

encoder.3.bias f4 [16]
0	0xbc51b037	-0.012798361
1	0x3c04a90c	0.008096945
2	0xbc261b85	-0.010138397
3	0xbb376f38	-0.0027989876
4	0xbc1ab722	-0.009443076
5	0x387a0436	5.9608567e-05
6	0x3aaa36cc	0.0012986301
7	0xbc88aef5	-0.016684989
8	0xbc692dc7	-0.014232106
9	0xbbbd375a	-0.0057744207
10	0xbc300e4e	-0.010745598
11	0xbc5a5901	-0.013326884
12	0x3bc6f206	0.006071332
13	0xbc9642b8	-0.01834236
14	0xbc24c222	-0.0100560505
15	0xbc014a00	-0.007891178

encoder.6.weight f4 [32, 16, 5, 5]
0	0xbd012054	-0.03152497
1	0xbbf624c8	-0.007511709
2	0xbb6bdf51	-0.0035991261
3	0xbaaea68c	-0.0013324781
4	0xbcf50ff9	-0.029914843
5	0x3b0125ef	0.0019706448
6	0xbc960cc5	-0.018316636
7	0xbd631088	-0.055435687
8	0xbcd1c9d1	-0.025608929
9	0xbc25005f	-0.010070889
10	0x3c0468cc	0.008081626
11	0xbb7a9382	-0.0038234894
12	0xbc0804ff	-0.008301972
13	0x3cb2db70	0.021833152
14	0xbc3c2c42	-0.011485161
15	0x3c98ecb1	0.01866755
16	0xbb3b09fb	-0.0028539884
17	0x3d198295	0.03747805
18	0xbb80e710	-0.003933795
19	0xbcc3dfb9	-0.02391039
20	0xbd2a6982	-0.041604526
21	0xbca8082f	-0.020511715
22	0xbcd21381	-0.025644066
23	0xbb2b4e2f	-0.002613913
24	0x3cfaceb4	0.030616142
25	0x3b78d532	0.0037968871
26	0xbc6b4434	-0.014359523
27	0x3b373970	0.002795782
28	0xbbda302b	-0.006658574
29	0x38db4574	0.000104556704
30	0xbcc2b9f7	-0.023770316
31	0x3c806ba0	0.01567632
32	0x3c7d06b5	0.015443494
33	0x3ba3253a	0.004978803
34	0xbad30b6b	-0.0016101425
35	0x3c432f0b	0.011913071
36	0x3bb764ae	0.0055967188
37	0xbb474fd5	-0.0030412574
38	0x398e1bed	0.00027105157
39	0xbcaff6fd	-0.021480078
40	0xbc95d9fe	-0.018292423
41	0xbc873a04	-0.016507156
42	0xbc632563	-0.013863894
43	0x3c084c81	0.008319021
44	0xbc892b9b	-0.016744426
45	0xbd1f6cc8	-0.0389221
46	0xbb126835	-0.0022339944
47	0x3d01ade9	0.031659994
48	0x3bb6b5dc	0.0055758785
49	0x3a7a3aa9	0.0009545484
50	0x3d145488	0.036213428
51	0x3d02d0c0	0.03193736
52	0xbc3f504f	-0.011676862
53	0x3d048d47	0.032361295
54	0xbcadfc04	-0.021238334
55	0x3d09513b	0.033524733
56	0xbc6abe9a	-0.0143276695
57	0xbc32a104	-0.010902647
58	0x3c1dbcf2	0.009627568
59	0xbd26687f	-0.040627
60	0x3ca59d22	0.020216528
61	0xbcb3df36	-0.021957021
62	0x3b862620	0.0040939003
63	0x3bda816a	0.0066682594
64	0xbca96fab	-0.02068313
65	0x3d17ca72	0.0370583
66	0x3d01492d	0.031563926
67	0xbc87932f	-0.016549675
68	0x3c13b3af	0.009015008
69	0xbcd2dfab	-0.025741419
70	0x3d3b938f	0.04579502
71	0x3c9dc852	0.01926056
72	0xbcbe7618	-0.02324967
73	0x3c7cc6cc	0.015428256
74	0xbbf8c88b	-0.007592266
75	0xbc8d2288	-0.01722838
76	0xbc855dbd	-0.01628005
77	0x3c322b92	0.010874646
78	0xbc9578ea	-0.018246133
79	0x3d6868a1	0.056740407
80	0x3cf6869e	0.030093487
81	0xbcc74779	-0.024326073
82	0x3c711f3b	0.014716919
83	0xbc06ef4b	-0.008235763
84	0x3ca982ea	0.020692308
85	0xbc1738be	-0.009229837
86	0xbc1c1539	-0.009526544
87	0x3935c663	0.0001733541
88	0x3bf1667f	0.007366955
89	0x3be693f8	0.007036682
90	0x3cabd45b	0.020975282
91	0xbba37512	-0.004988321
92	0xbc41eba6	-0.011835968
93	0xbd973629	-0.07383377
94	0xbc4d405d	-0.012527552
95	0x3bfb2629	0.007664461
96	0xbb8cd318	-0.0042976253
97	0xbd13905a	-0.036026336
98	0x3d2a935c	0.04164444
99	0xbcac3099	-0.021019267
100	0xbcc31e33	-0.023818111
101	0xbcc06616	-0.023486178
102	0x3b3829df	0.002810113
103	0xbd055cbd	-0.032559145
104	0x3c7ef2de	0.015560834
105	0x3c2c2def	0.010508998
106	0x3c37f4e2	0.011227818
107	0xbca96835	-0.020679573
108	0x3c0b3629	0.0084967995
109	0x3b826de3	0.0039803847
110	0xbc6633ff	-0.014050483
111	0xbb754f14	-0.0037431167
112	0xbd402620	-0.04691136
113	0xbc1616c2	-0.009160699
114	0xbd4fa293	-0.050692152
115	0xbcb51ec6	-0.0221094
116	0xbc9cbde7	-0.019133521
117	0xbcfce221	-0.030869545
118	0x3b8f96d0	0.004381992
119	0xbcdfd959	-0.02732532
120	0xbcb9edda	-0.022696424
121	0xbade7aea	-0.0016973887
122	0xbc12b03b	-0.008953149
123	0x3c2fcd09	0.010730037
124	0xbc83f529	-0.016108112
125	0xbd5a32a1	-0.05327094
126	0xbd0ac22a	-0.033876576
127	0xbcb8bc5e	-0.022550758
128	0xbca2bb66	-0.01986475
129	0xbb5ffe32	-0.0034178612
130	0x3b8c55ed	0.004282704
131	0x3c1c2c69	0.009532073
132	0x3cde65e1	0.027148189
133	0x3badba72	0.005301767
134	0x3b0b438e	0.0021249983
135	0x3c97d762	0.01853532
136	0x3c6537ff	0.013990401
137	0x3cadfe8e	0.021239545
138	0x3c8b9dc6	0.017043006
139	0xbc80b43d	-0.015710944
140	0x3c9a0745	0.018802295
141	0x3cb7debb	0.022445073
142	0x3c0dc01c	0.0086517595
143	0xb941b8fa	-0.00018474823
144	0x3c60a49e	0.013711123
145	0xbcf65b55	-0.030072847
146	0x3b0b3339	0.0021240248
147	0x3c56ce80	0.013110757
148	0xbb98a4cb	-0.0046583167
149	0x3bda7a55	0.006667415
150	0xbb096cc4	-0.002096937
151	0xbb5061c0	-0.0031796545
152	0xbc4b08f2	-0.012392269
153	0xbd26d30d	-0.040728617
154	0xbcf931ad	-0.030419195
155	0xbc8c7a4b	-0.017148158
156	0xbca08dc3	-0.019598847
157	0xbbc568c5	-0.0060244524
158	0xbc40b067	-0.011760808
159	0x3c969d52	0.018385563
160	0x3c5d74f4	0.013516653
161	0xbb9ccedd	-0.004785402
162	0xbcbbb6e8	-0.022914365
163	0x3abf5f88	0.0014600614
164	0x3b168ca6	0.0022972017
165	0xbc307615	-0.01077034
166	0xbc143cd2	-0.009047704
167	0x39e9a44d	0.00044563637
168	0x3c5eac66	0.013590908
169	0xbb7f919d	-0.0038996704
170	0xbc31fd69	-0.01086364
171	0x3cac07c8	0.020999804
172	0xbb6085c3	-0.0034259416
173	0x3c473eee	0.012161
174	0xbcbde0cc	-0.02317848
175	0x3c16e7f7	0.009210578
176	0xbd2815ed	-0.041036535
177	0xbc06d33e	-0.008229075
178	0x3c8d3fd8	0.017242357
179	0xbc88d15e	-0.016701397
180	0x3c9c3f0d	0.019073034
181	0xbbb9c58a	-0.0056693004
182	0x3c6eeee0	0.014583319
183	0x3cc1ef55	0.023673693
184	0xbd03a05c	-0.032135352
185	0x3d12bbc4	0.0358236
186	0xbc718377	-0.014740816
187	0xbb4b6d59	-0.0031040518
188	0xbca4920c	-0.020089172
189	0xbcd6dfe3	-0.026229804
190	0x3cf8f37e	0.030389544
191	0x3a1ff3e4	0.0006101711
192	0x3c0ed342	0.00871736
193	0xbcb4a2bd	-0.022050256
194	0x39e3899f	0.0004339935
195	0xbc309502	-0.010777714
196	0xbbf408c2	-0.007447333
197	0x3b7ca737	0.0038551816
198	0xbb6f83eb	-0.0036547135
199	0x3c85b0d0	0.016319662
200	0x3c8892f7	0.01667164
201	0xbc4c1ebc	-0.0124584995
202	0x3bbf0212	0.005829104
203	0xbc2767d7	-0.010217628
204	0x3a91e68d	0.0011131332
205	0xbcd745c7	-0.02627839
206	0x3bc178e9	0.005904306
207	0x3c5bf2b5	0.013424565
208	0xbc9d0a95	-0.019170085
209	0xbb101ca3	-0.0021989725
210	0x3cd13ab7	0.025540693
211	0x3d1b23ec	0.037876055
212	0x3b15e094	0.0022869455
213	0x3b4561d4	0.0030118125
214	0x3c51c7ed	0.012804014
215	0x3d23c1af	0.039979633
216	0xbaa086ff	-0.0012247263
217	0xbc9a4ddd	-0.018835956
218	0xbd0bd0a1	-0.03413451
219	0xbbdd4f53	-0.006753841
220	0x3c4ac04d	0.01237495
221	0x3c4a61be	0.012352405
222	0x3afcebef	0.0019296388
223	0x3c10a2f4	0.008827914
224	0xbceb800a	-0.028747577
225	0xbd07c6f6	-0.03314873
226	0x3a0a1444	0.0005267302
227	0x3cbc342a	0.022974093
228	0xbc9cd51f	-0.019144593
229	0xbca69419	-0.02033429
230	0x3c3ba0a6	0.011451876
231	0xbc607fc7	-0.0137023395
232	0x3c8ff824	0.017574377
233	0xbc9343fa	-0.01797675
234	0xbd6048ee	-0.05475705
235	0x3c8bb1fb	0.017052641
236	0xbd4f4d4d	-0.05061083
237	0xbc5cfa6e	-0.013487441
238	0x3d1850b1	0.03718633
239	0xbd8e9e03	-0.06963732
240	0xbd0eb1aa	-0.034837402
241	0xbb3f591f	-0.0029197407
242	0xbcfd8875	-0.030948857
243	0xbd0bb4a8	-0.034107834
244	0xbcc5125d	-0.024056608
245	0xbbb62cf9	-0.0055595604
246	0xbd0b0df4	-0.033948854
247	0xbbd968fa	-0.0066348286
248	0xbbbf45da	-0.0058371844
249	0xbcbe566d	-0.02323457
250	0x3c0f5c67	0.008750058
251	0xbc0c16fd	-0.008550403
252	0xbd6b6f09	-0.05747894
253	0xbbaba760	-0.0052384585
254	0x3c2c806c	0.010528665
255	0x3b5c55a0	0.0033620372

encoder.6.bias f4 [32]
0	0xbb8b8ec5	-0.004258963
1	0xb7f8673c	-2.9611976e-05
2	0x3a0cb552	0.0005367595
3	0xbb867557	-0.0041033435
4	0xbb0fbf4d	-0.0021934093
5	0xb9986c0d	-0.00029072203
6	0xbbbe241d	-0.005802645
7	0xbb4f6fcc	-0.003165233
8	0xbc0ce15e	-0.008598654
9	0xbc44f988	-0.0120223835
10	0xbb71354e	-0.0036805454
11	0x3b6640a0	0.0035133734
12	0xba5345b4	-0.0008059398
13	0xb9909f5f	-0.0002758456
14	0xbaeca074	-0.001805319
15	0xbbbf74f6	-0.0058428003
16	0xbbe55ef1	-0.0069998433
17	0xbc04658f	-0.008080854
18	0xbbe6c135	-0.007042075
19	0xba67fe70	-0.0008849865
20	0xbc0e12a0	-0.008671433
21	0xbbed559e	-0.0072428724
22	0xbbcb8f7c	-0.006212173
23	0xbb4ced38	-0.0031269323
24	0x3938b3b7	0.00017614556
25	0xbc025518	-0.007954858
26	0xbb60623b	-0.0034238237
27	0xbc08c596	-0.008347889
28	0xbbb7548c	-0.0055947956
29	0xbb3bfb5c	-0.0028683757
30	0xbbddf260	-0.006773278
31	0xbb79c020	-0.00381089

encoder.9.weight f4 [64, 32, 5, 5]
0	0x3a5c4d4b	0.00084038515
1	0xbd08ae66	-0.033369444
2	0xbc8da7ee	-0.01729199
3	0xbc6a0cc2	-0.014285268
4	0xbc5ca4ff	-0.0134670725
5	0xbb93a847	-0.004506144
6	0xbc665f4c	-0.0140608065
7	0x3b82a3e8	0.0039868243
8	0x3d020207	0.031740215
9	0x3b191e22	0.0023363908
10	0x3b8151bb	0.0039465106
11	0xbc11b910	-0.00889422
12	0x3aaf170e	0.0013358311
13	0xba6bbcfa	-0.0008992698
14	0x3ba09208	0.004900221
15	0x3bb41655	0.0054958262
16	0x3bc731e6	0.0060789464
17	0xbc02632e	-0.007958217
18	0x3aaa71b8	0.0013003862
19	0x3c293ab4	0.010328937
20	0x3bfa9bf7	0.007647987
21	0xbb07aedc	-0.002070359
22	0x3c8d5c54	0.01725594
23	0x3c898fd9	0.016792225
24	0x3c612cc4	0.013743583
25	0xbca9bd4c	-0.020720147
26	0xbcc844c8	-0.02444686
27	0x3b885b8c	0.004161304
28	0x3c78d1ad	0.015186709
29	0x3c67c3ad	0.014145774
30	0x3b40c99d	0.0029417046
31	0x3c1af25a	0.009457195
32	0xbcff693f	-0.031178115
33	0xbbd4fda7	-0.0064999643
34	0x3ce7638c	0.02824571
35	0xbcc3c08d	-0.023895526
36	0x3cdbc713	0.026828324
37	0xbc7e6c84	-0.015528802
38	0xbc0da0df	-0.008644312
39	0xbc1a5acb	-0.009421061
40	0xbc58bf8f	-0.013229265
41	0xbc246c9f	-0.010035663
42	0xbce92d03	-0.028463846
43	0xbca855cc	-0.020548724
44	0x3a691432	0.0008891254
45	0x3cbb9bb5	0.022901395
46	0xbca32cae	-0.019918766
47	0xbca60007	-0.020263685
48	0xbb165eb4	-0.002294463
49	0xbc203f49	-0.009780713
50	0x3cbf2a83	0.0233357
51	0x3c20508a	0.009784827
52	0xbcfeb477	-0.031091912
53	0xbc306bb8	-0.01076787
54	0x3cae2a9f	0.021260558
55	0x3ba341d3	0.004982212
56	0x3c3c3ead	0.011489552
57	0xbc65e11d	-0.014030722
58	0xbc1a03f6	-0.009400358
59	0x3ca2b6f8	0.019862637
60	0x3b350602	0.002762199
61	0x3b8b0fad	0.004243812
62	0xbc8eafa2	-0.017417733
63	0x3d07a7f8	0.03311917
64	0x3c8e58bf	0.017376302
65	0x3cbc4b79	0.022985207
66	0x3ad4feec	0.0016250289
67	0x3c54932b	0.012974541
68	0x3d04c549	0.03241471
69	0xbc003373	-0.007824766
70	0x3a2ea420	0.000666203
71	0x3b80ecef	0.0039344947
72	0x3c7f537f	0.015583872
73	0xbcc37e24	-0.02386386
74	0x3b43a43b	0.0029852528
75	0xbba8f00f	-0.0051555703
76	0xbb636944	-0.0034700194
77	0x3c175d50	0.009238556
78	0x3ab77a82	0.0013998302
79	0x3c73b61b	0.01487496
80	0x3c8f3aae	0.017484035
81	0x3ca8e4e4	0.020616956
82	0x3ccc3c92	0.024931226
83	0xba52b32f	-0.00080375647
84	0x3c88f822	0.016719881
85	0x3c0f2715	0.008737345
86	0xbbf44c46	-0.0074553816
87	0xbc87bc26	-0.016569208
88	0xbc0ea4b7	-0.008706263
89	0x3b80abff	0.0039267535
90	0xbc50ddb5	-0.012748172
91	0xbd124016	-0.03570565
92	0xbac2798a	-0.0014837247
93	0x3c32e601	0.010919095
94	0x3c8d4142	0.017243031
95	0x3c2158e1	0.009847851
96	0x3c130693	0.008973735
97	0x3c4455fd	0.011983392
98	0x3aca3f2b	0.0015430202
99	0xb91f2221	-0.00015176136
100	0xbcb42bcd	-0.021993542
101	0x3ae008dc	0.0017092484
102	0xbaf5483f	-0.0018713548
103	0x3bb051e5	0.0053808563
104	0x3cae37ea	0.021266896
105	0xbc429190	-0.011875525
106	0xbadb0f3f	-0.0016712918
107	0xbc918a7c	-0.01776623
108	0xb94255d2	-0.00018533252
109	0xbb42b23a	-0.0029708282
110	0xbc435953	-0.011923152
111	0xbace55ea	-0.0015742157
112	0xbca5a0ee	-0.020218339
113	0x3bf775e9	0.007551898
114	0x3c1a6f54	0.009425957
115	0xbc6a6aa8	-0.014307655
116	0x3afdbf6d	0.0019359417
117	0x3c43a2b3	0.011940646
118	0xbc4b54fd	-0.0124103995
119	0xb9a0dc3a	-0.0003068166
120	0xbccdae20	-0.025107443
121	0xbc63d76f	-0.013906344
122	0x3cca2faf	0.02468094
123	0x3d11608a	0.035492457
124	0xbb989b62	-0.004657195
125	0xbc949357	-0.018136663
126	0x3bf06584	0.0073363204
127	0xbcf32ec1	-0.02968538
128	0xbc344e40	-0.011004984
129	0x3cdc34a6	0.026880573
130	0x390a8114	0.00013208791
131	0xbcae1360	-0.021249473
132	0x3c8b9bef	0.017042128
133	0x3a6a1940	0.0008930154
134	0x3c302d6e	0.010753019
135	0x3aa46b11	0.0012544115
136	0x3d24b4a0	0.04021132
137	0x3d3a37e7	0.04546347
138	0xbb8f559a	-0.004374218
139	0xbce4bbab	-0.027921518
140	0x3c43b336	0.011944583
141	0x3c6fa220	0.014626056
142	0x3acda19f	0.0015688426
143	0x3cbee8ec	0.023304425
144	0x3c6f5407	0.014607436
145	0x3d118942	0.03553129
146	0x3c8f32ef	0.017480342
147	0xbc24506d	-0.010028941
148	0x3d11f17f	0.0356307
149	0xbc6a1a10	-0.01428844
150	0x3c030e84	0.007999066
151	0xbc2e072c	-0.010621827
152	0xbbe93e69	-0.0071180356
153	0xbc6ac201	-0.014328481
154	0x3b42bbed	0.0029714063
155	0x3b4aa40c	0.0030920533
156	0xbcb95921	-0.022625508
157	0x3c975748	0.018474236
158	0x3bda027d	0.0066531287
159	0xbc7ea95c	-0.015543308
160	0x3b465f90	0.0030269362
161	0xbae33868	-0.0017335536
162	0xba990615	-0.0011674786
163	0xbd110555	-0.035405476
164	0xbcf6404c	-0.030059956
165	0x3be1123a	0.006868628
166	0x3c676088	0.014122136
167	0xbc82bb0f	-0.015958337
168	0xbcde12e2	-0.027108613
169	0xbcedda38	-0.029034719
170	0x3cbb5cf5	0.022871474
171	0x3bebf233	0.0072005033
172	0xba849cc4	-0.001011752
173	0xbbeb3c22	-0.0071787992
174	0x3bf2a383	0.007404746
175	0xbd2684ff	-0.04065418
176	0x3b26b6f7	0.0025438645
177	0xbcaa397c	-0.020779364
178	0x3caa2b17	0.0207725
179	0xba0c2f3c	-0.00053476146
180	0xbb853aca	-0.004065846
181	0xbbd3beb2	-0.0064619416
182	0x3c004906	0.00782991
183	0xbabe961a	-0.0014540583
184	0xbc075010	-0.0082588345
185	0x3c03f192	0.0080532
186	0xbcce75d6	-0.025202673
187	0x3b7deab2	0.0038744626
188	0xbbf935b9	-0.007605281
189	0x3b811dce	0.0039403206
190	0xbc5529dd	-0.013010469
191	0x3c938234	0.018006422
192	0xbc4c35f7	-0.012464038
193	0x3c952719	0.01820712
194	0x3d0fff97	0.03515586
195	0xbbcad27f	-0.006189644
196	0x3a95b439	0.0011421508
197	0x3c79c886	0.015245562
198	0x3c7bacee	0.015361054
199	0x3cd72796	0.026263993
200	0xbc69f14c	-0.014278721
201	0x3b24e8f7	0.0025163272
202	0xbbfc6ff2	-0.0077037746
203	0x3b861808	0.00409222
204	0x3c83b822	0.016079012
205	0xba6ff5aa	-0.0009153733
206	0xbc46bde6	-0.012130236
207	0xbcbd693d	-0.02312147
208	0xbc7f3631	-0.015576885
209	0x3d0dc0b9	0.034607623
210	0xbb88517f	-0.0041601057
211	0x3c807077	0.015678627
212	0x3d0c8a9c	0.034311876
213	0x3a4588ff	0.00075353676
214	0x3cfc08dc	0.030765943
215	0xbb374cd1	-0.002796937
216	0xbc675aba	-0.014120752
217	0xbb64ec3f	-0.0034930853
218	0x3c848d53	0.01618067
219	0x3c35bc0e	0.011092199
220	0xbc0971d3	-0.008388954
221	0x3bc81d46	0.0061070053
222	0xbafe2d95	-0.0019392247
223	0x3d27730f	0.040881213
224	0x3cd25097	0.025673194
225	0x3c6d0fed	0.014469129
226	0xbc8be039	-0.017074691
227	0xbc50d096	-0.012745043
228	0x3abfb242	0.0014625269
229	0xbb38493e	-0.0028119828
230	0x3aec0f25	0.0018009885
231	0x3c357f25	0.011077677
232	0xbbb4cb21	-0.005517379
233	0xbc454b52	-0.012041884
234	0x3ceb12b9	0.028695451
235	0xbbb42020	-0.0054969937
236	0xbcb7b741	-0.02242625
237	0xbba1ec6d	-0.004941514
238	0x3a8c4ab3	0.0010703414
239	0x3c5788ad	0.013155145
240	0x3b9e2726	0.004826444
241	0x3cbaacc4	0.02278746
242	0xbc3d2ab7	-0.011545829
243	0xbc856c84	-0.016287096
244	0x3d05c3b7	0.03265735
245	0xb9598bb8	-0.00020746782
246	0xb9a1b0f9	-0.00030840168
247	0xbcb2e2ea	-0.021836717
248	0x3a49fde0	0.0007705372
249	0x3c791735	0.015203287
250	0xbc4a559d	-0.012349513
251	0x3afb53a7	0.0019174711
252	0xbc617477	-0.013760678
253	0x3d01d34b	0.031695645
254	0x3c719f77	0.014747492
255	0xbbe94cfe	-0.007119774

encoder.9.bias f4 [64]
0	0x3b899f0b	0.0041998676
1	0x39c48076	0.00037479744
2	0x3c0453ef	0.008076652
3	0x3b7487c6	0.0037312373
4	0xbc591541	-0.013249696
5	0xbce05cdb	-0.027388027
6	0x3b1c8d86	0.0023888065
7	0x3c3ec727	0.011644161
8	0xbc87e98b	-0.016590854
9	0xbbc38d10	-0.0059677437
10	0x3ae02f4b	0.0017103938
11	0xbc514611	-0.012773053
12	0xb98154c5	-0.00024667956
13	0x3b7ec1b6	0.0038872785
14	0xb994a73c	-0.0002835336
15	0x3c473673	0.012158978
16	0x3ad3fbf4	0.001617311
17	0xbbde901a	-0.0067920806
18	0x3c843d19	0.016142415
19	0x3be27814	0.006911287
20	0x3c937136	0.01799832
21	0xbc71f539	-0.014767938
22	0xbc780f99	-0.0151404375
23	0xbc91c29a	-0.017792989
24	0xba3ca509	-0.0007196223
25	0xbb1f0831	-0.0024266357
26	0xbaf5b770	-0.0018746685
27	0x3c2f36fb	0.010694261
28	0xbcc772ec	-0.024346791
29	0xbaac637d	-0.0013152208
30	0xbd0c8ecd	-0.034315873
31	0x3c6a1c79	0.014289015
32	0xbbad2306	-0.005283716
33	0x3b08e360	0.002088748
34	0x39a9e223	0.00032402677
35	0x3c821ec6	0.015883815
36	0xbaf8ffa0	-0.0018997081
37	0x3a2aa5a6	0.0006509669
38	0x3b8f675f	0.0043763365
39	0xbb8e9642	-0.004351408
40	0x3cd52256	0.02601735
41	0xbc09c2b9	-0.008408242
42	0x3c3ae72e	0.011407657
43	0x3bb1676f	0.0054139416
44	0x3c53bc4f	0.012923314
45	0xbc4bcd6f	-0.012439116
46	0x3affb4ea	0.0019508873
47	0x3ce5fb59	0.028073953
48	0xbb812767	-0.0039414647
49	0xbc9c67c5	-0.01909245
50	0xbaa37a35	-0.0012472334
51	0xbc267491	-0.010159628
52	0x3c69d3b7	0.014271668
53	0x3c225a83	0.009909275
54	0xbcbc133b	-0.022958389
55	0xbb59c169	-0.0033226854
56	0xbb103635	-0.0022004966
57	0x3c099a23	0.008398565
58	0xbb3f0fce	-0.0029153707
59	0xbc1ba29b	-0.009499217
60	0xbc1e46dc	-0.009660449
61	0x3a9273f0	0.0011173468
62	0xbc87c253	-0.016572153
63	0x3b2d5b73	0.0026452213

encoder.10.weight f4 [64]
0	0x3f787d01	0.9706574
1	0x3f7b6014	0.9819348
2	0x3f7dcef2	0.991439
3	0x3f7eac23	0.9948141
4	0x3f75faa1	0.96085554
5	0x3f7b2799	0.98107296
6	0x3f7d1eb9	0.98875004
7	0x3f793ed7	0.9736151
8	0x3f7c941f	0.98663515
9	0x3f7467da	0.95470965
10	0x3f7dee3f	0.9919166
11	0x3f73fb1f	0.95305055
12	0x3f7cf01a	0.98803866
13	0x3f817f3d	1.0116955
14	0x3f7bfd76	0.98433626
15	0x3f805313	1.0025352
16	0x3f800ba9	1.0003558
17	0x3f7ce2ba	0.9878346
18	0x3f80dcdf	1.0067405
19	0x3f7a31e2	0.97732365
20	0x3f7ec0b1	0.99512774
21	0x3f7f5648	0.9974103
22	0x3f7d22be	0.9888114
23	0x3f7ffacb	0.99992055
24	0x3f7cd2b3	0.98759
25	0x3f7d7907	0.990128
26	0x3f7b7190	0.9822016
27	0x3f7f6cd7	0.9977545
28	0x3f77b2c2	0.9675714
29	0x3f7f3656	0.99692285
30	0x3f79ecb0	0.9762678
31	0x3f7a4e34	0.9777558
32	0x3f7c039f	0.98443025
33	0x3f7968e6	0.9742569
34	0x3f7bbe61	0.9833737
35	0x3f7888df	0.9708385
36	0x3f7af6f8	0.98033094
37	0x3f803ce3	1.0018581
38	0x3f80ea10	1.007143
39	0x3f7c8c97	0.98652023
40	0x3f7b6ef3	0.9821617
41	0x3f7a5a5a	0.97794116
42	0x3f7956a5	0.97397834
43	0x3f7a99b8	0.97890806
44	0x3f794f85	0.9738696
45	0x3f7e4c65	0.9933532
46	0x3f7e9299	0.9944244
47	0x3f80ea39	1.0071479
48	0x3f7ce0f1	0.98780733
49	0x3f77fcd6	0.9687017
50	0x3f7cf2d1	0.9880801
51	0x3f7ce8f0	0.98792934
52	0x3f78c3db	0.9717385
53	0x3f7a2d31	0.97725207
54	0x3f80475f	1.0021781
55	0x3f7b2e0d	0.9811714
56	0x3f7abdcf	0.97945875
57	0x3f7a7d86	0.97847784
58	0x3f7c3576	0.98519075
59	0x3f7b280b	0.98107976
60	0x3f820900	1.0158997
61	0x3f7a00c8	0.9765744
62	0x3f7be390	0.9839411
63	0x3f7f9f50	0.99852467

encoder.10.bias f4 [64]
0	0xbca88adb	-0.020574024
1	0xbc9a2e6e	-0.018820968
2	0xbc18094c	-0.00927956
3	0xbc373fac	-0.011184614
4	0xbcc01729	-0.023448544
5	0xbcba6387	-0.022752536
6	0xbc68ab44	-0.014200989
7	0xbb9ba887	-0.0047503146
8	0xbc90971b	-0.017650178
9	0xbce59eea	-0.028029878
10	0xbabcbdf8	-0.0014399877
11	0xbcf9a61b	-0.030474713
12	0xbc4c33de	-0.012463538
13	0xbba6cced	-0.005090347
14	0xbc18ee98	-0.009334229
15	0x3ba7b659	0.005118173
16	0x3bc2db01	0.0059465175
17	0xbcc0769e	-0.023494061
18	0xbc64c2ea	-0.013962487
19	0xbcaa3d58	-0.020781204
20	0xbc7e66a1	-0.015527398
21	0xbbd8a0fe	-0.0066109886
22	0xbc9008eb	-0.017582377
23	0x39c3432e	0.0003724335
24	0xbc2f4f92	-0.010700123
25	0xbcba0a1c	-0.022709899
26	0xbbac204a	-0.0052528726
27	0x3c2dc6a1	0.010606439
28	0xbcce8b51	-0.025212916
29	0xbbc8515b	-0.006113214
30	0xbcc241c2	-0.023712996
31	0xbc9c8078	-0.019104227
32	0xbbcb45f5	-0.006203408
33	0xbcd26f2b	-0.025687775
34	0xbd01a867	-0.03165474
35	0xbcf7b115	-0.030235806
36	0xbc257f10	-0.010101095
37	0xbbdcc07b	-0.0067368126
38	0x3c06a308	0.008217581
39	0xbc5ce77b	-0.013482924
40	0xbca5e9a7	-0.020253016
41	0xbcaed37b	-0.021341076
42	0xbc3d59ac	-0.011557024
43	0xbcb23c98	-0.021757409
44	0xbc542ac0	-0.0129496455
45	0xbc2d2a68	-0.0105691925
46	0xbb36adcd	-0.002787459
47	0xba36d44a	-0.00069743826
48	0xbc198e69	-0.009372332
49	0xbd143a47	-0.03618839
50	0xbc2597d6	-0.010107001
51	0xbca020ed	-0.01954695
52	0xbc7e8fa2	-0.015537174
53	0xbd184667	-0.037176516
54	0xbbe0295c	-0.006840868
55	0xbcb443ab	-0.022004923
56	0xbc3048bb	-0.010759528
57	0xbbf213eb	-0.0073876283
58	0xbc4f4d5d	-0.012652722
59	0xbcbad05c	-0.022804432
60	0x3bc91e17	0.00613762
61	0xbcd12939	-0.025532352
62	0xbc41fd24	-0.011840139
63	0xbb1bcabc	-0.0023771962
