results/dot-ou-final_d=ballsw=8z=2det=0lat=const-sig-ntloss=exactsigma=diag/run1/saved_nets/ae_best_val_2.pth (torch, 681339 bytes, 40 tensors)

mu_linear.weight f4 [2, 4096]
000000 bc e2 12 bc 88 d0 e4 bd 3e bc 50 bd 80 26 7a bd
       -0.0089651905 -0.11172587 -0.05096077 -0.061071873
000010 0d 02 0e 3c 91 b2 1a bc 0f 83 02 3c 72 cd 1a 3d
       0.008667481 -0.009441988 0.007965817 0.037793584
000020 22 ee e5 bd 38 8d a3 bd b8 77 3d bd b0 6d f5 bc
       -0.11227061 -0.0798592 -0.04625675 -0.02995953
000030 d0 62 53 bc 98 7e 5a bc 5b 17 f1 3b 39 4f 56 3d
       -0.012901977 -0.013335846 0.0073575205 0.052321646
000040 ac 77 fb bd 8d 38 54 bd d0 96 3c bd 1a 4b 5a bc
       -0.12278685 -0.051811744 -0.046042264 -0.01332357
000050 13 f0 10 bd c4 cd f4 bc a8 53 42 bc 0b 2b d6 3c
       -0.035385203 -0.029883273 -0.0118607655 0.026143571
000060 23 a3 b5 bb 47 0b 6d bd 29 9d 4a 3b 01 c0 68 bc
       -0.005543129 -0.057872083 0.0030916429 -0.014205934
000070 0f c0 84 bb 6f a9 05 3c e0 0b d8 3b 46 2c 01 3d
       -0.0040512155 0.008158072 0.0065932125 0.031536363
000080 94 c6 7d bc 69 33 41 bd e7 c5 ae 3c b8 7b 14 bc
       -0.015489239 -0.04716817 0.021334602 -0.0090627
000090 4e 59 71 3c 36 d8 2d 3c e8 ac 7e bc b0 bf c8 3c
       0.014730765 0.010610631 -0.015544154 0.024505466
0000a0 80 02 b6 bc 56 d8 00 be 2a 16 07 bc c3 b9 f2 3c
       -0.022217989 -0.12582526 -0.00824503 0.029629594
0000b0 29 aa b9 3c 3e 03 a7 3c 52 2c e0 3c 8d 20 27 3b
       0.022664146 0.020387288 0.027364884 0.002550158
0000c0 bb a5 87 bc ef 2d 2b 3d 65 b3 51 3b cf 5c 93 3c
       -0.016558519 0.041791853 0.0031997797 0.01798859
0000d0 d8 dc 78 3d 27 07 53 3d 23 e6 5c 3d 0d 04 1d 3d
       0.060757488 0.051520493 0.053930413 0.03833394
0000e0 53 8b 11 bb ce e5 e8 3b e7 7a 24 bc a7 7b 0c 3e
       -0.0022208288 0.007107473 -0.010039068 0.13719045
0000f0 00 57 5c 3d 0a 84 d1 3d bf 39 11 3e f0 01 00 3e
       0.053793907 0.102302626 0.14182185 0.12500739
000100 08 9d b0 bb 49 f8 8e bc bc 1f f6 bc ed 09 dd bb
       -0.0053898133 -0.017452376 -0.030044429 -0.006745568
000110 40 b1 65 3c 75 ab 88 3d c5 a4 af 3b 71 89 df ba
       0.0140193105 0.06673328 0.005360218 -0.001705451
000120 f5 ca b6 38 54 37 15 3c b7 d2 19 3d e1 40 9f 3c
       8.71624e-05 0.0091074295 0.03755447 0.019440116
000130 0c 48 6e bc 30 88 bf 3c de 33 89 3d 93 80 a1 bc
       -0.0145435445 0.023380369 0.06699346 -0.01971463
000140 fc 4d d5 3c 25 d2 49 3d 26 52 53 bd 02 19 a7 bd
       0.026038162 0.049272675 -0.051592015 -0.08159067
000150 ee 2f 90 bd c9 e9 f7 bc ce 4d ab bc f9 43 60 3c
       -0.07040392 -0.030262845 -0.020911124 0.013688081
000160 5a 8a 69 3c ae df 62 bd f1 2c c4 bd 75 b7 8e bd
       0.014254177 -0.0553891 -0.095788844 -0.069685854
000170 44 10 8d bd a9 01 25 bd 06 9d 9e bc 5a 64 3b 3b
       -0.06887868 -0.040284786 -0.019361984 0.002859375
000180 31 cc 2f bd 2e e0 d0 bd 4e e4 80 bd a4 ac aa bd
       -0.04291934 -0.10199009 -0.06293546 -0.0833371
000190 a1 a4 5b bd f9 97 a8 bc 41 07 3a bc 84 9f ae 3c
       -0.0536238 -0.020580279 -0.0113542685 0.021316297
0001a0 81 30 68 bd 6b fe 42 bd 5d 17 8b bd 5c 05 2a bd
       -0.056686882 -0.047605913 -0.067915656 -0.041509017
0001b0 46 f7 f2 3b 99 2f 54 3a 18 bd 45 3c a1 61 94 3c
       0.007414731 0.0008094251 0.012069009 0.01811296
0001c0 8f b0 78 bd d9 ee 21 bd 86 e5 ba ba f9 14 51 bb
       -0.060715254 -0.039534424 -0.0014259077 -0.003190337
0001d0 41 1e 90 3c 1f 39 57 3c 27 6b 4a 3c d1 ac 0b 3d
       0.017592551 0.013136177 0.012354649 0.034100357
0001e0 d3 c2 9d bb 68 f1 8e 3c b1 4a e9 3b d9 24 83 3b
       -0.0048144846 0.017449096 0.0071194996 0.0040021953
0001f0 1a e3 4f 3d 6b 41 b3 3c 6b c3 53 3d 0d 2b d6 3c
       0.05075369 0.02188178 0.051700037 0.026143575
000200 c5 eb bc bd bd f7 b1 bd c3 06 8f bd 70 17 22 bc
       -0.09224657 -0.086898305 -0.069837116 -0.009893283
000210 56 c0 28 bc f5 47 8f 3b f2 05 ad 3c c3 a9 a8 3c
       -0.010299763 0.0043725916 0.021120999 0.020588761
000220 37 f8 92 bd ba c2 75 bd 4d a9 56 bd 8b df a5 bc
       -0.071762495 -0.06000016 -0.05240755 -0.020248195
000230 c7 02 10 3c 08 95 2b bc 01 f4 28 3c 1b c1 79 3d
       0.008789725 -0.010472544 0.010312081 0.060975175
000240 cc 98 ba bd 82 b4 14 bd ff 16 e0 bb 90 91 48 3a
       -0.09111175 -0.03630496 -0.006838679 0.0007651085
000250 d6 9a 98 bc 28 b9 9e 3c 08 76 33 3d c8 64 0f 3d
       -0.018628519 0.019375399 0.043813735 0.035008222
000260 62 ed 83 bd 75 15 7e bc d6 ba 26 bb c6 3b 1a 3c
       -0.064417616 -0.015508045 -0.0025440953 0.009413665
000270 98 bb 7d 3c 31 61 21 3d 89 22 4b 3d 59 48 a3 3c
       0.01548662 0.03939933 0.049593482 0.019931959
000280 9c 72 10 bd 1c 79 ba bc ae cf 64 3c 26 d0 0f 3d
       -0.03526555 -0.022762828 0.01396553 0.035110615
000290 08 37 08 3d 78 cd 8a 3c f8 26 40 3d 1a d2 13 bc
       0.033255607 0.016943678 0.046912163 -0.00902226
0002a0 c7 f5 1c 3c fd 65 3e bc 70 49 25 3d 3a de 90 3c
       0.009580082 -0.011620996 0.04035324 0.01768409
0002b0 a8 d1 22 3d 8b 22 9f 3d 14 30 5d 3d c5 bf 9b 3b
       0.039750725 0.077702604 0.05400093 0.0047530853
0002c0 bf 1b 98 3d 9f 88 73 3d 1c fb 5a 3d 6e c2 de 3c
       0.07427167 0.059456464 0.053462133 0.02719232
0002d0 2b 53 54 3d 4f 62 3e 3c 57 f9 5d bb 73 82 25 bc
       0.051837128 0.011620118 -0.0033870542 -0.010101902
0002e0 b4 6e f2 bb 79 ab 93 bb d9 bd bc 3d ff fb f7 bb
       -0.0073984507 -0.004506525 0.09215898 -0.007567882
0002f0 78 45 24 3d 04 f2 ea 3c 5a 40 40 3b e6 7f 85 3c
       0.040105313 0.028679855 0.0029335232 0.016296338
000300 6c b4 a3 bc 88 1e b0 bb 76 fb aa bc 24 09 ca bc
       -0.019983493 -0.0053747334 -0.020871859 -0.024662562
000310 f0 33 13 bd 02 4d ac 3c c0 a9 4d 3c 27 f9 5e 3a
       -0.035938203 0.021032814 0.012552679 0.00085057545
000320 93 23 8e bc 95 d3 3d 3a cb 62 e3 bc 04 5e 17 3c
       -0.017350947 0.0007241306 -0.02775707 0.009238724
000330 28 4e 6e 3c 5b c9 56 3c a1 c1 d0 3b fb e4 97 bb
       0.014545001 0.01310953 0.0063707386 -0.004635451
000340 39 24 85 bc 01 bb 65 3c c9 94 cf bc 30 e7 4e 3b
       -0.016252624 0.014021636 -0.025339501 0.0031570904
000350 ae 66 1a bd 9c 87 b4 bc 3e 64 7b 3d 24 7e ca bc
       -0.03769558 -0.02203732 0.061374895 -0.024718352
000360 3d 2c d1 b9 e5 df 9a bc 35 bb 27 bd fd f8 2a bc
       -0.00039896547 -0.01890559 -0.04095002 -0.01043534
000370 96 d3 5f bc 90 58 f6 3c 29 b8 47 3b 15 8e 65 3c
       -0.013661286 0.030071527 0.0030474758 0.014010926
000380 79 f7 11 bd ab fe 3a bb dc f3 f0 bc 6c e1 9b 3c
       -0.0356364 -0.0028533142 -0.029413156 0.019028388
000390 89 e3 99 3c e1 8d 89 bc 1b 8a ff 3c 88 ab 79 bc
       0.018785255 -0.016791286 0.031193784 -0.01523865
0003a0 ba 97 29 3c 6f 75 a9 bb 92 c4 14 bd 9e 6f 41 bb
       0.010351116 -0.00517147 -0.036320277 -0.0029515992
0003b0 7a 8c 3d 3c 95 9d 60 3b cb f9 89 3c a9 fb 48 bd
       0.011569137 0.0034273614 0.016842743 -0.049068127
0003c0 db 5d af bb b5 d2 e7 3b df b0 2a bd 90 78 6d 3c
       -0.0053517646 0.007074679 -0.041672584 0.014494076
0003d0 36 dd 28 3c 86 09 01 3d dd 4c 2f 3c 97 72 21 ba
       0.010306647 0.031503223 0.010699478 -0.0006158738
0003e0 a6 5b 3e 3b 9a 1d c9 bc 1c 2f 16 bc 1b d0 3d bc
       0.0029046326 -0.024550248 -0.009166505 -0.011585261
0003f0 76 c1 26 3b 72 32 08 bd ec 79 ce bc 05 30 a7 bc
       0.0025444902 -0.033251233 -0.025204621 -0.02040864

mu_linear.bias f4 [2]
000000 f3 ce 88 3b c0 80 3f 3c
       0.004175061 0.011688411

sigma_linear.weight f4 [2, 4096]
000000 cb 58 0f 3c 7c 25 b2 3b 45 e0 84 bb 65 51 39 3b
       0.008749197 0.0054365974 -0.0040550553 0.0028277275
000010 9d 8d f2 b9 25 60 19 bc ea 64 66 bc d1 53 46 bc
       -0.00046263347 -0.009361302 -0.014062146 -0.012104944
000020 44 a7 ab 3b 1e eb 2e bc f3 18 94 bb d4 36 25 bc
       0.0052384455 -0.0106761735 -0.0045195757 -0.010083873
000030 df 11 37 3c 20 e2 b8 ba ea 28 42 38 d2 d3 57 3c
       0.011173694 -0.0014105476 4.629131e-05 0.0131730605
000040 d7 a0 c1 bb 7b 2b 45 ba d5 2a 71 bc da 6f db bb
       -0.005909066 -0.00075214327 -0.014719685 -0.0066966834
000050 78 df a5 3b 5b 60 04 bc 3a 2e 71 3c f8 3a 97 bb
       0.00506204 -0.008079614 0.014720494 -0.004615184
000060 4b 17 b7 3b dd a5 2a bc 2f 6a 0a bc d1 4a 2c 3c
       0.0055874935 -0.010415521 -0.008448168 0.0105158845
000070 91 c2 ef 3b 4c b6 a9 3b 8d fb bf bb 2f b1 9f bb
       0.0073168953 0.005179202 -0.0058588446 -0.004873417
000080 85 86 38 bb 2f 4e 11 3c 93 90 28 bc 28 47 dd bb
       -0.0028156352 0.008868738 -0.010288375 -0.0067528673
000090 06 3f 90 ba 16 4e 42 bc 37 62 89 3c b0 04 3e 3c
       -0.001100511 -0.011859437 0.016770465 0.011597797
0000a0 22 c2 26 bc 1c 40 00 3c 6e c6 32 bb c9 da 1e bb
       -0.010178121 0.007827785 -0.0027278918 -0.0024239293
0000b0 91 6c 84 3c f6 f8 00 bc d9 db 34 ba 91 15 69 3c
       0.01616505 -0.007871857 -0.0006899215 0.014226333
0000c0 f9 d4 26 bc 6a 40 ca bb fd 8e 37 bd 39 57 65 3c
       -0.010182613 -0.0061722295 -0.0448141 0.013997846
0000d0 10 b3 d9 bb 5a c1 70 bc 20 b7 e8 bc b6 a8 d5 3b
       -0.0066436604 -0.014694536 -0.028407633 0.006520356
0000e0 dd a6 6a bc 9f 4a 36 bc f3 70 1a 3c f1 87 4a ba
       -0.01432201 -0.0111261895 0.009426343 -0.00077259453
0000f0 cb 0d 5e bc 9c 51 b6 3c 36 3f cf 3c db c7 9b 3c
       -0.013553093 0.022255711 0.025298696 0.019016197
000100 df 72 70 3c 08 23 56 bc 35 82 81 3c 2a b1 a9 3b
       0.014675825 -0.013069876 0.015809158 0.0051785903
000110 90 a7 8f bc 09 f9 4f 3c be ea 42 bb 2f c5 82 bc
       -0.017535955 0.012693652 -0.0029741968 -0.015963165
000120 20 87 f1 bb 64 53 b4 3b 03 f5 05 bc 3c 9f 44 3c
       -0.0073708445 0.005503105 -0.008176091 0.012000855
000130 1c 25 09 bc a1 7d da 3a 1c 7b 26 3b 17 41 e7 bc
       -0.008370664 0.001666952 0.0025402969 -0.02822928
000140 4c 06 f7 3b 4d 21 a2 ba af b3 0e 37 40 98 1a 3c
       0.0075385924 -0.0012369544 8.505695e-06 0.009435713
000150 42 a2 5c 3c 29 7a 00 bc ac 8d 91 3c ba 54 97 38
       0.01346642 -0.007841625 0.01776775 7.216023e-05
000160 23 36 03 bc 02 67 9a bc 24 58 3f 3c f1 22 e7 bb
       -0.008008513 -0.018847946 0.011678729 -0.007053726
000170 1a c4 95 bb c6 91 30 3c 6e 84 fd bb 58 8c d7 3b
       -0.0045704963 0.010776943 -0.007736734 0.0065780096
000180 20 e1 9f 3c d0 b4 91 3b 1e 07 9e 3b 59 81 2e bc
       0.019516528 0.0044466034 0.004822626 -0.010650956
000190 f4 5c 5c bc 02 f2 40 bb b2 9e e9 3b da 8a 1b 3c
       -0.013449896 -0.0029441123 0.0071295137 0.009493554
0001a0 75 96 80 3c d3 1d ef 3b fe ba 22 bc 2c 47 f3 3b
       0.015696744 0.0072972565 -0.009932278 0.007424256
0001b0 e2 80 4c 3b 6a 7d 5b bb b7 b3 50 3c 65 20 0b 3c
       0.003120475 -0.00334915 0.01273816 0.00849161
0001c0 2f 93 ea bb 13 1d ec bb a4 70 2c 3c c5 c2 7d 3b
       -0.007158659 -0.0072056144 0.0105249025 0.0038720828
0001d0 37 27 8c 3c ba 99 8e 3c 9a 39 6c 3c e8 6d 60 3a
       0.017108543 0.017407287 0.01441803 0.0008561299
0001e0 fa ba 97 bc dd 43 64 3c b8 5a 87 3c e7 6f 49 3b
       -0.018521775 0.0139321955 0.01652275 0.0030736865
0001f0 4e c9 73 3c 51 e6 2f 3c df df 47 bc 63 67 e5 bb
       0.014879538 0.010736064 -0.012199371 -0.00700085
000200 cc fd 3c bc 20 71 db 3b 4f 84 0e bc 3a d2 0f bb
       -0.011535119 0.006696835 -0.008698537 -0.0021945373
000210 d8 02 ab ba 8e 2c cc bb e6 f3 e6 3b 18 78 a6 3b
       -0.0013047112 -0.0062308973 0.007048118 0.0050802343
000220 03 13 ad 3a 61 90 0e bc f2 9a 83 bc b0 14 2a 3b
       0.0013204518 -0.008701415 -0.016065095 0.0025952272
000230 bc 3d cf 38 cb 43 94 3c 9c cc b8 3a 98 ba 32 3b
       9.882028e-05 0.018098732 0.0014099064 0.0027271863
000240 7d 0f 23 3c 90 fe 7e bc 66 a8 4d 3c 70 21 a0 3a
       0.009952423 -0.015563622 0.012552356 0.0012216996
000250 7a 58 1b bb 24 4e 81 3c 8e 53 dc bb 2b 8d 6f bc
       -0.002370386 0.01578433 -0.0067238277 -0.014621059
000260 b6 9a e6 3a 33 6e 48 bc 67 e8 03 bb 15 4f f5 bb
       0.0017593715 -0.012233305 -0.0020127536 -0.007486234
000270 52 f8 24 bb 54 07 2b bc c7 9b 16 bd 91 fe 72 bb
       -0.0025172425 -0.010438759 -0.036769655 -0.0037078003
000280 21 e7 1a bb 26 36 7b 3c 1c 20 7e 3c ba 72 bb bb
       -0.0023636299 0.015332734 0.015510585 -0.0057204636
000290 52 5d 24 bc 83 67 94 bc 55 65 be bc c5 59 f3 bc
       -0.010032015 -0.018115764 -0.023241678 -0.029705891
0002a0 64 bd e6 ba e7 e9 9b ba 22 c4 22 3c 84 d1 00 bb
       -0.001760405 -0.001189527 0.009934457 -0.001965613
0002b0 ee 18 62 3c 55 a8 d2 3b 57 22 fd ba 25 bc 8e bc
       0.013799889 0.006428758 -0.0019312602 -0.017423699
0002c0 2e 39 be 3c aa 6a c5 3b 0d 6c 09 bc 83 7d bc bc
       0.023220625 0.0060246782 -0.008387578 -0.023009067
0002d0 62 fe bf 3b e4 50 64 3c 1f 4b 57 bb 5a e4 81 bb
       0.005859182 0.013935301 -0.0032851172 -0.003963989
0002e0 9b 22 d4 bb 4f 6c c5 bb 12 42 60 3b 3f de 49 3b
       -0.006473852 -0.0060248743 0.0034219068 0.0030802635
0002f0 2b df 0a 3c 67 97 3f 3c 7a 3a 77 3c 46 8f 90 3c
       0.008476059 0.011693812 0.0150896255 0.017646443
000300 77 78 52 3b ed 2a 91 3b a0 25 06 bc c8 0c 3a 3c
       0.003211526 0.004430166 -0.008187681 0.011355586
000310 16 5e 29 bc d5 12 ea ba f0 ca 2d bc a3 75 4b 3a
       -0.010337373 -0.0017858396 -0.010607466 0.00077613647
000320 67 b5 68 3c 16 a9 69 3c 52 4c 15 bc b3 ef a8 bb
       0.014203406 0.014261505 -0.009112434 -0.0051555275
000330 96 50 b5 3b 00 45 0a 3c 05 1e e8 bb 2e 92 4e 3b
       0.0055332882 0.008439302 -0.0070836567 0.0031520235
000340 d2 f7 37 3b ef 08 85 bc 79 5c 0d bb 94 58 32 3c
       0.0028071296 -0.016239611 -0.002157001 0.0108853765
000350 a7 6a 97 bc f8 aa 8a bb 3c 44 32 3c 08 03 c0 bb
       -0.018483473 -0.004231807 0.010880526 -0.0058597364
000360 ce ce 55 bc 2e e0 d3 bc 7f 1e c1 3a 71 42 62 3a
       -0.013049794 -0.025863733 0.001473382 0.00086311164
000370 f2 14 10 3c 44 cd 8c bc 07 f7 65 3a d3 6d 5c bc
       0.008794056 -0.017187722 0.00087724667 -0.0134539185
000380 7d 13 53 bc 21 de 60 3c 3c df a2 3c 88 bb 86 bb
       -0.012883064 0.013724835 0.019881837 -0.004111711
000390 23 54 b8 bc 02 88 a2 bc d5 4b 62 ba 17 47 2d 3c
       -0.022501057 -0.019840244 -0.00086325157 0.010576031
0003a0 db b7 2f bc 00 85 ce 3b 25 c6 2f 3c b6 48 e7 3a
       -0.010724987 0.006302476 0.010728394 0.0017645571
0003b0 3e 39 cf ba 09 f5 56 bc b9 f8 75 3b 68 6f 31 bb
       -0.0015809906 -0.013119944 0.0037532283 -0.002707446
0003c0 dd 9e e3 3b 22 38 04 bc ce f2 54 3c 4f a9 21 ba
       0.006946428 -0.008070024 0.012997342 -0.00061668915
0003d0 50 5f 5b 3c fa 27 c9 bb 09 3a 47 bc bf 3e 6e 39
       0.0133894235 -0.006138799 -0.012159833 0.00022720823
0003e0 c2 eb 6d bb 56 37 46 bb 89 5e 7e 3c 38 d4 69 bc
       -0.0036303853 -0.0030245385 0.015525469 -0.014271788
0003f0 ba 5c 24 bc e8 1b 87 bc 78 bd 73 bb 61 22 14 bc
       -0.010031873 -0.016492799 -0.003719179 -0.0090414

sigma_linear.bias f4 [2]
000000 39 e3 9a 3b 12 0f f6 b9
       0.004726794 -0.00046932005

encoder.0.weight f4 [8, 3, 5, 5]
000000 c7 0b 3c bc 58 a2 94 3c b8 aa 0a 3d da fb 90 bd
       -0.011477417 0.018143818 0.033854216 -0.07079287
000010 2e 6b 7a 3c 2c 96 8f bc 5c 4b 8d 3b d6 36 4b 3c
       0.015284343 -0.017527662 0.004311962 0.012403211
000020 51 80 7b bd 61 67 92 3b b8 64 95 bd 11 a1 d1 bc
       -0.06140167 0.00446789 -0.07294601 -0.025589498
000030 bd f1 98 bd 0b ce 5a 3d ae 72 17 3b 1c 54 1d 3c
       -0.07467983 0.053419154 0.0023109126 0.009602573
000040 cb 2d 5e 3c ee f4 53 bd cd db 66 3c 48 de 9e bc
       0.013560723 -0.051747255 0.0140904905 -0.019393101
000050 08 4c a7 bd bd 1f 6f bb ba 34 e4 bc f7 3f f0 bb
       -0.08168799 -0.0036487423 -0.027857173 -0.007331844
000060 84 7e f9 bc a8 40 a2 3b bc 4a 1a 3d 9f 75 11 3d
       -0.030455835 0.0049515553 0.03766893 0.035512563
000070 20 b7 f5 bc cb 55 60 bd 0e 72 fc 3c 91 43 65 bd
       -0.029994547 -0.05476932 0.030816104 -0.05597264
000080 6c 29 74 3c e5 5e c8 bc 4f 73 87 bb 2a fe b3 3b
       0.014902454 -0.024459312 -0.004133619 0.005492945
000090 9d a5 84 bd 8c 9c 38 3c fb 47 f6 3c 85 8c 85 bc
       -0.06476901 0.011267792 0.03006362 -0.016302356
0000a0 f6 84 d2 bc 70 4e b0 bc 39 b0 34 3d 99 02 84 3d
       -0.025698166 -0.021521777 0.04411337 0.06445808
0000b0 27 18 32 3c 12 f5 09 bd 7a 81 da 3b 10 aa a6 3d
       0.010870016 -0.033680983 0.006668267 0.081379056
0000c0 6c c3 1a bd 56 ca 18 bd 99 a5 82 bc af 9f ad 3c
       -0.037784025 -0.037302338 -0.015948104 0.021194307
0000d0 c8 37 89 3c 06 cc b0 bc fd e7 f4 bc b7 8f ca 3c
       0.016750231 -0.021581661 -0.029895777 0.024726732
0000e0 56 2a 25 3c dd e3 ae 3c ec 4a 54 3b 09 d5 13 bd
       0.010080894 0.021348888 0.003239329 -0.036091838
0000f0 09 8f db 3c 43 1b 05 3d 49 b5 65 bc 6f 54 cf bb
       0.026801603 0.032496702 -0.0140202725 -0.006327204
000100 a6 f1 14 3d e8 96 01 bd 8b 4f 96 bd 94 bc 16 3d
       0.036363266 -0.031638056 -0.0733939 0.036800936
000110 4c 11 5d 3c 4a 42 f0 bc 3a d9 03 bc eb 0e d0 bc
       0.013492893 -0.029328484 -0.008047396 -0.025397738
000120 01 fd 35 3c 99 49 a9 3c bd 88 51 3d 97 23 21 bb
       0.011107684 0.020664977 0.051155794 -0.0024587864
000130 ce f5 29 3c 5c 73 81 bc 32 26 93 bd 12 ec 09 3c
       0.010373546 -0.015802078 -0.071850196 0.0084181
000140 56 a4 2b 3d 85 40 29 bd 00 a1 46 bd 4d 1b 04 3c
       0.04190477 -0.041321296 -0.048493385 0.00806315
000150 1c c1 3f 3d 5f cb 8a 3a 1f 4b 7b 3d 52 fb e7 bc
       0.046815023 0.0010589174 0.061350938 -0.028318081
000160 7a 05 1a bd ff ab a2 3c e3 ad 1d 3c 8f c7 c3 bd
       -0.03760288 0.019857405 0.009623977 -0.09559547
000170 4f 48 e3 bb e0 52 14 3c 3e b7 68 3c 05 57 5c bc
       -0.00693611 0.009052962 0.014203845 -0.013448481
000180 d9 a7 21 bd 47 5b 87 3c f0 c7 89 bd e7 55 a7 bc
       -0.039466713 0.016523017 -0.06727588 -0.020426704
000190 81 05 88 bc b9 f5 f0 bc 3f aa ce bc c8 0b 14 bd
       -0.016604187 -0.029414045 -0.025227664 -0.036144048
0001a0 5c 0b 8f 3c 5c 4c 4b bd e0 74 e2 3b f5 25 39 3d
       0.017461471 -0.04963337 0.0069109052 0.045202214
0001b0 21 b7 20 3d 43 44 a1 bd 14 2c d1 39 09 fa 93 3d
       0.039237145 -0.07874348 0.00039896427 0.07225425
0001c0 01 3c 72 bc ad 4a 2a bc fc 05 cc bc 72 05 58 bd
       -0.014784814 -0.010393781 -0.024905197 -0.052739568
0001d0 62 ae 69 bc 26 e4 aa bc 3d 32 dc 3c 17 7a fe bc
       -0.0142627675 -0.020860743 0.026879424 -0.031064076
0001e0 44 fe 87 bc 48 76 6a bc 9a f7 ae bd 26 8c c0 3c
       -0.016600735 -0.014310427 -0.0854332 0.023504328
0001f0 29 01 b8 3c fd 7c 00 bd 7f 1e 61 bd 70 d2 16 bd
       0.02246149 -0.031369198 -0.054960724 -0.036821783
000200 83 81 34 bd a2 4d 1b bd 56 cb b2 3c e6 bc db bb
       -0.044068824 -0.037915833 0.021825474 -0.006705868
000210 ca fd 3d bd 87 48 7a 3c c9 80 1f bd 72 36 3a bc
       -0.04638461 0.015276081 -0.03894118 -0.01136552
000220 f2 55 58 bd d6 43 c1 3c 1b f5 84 3c cb 4f 63 3d
       -0.05281634 0.023591917 0.016230157 0.05549602
000230 eb 9a 2a 3d 76 71 c4 bb 9f 06 11 3d 84 59 3d 3d
       0.041651648 -0.005994971 0.035406705 0.046227947
000240 d2 8b 8d 3c dc c8 04 bb b4 ba 22 3d 67 af 71 bc
       0.017278586 -0.0020261323 0.039728835 -0.014751292
000250 f3 c0 a9 3d 4f ef 14 bd 10 51 0b 3d 21 94 96 3d
       0.08288755 -0.036361035 0.034012854 0.07352472
000260 12 76 21 bd 7f 4a c4 3c d5 8c 4a 3d 8b 21 35 bd
       -0.03941924 0.023961304 0.049450714 -0.044221442
000270 81 a6 5b bd ac a6 dc bd e5 1b c7 bd 95 56 fa 3c
       -0.053625587 -0.10773978 -0.09722117 0.030558864
000280 e5 7f 5b bc 17 e7 5a bc 39 37 70 bd a0 1a 43 3d
       -0.013397192 -0.01336076 -0.058646414 0.047632813
000290 1b d9 43 3c a8 99 7e bd fe a5 25 bb 89 0d 09 bd
       0.011953617 -0.062158257 -0.002527594 -0.033460174
0002a0 92 a0 77 3d cf 90 01 bd 97 34 10 3d 72 62 28 3c
       0.060455866 -0.03163224 0.035206404 0.010277377
0002b0 77 25 19 bd a9 96 44 bc 0e 65 e5 bb 21 70 d4 3c
       -0.037389245 -0.011998811 -0.007000572 0.025932373
0002c0 48 5a be 3c 08 9b 03 bc 33 78 6e 3d bd 7a 3a bd
       0.023236409 -0.008032568 0.0582201 -0.04552721
0002d0 47 1c 1a be a0 18 58 3c c5 ca d8 3c f8 8d 29 bd
       -0.1504985 0.013189465 0.026463876 -0.041395158
0002e0 68 a1 b5 3d 60 5c 0f 3d f9 27 00 3b 31 62 24 bc
       0.088686764 0.035000205 0.0019555076 -0.010033176
0002f0 96 67 7c 3c 3a b2 8a bd 57 84 b7 bc 65 a7 25 bc
       0.015405556 -0.06772275 -0.022401972 -0.010110711
000300 67 ed 15 3d 31 f3 4c bd 56 63 02 3d 12 17 68 bd
       0.036603358 -0.050036613 0.031833015 -0.056662627
000310 14 15 f7 3b cc d4 3f ba 16 3e c7 3c 3c 8f f2 b9
       0.0075403545 -0.0007317781 0.024321597 -0.00046264555
000320 e3 29 f5 bc 27 0e f9 b9 ab be c7 bc a9 b3 97 bb
       -0.0299272 -0.00047503525 -0.02438291 -0.0046295715
000330 6b c3 19 3d ee ef 86 ba 19 ea e5 3c a0 38 ee bb
       0.03753988 -0.0010294893 0.028065728 -0.007269934
000340 dc 15 36 3c 67 41 94 bc 29 80 ff bb 52 f2 88 3a
       0.01111361 -0.018097593 -0.0077972603 0.0010448194
000350 a0 8d 80 bc 86 62 26 3c 52 18 64 3c 16 97 d2 bc
       -0.015692532 0.010155326 0.013921814 -0.025706809
000360 c8 60 f0 bc f9 c9 34 3c 05 3f 12 bd 4a 18 26 3c
       -0.029343024 0.011034482 -0.03570463 0.010137627
000370 78 67 c9 3c 88 c5 0a 3d cd 8e 82 bc 4f 47 bb bc
       0.02458547 0.033879787 -0.015937233 -0.022861151
000380 67 60 d2 3c 31 a1 b6 3d e9 f7 94 3d fd c9 00 3d
       0.025680734 0.089174636 0.072738476 0.03144263
000390 ab ac 2e bd 59 35 c7 bc e4 20 69 bd 61 62 c5 bc
       -0.042645138 -0.02431743 -0.056916133 -0.024094762
0003a0 04 db 33 bc c4 92 81 bd 46 b4 fd bc af da fd b8
       -0.01097751 -0.063268214 -0.03096975 -0.00012104713
0003b0 b9 4b fe 3c bc 12 34 3d 49 b1 c9 3c f3 9d bc bc
       0.031041967 0.04396318 0.024620669 -0.023024535
0003c0 06 92 37 3d 6c e0 80 3c 05 ab ae b9 01 ee 65 3d
       0.044816993 0.015732013 -0.00033315286 0.05613518
0003d0 32 cc ae 3d 68 dc da 3c aa 27 9d 3c 4b 6c fa bc
       0.08535041 0.026716426 0.019183952 -0.030569216
0003e0 57 09 6d bd da 12 63 3d 91 05 7b bd 6d 77 81 bd
       -0.057870235 0.0554379 -0.061284605 -0.06321607
0003f0 60 51 3a bc fc 9b 45 bd 64 de 74 3d 2e 58 5f bd
       -0.01137194 -0.04824446 0.0597824 -0.054527454

encoder.0.bias f4 [8]
000000 14 93 29 bc 31 f7 56 bc 1e 16 41 bb 1b 02 0b bb
       -0.010350008 -0.013120458 -0.0029462646 -0.0021210972
000010 97 08 f1 bb 82 bc 96 3a 2e fa df bc 49 ec 0c bc
       -0.0073557603 0.0011500272 -0.027340975 -0.008601257

encoder.3.weight f4 [16, 8, 5, 5]
000000 cd 09 55 3d 0b e1 d5 bc 5b f9 17 bb 38 8a 18 3d
       0.0520113 -0.026108285 -0.00231894 0.03724119
000010 ba 4a 9b 3c 31 14 a7 bc 82 5c 85 bc 52 5b e6 bb
       0.01895653 -0.02039537 -0.016279463 -0.007029929
000020 f2 24 8a 3c 20 fa 60 bd 04 d9 e9 3b 61 19 55 3b
       0.01686332 -0.054926038 0.007136466 0.0032516348
000030 95 69 a5 bc ca d8 d8 3b ac 1a 18 3d 00 cc 25 3b
       -0.020191947 0.00661764 0.03713481 0.0025298595
000040 9a a4 3c bd 8e 35 98 bc 2d e8 c7 bb 63 46 0c 3d
       -0.046055414 -0.018580224 -0.0061006756 0.034246814
000050 4e 35 35 bd 36 77 5a bc 36 f8 76 bd 3e 99 cc bc
       -0.04424029 -0.013334086 -0.060295306 -0.024975415
000060 c6 d9 a9 3b 85 58 ed 3c 41 61 1c bc df 2e 9f 3d
       0.0051834313 0.028972873 -0.0095446715 0.07772612
000070 45 84 f7 3b 42 50 6f 3d 35 34 84 ba a1 b5 35 bd
       0.0075536096 0.05842615 -0.001008636 -0.044362668
000080 1a 53 85 bb aa 83 e1 3c f8 40 8d bc 1b 7a e6 3b
       -0.0040687444 0.027528603 -0.017242894 0.007033599
000090 57 23 a0 3d 47 52 c3 bb 4b 16 ee 3c e1 35 23 3d
       0.078192405 -0.005960736 0.029063364 0.039846305
0000a0 fc fc 66 bd c4 69 86 3b 97 64 f1 bc 75 c4 89 3a
       -0.05639361 0.0041019637 -0.02946691 0.0010510819
0000b0 c4 04 ed 3a 71 09 87 bc 3b fa c1 3c 5c 46 a4 bb
       0.0018083085 -0.016483994 0.02367889 -0.0050132703
0000c0 a2 fc 02 3c 4a fc 4e bc ce 23 14 bb 52 c3 86 3c
       0.007994803 -0.012633393 -0.002260435 0.016450558
0000d0 bf fe 76 bc 3a d4 4d 3c 8e 65 1b bc 1e 56 7c bb
       -0.015075385 0.012562806 -0.009484662 -0.0038503478
0000e0 03 5a a7 bd d4 ef 17 bc 06 13 2f bd ad 91 94 bc
       -0.08171465 -0.009273488 -0.04274275 -0.01813587
0000f0 75 4c 2c bd 86 a0 a7 3c da c3 e3 3c c7 59 42 3b
       -0.042065103 0.020462286 0.02780335 0.0029655562
000100 fa da 09 3b c9 b2 c6 bc 3e c6 d7 3c a3 6b 73 bb
       0.0021035061 -0.024255173 0.026339646 -0.0037143014
000110 e4 01 25 3d 0d 2b 14 bc c4 b5 9e bc 86 97 1b 3d
       0.040285006 -0.009043467 -0.019373782 0.0379863
000120 d9 3f 58 bc db b3 5c 3d f0 fb 48 3c a5 c9 cd bc
       -0.013198816 0.05388246 0.012267098 -0.025120566
000130 c7 f4 aa 3c f5 f7 44 3c cf 97 bc bb 20 46 66 3b
       0.020868672 0.012022008 -0.0057554017 0.0035137013
000140 05 24 8d 3b 42 7d b4 3c 6f 7d 10 3c c5 4b 89 bd
       0.0043072724 0.022032384 0.008818968 -0.06703905
000150 1a cb e4 bc dc 4d 52 bc cd 72 90 3c a2 eb f9 38
       -0.027928878 -0.012835946 0.017632866 0.00011917135
000160 09 4e 83 3b 7c 9b 91 bd c9 12 94 bd 7c 58 66 3c
       0.0040071052 -0.071097344 -0.072301455 0.014059182
000170 4b 82 6d bd 7a 13 2e 3c 74 8d 6c bc 96 e3 f9 3c
       -0.057985585 0.010624761 -0.014438022 0.03050403
000180 c0 75 e9 bb 81 52 01 3c 65 e3 a8 3c 98 12 1e 3d
       -0.0071246326 0.007893206 0.020616243 0.03859195
000190 bd 26 00 b9 b0 09 f6 3b 61 c0 5b 3c 6f 0b 0b bd
       -0.00012221462 0.007508479 0.013412566 -0.03394645
0001a0 d7 60 44 bd 20 d6 ea b9 98 af a0 bc 90 8a d1 bb
       -0.047943916 -0.00044791494 -0.01961498 -0.0063946918
0001b0 37 ff 16 bd b9 0e d2 bc 0f dc 3a bc e9 69 89 3c
       -0.036864486 -0.025641786 -0.011405005 0.016774135
0001c0 fa bd 3a bd 04 80 25 bd be 38 f8 3c fd f8 6e 3c
       -0.045591332 -0.04040529 0.030300494 0.014585731
0001d0 f4 eb a5 bd f1 da f1 3b ed f9 ad 3c 2a e0 12 bd
       -0.08101645 0.007380836 0.021237338 -0.03585831
0001e0 a5 e2 a2 3c b6 b8 f7 bb 55 5c 72 bc eb 47 89 bc
       0.019883463 -0.007559861 -0.0147925215 -0.016757926
0001f0 cf ff 52 3d 75 46 49 3c 91 10 45 3c e4 5b f6 3b
       0.05151349 0.012284865 0.0120278755 0.0075182784
000200 c4 76 0b bd c9 05 08 bd 2b ff da bc 1c 7c a5 bc
       -0.03404881 -0.033208642 -0.026733002 -0.020200782
000210 11 74 3d bd e5 32 0a 3c 32 32 45 3c e1 d7 7c bc
       -0.046253268 0.008434986 0.012035893 -0.015432329
000220 a5 8a 65 bc cb 3b 53 bd 42 81 e8 ba c0 cd f6 bb
       -0.014010106 -0.051570695 -0.0017738717 -0.0075318515
000230 35 48 ab bc e7 0a e7 3b 6d 9c 23 bd 02 b9 eb 3c
       -0.020908454 0.00705086 -0.0399441 0.028774742
000240 ba 41 b5 3c 07 eb cc 3c 30 a4 88 bc 0a f1 64 bc
       0.022126067 0.025014414 -0.016679853 -0.013973484
000250 d0 6e 8a 3c 93 5e a9 3d c7 eb 0e bd b8 41 b4 bb
       0.016898543 0.08269992 -0.034892824 -0.0055009983
000260 92 44 b8 3b 3d 93 38 bd 5e df 1d 3c 6a 54 0d bc
       0.0056234086 -0.045062292 0.009635774 -0.008626083
000270 46 8b bb bb a0 e9 d9 bc 8f 44 6a bd 4b d5 f0 3c
       -0.00572339 -0.026600659 -0.05719429 0.029398581
000280 99 86 83 bc 3e ea 9f 3a 8e f2 7a bd f6 fa 43 bb
       -0.016055392 0.0012200547 -0.061266474 -0.0029904223
000290 79 38 77 3d 6d d3 12 3d 85 46 5c bd 36 e8 0d 3c
       0.06035659 0.035846163 -0.05377819 0.00866132
0002a0 96 58 63 3c 19 75 05 bc 19 89 a9 3c 40 9e 8c ba
       0.013876101 -0.008145594 0.020695256 -0.0010728315
0002b0 a8 e1 9f bb 99 5e 89 3c c4 76 1d 3c 4c 81 3d 3c
       -0.0048791952 0.01676874 0.009610835 0.011566471
0002c0 07 f2 06 bc 72 d3 44 bb c8 03 9a 3b 80 ec a6 3b
       -0.008236415 -0.0030033258 0.004700158 0.005094111
0002d0 c5 23 12 bc 84 6b 8f bc 7b 8e 91 bc 7a 97 08 bc
       -0.008919661 -0.017507322 -0.017768135 -0.008336896
0002e0 d1 64 d6 ba f4 a5 3e 3d a0 f0 94 3c 0c b3 7a 3c
       -0.001635695 0.046544984 0.018181145 0.015301477
0002f0 e7 74 d6 bd 26 a8 40 3d 49 34 a5 3c 2a 1b b8 3c
       -0.10471516 0.04703536 0.020166533 0.02247389
000300 bf 4e 66 bc ce 6d 9c bb dd 43 b1 3c 46 31 b5 bd
       -0.0140568605 -0.004773832 0.021638805 -0.08847289
000310 d0 b9 4a 3b f4 f2 17 bd d1 af 48 3c dc ec 57 bc
       0.0030933507 -0.037096933 0.012248949 -0.01317903
000320 90 66 ce bc 96 47 db 3c 4a f3 e8 bc af ad 1d 3d
       -0.02519539 0.026767533 -0.028436322 0.038495716
000330 25 8c 03 3d 84 60 a4 3b e9 20 11 bd 20 0b ed bc
       0.032116074 0.0050163884 -0.035431776 -0.028935969
000340 db 08 81 bc d7 ad 0e bd a0 67 2c 3c 60 8f 2d bc
       -0.015751293 -0.034833755 0.010522753 -0.010593265
000350 fa 2d cd 3b db 5e 90 3c d9 28 73 3c 6b cc 35 3d
       0.0062615843 0.017623356 0.014841282 0.0443844
000360 13 95 1b 3d e2 cd ab 3c 27 b5 3d 3a 88 c2 e4 3b
       0.037983965 0.020972196 0.00072367716 0.0069811977
000370 81 65 eb bc 72 94 c6 3c 7d 43 85 3c 0c e9 03 bd
       -0.028734924 0.024240706 0.016267532 -0.032204673
000380 f3 0a 73 3c cb a2 79 bb 6f 4d 63 bc 9b 05 37 bc
       0.0148341535 -0.0038091417 -0.013873442 -0.01117077
000390 ed 8e f2 3b ba 33 3e 3c 1a 5d 0f bc d6 c7 4c 3c
       0.007402292 0.011609012 -0.0087502245 0.0124988165
0003a0 65 4a d8 3b c9 da 11 3d f0 87 2c 3c b4 41 28 3b
       0.0066006654 0.03560904 0.010530457 0.0025673928
0003b0 32 31 f0 3c ff 4c 78 3b d7 fb 92 3b 8d a8 b4 bc
       0.029320333 0.003788769 0.004485588 -0.022053028
0003c0 ea 1d c9 bc 50 81 1b 3d 86 86 aa bc 09 5e af 3b
       -0.024550397 0.03796512 -0.020816099 0.005351786
0003d0 78 92 7c bd a3 9c 73 3b 4b 67 88 3c 6e b0 aa 3a
       -0.06166312 0.003717222 0.016650816 0.0013022551
0003e0 17 d9 7a 3c 17 89 6b 3c e5 50 85 3c a6 87 15 bd
       0.015310547 0.0143759465 0.016273925 -0.036506318
0003f0 fb 6d aa bc e2 4b 9d bc 83 4d ae 3d 54 82 09 bd
       -0.020804396 -0.019201223 0.08510878 -0.033571556

encoder.3.bias f4 [16]
000000 a4 ee 58 39 9e 9a 44 bb 49 41 7f bc 5c 71 a6 3c
       0.00020688266 -0.0029999386 -0.01557953 0.020317726
000010 60 38 e1 bb 1d cc 3e bc 92 5e 18 bc 42 93 ff bb
       -0.0068731755 -0.011645344 -0.009299891 -0.007799537
000020 3a 2f 9a 3b e2 4f dd bb 00 83 5a bc 92 ff 5b bc
       0.004705337 -0.0067539075 -0.013336897 -0.013427632
000030 16 35 00 3c 50 12 3b bc b6 6e 3a bc c2 1f b2 3b
       0.007825157 -0.01141794 -0.011378935 0.0054359147

encoder.6.weight f4 [32, 16, 5, 5]
000000 1a c2 08 3c 68 13 b0 3a 4f f6 80 3c 58 5f 4f bc
       0.008347059 0.0013433518 0.01574245 -0.012657009
000010 99 e6 5d 3b b6 6b fb 3b 4e df 2b bc 41 7a 9b 3b
       0.003385937 0.0076727523 -0.010490252 0.0047447984
000020 10 e5 1c 3b 4f a6 10 bd 33 20 c0 bc e0 6e 17 3d
       0.0023940243 -0.035314854 -0.023452854 0.036970973
000030 69 84 ab bc c9 fe d4 bc 5c 83 b6 3c 8a 1b ca 3c
       -0.020937162 -0.026000397 0.022279434 0.024671335
000040 c3 bd e3 bc cf 8e 09 bd a1 1c 63 3c 76 47 00 bd
       -0.027800446 -0.03358346 0.013861806 -0.03131815
000050 97 57 39 3d 62 04 a3 3c cf 5b 5a 3b 94 e6 25 3c
       0.045249548 0.01989955 0.0033318882 0.010125775
000060 d4 78 8f 3c b3 fa d5 3b 56 68 b7 3c 67 0d d7 bc
       0.01751367 0.00653013 0.022388618 -0.026251508
000070 af 86 9a bc c9 81 72 bc b8 2c be bb 72 e7 24 3d
       -0.01886305 -0.014801451 -0.0058036707 0.040259786
000080 b4 1c 85 bd 60 a2 97 bc c1 d9 d4 3a 62 58 19 3d
       -0.06499615 -0.018510044 0.0016239212 0.037437804
000090 5b b9 d8 3c 2e cc ea 3c 7d 4a 04 bc 3b b2 27 3c
       0.026455572 0.028661814 -0.0080744 0.010235365
0000a0 cf d0 47 3b ab c1 69 bd c5 12 c3 3c 99 d2 ec bb
       0.003048945 -0.05706946 0.023812661 -0.0072272536
0000b0 ef de 24 3c a3 ae 1e 3c 0c 15 e3 bc 65 d1 32 bc
       0.010062917 0.009685191 -0.027719997 -0.010914181
0000c0 33 5f 8f 3c 0f fb 20 bc 58 b2 46 bc 20 57 d4 3b
       0.01750145 -0.009825482 -0.012127481 0.0064801127
0000d0 37 03 62 bb 5f 8c ee 3c 70 b4 89 bb b8 28 78 bc
       -0.003448678 0.029119669 -0.004202418 -0.015146427
0000e0 e0 ec ca bb df 65 89 bb 90 fe 25 bb 1f 9c bb 3c
       -0.0061927885 -0.004193052 -0.0025328733 0.022901593
0000f0 03 7d 70 3d 0c 8b 04 3c a1 84 95 ba d2 47 bb bc
       0.05871297 0.008089792 -0.0011407324 -0.022861395
000100 19 4e f0 3c 06 59 c6 3c 90 e5 b5 3c fc 4c d9 bc
       0.029334115 0.024212372 0.02220419 -0.026525967
000110 c4 f7 d9 bb 02 5c 44 3b f5 c7 84 bc be 8b 2a bc
       -0.0066518504 0.0029962067 -0.016208628 -0.010409294
000120 17 d8 cc 3b 63 bd 39 3d 91 21 12 bd 34 64 62 bd
       0.006251346 0.04534663 -0.035676543 -0.055271342
000130 bc 8b 40 bd 41 84 fe bc 10 71 d8 bc 78 00 db bb
       -0.04700826 -0.031068923 -0.0264211 -0.0066834055
000140 35 59 d3 bb 65 ff db ba ba f5 55 bb a4 4b 15 bc
       -0.0064498433 -0.0016784488 -0.0032647685 -0.009112272
000150 d5 81 2f 3c 0b 9e e4 bc 8d 5e bc 3a 18 17 40 bc
       0.010712107 -0.027907392 0.001437144 -0.011724256
000160 71 89 e2 bc 5b a6 b0 3a 54 24 0b 3d 54 a4 80 bb
       -0.027653428 0.0013477312 0.033970192 -0.0039258394
000170 30 18 ad bc dd 1c 39 bd b5 35 80 3c 84 17 b7 ba
       -0.021129698 -0.04519354 0.01565061 -0.00139688
000180 93 29 28 bd cc 74 7d bb e5 28 f7 b9 6f fe b8 bc
       -0.041055273 -0.0038674353 -0.0004714198 -0.02258226
000190 d2 b0 f9 bc dc 6f bc 3b 01 a6 d8 3b 1e 72 0b bd
       -0.030479822 0.0057506394 0.006611586 -0.034044378
0001a0 99 09 f9 3c 47 fc 35 3d c0 51 c5 3c 98 20 68 3b
       0.030400084 0.044430044 0.024086833 0.0035419818
0001b0 3f e9 d7 bb 19 39 b2 3b e8 76 64 bc b5 06 38 3b
       -0.0065890844 0.0054389355 -0.013944365 0.002808017
0001c0 ea e5 dd bc 49 d1 4c 3c ce 23 54 bb 21 c4 12 3c
       -0.02708717 0.012501069 -0.0032369974 0.008957894
0001d0 44 06 4c 3c 6b 7d b1 3c 72 ed dd 3c 21 7e 52 3c
       0.012452666 0.02166625 0.027090762 0.012847454
0001e0 b6 c6 e2 bb 2b 1b b2 bc f5 cb 4d bc e5 21 14 3d
       -0.006920661 -0.02174147 -0.012560834 0.036165137
0001f0 01 31 c3 3b 17 bb 44 bb 20 70 d9 bc dd ee 08 3c
       0.0059567695 -0.003001874 -0.026542723 0.008357731
000200 e8 cc c1 3c 9c 03 55 bc 7e 7f 17 3c a1 5f cc bc
       0.023657277 -0.013001349 0.009246705 -0.024947943
000210 e6 5a f4 ba ce b7 30 3d 09 01 5c 3c 18 eb 98 bc
       -0.0018642813 0.04314404 0.013427981 -0.018666789
000220 2f b8 da bc 98 e1 bc bc 62 6c af 3c 8d 96 d2 bb
       -0.026699154 -0.02305679 0.021413986 -0.0064266385
000230 d2 0c 2e 3d c2 1b 97 bc ea bc ed bc 7e 06 bf bb
       0.042492695 -0.018445853 -0.029020745 -0.0058296314
000240 f8 46 2c bc 01 ea 4b 3c 35 97 f3 3a ea 3f ab 3c
       -0.010514967 0.012445928 0.0018584492 0.0209045
000250 c2 1d 27 bc 22 25 08 3b 90 99 fb bc a4 5b 47 bd
       -0.010199966 0.0020774086 -0.030712873 -0.04867138
000260 cc 9d aa 3b c5 c8 e6 3c 38 74 8b 3c 4c 97 3f 3c
       0.005206799 0.028171906 0.01702319 0.011693787
000270 52 ac 54 bc 16 fc 90 3c 77 8d ba 3c 45 cc 28 3c
       -0.0129805375 0.017698329 0.022772534 0.010302608
000280 2a ce 8d bc c5 ad 92 bc 32 d3 7c 3c c8 55 ff bb
       -0.01731022 -0.017905125 0.015431212 -0.0077922083
000290 2a 59 d1 3c e6 65 e4 3b 50 5c 0c 3d 23 bc 8d 3d
       0.025555212 0.006970155 0.034267724 0.0692065
0002a0 0d 7b ac 3b 5a 0a 95 3a 14 fa a7 3c 6f cc a6 bc
       0.0052636922 0.0011370883 0.020504989 -0.020361153
0002b0 26 76 be 3c 52 98 3f bc 5c 76 00 3d 1b 42 0f 3d
       0.023249697 -0.011694031 0.031362876 0.034975152
0002c0 1c 9c 84 3d 27 db 62 bc e7 ae e3 bb d3 db cc 3b
       0.06475088 -0.013846195 -0.00694834 0.006251791
0002d0 4a 97 c4 3c 3f 7e 90 bc 96 82 ad bc 4e 66 1d bd
       0.023997921 -0.017638324 -0.021180432 -0.038427643
0002e0 eb 40 e3 bc cb c1 c5 bc 32 10 08 3c 1a f9 72 3d
       -0.027740916 -0.02414026 0.0083046425 0.059319593
0002f0 1c 16 73 bc 6e 3a 01 3d 14 79 e4 bc 30 ef 35 3a
       -0.014836814 0.031549864 -0.027889766 0.0006940244
000300 64 9c 66 3b 63 82 fa bc 36 c9 f1 bc 6a 92 1b 3c
       0.003518843 -0.030579751 -0.02951489 0.009495357
000310 f4 1a ea bb b1 6c 2a bc ec 7d c9 bc 9b bd f2 3b
       -0.0071443263 -0.010401891 -0.024596177 0.0074078566
000320 00 51 e7 bb df d6 6e bc cf 8d e0 bb 46 72 b4 bb
       -0.0070592165 -0.014577596 -0.0068528424 -0.0055067865
000330 6e 2b ed bc f2 f9 25 bc 57 09 b3 3c 48 08 e0 bc
       -0.028951373 -0.010130392 0.02185504 -0.027347699
000340 c0 94 e4 3b 39 ea e2 bc 99 2a d9 3c 84 9c 8c 3c
       0.00697574 -0.027699577 0.02650957 0.017164476
000350 16 70 0c 3b 81 b8 74 3a 2d 33 e0 3c b5 af fa bc
       0.0021429113 0.00093353546 0.027368153 -0.030601362
000360 0b b7 f6 bc d7 40 13 bd 26 2a f5 bc eb ab 1c 3c
       -0.030116579 -0.035950508 -0.029927325 0.009562473
000370 ca d8 01 bd aa b9 bb b9 19 27 18 3c df e2 a8 3b
       -0.031700887 -0.0003580575 0.009286665 0.0051539983
000380 74 8d 14 3d d4 5b e4 3c db 68 93 3b f1 1b 18 bd
       0.036267713 0.027875818 0.0044985837 -0.037136022
000390 5e 3e c1 3b e2 ff 22 3c 3a c0 1d bd b3 20 0b bc
       0.0058973273 0.0099487025 -0.0385134 -0.008491683
0003a0 30 5a e2 bc a5 e5 d6 bb 97 ee 02 bd 28 de 20 bc
       -0.027630895 -0.0065581375 -0.03196582 -0.009818591
0003b0 8b 62 25 bb a5 57 67 bc b7 04 2c 3c 81 32 29 3c
       -0.0025235738 -0.014120017 0.010499171 0.0103269825
0003c0 40 88 06 3d cb f5 e5 3c 5e 99 17 bb 49 83 13 3d
       0.032844782 0.028071305 -0.0023132185 0.036013875
0003d0 d1 df d8 3b 34 dc 02 bd 7e 79 c7 bc 87 dd b3 ba
       0.006618478 -0.031948283 -0.024349924 -0.0013722637
0003e0 df f0 15 3b 0e 63 d8 bc 7c 44 ba 3b f3 2e 32 3c
       0.0022879166 -0.02641442 0.0056844335 0.010875451
0003f0 40 33 9d bb 9d 92 9d bc 68 54 09 bc da 37 1e ba
       -0.0047973692 -0.01923495 -0.00838194 -0.0006035544

encoder.6.bias f4 [32]
000000 7f 29 f3 3a c9 9f 96 bb 31 29 02 bb 17 79 3d bc
       0.0018551796 -0.0045966846 -0.0019860978 -0.011564515
000010 e2 90 89 b9 c0 64 00 bc 60 05 c0 bb 2d 3e d9 bb
       -0.00026238622 -0.007836521 -0.0058600157 -0.0066297264
000020 31 e1 ab bb ae c9 21 bc c3 9a 95 bb 0a 25 2d bc
       -0.0052453508 -0.009874744 -0.004565568 -0.010567913
000030 e1 00 0a bc b4 c8 81 bb fc 64 41 bb 95 54 01 bb
       -0.008423061 -0.0039606933 -0.0029509654 -0.0019734253
000040 c3 ce a1 bb b7 69 b6 bb 19 e7 03 bc d2 34 a5 bb
       -0.004937978 -0.0055668014 -0.008050703 -0.005041697
000050 46 f6 22 bb 62 92 77 ba e6 71 db bb d7 17 38 3b
       -0.0024866029 -0.0009444115 -0.0066969274 0.0028090382
000060 c0 40 51 bb 73 58 d5 bb 0a 79 d1 bb 07 6d c4 ba
       -0.0031929463 -0.006510788 -0.006392603 -0.0014986106
000070 9d 11 56 39 c1 19 5b bb 97 42 a7 3b 6a 0f 9d bb
       0.00020415192 -0.0033432099 0.0051043737 -0.0047930973

encoder.9.weight f4 [64, 32, 5, 5]
000000 09 f2 57 3c a1 b2 80 3c f7 e7 ae 3b ef 88 7d bb
       0.013180264 0.015710177 0.005337711 -0.0038686355
000010 37 b5 ed bc 21 3f 89 3c ba 40 7d 3d 89 2b 5a bb
       -0.029017074 0.016753735 0.061829306 -0.003329011
000020 38 43 46 bb 4f 36 4b bd 86 75 3d 3a c6 2f ce bb
       -0.0030252468 -0.04961234 0.000722729 -0.006292316
000030 4f c8 8a bc e7 97 f7 3c a3 ca f7 bb 6f df b6 3c
       -0.016941218 0.0302238 -0.007561998 0.022323338
000040 9f 91 87 bc 86 5d 80 3c 33 8a f4 38 8a d0 70 3c
       -0.01654893 0.015669595 0.00011660568 0.014698157
000050 3b d2 06 bc ca bd d9 3c a8 66 68 3c bb 17 bc ba
       -0.008228834 0.026579756 0.014184631 -0.0014350334
000060 4a 31 aa bb eb c1 39 3c 69 a5 bb 3c 24 70 04 bc
       -0.005193864 0.011337738 0.022906022 -0.008083377
000070 87 9c 19 bc 77 9c d8 bc 0f d8 20 3d 83 1c 2c bc
       -0.009375698 -0.026441796 0.03926855 -0.010504845
000080 d1 d9 0d 3b 82 6d 65 3b 4b 14 0d 3d 4f 31 00 bd
       0.0021644721 0.0035007899 0.03444318 -0.031297024
000090 43 d5 8d 3c f5 af e6 3c 97 45 83 3c 5c b9 43 bc
       0.017313605 0.028160075 0.016024394 -0.011946049
0000a0 7c b9 7f 3b 21 bc c0 3c c3 9b 2f 3d b0 47 fb 3b
       0.003902047 0.023527207 0.042873155 0.007668458
0000b0 0e 98 08 3c 16 f5 2d ba e0 4b 12 3b 39 dd 7d bc
       0.008337034 -0.0006635947 0.0022323057 -0.015494638
0000c0 7e 16 a2 bc e9 0b ab 3c ff 8c fc bb b6 80 04 bd
       -0.019786116 0.020879703 -0.0077072377 -0.03234931
0000d0 8e a0 54 bc 48 fa d8 bc 7b bb c9 3c f6 da 01 bd
       -0.012977732 -0.02648653 0.02462553 -0.031702958
0000e0 64 c8 7b bc ae 44 e0 3a 9d a1 7d bc 72 7e 89 3c
       -0.015367601 0.0017110312 -0.015480426 0.016783927
0000f0 eb db 91 bc be 36 e2 bb 4e c0 09 bc 1f ab b5 3c
       -0.01780506 -0.0069034984 -0.008407665 0.022176323
000100 c3 80 41 3b ac 46 18 3c 9e fe a3 bc 38 80 dc bb
       0.002952621 0.009294193 -0.020018872 -0.006729152
000110 1b 08 0b bb 2a 4a 85 3c 02 b6 ad 3c 21 0b c1 3b
       -0.0021214548 0.016270716 0.021204952 0.0058912192
000120 41 e4 21 bd 88 fc 13 bd 00 8d 48 3c e1 67 f8 bc
       -0.03952432 -0.036129504 0.012240648 -0.03032297
000130 47 3a 31 39 b5 9c 9c 3b a6 c8 97 3b c1 28 13 bc
       0.00016901745 0.004779423 0.0046320735 -0.008981884
000140 5c 99 a9 3c 14 1b cb 3b 4f 20 13 3d ff f8 9b ba
       0.02070301 0.0061982963 0.035919484 -0.0011899768
000150 13 47 e8 3b 6a 50 c9 bb 48 49 82 3c 50 91 de bb
       0.007088551 -0.0061436193 0.015904084 -0.006792225
000160 b0 8e f5 3b 4b 27 22 3b 79 2a 04 3c ae a2 6f 3c
       0.0074938163 0.0024742659 0.008066767 0.014626188
000170 ed 5b ed 3c 56 a3 b4 3c d0 09 fe bb 7f f6 06 bd
       0.028974498 0.02205054 -0.0077526346 -0.03294992
000180 fb 6e 9a 3c 1b fa fa 3b 3f c6 ce bb 86 25 de 3b
       0.018851748 0.0076592094 -0.006310254 0.0067793755
000190 49 88 c8 3c ee b9 a5 3c 1b 13 8e 3b 9a 9e 0a bc
       0.024479048 0.02023026 0.0043357736 -0.008460665
0001a0 e0 c9 27 3c 99 7b 03 3c 13 f9 c5 bb ff 1b 83 3b
       0.010241002 0.008025073 -0.006041655 0.00400114
0001b0 e3 9a 83 bc ce fa dc 3c 51 5f 5b 3c 48 2a 84 3c
       -0.016065067 0.026975062 0.013389424 0.016133443
0001c0 51 70 61 3c 4a ac 53 3c 67 e5 26 3c f5 13 cb 3b
       0.0137596885 0.012919495 0.01018653 0.0061974474
0001d0 9d c7 c7 3c f8 b4 cc 3b 01 71 a1 bc 2f 64 28 ba
       0.024387175 0.006247159 -0.019707205 -0.000642362
0001e0 be cf b1 ba 9c a3 0f 3c 86 17 38 3c 6a 9e a1 bc
       -0.001356594 0.008767035 0.011236077 -0.019728858
0001f0 e8 21 d0 bc d7 b3 2f bc 8d ee 53 38 d8 6d 69 3c
       -0.025406793 -0.0107240295 5.0528488e-05 0.01424738
000200 4c 25 13 bc d3 0d e3 3a cb f3 b6 3b 45 4c 86 bb
       -0.00898106 0.0017322846 0.0055832616 -0.0040984475
000210 b8 4f b6 bc ab 80 2f 3d 75 e5 e2 bb af 82 fe 3b
       -0.02225481 0.042847317 -0.006924326 0.0077670435
000220 f5 64 62 3c 37 76 89 3a fa ed cc 3b 9e 3f 0c bc
       0.013818015 0.0010487501 0.006253955 -0.008560089
000230 63 7e 3e bc 5e 91 01 3c 51 8a 0b 3c 36 cd 21 bb
       -0.011626813 0.007908193 0.008516864 -0.0024688966
000240 40 14 a8 3b 75 17 4e 3c 51 d0 0c bd 06 e9 33 ba
       0.005129367 0.012578835 -0.034378354 -0.00068630313
000250 fd 0c 32 bc a8 4f 61 3c a4 73 4d bc 59 a1 d9 bb
       -0.010867354 0.013751902 -0.012539778 -0.0066415486
000260 f8 19 95 bc db 94 8f bc 64 29 62 bc 57 47 c3 bb
       -0.01820086 -0.017527035 -0.013803814 -0.005959432
000270 4f 43 4d 3c 86 df 5e bc 86 05 15 bc 30 22 4c bc
       0.012528255 -0.013603097 -0.009095555 -0.012459323
000280 aa 62 8e bb c5 3a 2e 3b de c9 ce 3c bf 8d f1 bb
       -0.0043452578 0.0026585322 0.025242742 -0.007371634
000290 34 26 af bc 69 79 7e 3a 2f c0 d1 3c ab 9c b2 bb
       -0.021380521 0.00097074226 0.025604336 -0.005450805
0002a0 0c b3 c5 3b e3 a8 6f 3b 92 63 2f bc fd 21 c5 3b
       0.006033307 0.003656917 -0.010704892 0.0060160146
0002b0 e5 78 54 3c ae 13 dc 3c 71 a7 5e bb e7 70 ea bc
       0.012968277 0.026864853 -0.0033974315 -0.02861829
0002c0 01 31 0a bd 3a 2e 00 3c a3 2e 3c 3d bd 5f f1 3b
       -0.03373814 0.007823521 0.045942914 0.007366149
0002d0 b0 d9 77 bc da 3c 36 bc 73 90 65 3c 87 cc bd 3c
       -0.015127584 -0.011122907 0.01401149 0.023168815
0002e0 8e e3 60 3c ba e1 b6 3c 2e 2f f3 3b 24 9b 01 bc
       0.013726128 0.022324432 0.0074213957 -0.007910524
0002f0 56 db ff 3c ae b4 22 3c a9 ee 45 3c 4e 96 4a bc
       0.031232517 0.009930773 0.012080827 -0.012364937
000300 88 7a 63 bb 01 cd 52 3b 39 c4 de 3b 6d 19 09 bb
       -0.0034710485 0.003216565 0.006798294 -0.0020919696
000310 05 16 45 ba 4e 16 34 3b 83 77 0c bc 03 7f 81 bc
       -0.0007518235 0.0027479115 -0.008573416 -0.015807634
000320 5c 7f 90 bb 48 33 24 3c 23 b6 df bb 19 66 b4 3b
       -0.0044097137 0.010021992 -0.0068271323 0.005505335
000330 1b 29 e2 3b 54 f9 02 3c 38 2a f9 bc 86 78 e3 bb
       0.006901873 0.007994015 -0.03041564 -0.0069418577
000340 d4 c8 12 bc bf b6 2c 3b c2 38 b1 3b d6 b7 a5 bb
       -0.008959014 0.0026354042 0.0054083774 -0.0050573153
000350 da ea f7 bc 61 aa 96 bc 78 d2 6c bb ce 84 24 bc
       -0.030263353 -0.01839179 -0.0036136191 -0.010041429
000360 50 07 20 bb 05 bf 19 3b 78 6a 3d bc d5 b4 ce bb
       -0.002441842 0.0023459804 -0.011561029 -0.006308178
000370 45 d8 ea ba 7c 77 83 bc d7 7d 8a bb cd 8c 0c bc
       -0.0017917237 -0.016048186 -0.004226427 -0.008578491
000380 34 6c 62 3c a2 20 56 3c 58 a9 1f 3d 24 b3 77 bb
       0.013819743 0.013069304 0.03897986 -0.0037795985
000390 09 1d 88 bc 09 d5 a5 bc 78 b9 03 3b 90 3e 9a 3c
       -0.016615408 -0.020243185 0.0020099562 0.01882866
0003a0 36 7d ef 3c ad 21 e7 bb 81 ca 5e bc bf e0 99 ba
       0.02923451 -0.007053575 -0.013598085 -0.0011739953
0003b0 11 c0 12 3c d8 1b f0 3c 38 7e 98 3c 33 b5 c7 39
       0.008956925 0.029310152 0.018614873 0.00038091242
0003c0 2b 99 25 bc 23 e4 08 3c fd 9f f1 3b be 7f 84 39
       -0.010107319 0.008355173 0.0073738084 0.00025272177
0003d0 25 be 0b 3c 4a 13 36 3c 3a 61 36 3b 7c d2 04 3d
       0.008529221 0.011112997 0.0027828948 0.032427296
0003e0 93 52 e1 3b 83 95 02 3c eb 25 6a 3b 4f 1a 59 bc
       0.0068762987 0.007970217 0.0035728167 -0.013250901
0003f0 6e 84 70 3b e2 a7 de 3b 90 ae db bc 7e 80 ad 3c
       0.0036700028 0.0067949155 -0.026816636 0.021179434

encoder.9.bias f4 [64]
000000 55 61 25 3b 39 8c 47 bc 74 ee ad 3c c9 f8 d1 ba
       0.0025235016 -0.012179428 0.021231867 -0.0016019578
000010 37 81 bd bc 5e 7b ad 3c ff bc 4f 3c c7 83 27 3b
       -0.023132904 0.02117699 0.0126793375 0.0025560723
000020 a8 fe 98 3b da e7 cd 3b 78 39 8c bc 5e e5 5e 3b
       0.0046690293 0.0062837424 -0.017117247 0.0034011225
000030 93 34 8f bc fb 8e 9a bb e0 1e 51 3c d9 de 5f bb
       -0.017481124 -0.0047167516 0.012763709 -0.0034159927
000040 51 75 9b bc c1 43 28 3b 07 1f ec bb 03 8c f4 bb
       -0.01897684 0.002567515 -0.007205847 -0.0074629798
000050 2a a5 9c bc 5a 9c 36 bb 57 29 b4 3b f6 86 c8 3a
       -0.019121725 -0.002786419 0.005498092 0.001529901
000060 68 78 27 3c be fe 41 3c f1 06 e9 3b 2a 29 82 ba
       0.010221578 0.01184052 0.007111423 -0.0009930481
000070 15 f9 09 3c fe f4 c2 3b 43 b2 7b bc ff 61 35 3b
       0.008421202 0.0059496155 -0.015362325 0.0027676818
000080 d5 33 76 bc ec d3 f1 bb b1 00 a1 bb bd 42 d0 bb
       -0.015027006 -0.0073799994 -0.0049134125 -0.006355612
000090 ed 15 e3 3b ff 22 22 3b 1f 15 26 3b b5 12 35 3c
       0.006930104 0.0024740098 0.002534218 0.011051823
0000a0 fb 00 26 3b 59 e9 b5 bc e0 be 9a 3b de dc 0b ba
       0.0025330174 -0.022205995 0.004722461 -0.0005335341
0000b0 5f 7f 3a bb b8 84 bd 3b e7 82 44 3c 57 0b 46 bb
       -0.0028457267 0.0057836436 0.0119941 -0.0030219161
0000c0 e3 d4 19 3c 79 c4 31 3c 5f 45 3a ba d9 a5 74 3c
       0.009389135 0.010850065 -0.0007105674 0.014932119
0000d0 60 82 09 3c 6b c7 77 bc 0f d6 6f bb 29 21 af bb
       0.0083929 -0.015123229 -0.0036596095 -0.005344529
0000e0 b3 e0 56 bc 4e 72 64 3b 7c f5 98 3c 6a fd 45 bc
       -0.013115096 0.003485817 0.018671744 -0.012084344
0000f0 11 94 3a 3c 86 92 86 bc 91 3b ae ba 5c f5 db ba
       0.011387841 -0.01642729 -0.0013292899 -0.0016781497

encoder.10.weight f4 [64]
000000 c6 ee 80 3f ed ae 80 3f 76 3a 7f 3f e2 ca 7d 3f
       1.0072868 1.0053383 0.9969858 0.991377
000010 3f 67 7d 3f a6 23 7c 3f 4e 54 7f 3f 41 5c 7e 3f
       0.98985666 0.98491895 0.99738014 0.9935952
000020 c0 3e 7d 3f f1 db 80 3f 4b 32 7e 3f ad ae 7a 3f
       0.98923874 1.0067121 0.9929549 0.97922784
000030 6d 37 7d 3f ed de 80 3f e1 95 7e 3f 89 1c 7d 3f
       0.989127 1.0068032 0.9944745 0.98871666
000040 70 40 7f 3f 43 b6 7e 3f d4 3b 7b 3f 3e 44 7b 3f
       0.997077 0.9949686 0.98138165 0.98151004
000050 fc e2 7e 3f 55 13 7c 3f b2 43 80 3f e1 28 7e 3f
       0.995651 0.98467 1.0020659 0.99281126
000060 f3 f3 7a 3f 34 7b 7b 3f b8 89 7e 3f 7f e4 78 3f
       0.98028487 0.9823487 0.9942889 0.9722366
000070 02 ce 7e 3f 93 80 7b 3f b8 67 80 3f be 97 81 3f
       0.9953309 0.98243064 1.0031652 1.0124433
000080 2e 8f 7c 3f 8b bf 7d 3f 1d 85 7c 3f 60 f1 7b 3f
       0.98655975 0.99120396 0.98640615 0.98415184
000090 d7 d3 80 3f 8b b7 7c 3f 60 65 80 3f 1a 1c 7d 3f
       1.0064648 0.98717564 1.0030937 0.98871005
0000a0 d0 24 81 3f 7e 09 7c 3f a4 fa 7e 3f 0b 6d 80 3f
       1.0089359 0.98451984 0.996012 1.0033277
0000b0 2a 4c 7f 3f 3b 79 7f 3f 10 74 7d 3f 0b 78 7c 3f
       0.9972559 0.9979436 0.9900522 0.9862067
0000c0 0b 7d 7c 3f 2f a2 7d 3f 0e bb 7f 3f be 85 81 3f
       0.986283 0.990756 0.998948 1.011894
0000d0 7e f8 7b 3f 80 fd 7e 3f ea 63 7d 3f a9 6c 7c 3f
       0.98426044 0.9960556 0.9898058 0.986033
0000e0 e2 f7 7d 3f 7b 5d 7f 3f f4 30 7f 3f 6e 0b 7f 3f
       0.99206364 0.99752015 0.9968407 0.99626815
0000f0 57 31 7e 3f d9 fc 7b 3f 87 b4 80 3f d7 c6 7e 3f
       0.99294037 0.9843269 1.0055093 0.99522156
