results/dot-ou-final_d=ballsw=8z=2det=0lat=const-sig-ntloss=exactsigma=diag/run1/saved_nets/ae_best_val_1.pth (torch, 681339 bytes, 40 tensors)

mu_linear.weight f4 [2, 4096]
-0.049063157 -0.02763802 0.0071473788 0.007092809 -0.008277387 -0.0071390746 -0.02015621 -0.020339744
-0.045494586 -0.016846513 -0.004146794 0.0080943 0.024642326 0.019162335 0.023927972 -0.00061950774
-0.054168742 -0.0660203 -0.014819819 -0.009712729 0.01112711 0.018046122 0.0204469 0.009373804
-0.031838395 -0.054566905 -0.008910235 -0.0022042429 0.0088860495 -0.01179373 0.028180186 0.025020296
-0.025510183 -0.035400327 -0.027291475 0.006034385 -0.002184071 0.004977299 0.012110586 0.0014655648
-0.016404988 -0.043542013 -0.018620742 0.0047215535 -0.019876176 -0.010747654 0.0019895718 0.0084976945
-0.014956836 -0.0540654 -0.03270379 -0.0107275555 -0.0131675415 0.0065098573 0.0045506544 0.023980262
-0.022588663 -0.037759278 -0.015622043 -0.02966208 -0.01778144 0.004020375 0.0014405804 -0.011195252
-0.0032388077 -0.00735005 0.020372938 0.021854995 0.032831933 0.008193499 -0.0051566265 -0.00070187694
0.0027377715 -0.021185014 0.0045048078 0.04093749 0.021316722 0.03377323 -0.0021211866 -0.0073589226
-0.023609424 -0.014240167 0.009602416 0.0112862205 -0.004973718 -0.00746328 0.023866657 -0.008446189
-0.022243546 -0.0053420756 -0.014778555 0.008056566 -0.01957118 -0.015651308 0.030988524 0.016890682
-0.0082589 -0.015853725 -0.010445389 -0.0066827466 -0.0010370889 0.0125728715 -0.0013491306 0.0016766394
-0.00032479403 -0.0019650543 0.019309854 0.0131447315 -0.010523219 0.015944326 0.015151435 -0.0077329376
0.0090831425 0.023883352 0.0350335 0.012152272 0.00094758737 0.018777253 0.0016326861 -0.015616272
-0.0011580097 0.015197117 0.014307527 0.01705343 0.017258195 -0.007283409 -0.02218709 -0.000834553
-0.014507121 -0.010695303 -0.022355162 -0.011002302 -0.0058241747 -0.0033040314 0.002266513 -0.023261515
-0.008018783 0.03046629 -0.02279627 -0.0064049736 -0.01694255 -0.024990361 -0.02115195 -0.0031985396
-0.003657722 0.024889957 -0.010546325 -0.013434182 -0.019912278 -0.01180924 -0.02483682 -0.008351503
-0.002898237 0.026605194 -0.010281711 -0.024273675 -0.0032091748 -0.011005741 -0.011812248 -0.020727914
-0.002301573 0.038849413 0.008036184 0.003945023 0.005635243 0.018748874 -0.017178847 -0.026391508
0.026076872 0.034301326 0.038913347 0.020759476 0.0051965057 -0.061452653 -0.020391457 -0.022136398
0.021001823 0.012710351 0.011689116 0.042664997 0.014866205 -0.0032637853 -0.03677359 -0.017727835
-0.013740235 -0.0046273135 -0.0008028595 -0.007388684 0.0031938972 -0.022955922 -0.0066299844 -0.025807863
-0.012244189 -0.033962797 0.011042224 -0.025962941 -0.014036492 -0.031064529 -0.021600278 -0.033966407
-0.008263968 -0.000823605 -0.0020687673 0.0063980054 -0.010390818 -0.007358285 -0.013484642 -0.026109118
-0.038977064 -0.00853895 0.0027883432 -0.003029016 0.009335139 -0.02470959 -0.03438019 -0.03279647
-0.02836566 0.013075873 0.012172835 -0.008125178 -0.002472322 -0.02135265 -0.022359788 -0.0030469552
-0.023830269 0.0151917385 -0.016590463 0.012071118 -0.0010509702 0.0194253 -0.0069840658 -0.0011237179
0.00053181633 0.0013520108 0.0134597225 0.0241714 -0.022090938 -0.008336885 0.021064714 -0.02248125
-0.011236847 0.009149047 -0.011099167 -0.0226175 -0.02122383 0.01597342 -0.011440287 0.005529353
-0.0011687605 -0.0024545386 -0.024677852 -0.019984862 -0.0033436127 -0.0042501623 -0.016045595 -0.015467282
00000000: 73f6 48bd 2169 e2bc 8f34 ea3b cb6a e83b
00000010: e19d 07bc e6ee e9bb a31e a5bc 899f a6bc
00000020: 8858 3abd b301 8abc d4e1 87bb f49d 043c
00000030: b4de c93c 54fa 9c3c 9804 c43c 7666 22ba
00000040: 0be0 5dbd a735 87bd d3ce 72bc 2322 1fbc
00000050: 7b4e 363c 76d5 933c 4280 a73c 9594 193c
00000060: fa68 02bd 8c81 5fbd 3cfc 11bc 0f75 10bb
00000070: cb96 113c 7d3a 41bc 22da e63c 5df7 cc3c
00000080: bbfa d0bc efff 10bd 5f92 dfbc 17bc c53b
00000090: a222 0fbb 9c18 a33b 7b6b 463c 3218 c03a
000000a0: c163 86bc 1c59 32bd 878a 98bc 43b7 9a3b
000000b0: 5dd3 a2bc ee16 30bc 7a63 023b ea39 0b3c
000000c0: 840d 75bc ae73 5dbd 69f4 05bd a1c2 2fbc
000000d0: acbc 57bc a450 d53b a81d 953b 4172 c43c
000000e0: dc0b b9bc 79a9 1abd 99f3 7fbc e4fd f2bc
000000f0: 62aa 91bc 5abd 833b dbd1 bc3a 4a6c 37bc
00000100: 2d42 54bb b0d8 f0bb 26e5 a63c 3f09 b33c
00000110: c77a 063d 073e 063c ebf8 a8bb 2afe 37ba
00000120: 2f6c 333b 328c adbc 119d 933b 12ae 273d
00000130: 68a0 ae3c cc55 0a3d 9b03 0bbb 1e23 f1bb
00000140: 8d68 c1bc 974f 69bc 7453 1d3c d7e9 383c
00000150: 92fa a2bb 888e f4bb 0284 c33c e261 0abc
00000160: 1938 b6bc 940c afbb c121 72bc b0ff 033c
00000170: bd53 a0bc 2c37 80bc a5db fd3c 545e 8a3c
00000180: 5650 07bc acdf 81bc 2323 2bbc f1fa dabb
00000190: eeee 87ba 72fe 4d3c 50d5 b0ba afc2 db3a
000001a0: 1e49 aab9 24c8 00bb b32f 9e3c 005d 573c
000001b0: 9469 2cbc ad9d 823c b93d 783c 9564 fdbb
000001c0: 76d1 143c 05a7 c33c 4a7f 0f3d 531a 473c
000001d0: 8367 783a c1d2 993c dbff d53a 64db 7fbc
000001e0: 5cc8 97ba 54fd 783c 1e6a 6a3c a3b3 8b3c
000001f0: 0f61 8d3c aaa9 eebb b3c1 b5bc e7c5 5aba
00000200: 47af 6dbc 5a3b 2fbc 2c22 b7bc 0043 34bc
00000210: b8d8 bebb 7388 58bb c789 143b ef8e bebc
00000220: 3761 03bc 7194 f93c 3ebf babc d0e0 d1bb
00000230: 1acb 8abc 96b8 ccbc db46 adbc 979e 51bb
00000240: 64b6 6fbb 06e6 cb3c 7eca 2cbc 0b1b 5cbc
00000250: 131f a3bc 8b7b 41bc 9676 cbbc bed4 08bc
00000260: 59f0 3dbb 23f3 d93c 9f74 28bc 96d9 c6bc
00000270: 0551 52bb 6c51 34bc 2988 41bc 96cd a9bc
00000280: fdd5 16bb 9020 1f3d 33aa 033c 4045 813b
00000290: d8a7 b83b 3d97 993c a7ba 8cbc 0133 d8bc
000002a0: 2a9f d53c 8c7f 0c3d 9a63 1f3d c70f aa3c
000002b0: 7347 aa3b c7b5 7bbd fc0b a7bc 6457 b5bc
000002c0: 040c ac3c 133f 503c b583 3f3c 7ec1 2e3d
000002d0: 6291 733c 3be5 55bb e79f 16bd f739 91bc
000002e0: b91e 61bc b8a0 97bb fd76 52ba c61c f2bb
000002f0: b450 513b 0f0e bcbc 5740 d9bb 036b d3bc
00000300: da9b 48bc 931c 0bbd 72ea 343c 3cb0 d4bc
00000310: 51f9 65bc 0a7b febc 11f3 b0bc 5c20 0bbd
00000320: 9865 07bc 32e7 57ba 2894 07bb 5ca6 d13b
00000330: 403e 2abc c51d f1bb b0ee 5cbc cae2 d5bc
00000340: 6aa6 1fbd f4e6 0bbc a3bc 363b 7582 46bb
00000350: 69f2 183c c46b cabc 3ed2 0cbd 9755 06bd
00000360: 1a5f e8bc 303c 563c 9270 473c 771f 05bc
00000370: ae06 22bb c1eb aebc e02b b7bc 6daf 47bb
00000380: b237 c3bc c5e6 783c b9e8 87bc f0c5 453c
00000390: b5c0 89ba cf21 9f3c 97da e4bb b749 93ba
000003a0: 9769 0b3a f435 b13a 2b86 5c3c 1a03 c63c
000003b0: 0ef8 b4bc 6e97 08bc e88f ac3c 992a b8bc
000003c0: c11a 38bc e2e5 153c 48d9 35bc 5648 b9bc
000003d0: 99dd adbc b1da 823c 0b70 3bbc 932f b53b
000003e0: 1831 99ba 53dc 20bb 3529 cabc 4bb7 a3bc
000003f0: 8320 5bbb f244 8bbb 0d72 83bc 7c6a 7dbc

mu_linear.bias f4 [2]
-0.0020093906 -0.0027143087
00000000: fbaf 03bb 8be2 31bb

sigma_linear.weight f4 [2, 4096]
-5.4433644e-05 -0.014141382 -0.0039572576 0.009257881 0.011520701 -0.0021959883 -0.015587701 -0.012720265
0.0146737285 -0.014815776 0.013312768 -0.011148304 0.01354674 -0.0025934891 -0.0005445287 0.0069012353
0.0060119196 -0.022442074 0.010709512 0.0050468557 -0.014487895 0.0008932283 -0.013009654 0.01517838
0.01729819 -0.0072577517 0.014774531 0.0039548995 0.0012245367 0.0082750665 0.0041632336 0.014561701
0.0031648932 -0.015106246 0.011102277 -0.008286109 -0.0016588998 0.014988466 0.015025782 0.0014027484
0.0129297245 -0.019172193 0.0038889414 0.010956261 -4.9724815e-05 -0.012115529 0.0013788425 0.016285343
0.010351782 0.009108351 0.01769471 0.011499899 0.0100569045 0.0051502828 -0.012542032 0.006214764
0.02582157 -0.0017820083 -0.02122015 -0.012415838 -0.0038868675 -0.0027347303 -0.0053860964 0.01870653
0.025725633 0.0022643518 0.0048276745 -0.0088891685 0.011180485 0.009559818 0.0032216578 -0.014564673
-0.0073289643 0.00544584 -0.0018891243 -0.009722776 0.0020050104 0.009597272 -0.015449377 2.07185e-05
0.014486393 -0.0046846066 0.004332706 0.009428879 0.0049476596 0.009815039 0.005493274 0.013709997
0.009534284 0.010255554 0.0067912904 -0.007688326 -0.007040893 0.0057288557 0.0068995934 0.003951104
0.02253142 0.017058723 0.0133864265 -0.002516204 -0.006991014 0.009128116 0.010244786 0.003958722
0.005667458 -0.0034863164 0.003944084 -0.016446939 0.00415299 0.00739543 0.0075806687 -0.022591107
0.0097186165 0.002550907 0.0016512426 0.02002903 0.01975658 -0.013787009 0.0035261712 -0.014192229
0.043641385 0.011534203 0.024863921 0.011196282 0.030028662 0.017927812 0.017035821 -0.036534205
0.00025740964 -0.007754822 0.012291009 0.020556135 0.0062812953 0.004915952 0.011025856 -0.0072541353
-0.00027297623 0.018268147 0.011035847 -0.018952668 -0.008706903 -0.0026901735 0.000987184 0.01665855
0.0021073904 -0.008237594 -0.00048125055 0.004129985 0.0024974952 0.006310738 0.0081097605 0.011492451
-0.00024848955 0.0058154864 0.0057480587 -0.0146846045 0.002237528 -0.013310884 -0.0021735837 -0.010984792
0.0028060346 0.00765792 0.013185423 0.00039737162 -0.020165173 -0.0007127605 0.021199213 0.01261243
1.0759296e-05 -0.007458722 -0.008355424 -0.01043706 0.008750619 0.007309674 0.0022908312 -0.0064856405
-0.008051001 0.01245723 -0.013244011 -0.016870799 -0.01375625 0.011057404 0.01316357 -0.0068690814
-0.006164589 0.011898151 0.003722764 0.017977392 0.009056678 0.006728796 -0.009239037 0.0115957325
-0.004916651 0.010871491 -0.0009771779 0.0027773161 -0.0077682375 -0.017154813 0.011250339 -0.0027877835
-0.0069547915 -0.0063374424 0.0057899742 0.021334007 0.0006500269 -0.009201836 0.021670269 -0.0093912855
0.002110775 -0.0094873095 -0.008416084 0.0071868156 -0.016593413 -0.035678778 0.014417088 -0.00044096314
0.015707767 -0.009911415 0.0029174504 -0.0027802344 0.013772203 -0.023661716 -0.0018570017 0.0020011328
-0.0034882252 0.00053270196 -0.0051623043 -0.0018918923 -0.0033624729 -0.039198846 -0.016166408 0.0070220963
0.0033893676 0.0016547018 -0.0063381586 0.009062362 -0.00044599766 -0.024586579 0.018803386 0.016416555
0.0084627 -0.006937329 0.008148843 -0.00984691 -0.0028071022 -0.003440183 0.016248154 0.0041122884
-0.0076656276 0.012002626 0.013143198 -0.010285419 0.017109385 -0.011251804 -0.008862686 -0.0017886657
00000000: ae4f 64b8 41b1 67bc e2ab 81bb 5eae 173c
00000010: 53c1 3c3c 92ea 0fbb 8f63 7fbc a968 50bc
00000020: 146a 703c debd 72bc cc1d 5a3c 60a7 36bc
00000030: 25f3 5d3c 87f7 29bb b4be 0eba c223 e23b
00000040: a3ff c43b 71d8 b7bc f376 2f3c 1860 a53b
00000050: a35e 6dbc 8927 6a3a 7226 55bc bdae 783c
00000060: efb4 8d3c 6fd2 edbb e010 723c 1a98 813b
00000070: a280 a03a 2594 073c bc6b 883b 3394 6e3c
00000080: 196a 4f3b 3080 77bc 53e6 353c 76c2 07bc
00000090: 716f d9ba 2f92 753c b32e 763c 6ddc b73a
000000a0: 32d7 533c 010f 9dbc 9cdd 7e3b e481 333c
000000b0: 9d8f 50b8 3680 46bc 47ba b43a d768 853c
000000c0: 859a 293c 313b 153c 7ff4 903c 136a 3c3c
000000d0: b7c5 243c b4c3 a83b 187d 4dbc 38a5 cb3b
000000e0: c287 d33c 4792 e9ba e1d5 adbc cd6b 4bbc
000000f0: d1ba 7ebb 2939 33bb da7d b0bb 703e 993c
00000100: 90be d23c 8565 143b 7831 9e3b e0a3 11bc
00000110: 5a2e 373c c8a0 1c3c 7322 533b aba0 6ebc
00000120: cf27 f0bb 0473 b23b 7e9c f7ba 474c 1fbc
00000130: 7e66 033b e03d 1d3c 621f 7dbc a4cc ad37
00000140: 5658 6d3c 5481 99bb 5ff9 8d3b 967b 1a3c
00000150: fa1f a23b 42cf 203c ec00 b43b e59f 603c
00000160: af35 1c3c e906 283c 7989 de3b 5aee fbbb
00000170: 4bb7 e6bb 20b9 bb3b fc15 e23b 4378 813b
00000180: d093 b83c bcbe 8b3c be52 5b3c e6e6 24bb
00000190: e014 e5bb 188e 153c bfd9 273c 2bb8 813b
000001a0: 15b6 b93b af7a 64bb 603d 813b bbbb 86bc
000001b0: ce15 883b 5d55 f23b 4267 f83b fc10 b9bc
000001c0: d53a 1f3c 1e2d 273b 826e d83a ec13 a43c
000001d0: 8dd8 a13c e8e2 61bc 5617 673b 8686 68bc
000001e0: 4fc1 323d f4f9 3c3c 6caf cb3c 9c70 373c
000001f0: abfe f53c 59dd 923c b58e 8b3c e4a4 15bd
00000200: f0f4 8639 291c febb 3a60 493c 5765 a83c
00000210: 53d3 cd3b ff15 a13b cba5 343c 19b4 edbb
00000220: 401e 8fb9 15a7 953c b2cf 343c a042 9bbc
00000230: 66a7 0ebc 9f4d 30bb 6664 813a 8377 883c
00000240: 251c 0a3b f9f6 06bc 5b50 fcb9 d354 873b
00000250: 04ad 233b 4fca ce3b cdde 043c d54a 3c3c
00000260: b447 82b9 d68f be3b 365a bc3b b297 70bc
00000270: 7ea3 123b e515 5abc af72 0ebb 8ff9 33bc
00000280: 73e5 373b 4aef fa3b ac07 583c 5156 d039
00000290: 6f31 a5bc 8cd8 3aba f9a9 ad3c 5ea4 4e3c
000002a0: d382 3437 4c68 f4bb 30e5 08bc 3400 2bbc
000002b0: c25e 0f3c fd85 ef3b c521 163b 7f85 d4bb
000002c0: 58e8 03bc 6919 4c3c 69fd 58bc a134 8abc
000002d0: e561 61bc 1d2a 353c 04ac 573c 0816 e1bb
000002e0: 5200 cabb 76f0 423c 9ef9 733b 5345 933c
000002f0: 7662 143c 3b7d dc3b 545f 17bc 07fc 3d3c
00000300: dc1b a1bb 571e 323c a614 80ba a203 363b
00000310: b38c febb 4088 8cbc 5853 383c 3fb3 36bb
00000320: 05e5 e3bb 52aa cfbb d3b9 bd3b a8c4 ae3c
00000330: 9166 2a3a 4cc3 16bc d985 b13c e8dd 19bc
00000340: ee54 0a3b a970 1bbc 9de3 09bc 617f eb3b
00000350: e9ee 87bc e923 12bd a635 6c3c 1231 e7b9
00000360: 93ad 803c 7d63 22bc b232 3f3b 9834 36bb
00000370: cea4 613c 37d6 c1bc a366 f3ba 7025 033b
00000380: b59a 64bb 06a5 0b3a 8c28 a9bb 5ff9 f7ba
00000390: ef5c 5cbb f88e 20bd 6a6f 84bc 9d19 e63b
000003a0: 2720 5e3b 94e2 d83a 54b0 cfbb 4d7a 143c
000003b0: cbd4 e9b9 cb69 c9bc 8f09 9a3c 037c 863c
000003c0: 23a7 0a3c 8952 e3bb ba82 053c ef54 21bc
000003d0: 5cf7 37bb b174 61bb d91a 853c 60c0 863b
000003e0: f22f fbbb aaa6 443c 9156 573c 2d84 28bc
000003f0: fb28 8c3c 7d59 38bc cd34 11bc a971 eaba

sigma_linear.bias f4 [2]
-0.01285111 0.019680101
00000000: 768d 52bc 2a38 a13c

encoder.0.weight f4 [8, 3, 5, 5]
-0.04355274 0.030729158 -0.032683257 -0.089668505 -0.06749711 0.017581945 -0.08621169 -0.07204556
-0.013931826 0.057254795 -0.036710005 -0.06965942 -0.047955234 -0.08072967 -0.0066350894 -0.0040772744
0.027679564 0.034193657 -0.05310646 -0.048010588 0.06358421 0.036931805 0.060955606 0.025520913
-0.0032826473 -0.07073633 0.051804308 0.032814942 -0.07446949 0.067402065 -0.04686365 0.0022430737
0.06300691 0.03479378 -0.02552856 -0.050136764 -0.0023025677 -0.010592757 -0.07289683 0.0482381
-0.006396575 -0.0039284965 -0.06175636 -0.01844913 4.067678e-05 0.069470555 0.023162317 -0.055819843
0.032056775 0.0384926 0.040199332 0.009556928 -0.0017738916 0.085259914 0.0036172962 -0.047097635
0.031357665 0.02895335 0.045655254 -0.028808905 0.015652437 -0.040263448 0.05717281 0.007738596
0.012456794 0.01218886 -0.015908567 -0.0547801 -0.012744204 -0.00635981 -0.04592267 0.017797353
-0.015657142 -0.0023899688 0.025823077 0.04819679 -0.02975684 0.075811274 -0.018706521 -0.047734503
-0.024964212 -0.01952603 -0.01396961 0.055775482 0.03798308 0.01069865 -0.047293004 -0.06429031
0.034211576 0.05543088 0.013450571 -0.027699215 0.041165467 0.10604431 -0.06214682 0.022239417
-0.016483346 -0.06143281 -0.04963947 -0.0090506505 -0.05679085 -5.904903e-05 -0.02257005 -0.030729342
0.043185145 0.01609583 -0.0047088536 0.0024244895 0.035576686 0.0244586 0.03929828 -0.0010061831
0.076444454 0.0074808504 0.099193506 0.063768335 -0.012110483 -0.06475777 -0.03613514 0.007745323
-0.036554586 0.052104276 -0.03664716 0.04269366 -0.071707 -0.005454405 -0.043047596 -0.029215377
0.00589223 -0.00038769396 -0.0061916327 -0.06845639 -0.011255895 -0.058995094 0.010878542 0.016878778
-0.030669281 0.028528687 0.018273227 0.031708337 0.010422686 -0.019909542 0.015819224 -0.04032765
0.02027983 0.007711227 -0.002483943 0.047701705 -0.009467584 -0.039215345 0.038858984 -0.05430925
-0.03034558 0.004849779 0.0488623 -0.064826146 0.03342336 -0.033533774 -0.0666467 -0.098693
0.025318174 0.0484925 -0.04975131 -0.026193835 0.041016936 0.032246757 0.019403229 -0.030285303
-0.073584445 -0.04782283 -0.057968605 -0.02458225 0.024575457 -0.007181687 0.008859882 0.037922304
0.013177017 0.009792828 -0.039030317 -0.058907375 0.009505315 0.002492497 -0.06312936 -0.002169878
0.0012700044 0.030800287 -0.034708694 -0.04280845 -0.030132607 0.0026574868 -0.0016528273 -0.035491493
-0.06911124 -0.023070004 0.090910934 -0.01918203 0.063597016 0.0393652 -0.011176692 0.11096597
0.0037335758 -0.015722528 -0.00049591385 0.031107934 0.056114662 0.02194041 -0.024404617 0.035417426
0.0013941951 0.0034266938 -0.007508366 -0.018991511 -0.016067006 -0.014064485 -0.01656496 0.017424025
-0.02623414 0.008279282 -0.033893976 0.0005862264 -0.002766561 0.010705599 0.021657128 0.026267743
0.05796036 -0.030878564 0.0383188 -0.013035183 0.035377093 0.02863076 -0.010462476 -0.003154933
-0.034222998 -0.061054632 0.036625728 0.023207176 0.07605445 -0.078838736 -0.039679922 0.0031377324
-0.04522004 0.025087487 0.0641363 0.04762417 -0.038439307 -0.0831807 0.051868092 0.016317835
0.052155625 -0.01945235 -0.053831287 0.0005228686 -0.008770473 -0.02610771 -0.015533122 -0.050368503
00000000: 5c64 32bd b7bb fb3c e1de 05bd 1fa4 b7bd
00000010: ed3b 8abd 0308 903c c18f b0bd 9f8c 93bd
00000020: 5042 64bc 0184 6a3d 3b5d 16bd 99a9 8ebd
00000030: b56c 44bd 9955 a5bd 2a6b d9bb a89a 85bb
00000040: 41c0 e23c a60e 0c3d 2986 59bd c0a6 44bd
00000050: 7038 823d ce45 173d 96ac 793d 3c11 d13c
00000060: af21 57bb 35de 90bd c130 543d f668 063d
00000070: 7683 98bd 180a 8a3d 19f4 3fbd 8800 133b
00000080: c409 813d ec83 0e3d 4521 d1bc 355c 4dbd
00000090: ade6 16bb 3e8d 2dbc ef4a 95bd 5095 453d
000000a0: 5c9a d1bb 9eba 80bb 3df4 7cbd a122 97bc
000000b0: 5c9c 2a38 9446 8e3d e6be bd3c 59a3 64bd
000000c0: f74d 033d 6baa 1d3d 0ea8 243d a994 1c3c
000000d0: ed81 e8ba c09c ae3d 2910 6d3b 73e9 40bd
000000e0: e570 003d 932f ed3c 0101 3b3d a700 ecbc
000000f0: 8a39 803c 49eb 24bd 092e 6a3d 0c94 fd3b
00000100: 9517 4c3c c9b3 473c af52 82bc 1961 60bd
00000110: 11cd 50bc f465 d0bb 6919 3cbd c1cb 913c
00000120: 6843 80bc 06a1 1cbb eb8a d33c ff69 453d
00000130: 9ec4 f3bc f142 9b3d 6b3e 99bc 4185 43bd
00000140: bf81 ccbc 0ef5 9fbc cbe0 64bc d574 643d
00000150: 2594 1b3d 6449 2f3c 4fb6 41bd a3aa 83bd
00000160: 7021 0c3d 7e0b 633d c95f 5c3c 77e9 e2bc
00000170: 1f9d 283d c22d d93d aa8d 7ebd 702f b63c
00000180: 1508 87bc f8a0 7bbd c252 4bbd 2e49 14bc
00000190: 869d 68bd 6aab 77b8 d3e4 b8bc 1abc fbbc
000001a0: e8e2 303d 67db 833c ba4c 9abb 2fe4 1e3b
000001b0: dcb8 113d 675d c83c 3cf7 203d e7e1 83ba
000001c0: e98e 9c3d ec21 f53b f725 cb3d f998 823d
000001d0: 0c6b 46bc b99f 84bd 7102 14bd 7acc fd3b
000001e0: 43ba 15bd 4b6b 553d 551b 16bd 8cdf 2e3d
000001f0: 1fdb 92bd deba b2bb ad52 30bd 1655 efbc
00000200: 9c13 c13b 6743 cbb9 2ee3 cabb dd32 8cbd
00000210: a56a 38bc d7a4 71bd ea3b 323c 5d45 8a3c
00000220: 253e fbbc feb4 e93c bcb1 953c 9ae0 013d
00000230: eac3 2a3c 5619 a3bc 5197 813c 9b2e 25bd
00000240: e321 a63c 76ae fc3b a6c9 22bb dd62 433d
00000250: ed1d 1bbc 45a0 20bd 992a 1f3d 6073 5ebd
00000260: 4b97 f8bc e5ea 9e3b d623 483d 92c3 84bd
00000270: efe6 083d b65a 09bd 117e 88bd 8e1f cabd
00000280: 0f68 cf3c 12a0 463d 08c8 4bbd 7494 d6bc
00000290: 6001 283d 2d15 043d 85f3 9e3c e218 f8bc
000002a0: 71b3 96bd dfe1 43bd 7d70 6dbd b760 c9bc
000002b0: 7852 c93c 5b54 ebbb 0a29 113c 6b54 1b3d
000002c0: 6ae4 573c 1972 203c 41de 1fbd dc48 71bd
000002d0: 2ebc 1b3c 2959 233b f749 81bd 8334 0ebb
000002e0: 4776 a63a e250 fc3c b42a 0ebd ea57 2fbd
000002f0: a8d8 f6bc 3b29 2e3b aea3 d8ba 875f 11bd
00000300: 328a 8dbd 4efd bcbc 832f ba3d a223 9dbc
00000310: 273f 823d 673d 213d 721e 37bc 2042 e33d
00000320: 02af 743b 88cc 80bc 3700 02ba 11d6 fe3c
00000330: 7dd8 653d 60bc b33c 31ec c7bc dd11 113d
00000340: 6dbd b63a 6292 603b bd08 f6bb 1694 9bbc
00000350: f49e 83bc ba6e 66bc 3db3 87bc d4bc 8e3c
00000360: fbe8 d6bc d3a5 073c 69d4 0abd fdac 193a
00000370: 314f 35bb 8966 2f3c 4a6a b13c 732f d73c
00000380: d867 6d3d 0bf5 fcbc 2df4 1c3d 8591 55bc
00000390: 92e7 103d 0e8b ea3c ce6a 2bbc fec2 4ebb
000003a0: 6a2d 0cbd 6c14 7abd dc04 163d fa1c be3c
000003b0: 6fc2 9b3d 3476 a1bd 6a87 22bd 6aa2 4d3b
000003c0: a638 39bd 4684 cd3c e459 833d 9011 433d
000003d0: 8972 1dbd a55a aabd a373 543d fbac 853c
000003e0: 23a1 553d 895a 9fbc 327e 5cbd 1e11 093a
000003f0: 08b2 0fbc d6df d5bc a37e 7ebc 344f 4ebd

encoder.0.bias f4 [8]
-0.008976857 0.012965051 -0.00954466 -0.00615677 -0.041585237 -0.0063247057 0.010844172 0.024150396
00000000: ab13 13bc 5e6b 543c 3561 1cbc bbbe c9bb
00000010: 4855 2abd 7a3f cfbb c1ab 313c 0dd7 c53c

encoder.3.weight f4 [16, 8, 5, 5]
-0.050195023 -0.03252523 0.0017483779 0.0097961 -0.036603354 0.02552284 -0.005979726 0.0070427195
0.016413227 -0.011732723 -0.062013555 -0.06449601 -0.004728617 0.05272048 -0.012666637 -0.00040339812
0.03452867 -0.0040595387 -0.010802523 0.032610036 0.0034797362 -0.0071620275 -0.06949078 -0.00807815
0.0027477352 0.017486269 -0.024538962 -0.002174463 -0.017041817 0.020005789 -0.028621677 0.010492894
0.014747456 0.042208236 -0.013157101 0.016881704 -0.00507087 -0.0034817397 0.013293804 0.021695232
-0.019148465 -0.026600406 0.0032435807 0.061501067 0.0050524753 -0.028874613 0.027276002 0.047951564
0.012250379 0.028008299 -0.034014706 -0.03152888 -0.04588039 0.030282207 0.016731095 0.051257256
0.02913624 -0.018857148 0.0131195905 -0.009735182 -0.031363618 -0.043438453 0.006736466 -0.0066442303
0.0533003 -0.024560012 -0.03947345 -0.06326976 -3.480109e-05 -0.010604318 0.02723653 0.0054534166
-0.022541324 0.011574947 0.010396969 -0.029788882 -0.0049009654 0.0019301896 0.032979056 0.042552065
0.058498647 0.008453374 -2.2494698e-05 -0.0009725012 -0.028515376 0.029950384 -0.00844721 -0.038568746
-0.0072971405 0.013209906 0.0069848946 -0.023108367 0.016342001 -0.014071137 0.023094727 0.0064283684
-0.03255131 -0.0028370996 -0.014278943 0.03526931 -0.045405194 -0.009322469 -0.052156568 0.025493689
0.04567623 0.026293973 0.0035021745 -0.003678414 0.017837407 -0.031421956 0.0077194 -0.0007834973
0.03546072 0.017918458 -0.03857912 -0.0026018592 0.053637836 -0.06254504 -0.039202016 -0.011603033
0.03909053 -0.029460311 -0.02059374 -0.008523476 -0.034684703 -0.021279888 0.06553261 -0.023773909
0.012300322 0.009308689 -0.02255571 0.03804838 -0.02930063 -0.0022343849 -0.0077185724 0.03473385
0.039782893 0.020167459 -0.0060058855 -0.0010915924 -0.027666232 -0.010649676 -0.038610723 0.0109914495
0.017223228 -0.0016596626 0.03836712 0.02655982 0.05100411 -0.0023125994 0.020724956 0.020713916
0.0038888613 -0.020888684 -0.024000918 0.053900853 0.007805476 0.03923231 0.03756055 0.003677334
-0.016838642 0.03525299 -0.030256696 -0.010767154 0.0051419362 0.012764265 -0.019579848 -0.019644767
-0.006972798 -0.030293602 0.051026102 -0.03808272 -0.016749498 -0.026339239 -0.0059577073 -0.004529437
0.0038116567 -0.019661758 -0.0091664735 -0.035309225 -0.02216197 0.011358783 -0.024714306 -0.05890156
-0.031430244 -0.030052781 -0.020265026 -0.0047894455 -0.02192396 0.019996086 -0.034179393 -0.015552251
-0.010113037 -0.020102724 -0.051573154 -0.052524343 -0.015769435 -0.008562427 0.023287296 -0.049365267
0.014404051 0.019112824 -0.030447744 0.0021479982 0.011668095 -0.011342675 -0.031611685 -0.034667615
-0.037435144 -0.034092754 -0.01009063 0.0049481224 -0.034727283 0.07576675 -0.007814402 -0.0065348633
0.029990453 -0.064041525 0.014157108 -0.025290485 0.005472539 0.021929417 0.041361943 -0.068656154
-0.024334358 -0.021892404 0.047150437 -0.019661792 0.014977019 -0.031557485 -0.035929598 -0.048739348
-0.041328494 0.023763217 0.037481546 -0.015123275 -0.012009686 0.045574013 0.0013089589 0.010860653
-0.01620733 0.042160474 0.008152336 -0.0028629142 0.030954054 0.001983061 -0.009672206 -0.014691482
-0.027756248 0.030099163 0.035809014 0.02854578 -0.03543441 0.0060499418 -0.06122829 -0.00015504847
00000000: 4c99 4dbd 2d39 05bd d429 e53a d27f 203c
00000010: 66ed 15bd 4615 d13c 94f1 c3bb 9dc6 e63b
00000020: 0875 863c 9b3a 40bc ed01 7ebd 7c16 84bd
00000030: 84f2 9abb 6ef1 573d ba87 4fbc 2e7f d3b9
00000040: ef6d 0d3d e105 85bb 11fd 30bc 1a92 053d
00000050: 490c 643b 71af eabb 2f51 8ebd 385a 04bc
00000060: 5913 343b 5d3f 8f3c ef05 c9bc 6f81 0ebb
00000070: 489b 8bbc 2ee3 a33c 0278 eabc 63ea 2b3c
00000080: 509f 713c 8be2 2c3d e290 57bc 804b 8a3c
00000090: 8a29 a6bb e62d 64bb 41ce 593c 33ba b13c
000000a0: 3edd 9cbc 18e9 d9bc 4192 543b 8be8 7b3d
000000b0: 3c8f a53b 748a ecbc ec71 df3c dc68 443d
000000c0: d0b5 483c a971 e53c 0153 0bbd 6d24 01bd
000000d0: 13ed 3bbd 6412 f83c a60f 893c 21f3 513d
000000e0: 20af ee3c 4e7a 9abc 8df3 563c 5080 1fbc
000000f0: 2377 00bd 85ec 31bd 93bd dc3b d8b7 d9bb
00000100: 6a51 5a3d 1432 c9bc eaae 21bd 9393 81bd
00000110: 63f7 11b8 bcbd 2dbc 251f df3c 93b2 b23b
00000120: 95a8 b8bc d9a4 3d3c 0c58 2a3c d007 f4bc
00000130: 4798 a0bb 6afe fc3a 0c15 073d 134b 2e3d
00000140: 479c 6f3d 0580 0a3c ffb2 bcb7 73ef 7eba
00000150: 1499 e9bc 825a f53c 2b66 0abc 43fa 1dbd
00000160: da1c efbb 5d6e 583c 8be1 e43b c24d bdbc
00000170: a9df 853c a08a 66bc 2731 bd3c 10a5 d23b
00000180: 8654 05bd a2ee 39bb 3af2 69bc 8d76 103d
00000190: ccfa 39bd 45bd 18bc 20a2 55bd 24d8 d03c
000001a0: 0017 3b3d 7566 d73c bd84 653b 8c11 71bb
000001b0: c11f 923c 4fb4 00bd 05f3 fc3b 9d63 4dba
000001c0: 433f 113d bbc9 923c 2405 1ebd f483 2abb
000001d0: 59b3 5b3d 9d17 80bd 4b92 20bd a61a 3ebc
000001e0: 641d 203d c056 f1bc 34b4 a8bc 0da6 0bbc
000001f0: 8c11 0ebd 2953 aebc f635 863d 80c1 c2bc
00000200: 4a87 493c 7983 183c c1c6 b8bc 9ed8 1b3d
00000210: e007 f0bc c26e 12bb 14ec fcbb 1545 0e3d
00000220: 63f3 223d 3a36 a53c 05cd c4bb c313 8fba
00000230: 4ba4 e2bc fb7b 2ebc 4726 1ebd 7b15 343c
00000240: ba17 8d3c 0989 d9ba d726 1d3d fb93 d93c
00000250: b0e9 503d fb8e 17bb 62c7 a93c 3bb0 a93c
00000260: 44dc 7e3b bf1e abbc 939d c4bc 24c7 5c3d
00000270: 14c5 ff3b 0fb2 203d 17d9 193d 6dff 703b
00000280: 31f1 89bc 7065 103d e4dc f7bc b868 30bc
00000290: b07d a83b 3521 513c eb65 a0bc 10ee a0bc
000002a0: 127c e4bb 4a2a f8bc bf00 513d a0fc 1bbd
000002b0: 3e36 89bc 63c5 d7bc df38 c3bb ac6b 94bb
000002c0: fdcc 793b b211 a1bc fa2e 16bc 68a0 10bd
000002d0: 058d b5bc 301a 3a3c a875 cabc c342 71bd
000002e0: 00bd 00bd 4031 f6bc d702 a6bc c8f0 9cbb
000002f0: e099 b3bc d5ce a33c b1ff 0bbd dece 7ebc
00000300: 27b1 25bc 78ae a4bc 5f3e 53bd c423 57bd
00000310: e72e 81bc 6c49 0cbc 00c5 be3c 3c33 4abd
00000320: f8fe 6b3c 7f92 9c3c 8c6d f9bc 6ec5 0c3b
00000330: 8a2b 3f3c a1d6 39bc 417b 01bd a1ff 0dbd
00000340: 9855 19bd d8a4 0bbd 2b53 25bc dc23 a23b
00000350: 323e 0ebd 992b 9b3d fa07 00bc 6822 d6bb
00000360: 8aae f53c 3428 83bd 37f3 673c fe2d cfbc
00000370: fc52 b33b 52a5 b33c 246b 293d 999b 8cbd
00000380: d958 c7bc b357 b3bc d120 413d c411 a1bc
00000390: 2c62 753c 6c42 01bd ea2a 13bd e9a2 47bd
000003a0: 1148 29bd 14ab c23c 4086 193d 9dc7 77bc
000003b0: 46c4 44bc d1ab 3a3d 5f91 ab3a e1f0 313c
000003c0: 3cc5 84bc 76b0 2c3d 6091 053c bb9f 3bbb
000003d0: 5b93 fd3c 3ef6 013b 2c78 1ebc 8bb4 70bc
000003e0: 1261 e3bc 8592 f63c 79ac 123d d7d8 e93c
000003f0: ac23 11bd 973e c63b 84ca 7abd 8294 22b9

encoder.3.bias f4 [16]
-0.01349858 -0.0027738644 -0.011995392 -0.010213653 -0.011687607 -0.011568298 -0.0075549157 -0.0069873533
-0.016432034 -0.0066620554 -0.008965444 -0.0033159922 -0.004143176 -0.0065333303 -0.01001264 -0.003644054
00000000: 2629 5dbc b9c9 35bb 5288 44bc 2a57 27bc
00000010: 607d 3fbc f588 3dbc 3a8f f7bb 2bf6 e4bb
00000020: 799c 86bc 5f4d dabb cce3 12bc 1e51 59bb
00000030: 7bc3 87bb 8c15 d6bb 0e0c 24bc 15d1 6ebb

encoder.6.weight f4 [32, 16, 5, 5]
0.02384031 -0.029316336 -0.055434156 0.015596859 -0.0045415084 -0.049187154 0.010326613 -0.05779506
0.015699614 0.023188166 -0.00392622 -0.015222888 -0.049449604 -0.02096073 0.01112162 -0.035000484
-0.04213992 0.0016903189 -0.022934528 0.009189345 -0.0121748345 0.020995766 -0.018797128 0.017947687
-0.026066922 -0.046914596 -0.015175084 -0.0034029065 -0.0057791825 -0.018254023 -0.009731287 0.008644636
-0.022640439 0.03351045 -0.04349733 0.0033454471 -0.007957231 0.028576296 0.022789357 -0.010744342
-0.029276859 -0.012819687 0.032910462 -0.038658503 0.022883356 0.0008975419 0.016567515 -0.017555457
0.017842714 0.0057151243 0.012425117 0.016110271 -0.023948003 0.010927749 0.026931018 -0.0028001557
0.04473923 -0.021271758 0.026632657 -0.0035291053 0.015285383 0.026873365 0.007965665 -0.0052157165
0.027504003 -0.009229563 -0.016087137 -0.030217258 0.005622794 -0.02373378 0.014379219 0.01023444
-0.023350272 0.019281683 0.010094982 0.016189251 0.021683946 -0.005464443 -0.0044561625 -0.0077638673
0.022333581 0.024310468 -0.002294463 -0.0003104541 -0.007974732 0.01916178 0.024301877 -0.009864651
0.0068958816 -0.011060982 0.021252623 0.05219731 -0.01189144 -0.038197868 -0.004424585 0.0043595945
0.015030773 0.021659855 0.013321867 -0.003778918 0.008319286 -0.010244727 0.0061379303 -0.021775384
0.00487287 -0.022492962 0.0016649644 0.01971918 0.012345418 -0.016344644 -0.0070136087 -0.018266985
-0.04060153 0.018041737 -0.015162488 -0.014574175 0.027556298 0.01017203 -0.020959742 -0.013752756
0.019709714 0.016224783 0.010492813 -0.029742876 -0.005199164 -0.0309912 -0.011909479 0.0053824717
-0.018971546 0.005179055 -0.02615856 -0.035202302 -0.0142268315 0.019942448 -0.03603648 0.018407807
0.002926123 -0.0033092704 0.021615997 0.004120777 -0.037823252 0.013712406 0.018790657 -0.017248979
-0.021880979 0.0016500761 -0.005107309 0.0066520064 0.027432438 -0.011217051 0.0049533467 -0.0016283685
-0.0382237 0.006075401 0.03118227 -0.04752638 -0.009630849 -0.044455927 -0.0015494389 0.024602495
-0.0217673 0.01613663 0.016569855 0.0040986477 0.011807559 -0.0042184256 -0.009648233 -0.02539476
-0.018941374 0.046555687 0.0030772302 0.00052792754 -0.048229635 -0.010006434 -0.004528254 0.0015199432
0.022285042 0.009780923 0.028095705 -0.008929807 -0.004918361 -0.031540394 -0.00023011051 0.01346155
0.026161285 0.01226162 -0.006184912 0.026904033 0.03422513 0.022331052 -0.011364532 -0.04908004
0.020535706 0.04471669 -0.048424598 -0.019458523 -0.018953258 0.0015297123 0.010238433 -0.015012574
-0.04447663 -0.010568472 0.011949269 0.014940093 0.00911687 0.013093845 -0.016994137 -0.014533295
-0.024680594 0.013105067 -0.004199609 -0.0018946135 -0.0070332666 0.027239855 0.02686397 -0.015926152
0.0072719767 -0.02713947 0.03350498 0.032731514 0.017844176 -0.039838016 -0.003928761 0.003111725
0.019325297 -0.0051710503 -0.0072632753 -0.039676756 -0.016922712 0.029967193 -0.009686574 0.0048830532
-0.041153826 -0.036831185 -0.0021922945 0.009873494 0.03423963 0.022939514 -0.001515552 -0.0025656722
0.040186383 -0.0164034 0.021045988 0.012802719 0.020628657 0.012115121 0.016925419 -0.07408836
0.022282343 0.02008851 -0.005874266 -0.015886817 -0.013857164 0.017861169 -0.0018083755 0.02315385
00000000: c14c c33c d028 f0bc ed0e 63bd f889 7f3c
00000010: efd0 94bb 7878 49bd f430 293c 83ba 6cbd
00000020: 7a9c 803c 1cf5 bd3c 85a7 80bb 6c69 79bc
00000030: ab8b 4abd d6b5 abbc 7537 363c ab5c 0fbd
00000040: e99a 2cbd b18d dd3a 31e1 bbbc e88e 163c
00000050: f578 47bc 50ff ab3c 6ffc 99bc 0707 933c
00000060: 4c8a d5bc 8529 40bd eaa0 78bc 4c03 5fbb
00000070: 4c5f bdbb 7689 95bc fa6f 1fbc 3ba2 0d3c
00000080: 7178 b9bc 4142 093d 422a 32bd 4a3f 5b3b
00000090: 0c5f 02bc d618 ea3c bfb0 ba3c 0909 30bc
000000a0: 06d6 efbc aa09 52bc 1fcd 063d 6158 1ebd
000000b0: e075 bb3c 0449 6b3a 99b8 873c 76d0 8fbc
000000c0: e22a 923c f045 bb3b b892 4b3c b0f9 833c
000000d0: 9a2e c4bc 4d0a 333c 709e dc3c d182 37bb
000000e0: 7c40 373d 1c42 aebc bb2c da3c 9048 67bb
000000f0: 8b6f 7a3c 8825 dc3c 6c82 023c 9ae8 aabb
00000100: 1350 e13c 9837 17bc 2cc9 83bc 2f8a f7bc
00000110: 6a3f b83b 586d c2bc d196 6b3c 5aae 273c
00000120: 1249 bfbc 9ff4 9d3c 6c65 253c 529f 843c
00000130: 88a2 b13c 120f b3bb 0005 92bb 0a68 febb
00000140: eaf4 b63c bf26 c73c b45e 16bb 72c4 a2b9
00000150: 73a8 02bc 2af9 9c3c bb14 c73c 589f 21bc
00000160: d9f6 e13b 1f39 35bc fb19 ae3c d9cc 553d
00000170: 50d4 42bc 5e75 1cbd 1cfc 90bb eeda 8e3b
00000180: a243 763c 0270 b13c f643 5a3c b9a7 77bb
00000190: 9d4d 083c 80d9 27bc b120 c93b 4a62 b2bc
000001a0: 99ac 9f3b 2943 b8bc ef3a da3a 1e8a a13c
000001b0: 7044 4a3c 34e5 85bc 6ad2 e5bb a5a4 95bc
000001c0: ca4d 26bd 44cc 933c 166c 78bc 85c8 6ebc
000001d0: bfbd e13c 96a8 263c c4b3 abbc 3d53 61bc
000001e0: 4476 a13c d6e9 843c 0cea 2b3c 55a7 f3bc
000001f0: c05d aabb 42e1 fdbc fa1f 43bc 725f b03b
00000200: 376a 9bbc 10b5 a93b 7a4a d6bc 4a30 10bd
00000210: a817 69bc 585e a33c fd9a 13bd f8cb 963c
00000220: 33c4 3f3b 58e0 58bb 0814 b13c 9507 873b
00000230: 8eec 1abd 00aa 603c ddee 993c bb4d 8dbc
00000240: bd3f b3bc 5e47 d83a 375b a7bb 13f9 d93b
00000250: feb9 e03c b9c7 37bc af4f a23b fb6e d5ba
00000260: 7490 1cbd 2814 c73b f671 ff3c 05ab 42bd
00000270: b5ca 1dbc 6b17 36bd 8b16 cbba 2c8b c93c
00000280: 5651 b2bc f730 843c 81bd 873c f34d 863b
00000290: 7e74 413c b83a 8abb 9f13 1ebc ac08 d0bc
000002a0: f12a 9bbc 2db1 3e3d 5bab 493b 9e64 0a3a
000002b0: 708c 45bd 07f2 23bc bf61 94bb d538 c73a
000002c0: 1f8f b63c 2a40 203c f728 e63c 534e 12bc
000002d0: 342a a1bb 8030 01bd d249 71b9 d58d 5c3c
000002e0: 3150 d63c f6e4 483c cdaa cabb d965 dc3c
000002f0: a62f 0c3d 9cef b63c 4d32 3abc 2708 49bd
00000300: 7f3a a83c d928 373d df58 46bd 7b67 9fbc
00000310: dd43 9bbc a180 c83a 1abf 273c 4df7 75bc
00000320: 202d 36bd 6227 2dbc dec6 433c 4bc7 743c
00000330: ed5e 153c 9187 563c 4a37 8bbc 0f1d 6ebc
00000340: f52e cabc a3b6 563c e09c 89bb ae54 f8ba
00000350: 5177 e6bb 1e26 df3c d411 dc3c 9077 82bc
00000360: c349 ee3b 9853 debc 853c 093d 7b11 063d
00000370: f32d 923c 302d 23bd d6bc 80bb 15ee 4b3b
00000380: 1650 9e3c ea71 a9bb c500 eebb 1884 22bd
00000390: 80a1 8abc c27d f53c 70b4 1ebc 0502 a03b
000003a0: ea90 28bd 4cdc 16bd 99ac 0fbb 6fc4 213c
000003b0: db3e 0c3d a6eb bb3c 7da5 c6ba d624 28bb
000003c0: 7a9a 243d 6c60 86bc a368 ac3c 7fc2 513c
000003d0: 6efd a83c 807e 463c 2da7 8a3c a3bb 97bd
000003e0: 7689 b63c a990 a43c ea7c c0bb 1225 82bc
000003f0: 2909 63bc 9651 923c 0307 edba 25ad bd3c

encoder.6.bias f4 [32]
-0.004359415 -0.003243937 -0.0064680376 -0.0041344278 -0.0062308623 -0.006637433 -0.0047471477 -0.007061045
-0.009014621 -0.013497571 -0.0025381614 -0.009469588 -0.00023526834 -0.0020094574 -0.007959507 -0.0061096335
-0.0012460857 -0.010288797 0.007670738 -0.0029617278 -0.009089719 0.0026759591 0.0068590543 -0.014630972
-0.0011622194 -0.0006171832 -0.005260249 0.0024559482 0.0005975647 -0.0040788515 -0.013612122 -0.0006470509
00000000: 6cd9 8ebb 3b98 54bb d5f1 d3bb 187a 87bb
00000010: 432c ccbb d37e d9bb f68d 9bbb 5760 e7bb
00000020: 10b2 13bc eb24 5dbc 4857 26bb 5526 1bbc
00000030: 5db2 76b9 1ab1 03bb 9868 02bc 5233 c8bb
00000040: b353 a3ba 5892 28bc d05a fb3b 8c19 42bb
00000050: 0bed 14bc 255f 2f3b ebc1 e03b bfb6 6fbc
00000060: 9d55 98ba 77ca 21ba 2b5e acbb f9f3 203b
00000070: e3a5 1c3a e3a7 85bb 6105 5fbc da9e 29ba

encoder.9.weight f4 [64, 32, 5, 5]
0.007303376 0.0046317126 0.0016770344 0.002166141 -0.019744465 0.009900743 -0.008187818 -0.0024748754
-0.014567233 -0.0075240564 0.020527998 -0.008752134 0.025081856 0.01566568 0.01592671 -0.022031557
0.023805747 0.003244156 -0.0059690215 0.0045244573 -0.0224038 -0.0011011963 0.00969844 -0.02806547
-0.029946094 0.018199889 0.021764206 0.041858006 0.024058346 0.021189135 -0.010067723 -0.0011605595
0.018872913 0.006699696 -0.0042832773 -0.023170106 -0.0018389886 0.013380978 0.014023267 -0.0049917772
0.0019212255 -0.027345864 0.024320407 -0.024814872 -0.015853511 0.007142526 0.022092544 -0.031680528
-0.0024272853 0.0022605327 0.0043054405 0.014395436 0.019004194 0.013754363 -0.0029243883 0.0043937485
-0.010328694 -0.005428752 -0.02183595 0.011815659 0.013934217 -0.0041338704 0.009822502 0.002699797
-0.0002327871 0.0018530169 -0.029687095 -0.0036020505 -0.0030215571 0.018885497 -0.0106454855 -0.014195092
0.0083669545 -0.022133777 0.0108945 -0.007833193 0.040617444 0.02704627 0.0221713 0.025811134
-0.0025755633 -0.011674843 -0.020347431 0.0053001745 -0.017961387 -0.00306445 0.022343317 0.013120312
-0.0020716852 0.016650176 0.011847844 -0.01651348 0.0044696704 -0.011967931 -0.022348084 0.0034835748
-0.014995498 -0.008523949 -0.017462576 0.010284148 0.014860955 0.009787381 0.009553263 0.024303498
0.00399426 0.014505448 0.0061877924 -0.011377683 -0.0076382495 -0.015182088 0.00993043 0.00977061
0.030958503 0.02365577 -0.037265874 0.019991232 -0.03163919 0.013919113 0.0013624723 0.01654202
-0.0021448173 -0.033657074 0.00277968 -0.008730253 -0.017384544 -0.004254238 0.029634478 -0.011777266
0.020586543 0.0029394203 -0.012893711 0.0010227433 0.013043813 0.009981197 0.012016109 0.0283691
0.020349754 0.0052567264 -0.032167427 -0.020541137 0.0036385264 -0.000934838 -0.010443805 -0.036286294
0.002761732 0.021006757 0.017643485 -0.023558259 0.0050608935 -0.024636589 0.024003997 0.0013190396
0.011959402 -0.008129422 -0.0021760482 0.003458123 -0.013561451 -0.011660009 0.003981314 -0.011253151
0.03453362 -0.0054577235 0.01609624 -0.0025912898 0.0026991242 0.024220206 -0.031190071 0.00534083
-0.008831213 -0.02117652 0.00029261102 0.007031408 -0.023142913 -0.022553587 -0.0044966317 0.03244347
0.017945975 -0.010484046 -0.014152331 0.0051794574 -0.005761751 0.009128689 0.003548751 0.026669934
-0.012036148 0.026833083 0.015115702 0.01804061 0.01611861 0.006800496 -0.022072632 0.033160027
0.018137092 -0.010832569 0.005975999 -0.0058206483 0.014960913 0.025425296 -0.0010411363 -0.03634597
0.023271 0.023118583 0.022843288 -0.010222843 0.008532609 -0.0071161552 0.0017259809 -0.013066551
-0.012650796 0.0075322334 0.016895844 0.01089496 0.017055998 0.020573458 0.035644557 -0.0069951853
0.0005307938 0.00083919684 0.014542545 0.020933589 -0.008765775 0.006679168 0.0026355474 -0.027358165
-0.007884145 0.029819297 0.02180211 0.030119244 0.006631634 -0.00045131895 -0.008141372 0.0021521847
0.014179695 -0.03205119 -0.028438572 0.008734286 -0.008382862 0.03197996 0.015130186 -0.011080852
0.007957485 0.002025622 0.028058285 0.0019986124 -0.029411463 0.005856818 -0.006685883 0.0131318895
-0.01719256 -0.009705721 -0.0118591655 -0.012539859 0.009802109 0.012017399 -0.0052022035 0.0026774362
00000000: 2951 ef3b 9fc5 973b f0cf db3a d1f5 0d3b
00000010: 25bf a1bc ba36 223c 3326 06bc 8531 22bb
00000020: 67ab 6ebc 5c8c f6bb 552a a83c 1c65 0fbc
00000030: 7778 cd3c 5055 803c bb78 823c 867b b4bc
00000040: 4504 c33c e89b 543b c897 c3bb e641 943b
00000050: 2d88 b7bc 0456 90ba 35e6 1e3c 8ee9 e5bc
00000060: 8351 f5bc ef17 953c d94a b23c 4d73 2b3d
00000070: 0216 c53c d694 ad3c 17f3 24bc ea1d 98ba
00000080: 5e9b 9a3c 2089 db3b bc5a 8cbb 3ccf bdbc
00000090: 380a f1ba e43b 5b3c d8c1 653c 1092 a3bb
000000a0: a1d1 fb3a 6f04 e0bc 973b c73c 8f48 cbbc
000000b0: 39df 81bc da0b ea3b 6cfb b43c 71c3 01bd
000000c0: 1713 1fbb 7225 143b a714 8d3b d6da 6b3c
000000d0: afae 9b3c fb59 613c 18a7 3fbb 6ff9 8f3b
000000e0: af39 29bc ace3 b1bb 4ee1 b2bc 7796 413c
000000f0: 584c 643c 6b75 87bb 8fee 203c 14ef 303b
00000100: 5018 74b9 eee0 f23a 5a32 f3bc 6110 6cbb
00000110: 5105 46bb c2b5 9a3c 676a 2ebc 8892 68bc
00000120: 8d15 093c e551 b5bc d87e 323c cb56 00bc
00000130: 7a5e 263d 2490 dd3c 96a0 b53c df71 d33c
00000140: c8ca 28bb d747 3fbc a8af a6bc 16ad ad3b
00000150: c223 93bc f1d4 48bb 5509 b73c 94f6 563c
00000160: 1cc5 07bb f365 883c 761d 423c 4747 87bc
00000170: 5076 923b 2415 44bc 5413 b7bc b04c 643b
00000180: adaf 75bc 09a8 0bbc ad0d 8fbc d87e 283c
00000190: 5d7b 733c 405b 203c 4a85 1c3c 2118 c73c
000001a0: 48e2 823b 42a8 6d3c f7c2 ca3b 7669 3abc
000001b0: 484a fabb 4bbe 78bc 3eb3 223c e914 203c
000001c0: b09c fd3c bfc9 c13c 1aa4 18bd a7c4 a33c
000001d0: 1898 01bd fe0c 643c fc94 b23a 2183 873c
000001e0: 1090 0cbb 00dc 09bd 4b2b 363b 5609 0fbc
000001f0: 086a 8ebc 2367 8bbb 01c4 f23c 6ff5 40bc
00000200: 1ca5 a83c 4aa3 403b 2540 53bc 920d 863a
00000210: b8b5 553c 2d88 233c 37df 443c 5166 e83c
00000220: 87b4 a63c 9e40 ac3b fec1 03bd e345 a8bc
00000230: 5874 6e3b eb0f 75ba 7e1c 2bbc f0a0 14bd
00000240: 2dfe 343b 5d16 ac3c 1289 903c 40fd c0bc
00000250: dad5 a53b acd2 c9bc 08a4 c43c a0e3 ac3a
00000260: 5ef1 433c 4431 05bc 089c 0ebb ada1 623b
00000270: d930 5ebc 9f09 3fbc af75 823b 235f 38bc
00000280: 2073 0d3d b4d6 b2bb 43dc 833c a1d2 29bb
00000290: cae3 303b 7469 c63c 5282 ffbc 2102 af3b
000002a0: cbb0 10bc 627a adbc 9669 9939 ba67 e63b
000002b0: 3596 bdbc 4dc2 b8bc 7b58 93bb 72e3 043d
000002c0: 7003 933c 47c5 2bbc 2edf 67bc 70b8 a93b
000002d0: 12cd bcbb 7f90 153c 2992 683b e87a da3c
000002e0: 4433 45bc 0ed1 db3c d9a7 773c e7c9 933c
000002f0: 2d0b 843c b2d6 de3b aad1 b4bc cfd2 073d
00000300: 3d94 943c 167b 31bc 50d2 c33b 23bb bebb
00000310: 9e1e 753c b648 d03c bd76 88ba 83df 14bd
00000320: d3a2 be3c 2f63 bd3c d921 bb3c b67d 27bc
00000330: 5bcc 0b3c a32e e9bb 4f3a e23a 1615 56bc
00000340: 4945 4fbc f4d0 f63b 2769 8a3c c680 323c
00000350: 05b9 8b3c ab89 a83c 0700 123d de37 e5bb
00000360: f824 0b3a 8cfd 5b3a db43 6e3c eb7c ab3c
00000370: 539e 0fbc ecdc da3b 26b9 2c3b 3b1e e0bc
00000380: 802c 01bc 9947 f43c 579a b23c a2bc f63c
00000390: 2e4e d93b 019f ecb9 6463 05bc ab0b 0d3b
000003a0: f451 683c 1c48 03bd 02f8 e8bc 401a 0f3c
000003b0: 4658 09bc 6bfd 023d 9ae4 773c 768c 35bc
000003c0: 1c60 023c 4cc0 043b 7dda e53c 27fb 023b
000003d0: 4ff0 f0bc 8dea bf3b 4015 dbbb 2327 573c
000003e0: 69d7 8cbc bf04 1fbc f24c 42bc fb73 4dbc
000003f0: 0699 203c a0e4 443c 3f77 aabb ed77 2f3b

encoder.9.bias f4 [64]
-0.013095437 0.0079913 0.00920397 -0.03197348 0.016540147 -0.0036023417 0.012725873 -0.0053991424
-0.0102536725 -0.003976476 0.0027922245 0.00085274107 0.006657506 -0.007973363 -0.017098438 -0.0027917414
0.008748928 -0.01053494 -0.0069912965 0.01362356 0.011073334 -0.005145451 0.0017577464 -0.009803988
0.0066082054 -0.007424683 -0.008934583 -0.010342038 0.0036128093 0.000640051 0.0008229019 -0.0041796197
0.005166454 0.004610888 -0.004068527 -0.010320491 -0.02026258 0.023368552 0.011381723 -0.013630438
-0.016368123 0.0071152425 -0.0038400448 -0.0051361807 0.0067295153 -0.0032904542 -0.02031203 -0.0078075905
-0.007837869 -0.0039873472 -0.017781163 0.006389351 0.012998288 -0.005160241 -0.019455712 -0.01688778
-0.0020160233 -0.0035201006 0.0033559909 -0.002438063 0.004714127 -0.017735226 0.004384835 0.001407734
00000000: 3e8e 56bc f1ed 023c 40cc 163c a0f6 02bd
00000010: 347f 873c 4415 6cbb 2e80 503c 4aeb b0bb
00000020: 05ff 27bc 194d 82bb c1fd 363b 7c8a 5f3a
00000030: 3527 da3b b5a2 02bc 0612 8cbc a6f5 36bb
00000040: aa57 0f3c be9a 2cbc 3f17 e5bb 5a35 5f3c
00000050: ee6c 353c 2c9b a8bb 2f64 e63a e8a0 20bc
00000060: a589 d83b c14a f3bb 5b62 12bc a771 29bc
00000070: e2c4 6c3b 18c9 273a 03b8 573a 31f5 88bb
00000080: 5b4b a93b ef16 973b 4751 85bb 4717 29bc
00000090: b6fd a5bc 686f bf3c 687a 3a3c 3352 5fbc
000000a0: 7116 86bc fb26 e93b 43a9 7bbb 684d a8bb
000000b0: 4483 dc3b a9a4 57bb 6a65 a6bc d1d6 ffbb
000000c0: 686a 00bc 4ba8 82bb cda9 91bc c35d d13b
000000d0: c5f6 543c 3d17 a9bb 9661 9fbc 3e58 8abc
000000e0: 421f 04bb 7db1 66bb 2ff0 5b3b e9c7 1fbb
000000f0: f778 9a3b 7749 91bc a9ae 8f3b b783 b83a

encoder.10.weight f4 [64]
0.9845887 0.9896911 0.9905777 0.93899864 0.9690105 0.9850331 0.99086154 0.9824399
0.94179696 0.9676323 0.981453 0.97296304 0.982294 0.9719458 0.9800163 0.9678338
0.9775352 0.97456014 0.9795491 1.0018514 0.97914594 0.9807775 0.9692226 0.98553896
0.96382344 0.9921181 0.9888551 0.96753377 0.97303295 0.969527 0.9711704 0.984233
0.9649159 0.9868873 0.9727731 1.0036657 0.9588937 0.97140056 0.9544785 0.971208
0.95781046 0.99292696 0.986783 0.9711773 0.9791481 0.9772425 0.972305 0.9865036
0.978518 0.9619351 0.95935434 0.9721911 0.9784291 0.9802677 0.9705378 0.9822341
0.95057225 0.9682032 0.9716528 0.98204696 0.99219656 0.9922747 0.98051435 0.982087
00000000: 010e 7c3f 655c 7d3f 8096 7d3f 3762 703f
00000010: 1211 783f 212b 7c3f 1aa9 7d3f 2e81 7b3f
00000020: 9b19 713f c0b6 773f 8140 7b3f 1b14 793f
00000030: 9f77 7b3f 71d1 783f 59e2 7a3f f5c3 773f
00000040: bf3f 7a3f c67c 793f bbc3 7a3f ab3c 803f
00000050: 4fa9 7a3f 3c14 7b3f f91e 783f 484c 7c3f
00000060: 22bd 763f 74fb 7d3f 9c25 7d3f 4bb0 773f
00000070: b018 793f ec32 783f a09e 783f b2f6 7b3f
00000080: ba04 773f a5a4 7c3f a807 793f 1e78 803f
00000090: 0f7a 753f b5ad 783f b458 743f 16a1 783f
000000a0: 1133 753f 7630 7e3f d09d 7c3f 139f 783f
000000b0: 73a9 7a3f 912c 7a3f fbe8 783f 808b 7c3f
000000c0: 2880 7a3f 6141 763f 3f98 753f 84e1 783f
000000d0: 547a 7a3f d3f2 7a3f 2a75 783f b273 7b3f
000000e0: b458 733f 2adc 773f 3dbe 783f 6e67 7b3f
000000f0: 9800 7e3f b705 7e3f fd02 7b3f 0e6a 7b3f

encoder.10.bias f4 [64]
-0.019609923 -0.012858903 -0.014876312 -0.02572367 -0.035268255 -0.0306469 -0.0015899048 -0.014568174
-0.025805661 -0.034054983 -0.010107133 -0.021388121 -0.019330084 -0.009211078 -0.0062268525 -0.028341684
-0.0054784077 -0.012257922 -0.020060493 0.0063476595 -0.00758559 -0.011198104 -0.0188216 -0.022190576
-0.02292326 -0.003816967 -0.010132289 -0.025058648 -0.017484525 -0.03225589 -0.0066214907 -0.010742929
-0.03622687 -0.0033873054 -0.033676744 -0.02321353 -0.033643603 -0.018183976 -0.016257022 -0.02072602
-0.03936602 0.0025255177 -0.01395647 -0.017548509 -0.021514647 -0.0032827428 -0.012263299 -0.009010658
-0.02616904 -0.022271995 -0.016463468 -0.006653281 -0.018267112 -0.01510502 -0.028890517 -0.010724457
-0.026579978 -0.028324716 -0.012725191 -0.016476529 -0.0065394994 -0.011481098 -0.024319645 0.0019218102
00000000: fda4 a0bc 26ae 52bc c6bb 73bc 72ba d2bc
00000010: 7275 10bd 350f fbbc 5a64 d0ba 5aaf 6ebc
00000020: 6566 d3bc 3d7d 0bbd 6398 25bc 2436 afbc
00000030: 205a 9ebc 10ea 16bc a00a ccbb d22c e8bc
00000040: 3784 b3bb 74d5 48bc e755 a4bc 0700 d03b
00000050: 8a90 f8bb 4178 37bc c22f 9abc 03c9 b5bc
00000060: 90c9 bbbc 1426 7abb e601 26bc cb47 cdbc
00000070: b53b 8fbc c11e 04bd 17f9 d8bb 1c03 30bc
00000080: a062 14bd 8efd 5dbb a0f0 09bd 4d2a bebc
00000090: e0cd 09bd 90f6 94bc 722d 85bc 9dc9 a9bc
000000a0: 443e 21bd 2883 253b aea9 64bc e4c1 8fbc
000000b0: 7c3f b0bc 4923 57bb 01ec 48bc 70a1 13bc
000000c0: 7460 d6bc c273 b6bc 65de 86bc c403 dabb
000000d0: e9a4 95bc 0c7b 77bc ceab ecbc a2b5 2fbc
000000e0: 41be d9bc 3c09 e8bc 527d 50bc c9f9 86bc
000000f0: 4c49 d6bb 371b 3cbc fe39 c7bc 40e5 fb3a

encoder.10.running_mean f4 [64]
-0.013550565 0.005816381 0.005477407 -0.028882904 0.014066126 -0.0022011981 0.012470469 -0.005841758
-0.0099750105 -0.004138483 -0.0019672199 0.0002469105 0.008247811 -0.010261934 -0.01571412 -0.0013118098
0.007825461 -0.010558674 -0.004566036 0.013598347 0.013808914 -0.0060481965 -0.00034612932 -0.008909059
0.0074987966 -0.009459585 -0.009614771 -0.012069158 0.0029357208 0.0016603408 0.00215215 -0.0069552525
0.0057496415 0.0029390743 -0.0036017667 -0.010054468 -0.021308716 0.020782875 0.010579884 -0.0104474565
-0.018004457 0.0070697176 -0.002245784 -0.0032450117 0.00647975 -0.00074181455 -0.019087138 -0.005993787
-0.0064453636 -0.0040109907 -0.015812844 0.005944894 0.010561676 -0.0057070707 -0.018275319 -0.01785294
-0.005330897 -0.0023493886 0.0041909674 -0.003100172 0.0056567173 -0.018386535 0.006455148 0.0023071752
00000000: 3003 5ebc 5797 be3b d27b b33b d79b ecbc
00000010: 9c75 663c fa41 10bb f050 4c3c 386c bfbb
00000020: 3a6e 23bc 1d9c 87bb 79ec 00bb c473 8139
00000030: d421 073c ac21 28bc e6ba 80bc 08f1 abba
00000040: 5d36 003c 4afe 2cbc b09e 95bb 9acb 5e3c
00000050: c93e 623c f32f c6bb b178 b5b9 4df7 11bc
00000060: 77b8 f53b 60fc 1abc 4687 1dbc b8bd 45bc
00000070: 3965 403b cb9f d93a 160b 0d3b e3e8 e3bb
00000080: 7d67 bc3b 7c9d 403b 9e0b 6cbb 7fbb 24bc
00000090: 9e8f aebc d940 aa3c 4057 2d3c cf2b 2bbc
000000a0: 157e 93bc 17a9 e73b 012e 13bb 43aa 54bb
000000b0: 1554 d43b 5576 42ba a15c 9cbc 8867 c4bb
000000c0: a133 d3bb a16e 83bb f089 81bc 63cd c23b
000000d0: e10a 2d3c 6102 bbbb 1fb6 95bc 5440 92bc
000000e0: ceae aebb 33f8 19bb 6254 893b 412c 4bbb
000000f0: fc5b b93b 5c9f 96bc b585 d33b fa33 173b

encoder.10.running_var f4 [64]
3.65794e-06 2.07725e-06 3.770529e-06 1.8611735e-06 3.7523716e-06 3.023935e-06 1.3001597e-06 2.7721348e-06
2.209914e-06 5.6955935e-07 4.9323135e-06 3.754383e-06 2.0075524e-06 3.2490022e-06 2.2768872e-06 3.7422362e-06
4.4698468e-06 1.7114045e-06 3.6982433e-06 5.2509354e-06 2.0529983e-06 2.2585766e-06 2.420163e-06 2.3489933e-06
1.522627e-06 4.6254463e-06 1.9795832e-06 3.7222055e-06 2.6045034e-06 2.0971293e-06 1.3727857e-06 5.080584e-06
2.8359404e-06 9.934224e-07 2.2453723e-06 1.7372038e-06 2.3061248e-06 3.1839133e-06 1.9329234e-06 4.564493e-06
3.2363037e-06 2.9954167e-06 3.905353e-06 2.9430087e-06 6.2211274e-07 4.4996223e-06 1.9160727e-06 2.6966502e-06
2.1347712e-06 1.5482658e-06 1.8407154e-06 2.1907367e-06 3.986097e-06 1.5574988e-06 3.3457236e-06 8.949259e-07
2.746057e-06 2.712516e-06 1.754006e-06 1.55645e-06 3.4481368e-06 1.5202984e-06 2.842038e-06 4.5107677e-06
00000000: ee7a 7536 e266 0b36 3209 7d36 6fcd f935
00000010: 41d1 7b36 cfee 4a36 2681 ae35 ea08 3a36
00000020: 094e 1436 d2e3 1835 4080 a536 cff3 7b36
00000030: 7db9 0636 6f09 5a36 a0cc 1836 2123 7b36
00000040: b1fb 9536 69b3 e535 562f 7836 3131 b036
00000050: 3ec6 0936 0d92 1736 156a 2236 66a3 1d36
00000060: 115d cc35 4834 9b36 fbd8 0436 01cb 7936
00000070: 07c9 2e36 68bc 0c36 8f40 b835 e279 aa36
00000080: 1651 3e36 bc55 8535 34af 1636 de29 e935
00000090: ecc2 1a36 37ab 5536 5fb7 0136 b228 9936
000000a0: 462f 5936 de04 4936 ba0a 8336 8180 4536
000000b0: 43ff 2635 76fb 9636 e195 0036 19f8 3436
000000c0: 1743 0f36 02ce cf35 800e f735 9204 1336
000000d0: 50c0 8536 400b d135 1887 6036 d73a 7035
000000e0: e648 3836 ac08 3636 306b eb35 37e7 d035
000000f0: 8a66 6736 0e0d cc35 d7b9 3e36 335b 9736
