results/dot-ou-final_d=ballsw=8z=2det=0lat=const-sig-ntloss=exactsigma=diag/run1/saved_nets/mu_best_val.pth (torch, 7662 bytes, 7 tensors)

first_layer.linear.weight f4 [16, 2]
0	0xbdcf0332	-0.10108031
1	0xbecfb8b3	-0.40570602
2	0x3e8645da	0.26225168
3	0x3dbd30b0	0.09237802
4	0x3e9c8fe0	0.30578518
5	0xbb68b7f0	-0.0035510026
6	0xbedd90c9	-0.43274525
7	0xbe0db872	-0.13839892
8	0x3d6ff4bd	0.05858301
9	0xbd20f140	-0.039292574
10	0xbe6dafd1	-0.232116
11	0xbdeb81a1	-0.11499334
12	0xbed079ef	-0.40718028
13	0xbe938ff3	-0.28820762
14	0x3e8a6735	0.27031866
15	0x3cf57827	0.02996452
16	0x3cf90102	0.030395988
17	0xbe514889	-0.20437826
18	0xbda35098	-0.079743564
19	0x3e9cc7ca	0.30621177
20	0xbd1f7fa1	-0.038940076
21	0x3e134863	0.14383082
22	0xbcdab77f	-0.026698826
23	0x3d9606de	0.073255286
24	0xbc869663	-0.016429132
25	0xbe2f34d4	-0.17109996
26	0xbeb59aa7	-0.35469553
27	0xbeb4d156	-0.3531596
28	0xbea022d4	-0.31276572
29	0x3c86a4d2	0.016436014
30	0x3ee4fcea	0.44724208
31	0xbe8fc688	-0.28081155

hidden_layers.0.linear.weight f4 [16, 16]
0	0x3e0a2e73	0.13494281
1	0x3cdd4bcd	0.027013684
2	0xbec7d660	-0.39030743
3	0xbdaef86a	-0.08543475
4	0x3d9d4de3	0.07680871
5	0xbde142c6	-0.10999064
6	0xbd3fc219	-0.046815965
7	0x3d6eae5b	0.058271747
8	0xbd133405	-0.03593828
9	0x3d058da4	0.032605782
10	0xbd826851	-0.06367553
11	0xbdf6bf92	-0.12048258
12	0xbde6971e	-0.11259292
13	0xbe6725ce	-0.22573015
14	0x3b3f0dc6	0.0029152497
15	0xbd181a8f	-0.037134703
16	0xbdf12b1e	-0.11775802
17	0xbde78f47	-0.11306625
18	0x3cd915e6	0.0264997
19	0xbdfb4113	-0.12268271
20	0xbe5281e9	-0.2055737
21	0x3e05e05d	0.13073869
22	0x3b532541	0.003221825
23	0xbe7b9df0	-0.24571967
24	0xbe2cb118	-0.16864431
25	0x3dd3a066	0.10333328
26	0xbcc8f3f4	-0.024530388
27	0xbd6eec6d	-0.058330942
28	0xbe7cc51b	-0.24684565
29	0xbe0b216e	-0.13586971
30	0xbe38d4b2	-0.18049887
31	0xbe32bf23	-0.17455725
32	0xbe78c91e	-0.2429547
33	0x3e8c30dd	0.2738103
34	0xbdfbc0f5	-0.12292663
35	0xbe9ada2c	-0.30244577
36	0x3e024696	0.12722239
37	0xbe054b2c	-0.13016957
38	0x3dc34f77	0.09536641
39	0xbc1f93da	-0.00973984
40	0x3d594f1e	0.053053968
41	0x3d34568f	0.04402786
42	0xbe2e6005	-0.17028816
43	0x3debfa6d	0.11522374
44	0xbd45856a	-0.048222937
45	0x3d4d0207	0.05005076
46	0xbccf3ef0	-0.025298566
47	0x3cc5a9a2	0.024128739
48	0xbe5b6de9	-0.21428646
49	0x3dd4048f	0.10352432
50	0x3e885bc0	0.266325
51	0xbd745985	-0.059655685
52	0xbd8ad61e	-0.06779121
53	0x3cd430c6	0.025902163
54	0xbd3d4e20	-0.046217084
55	0x3de416c2	0.11137153
56	0xbdd2662a	-0.102733925
57	0x3e3af2ee	0.18256733
58	0x3ea50bf1	0.32235673
59	0xbd36461b	-0.04450045
60	0x3da463be	0.08026837
61	0xbc4bbcec	-0.012435179
62	0xbd6ce49b	-0.057835203
63	0x3d8e1ca7	0.06939059
64	0x3e148c89	0.14506735
65	0x3d7016f6	0.058615647
66	0xbc467375	-0.012112488
67	0xbd03779b	-0.032096487
68	0x3d4b6d15	0.049664576
69	0x3e53a632	0.20668867
70	0x3dd35560	0.10319018
71	0xbdd43ed5	-0.10363547
72	0x3d238685	0.03992321
73	0x3da9284f	0.082596414
74	0xbd3d5d87	-0.046231773
75	0x3e0c3c5f	0.13694905
76	0xbca50086	-0.020141851
77	0x3e9e7385	0.3094751
78	0x3e35a6f1	0.17739464
79	0x3d83964f	0.064251535
80	0xbe7d2b0b	-0.24723451
81	0xbe56055c	-0.20900482
82	0x3a83cb6a	0.0010055129
83	0x3c1b3614	0.009473342
84	0xbcbb7be8	-0.022886232
85	0xbd2db13b	-0.04240535
86	0xbd801fe0	-0.0625608
87	0xbe485185	-0.19562347
88	0xbd95d71d	-0.0731642
89	0x3d9aa306	0.075506255
90	0xbe0ee3e6	-0.13954124
91	0xbcb0fb2f	-0.021604149
92	0xbd0c5111	-0.034257
93	0x3d8a0f13	0.067411564
94	0xbda7442a	-0.08167298
95	0xbda4f576	-0.080546305
96	0xbde78275	-0.113041796
97	0xbd69533e	-0.05696415
98	0x3e06c94c	0.13162726
99	0x3d58f5b5	0.0529687
100	0x3aa55a73	0.0012615457
101	0x3d5ff71e	0.05467903
102	0xbe5f7596	-0.21822199
103	0x3e2279b5	0.1586674
104	0xbe1fe47e	-0.15614507
105	0x3d928c36	0.07155649
106	0xbe38580b	-0.18002336
107	0xbbad70a8	-0.0052929707
108	0xbd793349	-0.060839925
109	0xbd4b8589	-0.049687896
110	0x3bbf52e3	0.0058387383
111	0x3cf7d5f4	0.030253388
112	0x3e217099	0.15765609
113	0x3e0c1c1d	0.136826
114	0x3dc9c34e	0.098517045
115	0xbe6e2f74	-0.2326029
116	0x3e2c6f94	0.16839439
117	0xbe304da6	-0.1721712
118	0xbd1312f2	-0.03590674
119	0x3df6acc0	0.12044668
120	0x3d1b1e19	0.0378705
121	0x3e3aba1a	0.18235055
122	0x3dd3709e	0.103242144
123	0x3df1ad04	0.11800578
124	0x3c040f29	0.008060255
125	0xbd7528c3	-0.059853327
126	0x3df773e3	0.120826505
127	0x3dcfea44	0.101521045
128	0x3d7dabae	0.061931305
129	0x3da5e185	0.08099655
130	0x3e6e7011	0.23284937
131	0xbd80ae48	-0.062832415
132	0x3e8cbc66	0.27487487
133	0xbe13dbf7	-0.14439379
134	0xbe65291b	-0.22378962
135	0x3e42e572	0.19032839
136	0xbdc57371	-0.09641159
137	0x3da34c03	0.079734825
138	0x3e097197	0.13422237
139	0x3e2e8622	0.17043355
140	0x3dd10b0a	0.10207184
141	0xbdd9194e	-0.106005296
142	0x3de4026d	0.11133275
143	0x3dc3887b	0.09547516
144	0x3d4e19fe	0.050317757
145	0x3cf87d92	0.030333314
146	0x3e44d1b8	0.19220626
147	0xbc949761	-0.01813859
148	0xbeadbc8d	-0.33932915
149	0xbdb8df33	-0.09026947
150	0xbc3083eb	-0.010773639
151	0xbd0803c8	-0.03320673
152	0x3e405e7c	0.18786043
153	0x3e8b9aac	0.27266443
154	0xbdb85c00	-0.090019226
155	0x3d72a8d8	0.059243053
156	0x3e1cd28d	0.15314694
157	0xbe44751c	-0.19185299
158	0x3de3ae90	0.111172795
159	0x3ec171f9	0.37782267
160	0x3dc06438	0.09394115
161	0xbdf77c54	-0.120842606
162	0x3ad8245e	0.001649033
163	0xbe5ef8cd	-0.21774597
164	0xbe2954bc	-0.1653623
165	0xbd201681	-0.03908396
166	0x3d999ec6	0.07500987
167	0xbcdff4ae	-0.027338352
168	0xbe539b80	-0.20664787
169	0xbd4b59ed	-0.049646307
170	0x3a9a2bbe	0.0011762304
171	0xbddef0a2	-0.10885741
172	0xbdb1b9ad	-0.08677993
173	0xbdb7a733	-0.089674376
174	0xbde842cf	-0.11340868
175	0xbe9d3636	-0.30705422
176	0xbe49dd11	-0.19713236
177	0x3d03f965	0.032220263
178	0xbe3125cb	-0.17299573
179	0x3d20e232	0.039278217
180	0xbe796d02	-0.2435799
181	0xbe989597	-0.29801628
182	0x3dbd7a5f	0.09251856
183	0x3e5b1b7b	0.21397202
184	0xbe2d0a03	-0.1689835
185	0xbd918119	-0.071047015
186	0x3d3c8459	0.046024654
187	0x3e1b41d3	0.15161829
188	0x3d4177ea	0.0472335
189	0xbe5c3bac	-0.21507138
190	0xbe25e6f9	-0.1620139
191	0x3de9d860	0.114182234
192	0xbdcd8a8d	-0.10036192
193	0x3da4df38	0.08050388
194	0xbd7f67b8	-0.062354773
195	0xbdae73ec	-0.08518204
196	0x3db35cc5	0.08757929
197	0xbd56a705	-0.052405376
198	0xbd8deeba	-0.06930299
199	0x3d7dd81f	0.061973687
200	0xbb8f79db	-0.00437854
201	0xbd8cd4f2	-0.068765536
202	0xbdc5e5c7	-0.09662967
203	0x3ddcb0af	0.10775887
204	0xbd759fda	-0.0599669
205	0xbe8840de	-0.2661199
206	0xbcefc9b7	-0.02927099
207	0x3d533672	0.051565595
208	0x3e7659ee	0.24057743
209	0xbe6e006b	-0.23242347
210	0xbe99f231	-0.3006759
211	0x3e78de8d	0.24303646
212	0x3daf28bf	0.085526936
213	0x3d5f5823	0.054527413
214	0x3ed12fbd	0.40856734
215	0xbe1e7688	-0.15474904
216	0xbdff8a11	-0.12477506
217	0xbaee3081	-0.0018172414
218	0xbc9eb7aa	-0.019374687
219	0xbe09dacb	-0.13462369
220	0x3cb3bdec	0.021941148
221	0x3e984352	0.2973886
222	0xbd3b31cf	-0.045701798
223	0xbe1d9f5f	-0.15392826
224	0x3db81bf4	0.08989707
225	0x3ea21f25	0.31664386
226	0x3d548932	0.051888652
227	0xbe2bde49	-0.16784014
228	0xbd07471c	-0.0330268
229	0xbcb88178	-0.022522673
230	0xbd670161	-0.0563978
231	0x3e7b499d	0.245398
232	0xbd22aad5	-0.0397137
233	0x3d117304	0.035510078
234	0xbdfb4ff8	-0.12271112
235	0xbd5291ae	-0.051408462
236	0x3dbeec12	0.093223706
237	0x3c21e232	0.009880589
238	0xbe58f0e6	-0.21185645
239	0x3e9daf82	0.30797964
240	0xbe8089b7	-0.25105068
241	0x3de4bc4a	0.11168726
242	0x3d6fa033	0.058502387
243	0xbd988135	-0.07446519
244	0xbd83f4f3	-0.06443205
245	0xbe8182e3	-0.2529517
246	0x3bf60ae3	0.007508622
247	0xbe13d23d	-0.14435668
248	0xbb8bb45b	-0.0042634434
249	0x3da9e3db	0.08295413
250	0xbe1daa67	-0.15397035
251	0x3dad226e	0.084538326
252	0x3d7e118d	0.062028456
253	0xbd8a1e7d	-0.067440964
254	0x3d13302d	0.035934616
255	0xbe0ee6c4	-0.13955218

hidden_layers.1.linear.weight f4 [16, 16]
0	0xbd8ae05e	-0.06781076
1	0x3d30fe4c	0.043211266
2	0x3ba9b3c8	0.0051789023
3	0x3e3eb89b	0.18625109
4	0xbd423f7a	-0.047423817
5	0xbceaa42e	-0.02864274
6	0x3d251cf4	0.040310815
7	0x3d87da94	0.06633487
8	0x3ea046a4	0.31303895
9	0xbe280619	-0.16408576
10	0xbd09be4d	-0.03362875
11	0x3dbf5a86	0.09343438
12	0x3e0efb46	0.1396304
13	0xbdc4adf6	-0.09603493
14	0x3ddab163	0.10678365
15	0xbc30da7f	-0.010794281
16	0x3d29f656	0.04149469
17	0x3c9d48e8	0.019199803
18	0x3e04efda	0.12982121
19	0xbbe616f5	-0.0070217797
20	0xbe6c05cc	-0.23049086
21	0x3e088677	0.13332544
22	0x3e48c8e0	0.19607878
23	0xbd6934d4	-0.056935146
24	0x3d58647f	0.052830216
25	0x3e26078d	0.16213818
26	0xbd40ae96	-0.047041498
27	0x3df54196	0.119754
28	0x3d84d2a9	0.06485493
29	0xbdba4358	-0.09094876
30	0xbdcb72f8	-0.09934038
31	0xbd88c26a	-0.066777065
32	0x3c52ebd0	0.012873605
33	0xbd30276f	-0.043006357
34	0x3d2982d4	0.041384533
35	0x3e2b1cb9	0.16710176
36	0xbbafdab3	-0.005366647
37	0x3e0dd03f	0.13848971
38	0x3d837c90	0.06420243
39	0x3dd5c490	0.10437882
40	0x3e0de80f	0.13858055
41	0xbcb705be	-0.022341605
42	0x3bcfabfc	0.006337641
43	0xbd1ef5a5	-0.038808484
44	0xbd4b9188	-0.049699336
45	0x3e25dd92	0.16197804
46	0x3cc708a6	0.024296116
47	0x3db1e9d2	0.08687176
48	0x3e26d29b	0.16291277
49	0xbdde9804	-0.108688384
50	0x3e719451	0.23591734
51	0x3dc09dee	0.09405123
52	0xbe208557	-0.15675865
53	0xbdcb8ac4	-0.09938577
54	0x3e53a63e	0.20668885
55	0xbdaa70a8	-0.08322269
56	0xbd8571f8	-0.065158784
57	0x3c6cb4cf	0.014447405
58	0xbe6740d3	-0.22583322
59	0x3e0cbf8e	0.13744947
60	0x3df7b8c1	0.12095786
61	0x3b9f78cb	0.0048666946
62	0x3da208ae	0.07911812
63	0xbe09112e	-0.1338546
64	0x3e02d32e	0.12775871
65	0x3e88e170	0.26734495
66	0xbe79fed8	-0.24413621
67	0x3da0db87	0.078543715
68	0xbe661a7c	-0.2247104
69	0x3cc00820	0.023441374
70	0x3d289a4c	0.041162774
71	0xbe885770	-0.2662921
72	0x3ccf6636	0.025317293
73	0x3dbe2cc9	0.09285886
74	0x3e0a1c81	0.13487436
75	0xbe6cd5c6	-0.23128423
76	0xbe072693	-0.13198309
77	0xbdb58788	-0.08863741
78	0xbe2f0f28	-0.17095625
79	0xbcbb4b1d	-0.022862965
80	0xbdfda501	-0.123849876
81	0x3df33c69	0.11876757
82	0xbd2d5b87	-0.042323615
83	0x3e3a8046	0.18212995
84	0x3e124804	0.14285284
85	0xbdb0a64b	-0.08625468
86	0x3dda100f	0.10647594
87	0x3e084c15	0.13310273
88	0x3e0f53a2	0.13996747
89	0x3df65a5b	0.12028953
90	0x3db1d376	0.08682911
91	0x3daa9be1	0.08330513
92	0x3cccd15d	0.025002176
93	0xbe7cc694	-0.24685127
94	0x3e13ffc7	0.1445304
95	0x3e1a0686	0.15041551
96	0xbd5008d6	-0.050789677
97	0x3e63b2f4	0.22236234
98	0x3d5b2b0f	0.05350786
99	0x3d3139df	0.04326808
100	0xb9072a46	-0.00012890351
101	0xbc19f27f	-0.0093961945
102	0x3e54e4be	0.20790383
103	0xbc851a7d	-0.016247982
104	0x3e216366	0.15760574
105	0x3de6b42b	0.11264833
106	0x3c83cc31	0.016088577
107	0x3d938bdf	0.07204413
108	0x3dff9aa5	0.12480668
109	0xbda5ea98	-0.08101386
110	0x3e471839	0.19442834
111	0xbd52e5c4	-0.051488653
112	0x3da993dc	0.08280155
113	0xbe52c6dd	-0.20583673
114	0x3e166eac	0.14690655
115	0x3e3ed957	0.18637596
116	0xbdbf1860	-0.09330821
117	0xbe109af9	-0.14121617
118	0xbdb3eb81	-0.08785153
119	0x3dd4f317	0.10397928
120	0x3e4ab400	0.19795227
121	0x3e34f161	0.17670204
122	0xbe61f41f	-0.22065781
123	0xbdc778d6	-0.097398445
124	0xbd55efba	-0.052230574
125	0xbe5b28dc	-0.21402305
126	0x3e07377a	0.13204756
127	0x3d822758	0.063551605
128	0x3e16de5f	0.14733265
129	0x3d8a629a	0.06757088
130	0x3e082fd3	0.13299493
131	0x3c2c8059	0.010528647
132	0xbdd7230a	-0.1050473
133	0x3df49c72	0.11943902
134	0x3d45d917	0.048302736
135	0x3eb9fabb	0.36324105
136	0x3ec207f9	0.37896708
137	0x3e9cbd5d	0.30613223
138	0x3e35f1ef	0.17768072
139	0x3daa7758	0.08323544
140	0x3d0d2b42	0.034465082
141	0xbd8c5356	-0.068518326
142	0x3e4116a5	0.18856294
143	0x3cf6323d	0.030053252
144	0x3ea4da67	0.32197878
145	0xbdb96b89	-0.09053714
146	0xbe1e7683	-0.15474896
147	0xbb11d930	-0.0022254698
148	0xbdc3e0db	-0.09564372
149	0xbe48dc33	-0.1961525
150	0x3c82f59c	0.015986256
151	0x3db937ae	0.09043823
152	0x3d41812d	0.047242332
153	0xbd04ad7d	-0.032392014
154	0xba3b3684	-0.00071416073
155	0xbdb60dda	-0.08889361
156	0xbdd7c451	-0.10535491
157	0xbd3cbce3	-0.046078574
158	0x3d5470f3	0.05186553
159	0x3ae1873d	0.0017206442
160	0x3bb244c8	0.0054403283
161	0x3d930f98	0.07180709
162	0x3c1ce6d1	0.009576515
163	0xbca4982d	-0.020092094
164	0xbbd4982b	-0.0064878664
165	0x3df8f850	0.12156737
166	0x3cbbab45	0.022908816
167	0x3e4db7f8	0.2008971
168	0x3e1a8eb1	0.15093495
169	0x3e45688f	0.19278167
170	0xbe9d8b6d	-0.30770436
171	0x3bb571bc	0.00553724
172	0x3d0940dc	0.03350912
173	0xbe5c8044	-0.21533304
174	0x3dd5ff65	0.10449103
175	0x3e0da5f5	0.13832839
176	0x3dd97144	0.10617307
177	0x3abae886	0.0014259971
178	0x3d8d371b	0.06895276
179	0xbd04b170	-0.03239578
180	0xbe379829	-0.17929138
181	0x3e9785c3	0.2959424
182	0xbe2d26f8	-0.16909397
183	0x3c3d80e3	0.0115663735
184	0x3bc52c10	0.0060172155
185	0x3af94497	0.0019017634
186	0xbd8652de	-0.065587744
187	0x3e472457	0.19447456
188	0x3e7366a6	0.23769626
189	0xbe1d81f9	-0.15381612
190	0x3e51ba16	0.20481142
191	0x3d981605	0.07426075
192	0x3df8a5ca	0.12140997
193	0x3df6371a	0.120222285
194	0x3d429ed7	0.047514763
195	0x3e776e7b	0.24163239
196	0xbdb39196	-0.08768003
197	0x3d907f96	0.07055585
198	0x3e61cb08	0.22050107
199	0x3e2e66e0	0.17031431
200	0xbd05f9da	-0.03270898
201	0x3e128ff0	0.1431272
202	0xbe714f1b	-0.23565333
203	0x3dd4e1e6	0.10394649
204	0xbcbb0019	-0.022827195
205	0xbe3e7f6c	-0.18603295
206	0x3d95ca0b	0.07313927
207	0x3dbb8eb8	0.09158081
208	0x3e0bcdb1	0.13652684
209	0xbcd2a7a6	-0.025714707
210	0x3d1321d3	0.03592093
211	0x3d2c415c	0.04205452
212	0xbead3db1	-0.3383613
213	0x3e09a561	0.13441993
214	0x3a8022f7	0.0009776045
215	0x3e98ed9e	0.29868788
216	0x3df58bad	0.11989532
217	0xbdf84e8e	-0.12124358
218	0x3d2223a5	0.039584775
219	0x3e195265	0.14972837
220	0x3d441723	0.047873627
221	0xbd9de787	-0.07710176
222	0xbcd44008	-0.025909439
223	0xbdf33a92	-0.11876406
224	0xbbea5bc5	-0.007152053
225	0x3e2ebb7e	0.1706371
226	0xbe15036a	-0.14552084
227	0xbdd54f99	-0.10415573
228	0xbdb5f6f6	-0.08884995
229	0x3e2a2804	0.16616827
230	0xbe06c476	-0.13160881
231	0x3e14b70c	0.14522952
232	0x3e6f6b98	0.23380888
233	0x3d5a7c0c	0.053340957
234	0x3dc408c1	0.09571982
235	0xbd895b2a	-0.06706841
236	0x3dec9dd4	0.11553541
237	0xbe847df6	-0.2587735
238	0x3e3667f1	0.17813088
239	0xbd8229c3	-0.06355622
240	0xbcfc3d30	-0.030790895
241	0xbd6e479c	-0.05817376
242	0x3d4d488b	0.05011801
243	0x3e43e389	0.19129767
244	0x3e4537ce	0.19259569
245	0xbe56b315	-0.20966752
246	0x3df0d973	0.11760225
247	0x3e3680f3	0.17822628
248	0x3ea57944	0.3231908
249	0x3e73490b	0.23758332
250	0x3dc03346	0.0938478
251	0x3dbfae4d	0.09359417
252	0x3ccbcb35	0.02487717
253	0xbea8bea7	-0.32957956
254	0x3eaab7fa	0.33343488
255	0x3e564d9a	0.2092804

hidden_layers.2.linear.weight f4 [16, 16]
0	0xbe279d92	-0.16368702
1	0xbe822c9a	-0.25424653
2	0xbdcc3c34	-0.0997242
3	0xbd9bc6c4	-0.07606271
4	0x3b2d026e	0.0026399153
5	0xbe09c3df	-0.13453625
6	0xbe8c0725	-0.273492
7	0x3c857593	0.016291415
8	0x3d6407e4	0.055671588
9	0x3c9cfa0b	0.019162199
10	0xbe013344	-0.12617213
11	0x3d4a9e05	0.049467105
12	0x3b0b6f78	0.0021276157
13	0xbe069a6c	-0.13144845
14	0xbe32ffd1	-0.17480399
15	0x3d4f890f	0.05066782
16	0x3e6270a7	0.22113286
17	0x3e1e8474	0.15480214
18	0x3e2c17a0	0.16805887
19	0x3cd988ee	0.026554551
20	0xbd956fe0	-0.07296729
21	0x3eebba7d	0.46040717
22	0x3e1d6e8a	0.15374199
23	0x3e134677	0.14382349
24	0x3e1bd13b	0.15216534
25	0x3e498b56	0.19682059
26	0x3de1e5bd	0.11030147
27	0x3da7b50c	0.08188829
28	0x3e0b851f	0.13625
29	0x3dcb4e59	0.09927053
30	0xbe2772d3	-0.16352396
31	0x3e6e6f3d	0.23284622
32	0x3cbc69ea	0.022999723
33	0x3d79b8ea	0.060967363
34	0xbcd62b73	-0.026143765
35	0x3d9fb7fc	0.07798764
36	0x3d1293fb	0.035785656
37	0xbe138746	-0.14407071
38	0xbea12c0d	-0.3147892
39	0x3e617e1d	0.22020765
40	0x3c951be6	0.01820178
41	0xbb9e0c20	-0.0048232228
42	0xbe854e58	-0.26036334
43	0xbe45a632	-0.1930168
44	0xbdbf8235	-0.09351007
45	0x3e675896	0.22592387
46	0x3de5b5cb	0.11216315
47	0x3e5e68ec	0.21719712
48	0x3e128b1e	0.14310881
49	0xbe22dfc8	-0.15905678
50	0xbb9bd361	-0.004755423
51	0x3dfd41a2	0.12366034
52	0xbdebde52	-0.115170136
53	0x3e8c5613	0.2740942
54	0x3d2f5aac	0.04281108
55	0xbcdb6b21	-0.026784481
56	0x3e517d4e	0.20457956
57	0x3ea71d8d	0.32639733
58	0x3daf5a61	0.0856216
59	0xbd9affc6	-0.07568316
60	0xbcf5f2d4	-0.030023016
61	0x3d1d4392	0.03839452
62	0x3dda1580	0.10648632
63	0xbcb41585	-0.021982918
64	0x3e747d8c	0.23876017
65	0xbd86cbb9	-0.06581826
66	0xbdbc9c1d	-0.09209464
67	0xbd91b9e3	-0.07115533
68	0xbc702058	-0.014656149
69	0x3d8093ea	0.06278212
70	0x3da636b0	0.081158996
71	0xbd25b745	-0.040457983
72	0x3e956fa2	0.29186732
73	0x3d470f2d	0.048598457
74	0xbd903bf5	-0.07042686
75	0x3d2907ec	0.04126732
76	0x3d84f59c	0.06492159
77	0x3e148f61	0.1450782
78	0xbdcbaa4c	-0.09944591
79	0x3d2c9366	0.042132758
80	0xbd48c3c0	-0.049014807
81	0xbd42a1b7	-0.047517505
82	0x3d876995	0.06611935
83	0x3cc4fe8a	0.024047155
84	0x3e42f52f	0.19038843
85	0x3d75dd72	0.06002564
86	0x3e04c3f3	0.12965374
87	0x3cae168e	0.02125099
88	0x3d7a23a4	0.061069146
89	0xbe64421f	-0.22290848
90	0x3c53c604	0.012925629
91	0x3cf7df56	0.030257862
92	0xbd16aad9	-0.036784027
93	0xbe04d434	-0.12971574
94	0x3e0e0939	0.13870706
95	0x3e55ae14	0.20867187
96	0xbe822094	-0.2541548
97	0xbd59e2f3	-0.05319495
98	0xbe27e485	-0.16395767
99	0xbccd139b	-0.025033763
100	0x3e049c49	0.12950243
101	0xbde708bd	-0.112809636
102	0xbe2203d1	-0.15821768
103	0xbe912453	-0.28348026
104	0xbe058869	-0.13040318
105	0xbcf613b5	-0.030038694
106	0xbd9e1c29	-0.07720215
107	0x3bcc782f	0.006239913
108	0x3d92e76c	0.071730465
109	0x3d99e90c	0.07515153
110	0x3d0a53bb	0.033771258
111	0x3e60deba	0.21959963
112	0xbe135f84	-0.14391905
113	0xbcbda392	-0.023149285
114	0xbe2c24d7	-0.16810928
115	0x3e3751b5	0.17902263
116	0x3e2aee68	0.16692507
117	0xbe83b5fa	-0.25724775
118	0x3c9a3411	0.018823655
119	0x3dc7cb2d	0.097555496
120	0x3d55aa0e	0.05216413
121	0x3dc680ba	0.096925214
122	0xbd650fd8	-0.055923313
123	0xbdebcec2	-0.11514045
124	0x3d967c28	0.073479
125	0x3da954a4	0.08268097
126	0x3ca14e94	0.01969079
127	0xbe0d8844	-0.13821512
128	0xbdcc0647	-0.09962135
129	0xbd949414	-0.07254806
130	0x3c8ccd68	0.01718779
131	0xbe34ae4c	-0.17644614
132	0xbc6f383e	-0.0146008115
133	0x3e37e41e	0.17958114
134	0x3e17e151	0.14832045
135	0x3e31dd4b	0.17369573
136	0x3d61b040	0.055099726
137	0x3d04d9b6	0.032434188
138	0xbd4b78b7	-0.04967567
139	0xbd28bf69	-0.041198168
140	0x3ded8d2d	0.11599193
141	0x3d927273	0.07150736
142	0x3e8e8388	0.27834725
143	0x3de1d988	0.11027819
144	0xbda6ab6a	-0.081381634
145	0x3e23a75d	0.15981813
146	0x3d02f191	0.031968657
147	0x3e50caf5	0.20389922
148	0x3cbf97e4	0.023387857
149	0xbdca5f88	-0.098815024
150	0x3e6897e0	0.22714186
151	0xbe1bc814	-0.15213042
152	0x3da275f1	0.07932652
153	0x3d5549ba	0.052072264
154	0x3e96ee93	0.29478893
155	0x3d739b7f	0.059474465
156	0x3e486b43	0.19572167
157	0x3e86c3ac	0.2632116
158	0x3db85614	0.09000793
159	0x3e4d32aa	0.20038858
160	0x3d9d42c9	0.07678754
161	0x3d604997	0.05475768
162	0x3c508bbf	0.012728631
163	0x3dcf5cbc	0.101251096
164	0x3c2c7f0c	0.010528337
165	0xbc161e3a	-0.00916248
166	0xbda84e61	-0.082180746
167	0x3e0be21d	0.13660474
168	0x3e81a6fd	0.25322714
169	0x3e131a93	0.14365606
170	0xbd35586a	-0.04427377
171	0x3c310869	0.010805228
172	0x3e784a2d	0.24247046
173	0x3e5a6710	0.21328378
174	0xbcb458bb	-0.022014966
175	0x3c43830e	0.011933101
176	0x3d05d9da	0.032678463
177	0x3db5cc7a	0.088768914
178	0xbc865256	-0.016396683
179	0x3de39eb6	0.11114256
180	0xbd80b415	-0.06284348
181	0x3d391913	0.04518993
182	0x3e8824dc	0.2659062
183	0x3d7cfb16	0.06176289
184	0x3e9cf6e2	0.30657107
185	0xbe0afa82	-0.13572124
186	0x3d4ee6c1	0.050513033
187	0x3d2bcdbe	0.041944258
188	0xbddbd586	-0.10734086
189	0x3d78d264	0.06074752
190	0x3df5f7d7	0.12010162
191	0xbe2e91e4	-0.1704784
192	0x3e2d1038	0.16900718
193	0x3db4a3e3	0.088203214
194	0xbc77e618	-0.015130542
195	0xbe1b7d29	-0.15184464
196	0x3d77988a	0.060448207
197	0xbd1f4cf2	-0.03889174
198	0x3ce529e6	0.02797408
199	0x3e202534	0.15639192
200	0x3d46b97d	0.04851674
201	0x3d963f77	0.07336324
202	0x3de67ae2	0.11253907
203	0x3c7b7cfc	0.015349623
204	0x3cfaedad	0.03063091
205	0x3e75e24e	0.2401211
206	0x3e90fc97	0.2831771
207	0xbd14782f	-0.03624743
208	0x3d6b257a	0.057408787
209	0x3cdc0e56	0.026862305
210	0xbc392a77	-0.011301628
211	0xbe05d2cd	-0.13068695
212	0xbdab98ca	-0.083787516
213	0x3c9fa156	0.01948611
214	0x3e275137	0.16339575
215	0xbe7de33e	-0.24793717
216	0x3dc4039f	0.09571003
217	0xbbe45ff1	-0.006969445
218	0xbcaabd21	-0.020842137
219	0xbe1763c1	-0.14784147
220	0xbc3b47f6	-0.011430731
221	0xbe55d7b4	-0.20883065
222	0x3d960c25	0.07326535
223	0x3d68893b	0.0567715
224	0x3dafb0e8	0.08578664
225	0x3d57a7ff	0.052650448
226	0x3d3ca740	0.04605794
227	0x3d79d6d1	0.06099588
228	0x3dc8f236	0.09811823
229	0x3e982d5f	0.29722115
230	0xbdb70ac3	-0.089375995
231	0x3d4239b2	0.047418304
232	0x3e03e447	0.1288005
233	0x3c8894d5	0.016672531
234	0x3d743909	0.059624705
235	0x3de7b10f	0.11313068
236	0xbdbd0857	-0.09230106
237	0xbdf5f808	-0.12010199
238	0x3dfd5a27	0.12370711
239	0x3ca44ec0	0.020057082
240	0x3d9d4252	0.07678665
241	0x3e105ce2	0.14097932
242	0xbd681879	-0.056663964
243	0xbe4c8c68	-0.19975436
244	0x3b590413	0.0033114
245	0xbc9491ae	-0.018135872
246	0xbd85eb25	-0.06538991
247	0x3de3fd1a	0.1113226
248	0x3e6e18f1	0.23251702
249	0xbe48da72	-0.1961458
250	0x3e1fa268	0.15589297
251	0x3e0112a7	0.12604772
252	0x3e1be6cb	0.1522476
253	0x3e1bd2e6	0.1521717
254	0x3db63988	0.08897692
255	0x3e7c1202	0.24616244

hidden_layers.3.linear.weight f4 [16, 16]
0	0xbdc82f23	-0.097746156
1	0x3e506d04	0.20354086
2	0x3d9009ca	0.07033117
3	0x3d99fcb2	0.07518901
4	0x3ddf541b	0.10904714
5	0x3dca9856	0.09892337
6	0xbd9bd863	-0.07609632
7	0xbdf37847	-0.118881755
8	0x3db51eed	0.08843789
9	0x3e948381	0.2900658
10	0xbdc8d7e6	-0.09806804
11	0x3d53e176	0.05172869
12	0x3e05cd2a	0.13066545
13	0x3cd53369	0.02602549
14	0xbdc86874	-0.09785548
15	0xbb6248a6	-0.0034528165
16	0xbd41bee5	-0.04730119
17	0x3e98f889	0.29877117
18	0xbe019efa	-0.12658301
19	0xbd066bc3	-0.032817613
20	0x3e0406e3	0.12893252
21	0x3d390496	0.04517039
22	0x3d832f2b	0.06405481
23	0x3dacc9ae	0.08436905
24	0x3def68b7	0.11689895
25	0x3e77b0b1	0.24188496
26	0x3e9c6e19	0.30552748
27	0x3c9d940d	0.019235635
28	0x3bf1cd8a	0.0073792385
29	0xbe211c69	-0.15733494
30	0x3da1d421	0.079017885
31	0x3e05ac8d	0.13054104
32	0x3de7e063	0.11322095
33	0x3dcccc15	0.09999863
34	0xbe2f399b	-0.17111818
35	0x3d8d1206	0.06888203
36	0xbcd1aac9	-0.025594132
37	0xbdb4aaca	-0.08821638
38	0xbd66aa57	-0.056314792
39	0xbd862761	-0.0655048
40	0xbdede825	-0.11616544
41	0x3dc6a6b0	0.09699762
42	0x3c4c6c9f	0.012477069
43	0x3dffa64f	0.12482893
44	0x3e21ed73	0.15813236
45	0xbde2b40a	-0.11069496
46	0x3e19412a	0.14966264
47	0x3e8e2de8	0.277694
48	0x3d0109f8	0.031503648
49	0xbe1a7f48	-0.15087616
50	0x3dd53952	0.104113236
51	0x3dcf7a00	0.101306915
52	0x3dfdab9a	0.12386246
53	0x3d838c75	0.064232744
54	0xbd10224a	-0.03518895
55	0x3c1fb86a	0.009748558
56	0x3d83f458	0.06443089
57	0x3e24b3ff	0.16084288
58	0x3e0b5378	0.1360606
59	0xbe52eae8	-0.20597422
60	0xbe6778c6	-0.22604665
61	0x3d3b06bf	0.04566073
62	0xbc9920b2	-0.018692348
63	0xbc062133	-0.008186626
64	0xbd81fc18	-0.06346911
65	0x3be9f501	0.0071398024
66	0x3e4eb46d	0.20186014
67	0x3e3b7351	0.18305708
68	0x3d19b3f8	0.037525147
69	0x3dc68b03	0.09694483
70	0xbc9edd2c	-0.019392572
71	0xbe0d5f28	-0.1380583
72	0xbc8c5b5a	-0.017133404
73	0x3e316baa	0.17326227
74	0x3d7632ad	0.060106922
75	0xbc9f5fd9	-0.019454883
76	0x3e30ecf9	0.17277898
77	0xbe0ca16a	-0.1373345
78	0x3d81708a	0.06320293
79	0x3dc559ab	0.096362434
80	0xbdc954fb	-0.09830662
81	0x3d27bd11	0.040951792
82	0xbe22aa4d	-0.15885277
83	0x3e013f49	0.12621798
84	0xbc9df103	-0.019279962
85	0xbe528a09	-0.20560469
86	0x3e88b2ab	0.26698813
87	0x3d96c538	0.07361835
88	0x3e1d8c18	0.15385473
89	0xbd60ef0a	-0.054915465
90	0xbd98c574	-0.07459536
91	0x3d01e0be	0.03170847
92	0x3e31b048	0.17352402
93	0xbd577b88	-0.052608043
94	0xbbf54660	-0.007485196
95	0x3e35a6d7	0.17739426
96	0x3d29b045	0.04142787
97	0x3e42a9f9	0.19010152
98	0xbe1b2732	-0.1515167
99	0x3d59ed01	0.05320454
100	0x3e797557	0.24361168
101	0xbd36d274	-0.044634297
102	0x3c4725f0	0.012155041
103	0x3dd814b8	0.10550827
104	0x3cc435e1	0.023951473
105	0xbe058a22	-0.13040975
106	0x3e2c9648	0.16854203
107	0x3d994ca8	0.07485324
108	0x3e614bc5	0.2200156
109	0xbd8898fc	-0.066698045
110	0x3d0ea8c2	0.03482891
111	0x3d9e57c3	0.07731583
112	0xbd2d12e0	-0.04225433
113	0x3e6531ac	0.2238223
114	0x3d364c40	0.04450631
115	0x3e0c474d	0.13699074
116	0xbe24792a	-0.16061845
117	0x3def49a1	0.116839655
118	0x3d183bb1	0.0371663
119	0x3e8e591c	0.2780236
120	0x3caf4946	0.021397244
121	0x3e84389d	0.25824443
122	0x3e1216d9	0.14266528
123	0x3e7a1fa5	0.24426134
124	0x3c800ad1	0.015630158
125	0xbe0e8f71	-0.13921906
126	0x3d9263ca	0.071479395
127	0x3daaf1bb	0.08346888
128	0xbbe0e8f9	-0.00686371
129	0xbdfd2142	-0.12359859
130	0x3d4eff46	0.050536416
131	0x3dfdd266	0.12393646
132	0x3ddb91fd	0.107212044
133	0x3e1b7871	0.15182664
134	0xbc80ee0e	-0.015738513
135	0xbc755972	-0.014974939
136	0x3eb1aa5c	0.34700286
137	0x3d902cf5	0.07039825
138	0xbda22b10	-0.0791837
139	0x3e1070e0	0.14105558
140	0x3e68e5ec	0.22743958
141	0x3d99d293	0.07510867
142	0x3e257f60	0.16161871
143	0x3e50ea34	0.20401841
144	0x3e01eb33	0.12687378
145	0x3e76e55d	0.24110933
146	0xbc8b3742	-0.016994122
147	0x3dbdfe48	0.09277016
148	0xbd103721	-0.035208825
149	0x3d0d98eb	0.034569662
150	0x3cacf725	0.021113941
151	0x3d86cf5a	0.06582518
152	0x3ec06a2b	0.37581
153	0x3d85d4d8	0.06534737
154	0x3d8f42eb	0.069951855
155	0x3e8fd310	0.28090715
156	0xbdc6a243	-0.09698918
157	0x3dc8d578	0.09806341
158	0xbd76b7fb	-0.06023405
159	0x3dc43e75	0.09582225
160	0xbc8f7391	-0.017511161
161	0x3e84ec50	0.25961542
162	0xbc4dbc14	-0.012557048
163	0x3da47619	0.08030338
164	0x3d595fea	0.053069986
165	0xbd120beb	-0.035655897
166	0xbd6e25d0	-0.05814153
167	0xbd33b981	-0.043878082
168	0xbdf94167	-0.12170678
169	0x3e3190c8	0.17340386
170	0x3e917dd0	0.284163
171	0xbe224d3b	-0.15849774
172	0x3e3d71a0	0.18500376
173	0xbd6be658	-0.05759272
174	0x3c47b197	0.012188337
175	0x3df1a435	0.11798898
176	0xbe1871cb	-0.14887159
177	0x3e1f661c	0.15566295
178	0x3cac3501	0.021021368
179	0x3d9321be	0.0718417
180	0xbbf19871	-0.0073729088
181	0x3e80d51d	0.25162593
182	0x3e80eb76	0.25179642
183	0x3e140872	0.14456347
184	0x3e1f87bc	0.15579122
185	0x3d4212cf	0.04738122
186	0x3e183760	0.14864874
187	0x3c995232	0.018715952
188	0x3dbd5014	0.09243789
189	0xbe074829	-0.1321112
190	0x3e56039d	0.20899816
191	0x3d4a3b68	0.04937306
192	0x3e15ee6a	0.14641729
193	0x3cee67d9	0.029102253
194	0x3de4b3dc	0.11167118
195	0x3e1d583d	0.15365691
196	0x3ddd0103	0.107912086
197	0x3e6db42c	0.23213261
198	0xbd579551	-0.052632634
199	0xbd6e8095	-0.058228094
200	0xbdf03e57	-0.117306404
201	0x3e485f4f	0.19567607
202	0xbc9cfc9d	-0.019163424
203	0x3db332c5	0.08749918
204	0x3de8bde1	0.113643415
205	0xbd7c1d56	-0.061551414
206	0xbd62ca42	-0.05536867
207	0x3dfce5d0	0.12348521
208	0x3dd219f3	0.10258856
209	0x3e65fa78	0.22458827
210	0x3d7fd0d5	0.062455017
211	0x3a99ede6	0.0011743873
212	0x3da600fe	0.08105658
213	0xbe88ea30	-0.2674117
214	0xbe3b4d3c	-0.18291181
215	0xbd8569ff	-0.06514358
216	0x3e11b3bb	0.14228718
217	0xbe17ed71	-0.1483667
218	0xbe2dfce0	-0.16990995
219	0x3d8d9746	0.06913619
220	0x3e1970f8	0.149845
221	0x3da4e301	0.0805111
222	0xbddfb56e	-0.10923277
223	0x3ce58634	0.028018095
224	0xbd852cc3	-0.06502678
225	0xbdbc22ec	-0.09186348
226	0x3ded84bc	0.11597583
227	0xbe96a2cb	-0.29421076
228	0xbd758df7	-0.05994984
229	0xbe94865f	-0.29008767
230	0xbb345c48	-0.0027520824
231	0xbdf01609	-0.11722953
232	0xbe0fdc4a	-0.14048877
233	0xbd91927b	-0.07108017
234	0xbd73d938	-0.059533328
235	0xbcfa8292	-0.030579839
236	0xbddaba00	-0.10680008
237	0x3e3b4c72	0.1829088
238	0x3e17ad97	0.14812313
239	0xbd674e30	-0.05647105
240	0x3ca89ac9	0.02058162
241	0x3dbd6a06	0.09248738
242	0x3d4b2f04	0.049605384
243	0x3e364dea	0.1780316
244	0xbdd225ef	-0.102611415
245	0xbcad59cd	-0.021160984
246	0x3d435ff5	0.047698934
247	0xbd8be75f	-0.0683124
248	0xbc65e782	-0.014032247
249	0x3d80cf9f	0.062896006
250	0x3e0d172d	0.13778372
251	0x3dfad528	0.122476876
252	0x3c186d17	0.009303353
253	0x3d44d3f0	0.04805368
254	0x3cfacda3	0.030615633
255	0x3ea7e2ba	0.32790166

out.weight f4 [2, 16]
0	0xbd3b4294	-0.04571779
1	0xbd40b09e	-0.047043435
2	0xbd3a21a3	-0.045442235
3	0xbd26dc69	-0.040737543
4	0xbd36f046	-0.044662736
5	0xbd30bedd	-0.04315077
6	0xbd363907	-0.04448798
7	0xbd3ac9ed	-0.045602728
8	0xbd34c478	-0.04413268
9	0xbd38f24b	-0.045152944
10	0xbd3dbd3f	-0.046323057
11	0xbd36c882	-0.044624813
12	0xbd344796	-0.044013582
13	0xbd2f55f0	-0.042806566
14	0xbd196ce6	-0.03745737
15	0xbd391598	-0.04518661
16	0xbd39d47d	-0.04536866
17	0xbd3df98c	-0.046380565
18	0xbd3a3f2c	-0.0454704
19	0xbd2d59e1	-0.042322043
20	0xbd36a907	-0.04459479
21	0xbd341bfc	-0.043972
22	0xbd376402	-0.04477311
23	0xbd395b4e	-0.04525309
24	0xbd333f24	-0.043761387
25	0xbd374988	-0.04474786
26	0xbd3ce1fc	-0.046113953
27	0xbd364989	-0.044503722
28	0xbd34c348	-0.044131547
29	0xbd339714	-0.04384525
30	0xbd27c9e4	-0.040964022
31	0xbd380cf4	-0.044934228

out.bias f4 [2]
0	0x3f75bcc6	0.9599117
1	0x3f756c8c	0.95868754
