results/dot-ou-final_d=ballsw=8z=2det=0lat=const-sig-ntloss=exactsigma=diag/run1/saved_nets/mu_best_val_1.pth (torch, 7662 bytes, 7 tensors)

first_layer.linear.weight f4 [16, 2]
000000 c7 31 2e bd a4 ec ae be 78 8d dd bd c0 f1 43 be
       -0.04252794 -0.34164917 -0.10817999 -0.19135189
000010 1c e3 34 3e 68 98 81 be c4 78 cb 3e a8 97 a0 3c
       0.1766476 -0.2531159 0.39740574 0.019603565
000020 11 30 25 be 01 d3 e6 bd 31 b7 17 be e3 30 cd 3e
       -0.16131617 -0.112707146 -0.14815976 0.4007636
000030 1e ee 7e be 86 94 06 be de 9a 83 be 61 f9 9e 3e
       -0.24895522 -0.13142595 -0.25704092 0.31049636
000040 da 02 61 3e a3 df e8 bc 98 25 10 3e 3e 3d 0f 3e
       0.21973744 -0.02842695 0.14076841 0.13988206
000050 ae 86 8f bc a7 35 30 3d 42 58 0e 3e 96 14 ac bd
       -0.017520275 0.043019917 0.13900855 -0.08402364
000060 5d 06 9f 3d 7b 64 e7 3d cd 5c 1d be c6 ee 45 3e
       0.077648856 0.11298462 -0.15367432 0.19329366
000070 cd ec b1 be da 66 b1 be 30 ce 7b be f5 d1 ab 3e
       -0.34750977 -0.34648782 -0.24590373 0.33558622

hidden_layers.0.linear.weight f4 [16, 16]
000000 5b 25 8c 3e 90 ca 2c be 9c 68 13 bd 40 1b c3 ba
       0.2737225 -0.16874146 -0.035988435 -0.001488544
000010 e4 74 fb bd dc 90 8e 3d dd 31 f7 3d f8 03 f3 bd
       -0.122781545 0.069612235 0.120700575 -0.11865991
000020 7f 74 9c 3d b7 d3 8d 3d 60 2c 42 3d 03 6a f4 bd
       0.07639407 0.06925147 0.0474056 -0.11934283
000030 fd 4a 02 bd eb e5 99 3e 19 0e 48 be a8 ca 91 3e
       -0.031809796 0.30058226 -0.19536628 0.28474927
000040 b9 1a 91 bc d6 d3 4e 3e 37 53 14 3d 8e 2d a0 3e
       -0.017712938 0.20197996 0.036212172 0.31284755
000050 1a 95 33 3d 72 2a 1c 3e 85 90 32 3e 70 e4 34 be
       0.043843366 0.15250567 0.17437942 -0.17665267
000060 88 40 dc 3d 8f ed 84 3e 5a db 0e bc e0 97 b5 3d
       0.10754496 0.25962493 -0.00871929 0.088668585
000070 0e ab 5c be d4 a2 e9 3b 5b b6 3d be c0 8a 0b bd
       -0.21549627 0.0071300063 -0.18526594 -0.03406787
000080 9a b0 80 3e 41 81 0b 3e 13 99 dc 3e 6a c9 0d 3c
       0.25134736 0.13623525 0.43085536 0.008653978
000090 bf ef 23 3d 64 6f f0 bb 40 03 9a bd 37 b2 28 3e
       0.04002356 -0.0073374975 -0.07520151 0.16474234
0000a0 7f 66 a4 3d 7a bb 3e 3e 0f 6a 8f 3e 77 58 37 3e
       0.08027362 0.18626204 0.28010604 0.1790484
0000b0 0d 27 73 bd ae ff 43 3d 97 f4 1e be 08 cb ff bd
       -0.059363414 0.047851257 -0.15522991 -0.12489897
0000c0 2e 28 eb bd f5 13 60 bd e7 40 6f 3d 09 85 4c bd
       -0.11482273 -0.054706533 0.058411505 -0.04993156
0000d0 5c 10 97 bd e4 9f e3 3d ef 6f 07 3e 37 65 e1 3e
       -0.07376167 0.11114481 0.13226293 0.44022533
0000e0 09 50 af 3c 68 e4 4b 3e 7a f4 35 3e 89 9e a1 bd
       0.021400468 0.19911349 0.17769042 -0.07891566
0000f0 cb 94 74 3c 76 63 ee 3d 72 46 24 be 66 67 33 3e
       0.014928053 0.116400644 -0.16042498 0.17519912
000100 61 dc 0a 3e b4 66 67 be fa 32 3a be 55 16 a1 3d
       0.1356063 -0.22597772 -0.18183509 0.078655876
000110 a7 bb 18 bd e8 7a fb 3d 1d f7 72 3d a6 9b 98 3e
       -0.037288334 0.12279302 0.059317697 0.2980625
000120 86 6b 16 3d 5b 94 28 be c3 ff ea 3c 9a ae a7 bd
       0.036723636 -0.16462843 0.02868641 -0.081875995
000130 6d e2 46 bd 38 33 0c 3e 08 9b 46 be 26 fd 50 3e
       -0.04855578 0.13691413 -0.19395077 0.20409068
000140 c0 de 19 3e 53 a7 0f bd 3b f5 09 3d df da 9f 3d
       0.15026379 -0.035071682 0.033681136 0.07805418
000150 fb 6b 72 3e 2b 59 9f 3d 4e 55 09 ba ce 1c b6 3d
       0.23674004 0.07780679 -0.00052388466 0.08892213
000160 f3 de 6b 3c 53 62 52 3d 16 16 93 be 99 13 54 3e
       0.014396417 0.0513633 -0.28727788 0.20710601
000170 05 50 3f be 2d 14 d5 3c 5d b0 18 be 76 c1 af 3d
       -0.18682869 0.026010597 -0.14911027 0.085818216
000180 e8 a5 30 3e ca 28 c0 3d e5 62 be 3d e3 a5 49 bd
       0.17250788 0.0938278 0.092962064 -0.049230468
000190 f9 ad 69 bd 60 9f a1 3e c8 11 52 bd ab 48 6d 3d
       -0.05705068 0.31566906 -0.05128649 0.05793063
0001a0 a8 0b 54 3e 28 32 95 3d 90 98 c1 bc 36 9a af bd
       0.20707572 0.07284957 -0.023632318 -0.08574335
0001b0 51 b6 85 3d b4 1f 1d 3d 11 48 81 3c 05 72 bc 3d
       0.06528915 0.038360313 0.015781434 0.09201435
0001c0 75 30 50 3d 92 92 8a bd 73 f5 bb 37 2d e6 8f 3e
       0.050827462 -0.06766237 2.2406433e-05 0.28105298
0001d0 95 ef 60 3e 82 71 a9 3d 68 f7 b4 bd 0d 1d 4d 3e
       0.21966393 0.08273603 -0.088362515 0.20030613
0001e0 09 dc 83 bc 97 c1 cb bd 9b 62 17 3e 72 51 90 3d
       -0.016096132 -0.09949034 0.14783709 0.070467845
0001f0 eb f6 0b 3e b8 82 37 3e 68 89 d8 bd c5 ad 41 3e
       0.1366841 0.17920959 -0.10573083 0.18913944
000200 ad ee 35 3c 19 ca 26 3d a5 ba 40 bb 5c c0 f2 bc
       0.011104268 0.04072008 -0.0029408124 -0.02963274
000210 3d 24 b0 bd e3 06 43 bb ba d1 1a be 29 16 84 be
       -0.08600662 -0.0029758743 -0.15119067 -0.25798157
000220 a3 3d ac 3e 5e 00 37 3e b2 c4 4e be 8a 94 82 3d
       0.33640775 0.17871234 -0.20192221 0.06375988
000230 0e 66 ed 3d b7 9e e2 bd 45 fe 81 bc ca 09 6a 3c
       0.11591731 -0.11065429 -0.015868315 0.01428456
000240 60 8a 01 be 7d c8 10 bc 99 14 8d 3e 53 21 3e bd
       -0.12650442 -0.008836863 0.27554777 -0.0464185
000250 9d 73 64 bb 1f 77 22 3e a9 49 f6 3d f4 e4 c5 3d
       -0.003485895 0.15865754 0.12025768 0.0966281
000260 be 6c 8b 3d 38 3c d0 3d 4d 59 95 3d cc d0 f6 bc
       0.0680785 0.10167736 0.072924234 -0.030128859
000270 9d 14 ae 3c 9a 38 c8 3e b6 d7 48 be 6a 4a 3d 3e
       0.021250064 0.39105684 -0.19613537 0.18485418
000280 9c 02 80 3d 5b 26 70 3c d0 3a 65 3e 8e 68 0a bd
       0.06250498 0.014657582 0.22385716 -0.033791117
000290 64 87 58 3e c7 68 d9 bd db d4 48 3d ed 48 3e bd
       0.21145397 -0.10615688 0.04903112 -0.046456266
0002a0 d8 29 97 bd 35 02 56 be c8 26 bb 3d 61 57 4b be
       -0.07381028 -0.2089928 0.09138256 -0.19857551
0002b0 ee 2c 1e be ec c4 05 3e bd 07 85 3d f4 e0 01 3e
       -0.15446827 0.13063401 0.064956166 0.12683469
0002c0 f0 7b ef bd d2 ed 90 3d fa 51 b3 3d 11 b4 e1 bd
       -0.11693561 0.070766106 0.0875587 -0.11020673
0002d0 fc 02 94 3d c4 ce be b9 24 29 01 be e3 90 f4 b7
       0.07227132 -0.00036393676 -0.1261335 -2.9154535e-05
0002e0 e4 78 3a 3d 30 79 45 3d e3 c5 12 be 92 40 25 bc
       0.045525447 0.048211277 -0.143333 -0.010086196
0002f0 70 8e e6 3c 66 60 38 3d a1 bf 28 bd 06 2c 95 bd
       0.028144091 0.045013808 -0.041198377 -0.072837874
000300 b4 c1 05 3e 0a 0b 5c 3e 55 66 8a bd ed 28 77 be
       0.13062173 0.21488586 -0.067577995 -0.24136706
000310 7c 86 24 3e 6e ab dc be e9 d8 23 3e 2c 46 01 3d
       0.16066927 -0.4309954 0.16000713 0.03156106
000320 70 38 4f bd c6 3c a6 3d 24 14 13 be 1c f0 fb bd
       -0.050590932 0.0811706 -0.14363152 -0.123016566
000330 83 4d 92 bd ea 3a 88 bd ba 81 ca 3e ed ac ea bd
       -0.071436904 -0.06651862 0.395521 -0.11458764
000340 02 dc fe 3d 67 fd 46 3d 85 b5 51 be 45 33 78 be
       0.12444307 0.048581507 -0.204794 -0.24238308
000350 5e ee d1 3d 58 59 34 be 02 36 c0 3d d5 04 8f bd
       0.10250543 -0.17612207 0.09385301 -0.069833435
000360 27 c4 dc bc e6 b1 58 bd 67 52 a9 bc 77 4b e0 bd
       -0.026949001 -0.052904032 -0.020669175 -0.10951894
000370 94 94 9d bc b1 91 6f bd 95 c4 80 3e 90 e9 19 be
       -0.019235887 -0.05848855 0.2514998 -0.15030503
000380 29 9a 66 be d0 cc 32 bd 65 fa 8a bd 20 2f eb bd
       -0.22519745 -0.043652356 -0.0678604 -0.11483598
000390 7d 6e 62 bd 48 7d 8f 3d b8 45 13 3e ae 04 72 3e
       -0.05528115 0.070063174 0.14382064 0.23634598
0003a0 c2 8e 8e bd fa 0f e9 3c 9c 26 ec bd cd bd 8b 3d
       -0.06960823 0.028450001 -0.11530802 0.06823311
0003b0 0a f2 1b be 32 7e 1f 3e 03 11 af bd 3b cf 7b bd
       -0.1522905 0.15575483 -0.085481666 -0.061476927
0003c0 2c 21 a2 3d d9 12 1f 3e cc 40 3d 3e a0 df 6b 3e
       0.07916483 0.15534534 0.1848175 0.23034525
0003d0 fa b5 3f 3d af e5 be 3e 96 42 c5 bd b2 00 8d 3e
       0.046804406 0.3728461 -0.09631841 0.27539593
0003e0 82 c0 02 bd 6f 36 aa bd 8f 50 57 3e a7 2e 01 3d
       -0.03192187 -0.08311164 0.21026824 0.03153863
0003f0 12 0a 9f 3c 3a 86 b3 bd d8 a6 1c be 1d a6 a0 3e
       0.019413982 -0.08765836 -0.15298021 0.31376734

hidden_layers.1.linear.weight f4 [16, 16]
000000 f4 40 43 bc c4 c2 52 3d 92 8c 5e 3d ca d5 18 3e
       -0.0119173415 0.051455274 0.054333277 0.14925304
000010 ad 89 0e be 8b f2 1e 3e af c7 e0 bd 7a bb b3 bd
       -0.13919707 0.1552221 -0.109755866 -0.08775993
000020 2f 30 e0 3b 88 8c e9 3d 1a 7c bf bd 3c 13 b1 bd
       0.0068416814 0.11403757 -0.09349842 -0.08646247
000030 0c a4 40 3d be 8e ff 3d 49 4e b0 be 2c d5 9b bc
       0.047031447 0.12478398 -0.34434727 -0.019022547
000040 2f 24 47 3e 5f d0 a6 3d d6 61 ef 3d a5 c4 fd 3d
       0.19447397 0.081452124 0.116885826 0.123910226
000050 0e ff 09 3d af ea 46 3e 97 45 14 3e 89 0f 3c 3e
       0.033690505 0.19425462 0.14479671 0.18365301
000060 b4 3a 61 3e c9 b7 4d 3e 2b 44 b0 3d 9d 88 3a 3e
       0.2199505 0.2008964 0.08606752 0.18216176
000070 da 57 41 be 9e b0 a5 be 0e 20 d4 3d 18 dc 34 3e
       -0.18881169 -0.3236131 0.103576764 0.17662084
000080 7c 0a 90 bd dc d6 89 3e 39 a7 5c be d3 b3 01 3d
       -0.0703325 0.26921737 -0.21548165 0.031665634
000090 6c 43 64 3e ab 43 66 bd 32 c7 3e be e2 e2 5c bd
       0.22291344 -0.056216877 -0.18630674 -0.05392731
0000a0 d9 76 33 bd 93 80 a4 3d 0e 34 36 bd 95 c4 64 3d
       -0.043814514 0.08032336 -0.044483237 0.055851538
0000b0 1b ae db bd 9e 94 64 3e 75 38 82 3d 1f b8 95 bc
       -0.10726567 0.22322318 0.063584246 -0.018276272
0000c0 43 18 92 3c b9 ad 0b 3e df c1 49 3e 2d 66 f8 3d
       0.017833835 0.13640489 0.19702862 0.121288635
0000d0 a0 a9 30 3e 38 74 86 3d 04 72 be 38 d7 b3 d8 3d
       0.17252207 0.06565136 9.081143e-05 0.10581177
0000e0 56 d7 0c 3e 77 ab 30 3e 7f 5a fe bc 81 2a 10 be
       0.13754019 0.17252909 -0.031049011 -0.14078714
0000f0 e7 c4 f9 bd 83 66 0b be 0d 7c 49 bc eb 1a ce 3d
       -0.12195759 -0.13613324 -0.012297642 0.10063728
000100 93 8b 87 3d 9a a4 98 3d f2 ff 04 3d e9 b2 2d 3e
       0.066184185 0.0745327 0.03247065 0.1696278
000110 b6 cc 54 bd 2b d3 f2 bd 76 aa 69 3d 0a 6e 4e 3d
       -0.05195304 -0.11856683 0.05704733 0.05039791
000120 6e f0 9a bd 3a 3e 01 be 55 e0 da 3d 8f 1e ea bd
       -0.075653896 -0.12621394 0.10687319 -0.1143161
000130 29 27 4d 3e 96 1c d7 bd 58 46 a9 bd 93 69 a3 be
       0.2003447 -0.10503499 -0.0826537 -0.31916484
000140 63 93 35 3e d5 ea 42 3e bf a0 07 3e 81 f8 72 3d
       0.17732005 0.19034894 0.13244914 0.059319023
000150 79 ef 3d 3d 9d 86 2b 3e 2a 3f 30 3e c5 a8 ab 3e
       0.046370957 0.1675057 0.17211595 0.33527198
000160 9a b5 32 3d 4f 64 91 3d a1 82 dc 3d 48 65 af 3d
       0.04363022 0.070992105 0.10767103 0.0856424
000170 ee f2 be be e9 dc 43 3d ab 35 4d 3e 94 36 d7 3e
       -0.37294716 0.0478181 0.20040004 0.42033827
000180 08 28 61 bc 75 ac bd 3d 1d 2e 95 3e 42 39 1d 3e
       -0.013742454 0.09261409 0.29136744 0.15353873
000190 1e 09 e0 3d a0 3f 91 3e 3f f4 34 3e 55 68 47 3e
       0.10939239 0.28368855 0.17671297 0.19473393
0001a0 50 a8 e0 bd 03 34 4a 3d c4 0d a5 3d 7d 39 79 3c
       -0.10969603 0.04936601 0.08059266 0.01521146
0001b0 b0 21 76 be 0d d6 48 be f1 7c fa 3d 36 41 a9 bd
       -0.24036288 -0.19612904 0.12230862 -0.08264391
0001c0 7b 9b 3d bd af 2c 52 bd b1 f2 75 3d 10 05 ff 3d
       -0.046290856 -0.051312145 0.0600459 0.124521375
0001d0 f8 8f 18 3d 66 9d 1e 3e 41 95 3d bc 90 f5 34 3e
       0.037246674 0.1548973 -0.011571229 0.176718
0001e0 6a 75 61 3c e4 f9 38 bd cc 8d bb 3d 3a 0b 6d bd
       0.013760904 -0.04516019 0.09157905 -0.057872035
0001f0 77 79 ff bb 60 81 65 3d 0d b8 7c 3c 08 21 0b be
       -0.007796462 0.056031585 0.0154247405 -0.13586819
000200 d1 7d 27 3e d2 6a 94 3d 16 0f af 3d e6 91 77 3e
       0.16356589 0.07246937 0.08547799 0.2417675
000210 f7 29 96 3e ca 22 39 bd d6 6c e7 3d 77 f1 aa 3d
       0.29328892 -0.045199193 0.11300056 0.08346837
000220 02 c1 bb 3e d6 75 00 3e 84 8e 67 3c 9a e2 96 3d
       0.3667069 0.12544951 0.0141330995 0.073674396
000230 4b 78 11 be 75 ab bb bd 9c 92 3d be 9f 66 a9 bc
       -0.14206044 -0.09163562 -0.18512958 -0.020678816
000240 f9 c0 2e 3e c5 3d f8 bb bb b4 9e bd a5 f6 1d 3d
       0.170658 -0.007575723 -0.07749315 0.038565297
000250 9e 8f 69 be 0e 5a 6a 3e 0d 7f 5e 3e 42 8d 8c bd
       -0.22808692 0.22885916 0.21728154 -0.0686288
000260 20 db 48 bd cb 87 c0 bd 7e e3 c8 3d c3 86 b7 3b
       -0.0490371 -0.094009005 0.09809016 0.0056007816
000270 61 22 81 3e 3d 72 e0 3c 45 be ee bc 9f 56 a1 bb
       0.25221542 0.027398223 -0.029143462 -0.004923656
000280 48 93 9f bc 9a 86 db 3b 65 1b 34 3e fc af 9e 3e
       -0.019479409 0.0066993954 0.17588575 0.3099364
000290 01 a3 3b 3e f2 bd fb ba 61 4e c0 3d 1a 16 91 bd
       0.183239 -0.0019206388 0.093899496 -0.07084294
0002a0 cd 80 79 bd 01 a7 7d 3e 01 15 9d bd 39 43 10 3d
       -0.06091385 0.24770738 -0.07670022 0.03522036
0002b0 df db 03 be e7 ee 98 bd 0b 6b 3a bd 9d 55 f9 3d
       -0.12876843 -0.07467442 -0.04551224 0.121745326
0002c0 a3 12 48 3d c2 22 d8 3d e3 a5 26 3e 53 e0 6c 3e
       0.0488459 0.105535045 0.16274218 0.23132448
0002d0 76 75 cd 3d 52 1b 51 3e 73 e1 32 3e 4f 51 e4 3d
       0.100321695 0.20420578 0.17468815 0.11148321
0002e0 09 87 14 3e 93 2c 17 3e ee 84 4c be 6a 83 86 3d
       0.14504637 0.14763097 -0.19972584 0.06568034
0002f0 92 2d 09 be cc e7 0f be 1f a3 36 3e f1 36 61 3e
       -0.1339629 -0.14053267 0.17835663 0.21993615
000300 c1 dd 8a 3d f1 10 37 ba 6f 28 d4 3b c6 1c 86 3e
       0.067805775 -0.00069834205 0.0064745466 0.26193827
000310 32 52 7e 3e 78 18 a1 bd fb 0a 29 bd d7 c0 2d 3e
       0.24836043 -0.07865995 -0.041270237 0.16968094
000320 b9 2a 4c bd 77 a3 16 3e eb 78 57 bd 60 85 0b 3e
       -0.04984543 0.14710794 -0.05260555 0.13625097
000330 50 4b c1 bd de ce 95 bd 52 76 ae 3c 33 02 db bd
       -0.09438193 -0.073148474 0.021296654 -0.10693779
000340 94 04 b8 3e b9 08 53 3e 8a c4 c7 3d fd 9e 20 3e
       0.35940993 0.20608796 0.09754284 0.15685649
000350 05 aa 4b 3d 7d 44 8c 3d 58 b1 b7 bc d5 79 32 3e
       0.04972269 0.068490006 -0.022423431 0.17429288
000360 bc 64 5b bd 81 5d 0b 3a 20 1b 1a be 19 20 a7 3d
       -0.053562865 0.00053163624 -0.1504941 0.08160419
000370 f8 ed 5f be 92 40 58 3d 61 f9 10 3e db a5 93 3e
       -0.21868122 0.052795954 0.1415763 0.28837475
000380 8b b8 0c be 72 de 91 bd df a5 87 3c c7 ba a5 bc
       -0.13742273 -0.07122506 0.016558586 -0.020230664
000390 97 47 30 bd 4a 36 1f 3e 94 a3 87 bd 1c 5c 82 3d
       -0.043037023 0.15548053 -0.06622997 0.06365225
0003a0 25 35 b1 bc ea 39 6f bd f4 8c 45 bd da ac b7 3d
       -0.021631787 -0.05840484 -0.048230127 0.08968516
0003b0 13 dc 9f bd a9 52 6a bd 16 22 5b 3e af 0b 5d 3d
       -0.07805648 -0.057207737 0.21399722 0.05396622
0003c0 99 e4 c7 3c 36 fc 6d 3d d5 3d ee 3d 80 2c 98 3e
       0.024400996 0.058101855 0.11632887 0.2972145
0003d0 a7 e6 f9 3d 0d ba 9d bd 85 d8 d3 bd 3a d8 66 bc
       0.122021966 -0.07701502 -0.10344032 -0.014089638
0003e0 d8 24 08 bd d4 ae 99 3d 1e f9 b0 3d e0 f9 d8 bd
       -0.033238262 0.07504049 0.08641265 -0.10594535
0003f0 36 63 e2 bd 88 c6 b9 bb 04 60 9b 3d a5 ab 08 3b
       -0.11054079 -0.0056694187 0.07586673 0.0020854261

hidden_layers.2.linear.weight f4 [16, 16]
000000 0d 2c 1b be 0e b6 21 bd d2 2d 64 3d d8 2a ea 3a
       -0.15153523 -0.03948026 0.05570776 0.0017865552
000010 17 74 cc 3d 5e 6a 1b 3e 12 13 14 3d a3 9c 53 be
       0.0998308 0.15177295 0.036151 -0.20665221
000020 d6 b7 9f bd 88 b0 34 be 3f 66 a5 bd 06 be f0 bd
       -0.07798736 -0.17645466 -0.080761425 -0.11754994
000030 84 a9 a3 bc a1 64 a0 bd 7d 26 31 be 82 6b f3 bd
       -0.019978292 -0.078316934 -0.17299838 -0.1188574
000040 f9 ed 85 be 05 30 75 3e 04 dc e4 bc 55 ad c2 3c
       -0.2615812 0.23944099 -0.027936943 0.023764292
000050 2c 1f d2 bd 46 47 5e 3e ec b9 7d 3e c9 12 3c be
       -0.10259852 0.21706876 0.24777955 -0.18366541
000060 55 76 f3 3d 14 1f 1d be eb c1 75 bd 0f bb c8 3c
       0.118878044 -0.15343887 -0.059999388 0.024503259
000070 bf 90 01 3e db e4 3c 3e 1e ee 56 3d c3 78 f2 3d
       0.12652873 0.18446676 0.05247318 0.1183944
000080 d0 4c ab 3d bf 17 80 3e 91 6f 0a be 3d 38 49 3e
       0.0836426 0.25018117 -0.13519122 0.1965036
000090 55 10 8e bd 5b 83 9c bd 10 b4 1a 3d 8d 8b fc bd
       -0.06936709 -0.076422416 0.037769377 -0.12331305
0000a0 ad 25 70 bc b8 5f 17 3e 9f fe 08 be 26 6f 3f be
       -0.01465742 0.14782608 -0.1337838 -0.18694744
0000b0 70 27 8c 3d d6 b6 6f bd 28 0d d8 3d 39 60 4a bd
       0.068434596 -0.058523975 0.10549384 -0.04940817
0000c0 7d 24 d2 bc 8a 41 a0 3e 0b 76 02 3e 25 e0 02 3e
       -0.025652165 0.31300002 0.12740342 0.12780817
0000d0 75 7c 5a be e0 a2 9d 3e 29 64 08 3e b9 d6 aa bd
       -0.21336539 0.30788326 0.13319458 -0.08341736
0000e0 7b 1c 18 3e b7 5b b2 be f6 a6 3e 3e cc 63 5e 3e
       0.14854614 -0.34835598 0.18618378 0.21717757
0000f0 98 b6 da 3d ff 59 08 3e c5 af 76 bd 37 99 6f 3e
       0.10679358 0.13315581 -0.06022622 0.2339829
000100 7e a0 51 3c 56 80 36 be b4 12 23 be 54 66 85 be
       0.012794612 -0.17822394 -0.15925103 -0.26054633
000110 68 cd b2 bd 4f f3 6b bc 81 e7 5a bd d1 b0 96 be
       -0.087305844 -0.014401271 -0.053443436 -0.29431775
000120 a2 6c 5c bd ca 93 04 bd 7c 23 76 bc 2a d9 95 3d
       -0.053814538 -0.032367505 -0.015023109 0.073168114
000130 2a b8 df 3d 3d a1 ce 3b 8d 78 da 3c b5 cf f0 39
       0.109237984 0.006305842 0.026668811 0.0004593112
000140 f3 a8 95 3d 59 71 1f 3e 01 37 79 3d 19 48 1e bd
       0.07307615 0.15570582 0.06084347 -0.038642976
000150 b9 83 0a 3e 50 97 dd 3d e6 6a 4a 3e 37 bb f1 bd
       0.1352681 0.10819876 0.19767341 -0.118032865
000160 7c 1a 08 3e 70 e7 ea bd 5e f1 d3 bc fc 22 e2 3c
       0.13291353 -0.114699244 -0.025871929 0.027604572
000170 8d d0 27 3d e0 6c 8d 3d f3 de d8 3d 0a 38 ce 3d
       0.040970374 0.06905532 0.10589399 0.10069282
000180 fd e8 2f 3d fd 20 9a bd d4 4e a0 3b 2b db 2a 3d
       0.042946804 -0.07525823 0.0048922095 0.04171292
000190 1d fa db 3d 08 84 6f 3d 51 8b 06 3e fd 4a 31 bc
       0.10741065 0.058475524 0.13139082 -0.010821101
0001a0 2e b2 77 be 98 e8 95 be ef 3f bd 3c 99 e2 0a be
       -0.24189064 -0.29279017 0.023101775 -0.13563003
0001b0 ba cc 6f bd 14 27 27 be 94 72 45 bc d1 a1 e4 bc
       -0.05854485 -0.16323501 -0.012051243 -0.027909191
0001c0 b0 e7 31 bd dd 45 c8 bc 6f 82 8d bd 2c 87 aa 3c
       -0.043433845 -0.024447376 -0.06909644 0.020816408
0001d0 cd 72 f3 bb 4b 67 9c 3d e0 40 62 3e 40 77 b1 3d
       -0.007429457 0.07636889 0.2209506 0.08665323
0001e0 62 62 af 3e 0c d3 3c be b4 a0 68 3d 0e ee b8 bd
       0.34254748 -0.18439883 0.056793883 -0.0902978
0001f0 46 36 ba 3c f9 47 ab 3d 8f 2a 95 3d e9 02 2e 3e
       0.022730958 0.08363337 0.07283508 0.16993298
000200 25 fd 16 3d 2a 3c 27 3e 22 ed ae bd 39 ba 13 3d
       0.03686251 0.16331545 -0.08541323 0.036066268
000210 a0 cf a7 3d 4c bc e3 3e bf 24 8f 3d 31 0d d7 3c
       0.08193898 0.44479597 0.06989431 0.026251407
000220 59 40 a1 3d 0a c3 bd bd 17 83 7c 3e 23 f4 ef 3d
       0.078736015 -0.092657164 0.24659382 0.11716487
000230 19 0a 24 3e 21 58 63 3e c0 b6 08 3d 92 77 c3 bd
       0.16019477 0.22201587 0.03337741 -0.095442906
000240 24 47 87 be 10 87 ab bd f1 22 08 bd d5 39 3f 3e
       -0.26421463 -0.083753705 -0.033236448 0.18674405
000250 56 97 d5 3d 05 0b 6e bd ba 6d 29 3d 7b 66 7b be
       0.10429256 -0.058115978 0.04136441 -0.24550812
000260 81 b4 df bd 5e 5d 6d be 02 77 ac bc 25 02 0c 3c
       -0.109231 -0.23180148 -0.021052841 0.008545433
000270 2f af bd ba 0c 33 bc bd 92 5b ab 3d 6a ab c5 bd
       -0.0014471764 -0.09189424 0.08367075 -0.09651835
000280 8d 39 a3 3c e9 cc 82 3e cf 85 9b 3d 56 f3 f0 bd
       0.019924903 0.2554696 0.07593881 -0.11765163
000290 64 5d d5 bd 78 bc af bc 36 92 95 be a7 bd b2 bd
       -0.104182035 -0.021452174 -0.29213113 -0.087275796
0002a0 ae 9e 35 be 47 c5 f5 bd 22 a0 77 3d 5d 6f 6e be
       -0.17736313 -0.12000518 0.06045545 -0.23284669
0002b0 d2 12 44 be fe 33 a4 bd d4 3b 80 be ed c7 17 3e
       -0.19147804 -0.08017729 -0.25045645 0.1482236
0002c0 d5 35 04 be 14 fa cf 3d 18 0c 05 3d 24 d4 bc 3e
       -0.1291116 0.101551205 0.032482237 0.368806
0002d0 9e 2d 21 bc a6 51 09 3d 54 52 17 3e 7d be d4 3c
       -0.009837536 0.03352513 0.147775 0.025969738
0002e0 05 8e 58 3d 17 59 ab 3d 9f 4c 1e bc 79 f8 2a 3d
       0.052869815 0.08366602 -0.009661823 0.04174087
0002f0 b1 a4 99 3e 48 db 35 3e aa d5 52 3d ac ef 86 3d
       0.30008462 0.1775943 0.051473297 0.065886825
000300 54 c5 0f bd 3d 7e be 3e 89 c3 6b bd 61 be 2c 3e
       -0.035100296 0.37205687 -0.057559524 0.16869499
000310 aa d6 a3 be 46 f7 89 3e 4a d1 8a 3e dd 05 92 3e
       -0.31999713 0.26946467 0.271128 0.28520098
000320 d6 6d 55 3d 3d 78 12 bd e8 31 9c 3e c7 50 3e 3e
       0.0521067 -0.0357592 0.30506825 0.18585502
000330 88 e1 71 3d 13 5c 08 3e fd 81 36 3d aa 39 69 bd
       0.059052974 0.13316374 0.04455756 -0.05693976
000340 b1 7b bf bd 25 22 52 bd 19 3e 33 3b a3 7b 3e bd
       -0.09349764 -0.051302094 0.0027350246 -0.046504628
000350 20 77 99 bb 7a 2f 35 3d e5 03 03 3e 05 5c 82 be
       -0.0046833903 0.04423473 0.12794454 -0.2546083
000360 d8 47 a3 3d af 76 8d be fb 5b 87 bd 13 ab 75 bd
       0.079726875 -0.2762961 -0.06609341 -0.059977602
000370 da 18 32 bd bd 99 60 3c 20 fe fb bc 3f d4 bb be
       -0.04348073 0.013708529 -0.030760825 -0.36685368
000380 e2 37 03 3e 9f ee d4 3d ec be ac 3e a1 35 5a bd
       0.12814286 0.10397076 0.33739412 -0.0532738
000390 e8 29 81 be e6 48 8f bd 86 ee 5a 3e ed 7a ad bd
       -0.25227284 -0.06996326 0.21380052 -0.08470712
0003a0 40 0c 3e 3e 4c f5 5a bd b9 e5 26 3c a0 23 3a 3d
       0.1855936 -0.05345659 0.010186606 0.04544413
0003b0 7b 12 64 3d 0f a5 1a 3e 1c 1f 04 3c 30 9b 30 be
       0.055681687 0.15102027 0.008064058 -0.172467
0003c0 ca 72 80 bc 26 74 38 3e a0 38 21 3d 21 33 c3 3d
       -0.015679736 0.18013057 0.039360642 0.095312364
0003d0 80 63 bc 39 3d b5 89 bc c3 a7 b3 3e d5 dc 8c bd
       0.00035932288 -0.016810054 0.3508893 -0.06878058
0003e0 6a 44 86 bd 61 55 8b 3d 6f 89 27 3e b3 18 9e 3d
       -0.06556018 0.06803394 0.1636102 0.07719555
0003f0 f0 47 52 be 80 81 03 3d ec fd e8 bd 52 5f 91 3e
       -0.20535254 0.032105923 -0.11376557 0.28393036

hidden_layers.3.linear.weight f4 [16, 16]
000000 69 0f ea bd fb 33 00 be e5 ee bc 3d 99 ac 11 3e
       -0.114287205 -0.12519829 0.09225253 0.14225997
000010 d8 32 28 be 04 57 3b 3e 10 07 a6 bd 89 6f 3d 3e
       -0.16425645 0.18294913 -0.08106816 0.18499579
000020 b8 58 db 3e 7e 51 10 be 80 f6 7b 3d 1b 28 22 3e
       0.42841125 -0.14093587 0.061514378 0.15835612
000030 ed 8e 10 3e 2b 45 f7 3d e3 33 72 3d 90 37 b5 3c
       0.14117022 0.120737396 0.059131514 0.02212122
000040 e4 5d 30 bd 0e 06 0b 3e 7c e3 20 3e a8 1f bd 3e
       -0.04305829 0.13576528 0.15711778 0.36938214
000050 b4 e3 8a be 7f d3 41 bd 22 66 56 3b db d1 11 3e
       -0.2712685 -0.04732084 0.0032714684 0.1424021
000060 8f 49 0f 3e 8a c5 1d be 4a 4b a3 bd b1 0a 14 3d
       0.13992904 -0.15407386 -0.079733446 0.03614301
000070 b5 2b f0 bd 47 6a 30 3d 1b ca 1d 3e 12 cd b9 bd
       -0.117270865 0.043070104 0.15409128 -0.09072317
000080 06 c1 26 bd c1 a9 33 be d0 57 9e bd ba d3 45 3e
       -0.040711425 -0.17545225 -0.07731593 0.19319049
000090 95 df 9d 3d a4 f5 3c be 00 8c 21 be be aa 43 be
       0.077086605 -0.1845308 -0.15776062 -0.19108102
0000a0 0a 95 e4 bd a4 4d 81 bd 06 01 80 bd 30 9a 25 3e
       -0.111612394 -0.06313637 -0.06250195 0.16172099
0000b0 3c 56 ac 3e ea 0c 0a 3c 64 f1 ad 3c cb 6f c8 3d
       0.33659542 0.0084259305 0.021233268 0.09786948
0000c0 67 d9 09 3d 95 c4 f9 bc 5b 37 a8 3d 8a dd dd 3d
       0.033654597 -0.030489245 0.08213683 0.10833271
0000d0 eb a6 cc 3c a0 38 c4 3d 6b d3 d9 3b d9 e5 c5 bd
       0.024981936 0.09581113 0.0066475174 -0.096629806
0000e0 c8 5e f0 39 49 3c 62 3e a4 d0 d5 bd 18 ff 19 3d
       0.00045846985 0.2209331 -0.10440186 0.037596792
0000f0 f6 54 07 3e 2a ef e3 3d 64 7f 08 3d 81 dd a0 bc
       0.13216004 0.11129601 0.033324614 -0.019636871
000100 99 5f f6 bc ec 40 0a 3e f0 c8 cd bd 25 a2 7d bc
       -0.030074881 0.13501328 -0.100480914 -0.015480553
000110 61 91 1e be 94 11 0d 3e 80 c7 d8 bd 0c ff 59 bd
       -0.15485145 0.13776237 -0.105849266 -0.053221747
000120 62 5b 8e 3d fe 32 e8 3d 3a 46 f7 3c ac 0a b5 3d
       0.06951024 0.11337851 0.030184854 0.08839926
000130 9d ca d0 bc 4f 53 6d bc 46 46 33 3d 24 61 11 3d
       -0.025487239 -0.014485194 0.04376819 0.03549303
000140 07 fb 8e bc f7 70 75 3e ba 63 a1 3e a4 71 31 bd
       -0.017453684 0.23968874 0.31521398 -0.043321267
000150 63 43 7e 3e e6 a6 c6 bc 22 43 dd bc 66 cd 81 bb
       0.24830393 -0.024249505 -0.02700955 -0.003961253
000160 52 17 59 be 97 c2 5f 3d d4 ce 83 bd 94 16 b7 3d
       -0.21200302 0.054628935 -0.06435934 0.08939853
000170 4f 2b d0 bd 49 5e 61 3e bf c7 01 3e 44 a1 74 3e
       -0.101645105 0.22008623 0.12673853 0.23889643
000180 5e c5 b4 3d ec 2f 43 3b 4b ba 88 3c 6e 0d eb 3d
       0.08826707 0.0029783202 0.016690394 0.11477171
000190 86 e7 69 bd 06 e6 6f bd 8d 95 ee bc 08 c2 21 3e
       -0.057105564 -0.058568977 -0.029124046 0.15796673
0001a0 7b ae 79 bd 41 76 76 bd 44 da 6d 3d cc 75 3e 3c
       -0.060957413 -0.06017137 0.058069482 0.011624765
0001b0 65 75 c0 3d 6c b6 3c bd f7 ba 94 3c 46 33 b1 3e
       0.09397391 -0.04607241 0.018155558 0.3460943
0001c0 1a 19 08 bc 94 ca 4b be 0a 35 d7 3d 9e 82 56 3d
       -0.008306766 -0.19901496 0.10508163 0.05237066
0001d0 82 1e 99 3d ae 0a 94 3b 26 51 f0 bd 0b c1 2b be
       0.07476522 0.0045178747 -0.11734228 -0.16772859
0001e0 da d4 0c 3d 34 2b 61 bd 6f ec 1b bd a2 5a 25 3e
       0.03438268 -0.054972842 -0.038067278 0.16147855
0001f0 9b 63 83 3d 96 68 6c 3d d3 10 c3 bb ad 03 8e 3d
       0.064154826 0.05771693 -0.0059529333 0.06934295
000200 20 27 83 3e 20 35 68 bd a9 bc 0c 3c ec 7c 16 3e
       0.25615788 -0.05669129 0.008589902 0.14696091
000210 1a 22 f8 3d 72 a3 8f 3d 7e 0d 39 3e 76 57 0e 3e
       0.12115879 0.070135966 0.18071553 0.13900551
000220 2d dd 33 be 98 85 24 3e 31 3c 56 bc b7 e9 36 3e
       -0.1756484 0.16066587 -0.013075874 0.17862593
000230 48 39 15 3e e1 02 c1 3d 5b d0 a6 3e ec ae 33 be
       0.14572632 0.09424377 0.32580838 -0.17547196
000240 8c dd 27 bd 6c 79 b7 3e 19 aa 3c 3e 52 e8 a9 3d
       -0.040982768 0.35834825 0.18424262 0.08296265
000250 56 19 39 bd 03 63 ed bd b4 21 00 3d 25 91 a8 3e
       -0.045190178 -0.115911506 0.03128214 0.32923236
000260 b1 ba a3 3e f3 d3 1e 3d 9f 6b 62 3e 8a 2c e3 3a
       0.31978372 0.03877635 0.22111367 0.0017331999
000270 3d 13 a3 3e 3b f2 13 be 2f ea 91 bd 02 ce 8d 3e
       0.31850615 -0.14447872 -0.07124745 0.27696234
000280 52 29 da 3b 8b c3 25 3d 2f 55 b8 bb 72 f0 07 3e
       0.006657758 0.040469687 -0.005625389 0.13275316
000290 77 1d 17 3d ee 46 55 3e 3f 9f 0f 3c b9 d4 90 bc
       0.036893334 0.20827839 0.008765995 -0.017679559
0002a0 71 ea 9d 3e 30 9a 0b 3d 26 14 04 bd 25 df 20 3e
       0.30842927 0.03408259 -0.032245778 0.15710123
0002b0 28 4d 85 ba 14 57 19 3e 7e 65 86 bd 29 97 e6 3d
       -0.0010170089 0.14974624 -0.06562327 0.112593
0002c0 ac 35 36 be 16 7b 5b bd 07 df 66 3e d4 2f 80 bc
       -0.17793912 -0.05358418 0.22546016 -0.015647806
0002d0 9e 5b 4a bd 8d b0 30 bd f3 76 b5 bd 52 7c 71 3d
       -0.04940378 -0.043137122 -0.088605784 0.05895645
0002e0 c2 af 58 3d 79 c1 5a bd c5 ef 47 be 65 f4 9d 3d
       0.05290199 -0.053407166 -0.19525059 0.0771263
0002f0 dc 48 22 3e c5 0c 0b 3e 3a be ca bd 48 c2 bd bc
       0.15848106 0.1357909 -0.09899564 -0.02316393
000300 cc e8 24 3d a4 ba 8e bd b8 ce b9 bd be 5f 75 3e
       0.040261075 -0.069691926 -0.090726316 0.23962304
000310 7b 1f cb 3d 72 ab 00 3e c3 c2 8a be 81 4e 75 3e
       0.09918114 0.12565401 -0.27101716 0.23955728
000320 c5 d1 e5 3d a8 43 20 3c f0 06 8d bd b6 76 e0 3c
       0.11221651 0.0097817555 -0.06886089 0.027400356
000330 1c 36 a6 3d 1f 28 27 be 86 55 7d 3b 46 20 81 3e
       0.08115789 -0.16323899 0.0038655712 0.25219935
000340 ab fc d9 bd 2b e9 9d 3e 66 a4 87 3e 3f b3 50 bd
       -0.10643896 0.30841956 0.26492614 -0.050952192
000350 5c 2e fe bd 0d 2b 6d 3e 0f 16 a6 bd 80 e1 22 3c
       -0.12411186 0.23160954 -0.08109676 0.009941459
000360 23 0a ab 3c 3e e1 b4 bd 1b 2f 71 bd 85 29 3a bd
       0.020878857 -0.08832024 -0.058882814 -0.045449752
000370 bc 49 a4 3b fd 86 09 3e c2 8e fd bd 81 0b 35 3d
       0.0050136726 0.134304 -0.123807445 0.044200424
000380 5f af 10 be c4 ba e1 3d b1 2a d0 3d 5d 6b 8e 3e
       -0.14129399 0.11021951 0.10164393 0.27816287
000390 51 6d 6f bd 75 47 9b 3d b0 32 af bd 24 dd f5 bd
       -0.05845386 0.07581989 -0.0855459 -0.1200507
0003a0 05 f6 55 3e 8d a2 b7 bd c7 30 89 3d cf 54 16 3e
       0.2089463 -0.08966551 0.06698757 0.1468079
0003b0 a0 c9 83 bd bc 9c 27 3e e5 c9 7e bd 2d 11 74 bc
       -0.06434941 0.16368383 -0.06220426 -0.014896673
0003c0 74 a3 88 bc be c1 5e 3d d5 e0 cf 3c 0e 18 41 3d
       -0.016679503 0.054383986 0.025375763 0.04714208
0003d0 e2 7c 60 3d f5 e0 80 bd d6 74 ab 3d 40 d0 be bd
       0.054806598 -0.06292907 0.08371894 -0.09317064
0003e0 3c 72 35 ba 26 de 3d bd d7 24 8b bd 65 ed 68 bd
       -0.00069216243 -0.046354435 -0.06794136 -0.056867022
0003f0 9d 9d f6 3d 33 f4 a5 3d bd b3 bb 3d c0 62 4e bd
       0.12041781 0.08103218 0.09165142 -0.050387144

out.weight f4 [2, 16]
000000 d6 c1 25 bd cb 5c 2b bd 17 51 31 bd d1 b9 3b bd
       -0.04046806 -0.04183654 -0.043290224 -0.045831505
000010 97 89 3a bd d2 6b 4a bd fb a4 3a bd b2 b9 42 bd
       -0.045541372 -0.04941923 -0.045567494 -0.047540374
000020 76 d9 39 bd 4d e8 24 bd 3a f2 2c bd 54 8c 40 bd
       -0.045373403 -0.0402606 -0.042223193 -0.047008827
000030 6f b3 29 bd 4a 33 40 bd 19 f1 2a bd 61 a9 40 bd
       -0.041430887 -0.046923913 -0.041733835 -0.047036532
000040 2f c2 5b bd cc 5d 44 bd 77 4e 3d bd 30 05 20 bd
       -0.053651985 -0.047941014 -0.046217408 -0.039067447
000050 cc b6 1b bd 99 62 e4 bc ad 07 24 bd 76 2a 0e bd
       -0.038016126 -0.027879046 -0.040046383 -0.034708463
000060 de 86 1d bd 9f d2 5e bd 9a 6f 40 bd 65 72 1a bd
       -0.038458697 -0.054400083 -0.04698143 -0.03770675
000070 c4 5b 4b bd dc 4e 14 bd 22 68 42 bd c9 e2 13 bd
       -0.04964806 -0.03620802 -0.04746259 -0.03610495

out.bias f4 [2]
000000 a4 24 74 3f 80 5e 77 3f
       0.9536841 0.9662857
