results/dot-ou-final_d=ballsw=8z=2det=0lat=const-sig-ntloss=exactsigma=diag/run1/saved_nets/mu_best_val_0.pth (torch, 7662 bytes, 7 tensors)

first_layer.linear.weight f4 [16, 2]
00000000: a263 2d3e 50cc f3bd 29c4 f8bd abc9 bc3e
00000010: 785d 1d3d 5c79 08be 5b10 873e b669 ce3e
00000020: e04a 923e 070e 12be a490 e5bc 45b5 663e
00000030: b10f 563e 5408 af3e a04e 5cbd 2787 753e
00000040: fe15 323e 7f6c 6f3d df1e 923d b9e2 ad3d
00000050: a79b 3abd 5b0e 02bd b144 00bd 7086 94bd
00000060: e43d 133e cda8 d1bd 8ad7 123e 2d23 873e
00000070: e56a 373e b3a0 6f3e 657c 6cbc 7427 b73e
0.16932538 -0.11904204 -0.121467896 0.3687261 0.038419217 -0.13327545 0.26379666 0.40315026
0.2857275 -0.14263164 -0.028023072 0.22530086 0.20904423 0.3418604 -0.05378592 0.23977338
0.17391202 0.05845308 0.071347944 0.084905095 -0.045558598 -0.03175197 -0.03131551 -0.072522044
0.14379078 -0.10237274 0.14340034 0.26394024 0.17911871 0.23401146 -0.014433955 0.35772288

hidden_layers.0.linear.weight f4 [16, 16]
00000000: 227f 10bd 7b11 1a3d 5784 0e3e 60c9 ce3d
00000010: abac 823d 7da7 923d 6203 e73d fe6e a83d
00000020: 54e2 e0bd 6c69 d03d 901d c2be 3bbd a13d
00000030: a7c1 5c3c dc99 4a3e 137f 773e 03ae 453e
00000040: a0c4 3f3d d7bb d83d d4c2 a53d 5cf3 13bd
00000050: 258a 553d 09e6 163e 5837 5e3d 4d92 8d3d
00000060: e1c3 32bd c449 573c cc77 06be c949 53bd
00000070: d98a b2bd e723 b83d 9b52 603d 8114 203e
00000080: eb31 1cbd e955 263e c4e2 05be b6af 11bd
00000090: b2b9 ec3d 8e96 a53e 2789 a53e 9f00 c9bc
000000a0: d55a 2e3d ccd8 10bd 14de 0c3e c3fa b73d
000000b0: c3ee 67bd ec7f 1e3d 20af 0c3e 6150 853d
000000c0: f6be 09bd 0ce0 90bd 5c9e fbbd a1e1 4fbe
000000d0: e052 29be cda8 21be 9170 eeb8 0139 213e
000000e0: 7451 d23d 0786 953c 9427 11bd 0cf4 96bc
000000f0: 39af ac3d d966 b9bc 09c6 87bd 4fd6 903e
00000100: 14b0 e23b c962 27bd 35f8 223d d170 c3bd
00000110: 00b7 ce3c 75b3 a23b 3198 02bc 9829 09be
00000120: 99b4 7cbc 35d5 ecbd 63e0 2c3e e0de 47bd
00000130: 2daf 243d 225c dd3c 8a82 fabd 9a0f 36bd
00000140: b33c 1cbd 029c 4c3e ad48 853d 1739 a73e
00000150: 284f 303e 29ba a33d ca32 f43c fcd5 5d3e
00000160: 27f8 e73d c118 4b3d e094 9dbd 4e30 b1bd
00000170: d4d0 d9bb c504 0a3e f891 acbd b740 3d3e
00000180: 13c3 213d 5c09 bfbc f220 eb3d 56d3 363e
00000190: a8a0 7f3d 1a13 2b3e 69e1 143e 073f bd3d
000001a0: dc06 73be c5b8 15be c3c5 093e 4cc8 663d
000001b0: 4aca 193e e37b 7b3d 3bab 07be 4113 32be
000001c0: efb4 8e3d 2e8b 7b3b 783b 403d fb3d eb3b
000001d0: 8d5f 4d3d 448e 2f3d 7827 5b3e f562 e43c
000001e0: 3337 f43d 9846 383d 17bf e53c 9632 1fbe
000001f0: 8e47 123d c75c 933d 71f7 133e 35a6 7e3e
00000200: 1bae dbbd 918d 2bbe 3c3b c93d a8ad 57be
00000210: 58ee 0a3e c3c7 1b3e f9ea 22bd 4763 c0bd
00000220: e4fd 26be 79a4 0539 abf9 35be c72e c9bc
00000230: bb32 2d3e 12b2 453b 932f d4bd da11 ee3d
00000240: 35a0 09be e22c 943d d820 013e d9e0 023f
00000250: 6d69 113e 12bf d8bc a43f 9a3e a71b 003e
00000260: 8f85 963d 0877 3e3e 6922 663d 0b0a 0c3e
00000270: e320 423e 8306 833d 6a2e f23d 1cb8 423d
00000280: 137c 0d3e c343 8f3d 0807 8e3d 94e2 cc3d
00000290: b436 23bd 8d3b ec3c eb7b 643e e6c1 95bc
000002a0: 91e6 12be 6d7d 993d 59ce c33d e963 03be
000002b0: 3fe2 8c3e 3bf2 383e 8b60 f73c 2491 0abe
000002c0: a0ab d93c e924 acbe 8e15 e83d 9c39 b1bd
000002d0: 1870 29be 5384 c43d dae4 59be e369 bcbc
000002e0: dcc6 debd f8d6 d63d 156d 2b3e 07e7 3d3d
000002f0: bec2 0cbe f317 b7bd 5b05 333e 2ad1 513c
00000300: 0cfb 943d e71b 253e ed62 403d 08cc 3c3d
00000310: 39f5 843d 4d3b ef3d 874b 01bb 79a4 903e
00000320: 8e60 1bbe e440 ac3d dacd 8abe f400 813e
00000330: 7692 633c d9a4 2c3d c2a7 bd3d 2f2b 253d
00000340: 7e04 6dbe 8bbd 0ebd 9553 34bd 722a 393d
00000350: 4f32 903d c89e a03d 6429 fc3d 1e32 123e
00000360: 2d90 0a3e 96d1 ec3d 3060 afbc 13ed 02be
00000370: baad 203e e802 04be a4d6 32be 3516 dcbd
00000380: 6df1 7d3d 7328 643e 98f7 a8bd a575 9e3d
00000390: 0c8f 3bbd cd4e 23bc b1de 7b3d 38e1 f83d
000003a0: 5cbf ff3c ac13 f13c 6f14 babb f5ca 66be
000003b0: 0c78 0d3e 3231 9b3d c689 73bd cd45 0e3e
000003c0: 485f 083c 741b 403d a2e0 a3bd 26e3 a03c
000003d0: 2e35 15be ac82 e43b 3885 ba3d c3a6 853d
000003e0: aeb8 56bd 1fa4 b9bd e6fa f4bc ef44 a83c
000003f0: cd5f 15be 9183 013d 4152 803b 973b 20bd
-0.035277493 0.037614327 0.13917671 0.10097003 0.0638059 0.07160852 0.11279942 0.08224295
-0.10980669 0.101763576 -0.3791318 0.07897421 0.013473905 0.19785255 0.24169569 0.19304661
0.046818376 0.105827026 0.08093801 -0.036120757 0.052133698 0.14736189 0.054252 0.0691267
-0.043643836 0.013140146 -0.13131636 -0.05158404 -0.08717889 0.08991223 0.05476628 0.15632822
-0.038133543 0.1624371 -0.13074785 -0.03556796 0.11558856 0.32341427 0.323312 -0.024536429
0.042567093 -0.035363004 0.13756591 0.08983376 -0.056624185 0.038696215 0.1373868 0.06509472
-0.03362938 -0.070739836 -0.12286064 -0.20300914 -0.1653552 -0.15787049 -0.000113696915 0.15744402
0.10269442 0.018252386 -0.035438135 -0.018426917 0.084318586 -0.02263205 -0.06629569 0.28288504
0.006917963 -0.040865693 0.03978749 -0.095430024 0.025233746 0.0049652406 -0.007970856 -0.13394773
-0.015423917 -0.115641035 0.16882472 -0.048796535 0.040206123 0.027021471 -0.122319296 -0.044448473
-0.038143825 0.19981387 0.065080024 0.32660744 0.17217696 0.079944916 0.029809374 0.2166366
0.11326628 0.049584154 -0.07694411 -0.086517915 -0.0066472087 0.13478382 -0.08426279 0.18481718
0.039492678 -0.023319893 0.11480893 0.17854056 0.062409073 0.16706505 0.14539112 0.09240537
-0.23733085 -0.14621265 0.13454346 0.05634336 0.15018573 0.061397444 -0.13248913 -0.17390157
0.06968104 0.0038382518 0.046931714 0.0071790195 0.050139952 0.042860284 0.21401775 0.027879218
0.11924591 0.0449892 0.02804522 -0.15546641 0.03571277 0.0719543 0.1444986 0.2486809
-0.10726567 -0.16753222 0.09825751 -0.21062338 0.13567483 0.15212922 -0.03977487 -0.09393936
-0.16307789 0.00012745139 -0.17771022 -0.024558438 0.16913883 0.0030165953 -0.103606366 0.11624499
-0.1344002 0.07235123 0.12610185 0.5112434 0.14200373 -0.026458297 0.3012668 0.12510549
0.07349693 0.18600094 0.05618516 0.13675706 0.18957858 0.063977264 0.11825259 0.04753886
0.13816862 0.069953464 0.06934935 0.10004154 -0.03984709 0.02883699 0.22312896 -0.018280935
-0.14345767 0.07494626 0.09560842 -0.12831081 0.27516362 0.18061154 0.030197402 -0.13531929
0.026571095 -0.3362191 0.11332236 -0.08653566 -0.16546667 0.09595551 -0.21278706 -0.02299971
-0.10877773 0.10490221 0.1674083 0.046362903 -0.13746163 -0.08940115 0.17482512 0.012806216
0.07274446 0.16123925 0.046969343 0.046093017 0.06492085 0.116812326 -0.0019728856 0.28250483
-0.15173551 0.084108144 -0.27110177 0.2519604 0.0138898995 0.0421494 0.09260513 0.040324386
-0.23146245 -0.03484873 -0.044025023 0.045206495 0.070408456 0.07842785 0.12312582 0.1427693
0.13531561 0.11563413 -0.02140817 -0.12785749 0.15691271 -0.12891734 -0.17464691 -0.10746423
0.06199782 0.22281055 -0.0825035 0.07737283 -0.045790717 -0.009967518 0.061491672 0.12152332
0.031219177 0.029428326 -0.0056787054 -0.2253836 0.13815325 0.07577743 -0.059457563 0.13893814
0.008323498 0.04690118 -0.0800183 0.019639563 -0.14571068 0.006973585 0.09107441 0.06525948
-0.052422218 -0.09064507 -0.029904794 0.020540683 -0.14587326 0.031619612 0.0039160554 -0.03911933

hidden_layers.1.linear.weight f4 [16, 16]
00000000: 02e0 b8bd 039f ecbd 2750 8abc ed6c f0bd
00000010: 81f9 90bd 6c9b 62be efe4 86be a0ce d93d
00000020: c60e 103e 6e9e 5abd c200 f63c 38df 70bd
00000030: 43d0 363e 6292 e03d 30fc 183d e82d b13d
00000040: fa8b cb3d 00f2 733e a888 2a3e 0c32 603b
00000050: c4f1 533d cf8e 943e db80 d43c c88c cb3e
00000060: 9afb 69bd 286d 323e a67e 363e 4ee7 eb3d
00000070: 4b1c 4a3c ccf2 373d af27 7a3d 1080 143e
00000080: 501b 223e 6071 573e dc6f 023d dbaf c0bd
00000090: 8eab 0dbe a858 603e 1eb9 ac3d 7622 cfbd
000000a0: 288f 24be 6396 0a3c 4363 8c3d 6706 d2bd
000000b0: 6331 b2b9 822d 82bc fe6e 123e de2f 0bbe
000000c0: d6bd 90bc 7afe 8e3e 2c7b b03d 31d2 ce3c
000000d0: 8dbe 9c3c 0bd0 bebd 3d50 08be 3ba9 303d
000000e0: 6612 4ebe 56f9 55be 239d ff3d 7b48 863d
000000f0: 3c59 aabc d484 6cbe 6364 143c 9beb 31be
00000100: d65e 073e cde3 9ebd fced 763d d744 f9bd
00000110: 48e5 eb3d ea47 4ebd cec2 9bbd 1919 d6bd
00000120: 5692 3bbd 73f8 1abe 243f c23d 62be 5e3e
00000130: 2bce 963d e96e 16be 64b5 cebd b219 853e
00000140: 3580 c53a 3340 473e f5c2 ca3d 888b 743d
00000150: 4a56 603e cb5e 6a3d 0dfe d33d 92a3 7dbd
00000160: bb05 15be b622 893d 1d99 13be cad7 f0bd
00000170: 2395 3ebd 4737 d2bd 7009 043e 8487 6abd
00000180: 13f0 4abd 6054 963e 0bde a73e 1039 153e
00000190: 4ed3 713b e90a 35bb da2a a63d 75c8 0d3d
000001a0: 76ed 8bbd ecb6 d03d c288 373e eac6 c1be
000001b0: 9db8 3d3e a457 dd3d a3c8 ff3d 55bf ba3d
000001c0: cc2b 903d a2b9 c63b 1004 8cbd f6ec 0a3e
000001d0: 1ce6 20be 5aff a13d 37dd 793d b465 643d
000001e0: 0b92 a43b 94c0 ec3d 15aa ec3c e6af b7bc
000001f0: 0215 d03d 530a 9bbd b598 0cbe 9275 7cbe
00000200: 0191 053e 37fb 923d 606e cbbd 1fdb 3e3d
00000210: f58d 9bbd c0ee a53e bd61 36be 1e17 a43c
00000220: 093c fb3d d802 183e 0b98 213d b904 a33d
00000230: 5e77 04bd da8c 173e a2d7 fa3d 4d20 4c3d
00000240: 927f 743c 2fea 833e 6c6f 643d 2cf9 67be
00000250: f2ce ba3d 0a54 c53c 6a5c fc3d 7727 b83d
00000260: 4ebc 1fbc 544c b03c 9c96 133e 0537 cdbc
00000270: 7f5a 733e 468b e73d 4671 993c 802e 82bd
00000280: 3f67 0d3d 8a5e 263e 4833 8f3e e6c1 06bd
00000290: 2a79 c93c 7009 7ebc 1c5a d3bb d16b 6f3e
000002a0: e215 1cbd b290 d33d a8c9 193e c023 89bd
000002b0: 7236 6f3e 3295 6f3d b8d4 7e3d 4efc cc3d
000002c0: 205e 4c3e e046 ae3d 29e4 753d 817c 40be
000002d0: a84b 44bd 6371 823e 5434 aabd 91cb b2bd
000002e0: 90eb bbbd a6e2 c7bd 7a77 173d 3ad2 b0bc
000002f0: a884 193e a609 77bc 0e7b 0b3e 2811 a7bc
00000300: cd0b 1f3e 15dd f7bd c0d8 edbd 76df 97be
00000310: 372c 1bbd 6969 cb3d 2e53 3b3e 95c5 433d
00000320: 7d29 26be 6e90 ab3c fb58 753e b6e7 8bbd
00000330: eb4f 53bd 02c7 233d 77c2 313d 5b4b 1b3e
00000340: 903d 993d 151c 323e 6f00 56bd 5fd5 bebd
00000350: 45bb dcbd 69dd 9cbc 6fdb 843d 8294 4a3e
00000360: 4d80 60bd 302e d3bb e2b7 8cbc 89fc 4dbd
00000370: 3b25 303d 8aa6 a93d 4a66 aebd 1986 67bb
00000380: 6310 d43d 70a2 7fbd 5904 133d 68e7 093e
00000390: 792c fd3c af5b 9b3c 7aaa c33d 8e5c 04bd
000003a0: 641c 81bd 6c7b a23d bd4e a5bd 91b3 12be
000003b0: b3a4 7dbe fecb b0bd 97d5 693e 7b3b 4d3e
000003c0: c07e 37bd 1ff2 393d 0d63 a03d 7cfc 1a3d
000003d0: caef e93d 80ff 5ebc 2c99 333d 9bb4 3f3e
000003e0: 1494 cdbd b3c9 8c3d bc97 5fbd 505a dc3c
000003f0: f9ac 0fbe 2ec2 82bd dd72 823d 9ede e7bb
-0.09027101 -0.115537666 -0.016883923 -0.11739526 -0.07078839 -0.22129601 -0.26346537 0.10635114
0.14068136 -0.053373747 0.030029658 -0.058806628 0.17852883 0.1096542 0.03734988 0.08651334
0.09938808 0.23822784 0.16653693 0.0034209518 0.051744238 0.29015204 0.02594035 0.39755845
-0.05712471 0.17424452 0.1782175 0.11518727 0.012335847 0.044909284 0.061073 0.14501977
0.15830731 0.21039343 0.03184496 -0.09408542 -0.13834974 0.2190882 0.08433746 -0.10113995
-0.16070235 0.008458707 0.0685487 -0.102551274 -0.00033987602 -0.01589084 0.14300153 -0.13592479
-0.017668646 0.27928525 0.08617243 0.025246711 0.01913383 -0.09317025 -0.13311858 0.04313014
-0.20124206 -0.20895895 0.12481143 0.06556793 -0.020794503 -0.23097545 0.009057137 -0.17375033
0.13219771 -0.07758293 0.060285553 -0.12171333 0.11518341 -0.05036155 -0.076055154 -0.10454006
-0.045793854 -0.15133838 0.09484699 0.21752313 0.07363542 -0.14690746 -0.10093191 0.25996166
0.0015068116 0.19458084 0.09900466 0.05970338 0.21907917 0.057219308 0.10351191 -0.06192357
-0.14552967 0.06696074 -0.14413877 -0.117599085 -0.046528947 -0.102644496 0.12894225 -0.057258144
-0.04954536 0.29361248 0.32786593 0.14572549 0.003689963 -0.002762491 0.08113642 0.034615
-0.068324015 0.101911396 0.17923263 -0.37847072 0.18527456 0.10807732 0.1248944 0.09118525
0.070396036 0.0060646096 -0.06836712 0.13566956 -0.1571278 0.079100326 0.061001983 0.055761054
0.0050222925 0.11560169 0.028889695 -0.022422742 0.10160257 -0.075703286 -0.13730128 -0.24654225
0.13043596 0.07176822 -0.09933162 0.04659569 -0.075954355 0.32408714 -0.17810722 0.020030554
0.1226731 0.14844835 0.03945164 0.07959885 -0.0323404 0.14799824 0.1224816 0.049835492
0.014922993 0.25764605 0.055770323 -0.22653645 0.09121503 0.024087925 0.12322314 0.08991902
-0.009749485 0.021520771 0.14412922 -0.02505065 0.2376499 0.11305861 0.01873077 -0.063565254
0.03452229 0.16247001 0.27968812 -0.03289976 0.024593908 -0.01550518 -0.006449951 0.23380972
-0.038106807 0.10330333 0.15018332 -0.06696272 0.23360613 0.058491893 0.062214583 0.10009061
0.19957781 0.08509612 0.060032044 -0.18797494 -0.047923714 0.25477132 -0.08310762 -0.087302335
-0.09175789 -0.09760027 0.036979176 -0.021584619 0.1499201 -0.015077984 0.1362116 -0.020393923
0.15531845 -0.12102715 -0.116136074 -0.29662675 -0.037883963 0.09932215 0.1829345 0.04779585
-0.16226764 0.020942893 0.23959725 -0.06831305 -0.051589888 0.03998471 0.043398347 0.15165465
0.07482445 0.17393525 -0.052246507 -0.09318041 -0.10777906 -0.019148545 0.06487166 0.19783214
-0.054809857 -0.006444715 -0.017177526 -0.050289664 0.043004256 0.08283718 -0.08515604 -0.0035327731
0.10354688 -0.06241077 0.035892818 0.1346718 0.030904995 0.018964617 0.09554 -0.03231483
-0.06304243 0.07933697 -0.08071659 -0.14326312 -0.24769859 -0.086326584 0.22835384 0.20042221
-0.044798613 0.04539692 0.078313924 0.037838444 0.11422689 -0.013610721 0.043847248 0.1872124
-0.10038009 0.068744086 -0.054588065 0.026898533 -0.14030828 -0.06384693 0.06369565 -0.0070760986

hidden_layers.2.linear.weight f4 [16, 16]
00000000: fb97 0d3e 2923 bb3d 6b1d 5e3d b0b6 89bd
00000010: b950 b53c 74c9 cb3c fe5e fcbc e5ee 62bd
00000020: b70c 8b3e f578 d8bd 0149 8c3e 7a5e 753d
00000030: 6699 423e 4130 543d c70c d5bd 0a3c af3e
00000040: 8887 153d 5262 4a3e 7c47 243e 1162 803e
00000050: ab7e 7c3e 08fe 24be 7a9a 973e e1da 2bbe
00000060: bbd3 2f3e 4898 8d3e c371 063d 70f7 6e3d
00000070: b7ed 02bd 0133 bfbc 5a21 eebd a010 0b3e
00000080: 3833 f5bd cb7e 513e df24 80bc dd39 debd
00000090: f5af 783d f95b 1f3e 710a 2d3e 3c5b 003e
000000a0: 13a5 18bb 2293 133e d3cf 243d fe79 83bc
000000b0: 2740 073e 70e2 793c 2c5c 1a3e 7c8b 153e
000000c0: 434f 1dbe 92e2 6d3d 8c5b cd3c 6eab 9fbd
000000d0: 7a40 033e 5b9b a73c a087 c73d e0f5 9c3d
000000e0: 3afd 493d cba2 af3d 9bad 0abc c001 483e
000000f0: 6daf 493e 38ab 16be 7606 893e 7c82 5a3e
00000100: fca6 753c 8edd 4f3e 3c12 243e f19c 88be
00000110: f485 563e 3702 353e c56d 483e 771d 343e
00000120: 02a6 c63c b918 343e d062 4ebe eef1 6b3d
00000130: 3d5e 78bd b0ae 26bc 6651 16be cfc9 863d
00000140: e3e9 12be 6a5b 84bc 653f 933d 817e df3c
00000150: 18a1 b7bd 329e b8bd 33d4 883c 54e4 cb3d
00000160: 9a7f 21be c492 6dbd fbdf 803b f85c 64be
00000170: 9d3c b2be d418 793d 7c85 83bd 7a73 313e
00000180: 2455 2abe 0f02 f93d b800 6d3e bf3e 583d
00000190: 26f2 debd 83d4 543e 3e35 323e 16ec 55bd
000001a0: 7fff 0d3e 6c47 ed3c a3b7 9b3e ceef c93d
000001b0: eeff 213e f21e 6dbe 6a24 97bc 0df5 363e
000001c0: 9fb3 0f3d d27b 093d dcff 4dbc 877d 13be
000001d0: d51b 973d a225 38bd aa9b 3f3d 9072 1e3e
000001e0: 219d 583d 4839 27be ef72 e8bc e3d0 9abd
000001f0: 6ebf acbc 04c5 6d3d dc53 2e3b 604c 30bd
00000200: 6a20 d03c 6e6a 2bbe edc7 30be 7203 153d
00000210: 2e39 733e a9e4 11be 1621 7d3c e641 86be
00000220: ca78 47bd aa8c f1bd 69a5 94bd 4b6a 63be
00000230: 9069 adbd 21bf 163e a808 363d c75d 0e3d
00000240: 731a 91be dbfe 173e 258e 663e 4eca 2c3e
00000250: 8ba0 16bd a358 953b 3752 dd3a 1cf7 723e
00000260: c45a 1a3e e76f d6bb a65f 8fbc 2fac 69bb
00000270: 0bb9 843c 5b9e 36bd 6cb5 593d f0a2 883e
00000280: 3e2a a63d bea2 273c aacd 873d 4c64 0b3d
00000290: 5bda d4bd f575 843d 4883 80bd ecda 1f3e
000002a0: ebb2 493d 5996 a93d ad88 af3d 89c4 e33d
000002b0: 2d99 093e 9867 033e b082 d83d 1ed0 3dbb
000002c0: 1852 8b3e fccc 2b3e 079d 5cbb 876c f0bd
000002d0: 5ece 0c3d 4462 133e 769a 673d 2d1a 8cbd
000002e0: 5340 0cbe 613b 183d e470 20be cc60 50bc
000002f0: 3d3f c5bd 1ff0 6d3e d992 cfbc 9180 71bc
00000300: 76b2 07bd 7350 a3bd 65d7 0cb9 3f17 113e
00000310: 02c9 62be c4b1 9e3e a2ec 113e 7ab3 90bd
00000320: a54a 123e ae4f 213d 416d 923e 0f2c 7e3e
00000330: 9523 753d 304b 003e 4d57 ad3d 8530 673c
00000340: 0db0 eebd bb50 8fbe 68ad a2bd 1925 a43c
00000350: cb3c 883e 881b 08be bf3d e1bd b065 643d
00000360: 0f26 28bd d75a 4bbe 1b29 483e 51f5 543b
00000370: f9c0 7dbd 3265 ebbd 9b15 833e 1a5c fb3d
00000380: b092 e2bd cb62 0a3e 88c0 aebd c71e 8d3e
00000390: b89c a5bc 535f 31be 019f 4cba 59f0 3e3e
000003a0: 9b7f 60bd 1dd4 813d fa4d 1e3d ffb7 ec3d
000003b0: 1987 053e 4c44 29be 7fb2 b1bd fc08 c9bd
000003c0: 0d08 3ebd ffb3 3cbd 6957 b1bd f975 86bc
000003d0: df4a aabd 4b1d 41be 8b4b 16bd af45 4abd
000003e0: e4fc 87be 0fee adbd 6f39 d6bd cf52 c93d
000003f0: cebe b13e ee71 09bd 5044 48be 5bbc 263c
0.13827507 0.09137566 0.054227274 -0.06724298 0.022133218 0.024876334 -0.030807015 -0.05540361
0.27158138 -0.10569946 0.27399448 0.059904553 0.1900383 0.05180383 -0.10402828 0.34225494
0.036506206 0.19764069 0.16042894 0.2507482 0.24657695 -0.1611253 0.29610044 -0.16782714
0.17170613 0.27655244 0.032823335 0.058341444 -0.031964984 -0.02333975 -0.11627455 0.1358056
-0.1197266 0.20458524 -0.015642582 -0.1085088 0.06071468 0.15562429 0.16898514 0.12534803
-0.0023291751 0.14411595 0.04023726 -0.016049381 0.13208066 0.015251741 0.15074223 0.1460399
-0.15362267 0.058077402 0.025068067 -0.077963695 0.12817565 0.020459821 0.09742665 0.076640844
0.04931376 0.08575972 -0.008464242 0.19531918 0.19695826 -0.14713752 0.26762742 0.21338838
0.014993425 0.2029936 0.16022581 -0.26682237 0.20949537 0.17676626 0.19573124 0.17589365
0.02424908 0.17587556 -0.20154881 0.05760377 -0.060636748 -0.010173485 -0.14679489 0.06581461
-0.14347033 -0.01615687 0.07189826 0.027282001 -0.08966273 -0.09014548 0.016702747 0.099556595
-0.15771332 -0.058001295 0.0039329506 -0.2230109 -0.3481187 0.060814694 -0.064219445 0.17329207
-0.16634041 0.12158596 0.23144805 0.052794214 -0.1088603 0.20784192 0.17403123 -0.052227102
0.13866995 0.02896472 0.3041354 0.09860192 0.15820286 -0.23156336 -0.01844998 0.17866917
0.03508341 0.03356535 -0.012573209 -0.14403354 0.073783554 -0.044957764 0.046779312 0.1547339
0.052884225 -0.16330445 -0.028375117 -0.07559373 -0.021087375 0.058049217 0.0026600277 -0.043041587
0.025406081 -0.16739818 -0.17263766 0.03638024 0.23752281 -0.14247383 0.015449783 -0.26222152
-0.048699178 -0.11794408 -0.07258112 -0.22208516 -0.084674 0.14721347 0.04444185 0.0347574
-0.28340492 0.14843313 0.22515161 0.16874048 -0.0367742 0.0045576855 0.0016885464 0.23727077
0.15073687 -0.0065441015 -0.017501663 -0.0035655608 0.016201517 -0.044584613 0.053151533 0.2668681
0.08113526 0.010231672 0.06631024 0.034031197 -0.103932105 0.06467811 -0.0627504 0.15610856
0.049242895 0.0828063 0.08570991 0.111214705 0.13437338 0.12832487 0.10571802 -0.002896316
0.2721107 0.16777414 -0.0033662932 -0.1173945 0.034376495 0.14392954 0.05654379 -0.0684093
-0.13696413 0.037166003 -0.15668064 -0.012718391 -0.09631202 0.2323613 -0.025338577 -0.014740125
-0.033129178 -0.07974329 -0.00013431681 0.14169024 -0.22146991 0.30995 0.14250425 -0.070654824
0.14286287 0.03938263 0.2859898 0.24821495 0.059848387 0.12528682 0.08463917 0.014110689
-0.11654673 -0.2799128 -0.07943231 0.02003722 0.2660888 -0.13291752 -0.10998105 0.05576104
-0.04105192 -0.19858871 0.1954693 0.0032494853 -0.06195161 -0.11493911 0.2560242 0.12273426
-0.11063135 0.13514249 -0.08532816 0.27562544 -0.02021633 -0.1732152 -0.0007805676 0.18646373
-0.054809194 0.063392855 0.038648583 0.11558532 0.13039817 -0.1652996 -0.086766236 -0.09816167
-0.046394397 -0.046070095 -0.0865925 -0.016413676 -0.08315062 -0.1885883 -0.036693137 -0.04938286
-0.26560128 -0.08492672 -0.10460173 0.098302476 0.34715885 -0.033555917 -0.19557309 0.010176743

hidden_layers.3.linear.weight f4 [16, 16]
00000000: 2375 0d3e e801 8f3e 2145 b93c bc31 5f3e
00000010: 5cc4 47bd 2670 55be d881 793d e254 11bd
00000020: 772b 88bd 52ba fc3d 98c7 bb3d 9e6f 1abe
00000030: 2cf6 a83d e6f8 163d 226d 09be d143 093d
00000040: e7b0 b73d 158a 50be 0d01 60bd e678 3b3e
00000050: e416 a8bd 0ba6 133e 56a3 a2bd 090d 0a3e
00000060: c01b c03c e1c6 3a3e 35de d83d 3376 653d
00000070: 2bcb 503d b901 cabd 0aff 09be c710 a8be
00000080: dfb4 083e 6fb9 43bd fb74 bb3c cd77 893d
00000090: 2f50 353e 5593 e9bc 73b3 963d 5aac 36be
000000a0: 3ed5 35be 9df8 9fbb 37b1 95bd 7691 193e
000000b0: cc27 3a3d fb41 bd3d 1846 683e 1d17 083e
000000c0: a17b 50be e185 8d3b b3db f83d 8173 bcbd
000000d0: 2a3a 90bc 6e6e c7bd c75a ed3d efc1 033e
000000e0: 8f74 68bd b5a5 583d ec75 99be ec95 f5bc
000000f0: dd5f 013e 23bb a8bd dec6 fcbd 2885 02bd
00000100: 86a4 4d3d 3a77 c03d 2eba 2b3e 097b e53d
00000110: 9eac 3b3e 676f d3bd e0a3 9f3d 07be 413d
00000120: aff2 e0bd b18b af3c 77d6 be3d d658 4e3d
00000130: 5f83 903e 4124 4ebd a5ab 8e3e 9147 6f3d
00000140: ca04 0a3e 6c27 803e 3fea e53d 650d ad3b
00000150: a8d9 a3bd 60f5 5e3d 18da 723d d844 973b
00000160: 14e2 47bd 5046 30be 2593 223e 1ec7 903d
00000170: 452d 0b3e ed8c d33c 30f4 3e3e dde4 c6bd
00000180: 2595 ff3d cb82 12be 0c3c 1fbd 8454 8d3d
00000190: 0309 8a3e 778c 06be df28 7dbe ac38 573d
000001a0: 62fd 673c 1e52 363c ddc7 4c3e a55f f4bb
000001b0: b7a3 d63d d092 bf3d 635d 8b3d 22cc 8abd
000001c0: f57b 33be 5b54 d23d 2bf0 5b3e ed37 3c3d
000001d0: 7baa 60be 7a46 59bc f777 853d 32ab f23b
000001e0: 4e59 253e 6219 463e 0676 3c3d f2fd 9fbe
000001f0: f32a 163d 9c68 d43b d3e1 0ebe e1ae c63b
00000200: e436 713d 8193 a93d d6d4 2b3e 7c9c f1bd
00000210: 1e9a 0f3e 904e 79be 4581 3a3d 247a 1bbe
00000220: 778c 27bb 7df2 053d 9b4f a7bd 20d2 4e3e
00000230: f6ff 9f3d 9e27 82bc 271e 043e cd0d 803d
00000240: a6d6 6e3d 3b89 bd3c b7de bc3d 616a 823d
00000250: 48cb de3d ac53 93bd 94ff 383e 2c48 74be
00000260: 35a8 e3bc f6bc 0b3e e98d b63d 650b d5bc
00000270: 443a 63bc 2c54 103e bb2c 06be 57ab e93d
00000280: 66e1 893d cf12 823e 150c 5d3c 975d 0a3d
00000290: 81f2 123e bc44 57bd a315 46bc 5385 323d
000002a0: 5858 b0bd 7fff 9b3d e35c b4bd c50b 3fbe
000002b0: 6ca0 5a3e 8f00 103e c64e 133d 297d da3d
000002c0: 4841 133e 5ff1 0b3e 142b 8f3e 358d b7bd
000002d0: 747e 963d 5b1a af3e 51b5 713b f7ba 1d3d
000002e0: 22c2 29be 6f81 463e 10c0 e83d 8489 313e
000002f0: f898 3bbd 7f81 67bd 778a bd3c f065 26bd
00000300: 27df 32bd c384 183e d1fb 443e 9273 573d
00000310: e277 70bd 5442 af3e e796 823d 140c df3c
00000320: 570e 31be 7c7a f93d 4dbd 863e f7ce 223e
00000330: 9fae 223e 93fe 4c3d d323 d1bd 5896 983d
00000340: 72e7 f83a f10a 34bd 5bd9 f33b 7311 533e
00000350: 1d1a 43bd 7fe4 e03d affe 13bb 6325 e03d
00000360: 90ef e13d fc6f 483e e8aa 1dbe 9f7b 843e
00000370: 993d 40bc aca9 47ba 32e4 f43c 649f e4bd
00000380: f17b 8bbd f6bf 943e 808c 123e 217c b63d
00000390: 941c ef3d 9842 3e3e 9381 22bd 0bea b43c
000003a0: da28 f63d e60b 173e ddfd c73e fe24 013d
000003b0: ebc3 8c3e d44c 5d3a 778b dfbb 2bef 993d
000003c0: 4387 133e 2351 a23c a0ab 823e 8c55 873d
000003d0: f7ef b43e 15c7 52bd 6c88 9c3e b8f9 d23d
000003e0: f6c0 cf3d bf72 d13c e9ee 9a3d eba4 23bd
000003f0: 7bf0 a93c 5ebf 19be eb6d 9dbd f52a 6abe
0.13814215 0.27931142 0.022615971 0.21796316 -0.048771247 -0.20843562 0.060914844 -0.03548134
-0.06648915 0.12340225 0.09168929 -0.15081641 0.082500786 0.03685846 -0.13420537 0.03351194
0.08969288 -0.20365174 -0.054688502 0.18307838 -0.08207491 0.14418809 -0.0794131 0.13481535
0.023450732 0.18239929 0.10589258 0.056020927 0.050975006 -0.0986361 -0.13476196 -0.328253
0.13350247 -0.047784265 0.02288293 0.06712303 0.17706369 -0.028512636 0.07358446 -0.17839184
-0.17757127 -0.004881932 -0.07309192 0.14996895 0.04544811 0.092411004 0.22682989 0.13290067
-0.2035966 0.004318938 0.12151279 -0.09201718 -0.01760586 -0.0973786 0.1158958 0.12866949
-0.056751784 0.052892406 -0.2997278 -0.029978715 0.12634225 -0.082388185 -0.123426184 -0.03186527
0.05020573 0.09397741 0.1677024 0.11205108 0.18327567 -0.10323983 0.077949286 0.047300365
-0.10983788 0.021428915 0.0931825 0.05037769 0.28225228 -0.050327543 0.2786533 0.05841786
0.1347839 0.25030077 0.112263195 0.005281138 -0.08000499 0.054433227 0.05929002 0.004616361
-0.04879959 -0.17214322 0.15876444 0.070692286 0.13591488 0.025824035 0.18647838 -0.09711621
0.12479619 -0.14307706 -0.038875625 0.06900886 0.2696 -0.1313952 -0.24722622 0.05254428
0.014159532 0.011127977 0.19998117 -0.007457691 0.10480445 0.09354174 0.068049215 -0.067772165
-0.17527755 0.10269996 0.21478336 0.045951772 -0.21940033 -0.013261432 0.06517022 0.007405662
0.16147348 0.1934562 0.046010993 -0.31248432 0.036662053 0.006482197 -0.13953333 0.0060633277
0.05889024 0.08280087 0.16780409 -0.11797425 0.14023635 -0.24346375 0.045533437 -0.15183312
-0.0025565901 0.032701958 -0.081694804 0.20197344 0.078124925 -0.015888032 0.12902127 0.06252632
0.058310173 0.023136726 0.09222167 0.063679464 0.108786166 -0.071936935 0.18066245 -0.23855656
-0.027790168 0.13646302 0.08913786 -0.02600641 -0.013868872 0.14094609 -0.13103001 0.114096336
0.067324445 0.25404975 0.01349165 0.03378066 0.1435032 -0.052555785 -0.0120901195 0.04358418
-0.086106 0.076170914 -0.08806779 -0.18656833 0.21350259 0.14062713 0.035963796 0.10668404
0.14380372 0.13666295 0.27962554 -0.0896248 0.07348338 0.34199795 0.0036881755 0.03850838
-0.16577962 0.19385312 0.11364758 0.17337614 -0.04580018 -0.05651998 0.023137314 -0.04062456
-0.043669846 0.14894395 0.19236685 0.05260045 -0.05870808 0.34230292 0.063764386 0.027227439
-0.17290626 0.12181565 0.263163 0.15899263 0.15886925 0.05004747 -0.10211911 0.07450551
0.0018989875 -0.043955747 0.0074416823 0.20612125 -0.047632325 0.10981082 -0.0022582223 0.10944631
0.11032021 0.19573969 -0.15397227 0.25875565 -0.011733436 -0.00076165306 0.029893968 -0.11163214
-0.06810749 0.29052705 0.14311409 0.089103945 0.11675373 0.18580091 -0.039674353 0.022084257
0.120195106 0.14750633 0.3906087 0.03152942 0.27493224 0.0008441929 -0.0068220454 0.07516321
0.14407067 0.01981408 0.25521564 0.06608114 0.3533933 -0.05145939 0.30572832 0.10301536
0.10144226 0.02556741 0.075651 -0.0399522 0.020744553 -0.15014407 -0.07686981 -0.2286795

out.weight f4 [2, 16]
00000000: 062a 2fbd 1509 1dbd 8c92 24bd 3e16 1bbd
00000010: 7ede 2cbd a3f4 26bd 515d 1cbd cc20 22bd
00000020: 6c12 27bd 1bc0 2abd a350 27bd 7eee 2bbd
00000030: 6edb 27bd d3e3 1dbd 67ae 28bd 5790 35bd
00000040: 64b2 25bd d4c2 29bd 3ab8 26bd cca9 2dbd
00000050: 06ad 26bd 6992 27bd d747 28bd de46 28bd
00000060: 0430 27bd 103c 25bd 2bc4 27bd ff58 25bd
00000070: 9734 28bd 8961 27bd 839c 27bd 88dd 23bd
-0.042764686 -0.03833874 -0.04017882 -0.03786301 -0.042204373 -0.040760648 -0.03817493 -0.03958206
-0.040789053 -0.041687112 -0.040848386 -0.04197549 -0.04098075 -0.03854735 -0.041181948 -0.044327106
-0.04045333 -0.04144557 -0.040703036 -0.04239826 -0.04069235 -0.040911112 -0.041084137 -0.04108321
-0.040817276 -0.040340483 -0.040958565 -0.040368076 -0.04106578 -0.0408645 -0.040920746 -0.04000619

out.bias f4 [2]
00000000: 9073 763f 90c1 753f
0.96270084 0.9599848
