results/dot-ou-final_d=ballsw=8z=2det=0lat=const-sig-ntloss=exactsigma=diag/run0/saved_nets/ae_best_val_0.pth (torch, 681339 bytes, 40 tensors)

mu_linear.weight f4 [2, 4096]
0	0xbd75e27e	-0.060030453
1	0x3c8b00de	0.016968187
2	0xbcb8e0b3	-0.022568082
3	0xbd48f61b	-0.04906283
4	0xbd932546	-0.07184844
5	0xbd3cb896	-0.046074472
6	0xbd18ae1b	-0.037275415
7	0x3c74fc98	0.014952801
8	0xbbca9176	-0.006181891
9	0x3c108c67	0.008822537
10	0xbcbcb7c3	-0.023036843
11	0xbca0ed9d	-0.019644553
12	0xbd953b87	-0.072867446
13	0xbbceb5e6	-0.006308305
14	0xbd8d2d00	-0.06893349
15	0xbd076116	-0.033051573
16	0xbb4ccd52	-0.003125031
17	0xbd925733	-0.07145538
18	0xbc3f1127	-0.011661804
19	0x3b617c86	0.0034406497
20	0xbd046aa1	-0.03232825
21	0xbcd5b434	-0.026086904
22	0xbd7db300	-0.061938286
23	0xbc77f7c1	-0.015134753
24	0x3c169fd7	0.009193382
25	0xba48f21e	-0.0007665473
26	0xbcd5c41d	-0.02609449
27	0x3acc7735	0.0015599491
28	0xbd11c7b9	-0.03559086
29	0xbce920f8	-0.028458104
30	0xbd924631	-0.07142294
31	0xbd70a37d	-0.058749665
32	0x3cfe17b4	0.031017162
33	0x3d296ee7	0.04136553
34	0x3cac6694	0.021045007
35	0x3baa7e68	0.005203057
36	0xbd13cdae	-0.036084823
37	0xbd383962	-0.0449766
38	0xbd576a5e	-0.052591674
39	0xbbcbf68c	-0.006224459
40	0x3d8c87b5	0.068618216
41	0x3d901852	0.07035889
42	0x3d221596	0.039571367
43	0x3c7cfdbb	0.015441353
44	0xbc0362a6	-0.008019125
45	0xbbaf2c50	-0.0053458586
46	0xbc73b467	-0.014874554
47	0x3c8a02e7	0.016847087
48	0x3db8e51b	0.090280734
49	0x3d59b87f	0.053154465
50	0x3cbd5b15	0.02311472
51	0x3cf80790	0.030277044
52	0x3cbed5cc	0.023295306
53	0xbb585ed6	-0.003301551
54	0x3c5a7644	0.013333861
55	0x3d334ed4	0.04377635
56	0x3c12e31d	0.008965281
57	0xbc9be365	-0.019029329
58	0x3c670901	0.014101268
59	0x3c7c34a2	0.015393408
60	0x3c5ad98f	0.013357534
61	0x3a76b5fa	0.0009411272
62	0x3c9f07ae	0.019412842
63	0x3d04ec29	0.032451782
64	0xbbf6131e	-0.007509603
65	0xbd11c40d	-0.03558736
66	0xbb66203c	-0.0035114428
67	0xbb21d091	-0.0024690966
68	0x3c1d0253	0.009583074
69	0xbcf6b047	-0.030113352
70	0x3928cf4d	0.00016098954
71	0xbc3d3464	-0.011548135
72	0xbbf6ebaf	-0.00753542
73	0xbceceb7b	-0.02892088
74	0xbd0f7dc3	-0.035032045
75	0xbcfc7787	-0.030818714
76	0xbd590c91	-0.0529905
77	0xbc340aa6	-0.010988867
78	0xbc73bf42	-0.014877142
79	0xbbdc467f	-0.006722271
80	0x3d0be5ea	0.03415481
81	0x3bbd993c	0.005786089
82	0xbbccbb34	-0.0062479023
83	0xbc8bb079	-0.017051922
84	0xbc8dc7fc	-0.017307274
85	0xbd973598	-0.07383269
86	0xbdbc8efe	-0.09206961
87	0xbd3daa87	-0.046305206
88	0xbc8d26dd	-0.017230446
89	0x3c7865c7	0.015160984
90	0x3cafbb5e	0.021451648
91	0x3c2ecff9	0.010669702
92	0xbafc15d2	-0.0019232577
93	0xbca64f29	-0.020301418
94	0xbda18770	-0.07887161
95	0xbd37d7eb	-0.04488365
96	0x3adc993d	0.0016830337
97	0x3d446e9e	0.047957055
98	0x3c889962	0.016674701
99	0x3d2f9831	0.04286975
100	0x3b10de25	0.0022105065
101	0xbaaa510e	-0.0012994127
102	0xbda4b102	-0.08041574
103	0xbd771d31	-0.060330573
104	0x3d894455	0.067024864
105	0x3d14564a	0.036215104
106	0x3c48552a	0.012227336
107	0xbb2d4787	-0.0026440339
108	0x3c6235b5	0.01380675
109	0xbba6a1b0	-0.0050851926
110	0x3d47fb3c	0.04882358
111	0x3d09f732	0.03368301
112	0xbcd60723	-0.02612645
113	0xbce07ffb	-0.027404776
114	0x3b4adb46	0.003095345
115	0xbc349a8f	-0.011023178
116	0x3d02d561	0.031941775
117	0x3d2340af	0.03985661
118	0x3c05062f	0.00811915
119	0xbc678788	-0.014131434
120	0xbc18aa12	-0.009317892
121	0x3c59fd53	0.013305026
122	0x3cf68a5d	0.030095274
123	0x3bc78458	0.0060887747
124	0xbc88bc69	-0.016691403
125	0x3cae9b32	0.021314237
126	0x3d4cdcea	0.050015368
127	0xbbbb1dd5	-0.0057103434
128	0xbc20bfed	-0.009811384
129	0xbc7ce1cc	-0.015434694
130	0x3c413830	0.011793181
131	0xbd35be55	-0.044370968
132	0xbd258f09	-0.040419612
133	0xbd1ef68d	-0.038809348
134	0xbd046b7b	-0.032329064
135	0xbdad8e63	-0.08474424
136	0x3d09f7fb	0.03368376
137	0xbbc411f5	-0.005983586
138	0x3c01af53	0.007915336
139	0xbb07f185	-0.0020743322
140	0xbc86ec5a	-0.016470123
141	0x3d0ceed3	0.034407448
142	0xbc8aa9e8	-0.01692672
143	0xbd32eeb9	-0.043684695
144	0x3d95dbdf	0.07317328
145	0x3d0cd56f	0.034383234
146	0x3930d672	0.00016864555
147	0xb832739f	-4.2546188e-05
148	0xbd14870d	-0.036261607
149	0xbbd42394	-0.006473968
150	0xbb615f39	-0.0034389033
151	0xbc905951	-0.017620714
152	0x3d8c8e64	0.06863096
153	0x3d21219c	0.039338693
154	0x3caf3774	0.021388747
155	0x3cb5bf1a	0.02218585
156	0x3cfec432	0.031099413
157	0x3c7348df	0.014848917
158	0x3d012617	0.031530466
159	0xbd2f7a41	-0.0428412
160	0x3c640008	0.013916023
161	0x3c87454a	0.016512532
162	0x3cfd6950	0.030934006
163	0x3c445a88	0.011984475
164	0xbb9f9da8	-0.004871089
165	0x3cde5dce	0.027144339
166	0xbc81a6b2	-0.015826557
167	0x3c1d9551	0.009618119
168	0xbd4085b0	-0.047002494
169	0x3d246205	0.04013254
170	0x3d63b52d	0.055592705
171	0xbb229471	-0.0024807716
172	0xbbb321ad	-0.005466661
173	0x3bf7ba3c	0.0075600427
174	0xbc5133c8	-0.012768693
175	0x3bc23929	0.005927224
176	0xbc260c0a	-0.010134706
177	0xbbf5c858	-0.0075006895
178	0x3d847136	0.06466906
179	0x3d0d77c2	0.034538038
180	0x3d03e8b4	0.032204345
181	0xbb977f75	-0.0046233484
182	0xbc2e0cbb	-0.010623152
183	0xb99d0a56	-0.00029953074
184	0x3dd65287	0.104649596
185	0x3de134f3	0.109964274
186	0x3d893144	0.0669885
187	0x3d82c797	0.06385725
188	0x3d52ded2	0.05148203
189	0x3ce15b1f	0.02750927
190	0x3d0a9e5e	0.033842437
191	0x3d1acaef	0.03779119
192	0xbcb80f59	-0.022468256
193	0xbbb6251d	-0.0055586235
194	0xbc4f48f1	-0.012651668
195	0xbc96eae9	-0.01842256
196	0xbda17dc6	-0.078853175
197	0xbd2178d8	-0.039421886
198	0xbd03db5c	-0.03219162
199	0xbb4ea556	-0.0031531653
200	0x3cbe95d8	0.02326481
201	0x3bbdb6ca	0.0057896124
202	0x3c3b7fa3	0.011444005
203	0xbca57b95	-0.02020053
204	0xbd2a765a	-0.041616775
205	0xbcd8fc6c	-0.026487552
206	0xbc200c1a	-0.00976851
207	0xbd381e01	-0.04495049
208	0x3c2c67df	0.010522812
209	0x3d068e10	0.032850325
210	0x3d04cd41	0.032422308
211	0x3c9c2503	0.019060617
212	0x39c93141	0.00038374405
213	0xbbccb489	-0.0062471074
214	0xbc947d1d	-0.018126065
215	0x3ba34bd3	0.004983404
216	0x3d82aeeb	0.06381019
217	0x3ca7a547	0.020464553
218	0x3ce738ac	0.028225265
219	0x3d1f0400	0.038822174
220	0xbb05f8d7	-0.002044251
221	0xbd0e313d	-0.034714926
222	0xbb2059dc	-0.0024467623
223	0xbd01fd10	-0.03173548
224	0x3d2439cf	0.040094193
225	0xbc33549e	-0.010945467
226	0xb94cf2f6	-0.00019545466
227	0x3c4f2095	0.0126420455
228	0xbc9e511c	-0.019325785
229	0x3ba4dcba	0.0050311955
230	0xbc881bb7	-0.016614778
231	0xbd08f78d	-0.033439208
232	0x3c42def8	0.01189398
233	0x3d3a2541	0.045445684
234	0xbc4445a1	-0.011979491
235	0xbba242b1	-0.004951798
236	0x3c4c5d50	0.012473419
237	0xbd0ccb76	-0.034373723
238	0x3bf55ff4	0.007488245
239	0xbc5fbe18	-0.013656162
240	0x3c905278	0.01761745
241	0x3c732eb1	0.014842675
242	0x3bbdcf22	0.0057925144
243	0x3c3ad6b2	0.011403726
244	0xbc7ae75d	-0.01531395
245	0x3c9c15d6	0.019053381
246	0x3cac70e4	0.021049924
247	0x3ce0e915	0.027454892
248	0x3d98192b	0.074266754
249	0x3d608072	0.054809995
250	0x3d00ad9f	0.031415578
251	0x3ceecec1	0.029151322
252	0x3da2b2eb	0.07944282
253	0x3d0ec1b1	0.034852687
254	0x3c2b60d3	0.010460096
255	0x3ba2e873	0.0049715578

mu_linear.bias f4 [2]
0	0xbb093580	-0.002093643
1	0x3c6a3261	0.014294238

sigma_linear.weight f4 [2, 4096]
0	0xbbc81f98	-0.006107282
1	0x3ca049f2	0.01956651
2	0xbb28ef1f	-0.0025777293
3	0x3c39f230	0.011349246
4	0x3a85c2c7	0.0010205143
5	0x3acc34c0	0.0015579686
6	0x39a8f948	0.00032229186
7	0x3b17c8fe	0.0023160572
8	0xbc2b5d08	-0.010459192
9	0x3c630534	0.013856221
10	0xbc208088	-0.009796269
11	0x3a71baaf	0.00092212384
12	0x3c7c1be0	0.015387505
13	0x3b687403	0.003546954
14	0x3c2f77e7	0.010709739
15	0x3c438e98	0.0119358525
16	0xb9474b13	-0.00019006086
17	0xba8ccedc	-0.0010742801
18	0x3cab5a33	0.020917034
19	0x3bd1362b	0.006384631
20	0xbb538c29	-0.0032279587
21	0x3bde05c7	0.006775591
22	0x3bb0f76e	0.0054005897
23	0x3bcf7ba9	0.00633188
24	0xbb52ee46	-0.003218548
25	0x3b405a41	0.002935067
26	0x3b422474	0.0029623779
27	0xbc41d15c	-0.0118297
28	0x3b8c41e8	0.0042803176
29	0xbc1ba3dd	-0.009499517
30	0xbd0280f6	-0.031861268
31	0xbcf0a903	-0.029377466
32	0xba624cf8	-0.0008632685
33	0x3cbb095e	0.022831615
34	0xbc44d360	-0.012013286
35	0x3b6ada76	0.003583578
36	0xbb058718	-0.0020374712
37	0xbaa38b72	-0.0012477471
38	0x3c7adcbf	0.015311419
39	0xbc43cd88	-0.011950858
40	0xbb74cf6a	-0.0037355074
41	0x3c3f7876	0.011686435
42	0xbb985270	-0.004648499
43	0x3c2935d3	0.010327774
44	0x3ac337ae	0.0014893913
45	0x3b75aa29	0.0037485457
46	0xbd485c7c	-0.048916325
47	0x3bd17d37	0.0063931006
48	0xb9c3b6e6	-0.00037329568
49	0xba140fcd	-0.00056481065
50	0x3ad6f594	0.0016400092
51	0xbc4825cc	-0.012216043
52	0xbb941c00	-0.0045199394
53	0xbc4dbb5c	-0.012556877
54	0x3cc676f3	0.024226641
55	0x3caa9507	0.020823015
56	0xbc217f1f	-0.009856968
57	0xbc46e22e	-0.012138886
58	0x3c0ff504	0.008786444
59	0x3cc51fa8	0.024062946
60	0x3af2c7f6	0.0018522728
61	0xbc189886	-0.009313708
62	0xba28789a	-0.00064266624
63	0xbc1f476b	-0.009721617
64	0xbc64d823	-0.013967547
65	0x3c302eb2	0.0107533205
66	0xbbf56902	-0.0074893245
67	0x3c437f5f	0.011932223
68	0xbbd03d44	-0.0063549597
69	0x3c2b26b8	0.010446243
70	0xbc59b55e	-0.01328787
71	0x3b243f9d	0.002506233
72	0xbc94a415	-0.018144647
73	0xbb8d5879	-0.0043135253
74	0x3cc5bd33	0.024138069
75	0xbc8cadcb	-0.017172715
76	0x3ca5a450	0.020219952
77	0xba42eb0e	-0.00074355386
78	0xbbfc8492	-0.0077062333
79	0x3d08a20f	0.033357676
80	0x3ac7a8a7	0.0015232757
81	0xbb791785	-0.0038008403
82	0xbc348721	-0.011018545
83	0xbbb9fbe9	-0.005675782
84	0xba089cb7	-0.00052113406
85	0x3bad599d	0.0052902238
86	0xbd346474	-0.044041112
87	0x3c4f46f8	0.012651198
88	0x3c5a07b4	0.013307501
89	0xbc2e104a	-0.010624001
90	0x3bade5f4	0.0053069536
91	0xbbc8f978	-0.0061332546
92	0x3bd259c2	0.0064193914
93	0xbc8f7ad4	-0.017514624
94	0x3b0571fb	0.0020362127
95	0x3c71db63	0.0147617785
96	0xbc5680f7	-0.013092271
97	0x3bbf1ee0	0.005832538
98	0xbb720437	-0.0036928782
99	0x3c40a7b1	0.011758731
100	0x3bc322f1	0.005955093
101	0xbba93a8d	-0.0051644505
102	0xba561f8c	-0.0008168153
103	0x3c6ae144	0.014335934
104	0xbc41e3fd	-0.011834142
105	0x3c97886d	0.01849767
106	0xbc3fae35	-0.011699249
107	0xbbd6ec0c	-0.0065589007
108	0xbb164262	-0.002292775
109	0xbca5ed8f	-0.020254878
110	0xbab2ac04	-0.0013631587
111	0x3cb1e050	0.021713406
112	0x393c12e5	0.00017936116
113	0x3c081b1a	0.008307243
114	0xbc6fb31a	-0.0146301035
115	0x3caa4949	0.020786898
116	0xbac2be68	-0.0014857771
117	0xbc5db9b1	-0.013533042
118	0xbc47b04e	-0.01218803
119	0x3cb065bd	0.021532888
120	0xbc1658cd	-0.009176445
121	0xbb8c9a60	-0.004290864
122	0xbca5ff36	-0.020263296
123	0x3c2d21f9	0.010567182
124	0xbc2168a9	-0.009851613
125	0x3cef1438	0.029184446
126	0x3bce5236	0.0062964214
127	0xbc814b9d	-0.015783126
128	0xbb87239c	-0.004124118
129	0xbc3ddc64	-0.01158819
130	0xbba74af4	-0.0051053707
131	0x3c920646	0.017825257
132	0xbc2bbd75	-0.010482182
133	0x3bf8ced4	0.007593015
134	0xbc10e2f9	-0.008843177
135	0x3c655049	0.013996192
136	0xbc81bbed	-0.01583668
137	0xbc099ade	-0.00839874
138	0xbaadb975	-0.0013254123
139	0x3beaee45	0.007169517
140	0x3b9b0308	0.004730586
141	0xbbcd6348	-0.0062679388
142	0xbbefab48	-0.0073141195
143	0x3be8307b	0.0070858574
144	0x3c8f3c4e	0.01748481
145	0xb78339b8	-1.5643294e-05
146	0xbb81482e	-0.003945372
147	0x3c75a4c2	0.014992895
148	0xbbd6f4ba	-0.0065599354
149	0x3ba408bf	0.0050059254
150	0x3be1d0bb	0.0068913377
151	0x3b620ab6	0.0034491247
152	0xbc64e232	-0.013969945
153	0xbbd6770e	-0.006544954
154	0xbb7748fe	-0.0037732716
155	0x3b0e1c21	0.0021684247
156	0xbc4dc185	-0.012558346
157	0x3b857b9a	0.0040735723
158	0x3b095123	0.0020952902
159	0x3b3cdcf3	0.002881822
160	0xbce30a48	-0.027714863
161	0xbc22cb07	-0.009936101
162	0x3ca72b16	0.020406287
163	0x3beeddae	0.00728961
164	0xbbe81648	-0.0070827343
165	0xbc89224b	-0.016739985
166	0xbb8b5d43	-0.004253061
167	0x3c44388f	0.011976375
168	0x3bd45aaa	0.0064805346
169	0x3b8f4017	0.004371654
170	0x3ca5d70a	0.02024414
171	0xbb8418c7	-0.004031274
172	0xba9116f1	-0.0011069459
173	0x3c5991af	0.013279363
174	0xbb29b90a	-0.0025897645
175	0xbc4ede8c	-0.0126263015
176	0xbcd94244	-0.026520856
177	0xba267fd3	-0.0006351445
178	0xbc21ba29	-0.009871044
179	0x3c750d10	0.014956728
180	0xbb8c0d11	-0.0042740186
181	0x3c151227	0.009098566
182	0xbca0b7c2	-0.019618873
183	0xbc1fb586	-0.009747868
184	0x3bacc56c	0.005272558
185	0x3baccdd1	0.0052735587
186	0xbc97148d	-0.018442417
187	0x3bf372d9	0.0074294624
188	0xbc027377	-0.007962099
189	0x3c2fcbe5	0.010729765
190	0x3c00d5ee	0.007863505
191	0x3ab58270	0.0013848078
192	0x3c7cc8f0	0.015428767
193	0xbc039f52	-0.00803359
194	0xbad69197	-0.0016370293
195	0xbc5fc4e9	-0.013657787
196	0xb9905a22	-0.00027532974
197	0x3caf84ef	0.021425692
198	0xbc3670e8	-0.011135317
199	0xbd0f3a62	-0.034967788
200	0xba542ba6	-0.00080936623
201	0x3c345ffe	0.011009214
202	0x3c46b3a1	0.012127788
203	0xbc76d7d9	-0.0150661105
204	0x3ce4fb46	0.027951848
205	0xbbc7b960	-0.0060950965
206	0xb97c8c31	-0.00024084818
207	0x3be56024	0.0069999862
208	0x3b391ed7	0.0028247142
209	0xbb169d9b	-0.0022982124
210	0xbbb94a5b	-0.005654616
211	0xbbc51f71	-0.006015711
212	0x3bab63f7	0.0052304226
213	0x3b7519e5	0.0037399468
214	0xbb8fac29	-0.0043845368
215	0xbb36e1c5	-0.0027905565
216	0xbc156a3a	-0.009119565
217	0x3c07ca0b	0.008287917
218	0x3c3d2f80	0.011546969
219	0xba3f55d7	-0.0007298863
220	0xba464dd3	-0.00075646973
221	0x3b4d52aa	0.003132979
222	0xbc375144	-0.011188809
223	0xbc0aebb8	-0.008479051
224	0xba1cde23	-0.00059840287
225	0xbc623370	-0.013806209
226	0x3b6fbc4f	0.0036580747
227	0xbc1f1c0e	-0.009711279
228	0x3ba857a4	0.0051374007
229	0x3c2ca5c5	0.010537569
230	0x3cc80a2e	0.024418917
231	0x3c392f9c	0.011302855
232	0x3a8a22e9	0.0010538968
233	0x3c743cdb	0.014907087
234	0xbc19c918	-0.009386323
235	0x3bb0b3e0	0.0053925365
236	0x3c63b545	0.0138981985
237	0x3bb6a5bd	0.0055739568
238	0xbc8f5ea2	-0.01750118
239	0x3b7e358f	0.0038789248
240	0x3c83d113	0.016090905
241	0xba1d7d82	-0.0006007777
242	0xbc277143	-0.010219875
243	0xbc3a6dab	-0.011378686
244	0xbbce568a	-0.0062969374
245	0xbcb6707b	-0.022270432
246	0x3b4d7706	0.003135146
247	0xbc3dc171	-0.011581765
248	0xbca2d386	-0.019876253
249	0x3a29d123	0.0006478002
250	0x3c7005e8	0.014649846
251	0xbb935488	-0.004496161
252	0xbcf708ed	-0.030155623
253	0x3cb7f21c	0.022454314
254	0x3c410e46	0.011783188
255	0x3c2d0a0c	0.010561477

sigma_linear.bias f4 [2]
0	0x3be3e71c	0.0069550406
1	0xbc0ec321	-0.008713515

encoder.0.weight f4 [8, 3, 5, 5]
0	0xbd1acc3c	-0.03779243
1	0x3c8151fc	0.015786164
2	0x3c63ae91	0.0138966
3	0x3d0c3ad0	0.034235775
4	0xbd09eac3	-0.03367115
5	0x3d3522e8	0.044222742
6	0x3d916a66	0.07100372
7	0xbd980a6c	-0.07423863
8	0xbcd73ae5	-0.0262732
9	0xbca7363e	-0.020411607
10	0xbcd93b28	-0.026517466
11	0xbd44a968	-0.04801312
12	0x3c090f29	0.008365431
13	0x3d7f8eef	0.06239217
14	0xbc809ca1	-0.015699686
15	0xbd401c89	-0.046902213
16	0x3bbca400	0.005756855
17	0xbc714bd1	-0.014727549
18	0xbcd4bf8c	-0.025970243
19	0x3d0fc0d6	0.035096012
20	0x3c92edfe	0.01793575
21	0xbd5fe17e	-0.054658405
22	0xbcb1aea5	-0.021689722
23	0xb8f5a198	-0.000117126096
24	0x3c147b91	0.009062664
25	0x3ce74359	0.028230356
26	0x3d837d43	0.06420376
27	0x3ccb0ccc	0.024786375
28	0x3d0122af	0.031527217
29	0xbdd8a8cd	-0.10579071
30	0xbd87ce32	-0.066311255
31	0xbd607003	-0.054794323
32	0x3b7238ab	0.0036960046
33	0x3bb24bf6	0.005441184
34	0xbcce29a2	-0.025166336
35	0xbd3de316	-0.046359144
36	0x3abad83e	0.0014255119
37	0x3bb1f62f	0.0054309587
38	0xbcd38f5d	-0.025825197
39	0xbd8e53da	-0.06949587
40	0x3cb6f248	0.022332326
41	0xbcff0c93	-0.031133926
42	0xb9ef5bf0	-0.0004565413
43	0xbcb65311	-0.022256406
44	0xbd282c84	-0.04105808
45	0xbc9ca911	-0.019123586
46	0xbb36676c	-0.002783264
47	0x3c2fe330	0.010735318
48	0x3d07236f	0.032992776
49	0x3d81c89b	0.063370906
50	0x3a15cf0b	0.0005714751
51	0xbc0a44cf	-0.008439257
52	0x3d071866	0.032982253
53	0x3b27cdc8	0.0025604833
54	0xbc867b30	-0.016416162
55	0xbd342c85	-0.04398777
56	0x3c9b0a9b	0.018925956
57	0x3cacc9bb	0.021092286
58	0x3cf17524	0.029474802
59	0xbc8b164c	-0.016978405
60	0x3c017592	0.007901566
61	0x3d06fa27	0.032953408
62	0xbca057c8	-0.019573107
63	0xbcfd28c7	-0.030903233
64	0x3d55969b	0.05214558
65	0x3ca9929a	0.020699788
66	0x3c3ce5fa	0.01152944
67	0xbc3576a4	-0.011075649
68	0x3b6a1f94	0.0035724388
69	0x3cd9e569	0.02659865
70	0x3cdfabca	0.027303595
71	0x3c6c8cf8	0.014437906
72	0x3cc3822b	0.02386578
73	0xbc8ea6d3	-0.017413532
74	0xbd89e321	-0.067327745
75	0x3c3d7f15	0.011565943
76	0x3d0720cc	0.032990262
77	0xbd4a4552	-0.049382515
78	0xb9c0cf31	-0.00036775463
79	0xbc8f4fbc	-0.017494075
80	0xbd9d7e89	-0.0769015
81	0xbcc3b2e3	-0.02388901
82	0xbd1e67d0	-0.038673222
83	0x3d955855	0.072922386
84	0x3cc0e6b4	0.023547508
85	0xbc28e1d3	-0.010307747
86	0xbb08321a	-0.0020781816
87	0x3caf5dc5	0.021407017
88	0xbd084181	-0.033265594
89	0x3d0805ab	0.03320853
90	0x3c369a58	0.011145197
91	0xbc309545	-0.010777776
92	0xbd905c7d	-0.07048891
93	0x3ccbebd6	0.024892729
94	0xbcaf41ce	-0.021393683
95	0xbd4197e3	-0.04726399
96	0x3cd78728	0.026309565
97	0x3d578b0e	0.052622847
98	0x3c9e5304	0.019326694
99	0xbd40b96a	-0.047051825
100	0xbccc8297	-0.024964614
101	0xbb3e4637	-0.002903355
102	0xbbd4569d	-0.0064800517
103	0xbcfa0e39	-0.03052436
104	0x3d7ac536	0.06122323
105	0xbbeff540	-0.0073229373
106	0xbdd5220b	-0.10406884
107	0x3d8398d3	0.06425633
108	0xbd8237d8	-0.063583076
109	0xbdf1765a	-0.11790152
110	0x3ce73990	0.02822569
111	0x3cf0be81	0.029387714
112	0xbd069e84	-0.032866016
113	0xbd06ba73	-0.032892656
114	0x3c41edce	0.011836482
115	0x3d9a5eb8	0.075375974
116	0x3d473967	0.048638728
117	0xbcf5debd	-0.030013436
118	0xbcabcf9f	-0.020973025
119	0xbd66e196	-0.05636748
120	0xbc495d2f	-0.012290283
121	0x3c7ea0b7	0.015541247
122	0xbd6cd5fd	-0.057821263
123	0x3c75a3c6	0.01499266
124	0x3c88edab	0.016714891
125	0xbd494cd0	-0.04914552
126	0xbd202506	-0.03909781
127	0xbd8e8260	-0.06958461
128	0xbc02d62b	-0.007985632
129	0xbc8c9dd9	-0.017165111
130	0xbc5ac91a	-0.01335361
131	0x3b5fd15e	0.0034151892
132	0x3c861acb	0.016370198
133	0xbca86e5a	-0.020560432
134	0xba941045	-0.0011296353
135	0xbc14f7b3	-0.009092259
136	0xbba2acbf	-0.0049644406
137	0xbca2bffc	-0.019866936
138	0xbb94e0ed	-0.004543415
139	0x3b1342f7	0.0022470334
140	0x3c13df5e	0.009025423
141	0x3ae2f92b	0.001731669
142	0x3beae971	0.0071689417
143	0x3d06a332	0.03287048
144	0x3bd98a0d	0.0066387714
145	0xbc91d635	-0.017802337
146	0x388f3adb	6.829734e-05
147	0x3c995819	0.018718766
148	0x3d35352b	0.044240158
149	0xba2f866b	-0.000669575
150	0x3d408d1f	0.047009584
151	0x3d8fc244	0.07019475
152	0x3d9dc394	0.07703319
153	0xbcf3df49	-0.029769557
154	0x3c1be187	0.009514219
155	0xbd325086	-0.043533824
156	0xba0093a1	-0.0004904811
157	0xbd006df3	-0.031354856
158	0xbc8771b1	-0.016533704
159	0xbd8c2378	-0.068427026
160	0x3bbafe12	0.005706557
161	0x3cdcd80f	0.026958494
162	0x3b614e10	0.0034378804
163	0xbdc1c7cf	-0.094619386
164	0xbd0fcbfd	-0.035106648
165	0xbd1967a1	-0.037452344
166	0xbce45f71	-0.027877541
167	0xbcd2c7b3	-0.02572999
168	0x3b358d29	0.0027702546
169	0x3bbc4bdd	0.0057463483
170	0xbd62d12d	-0.055375267
171	0xbc7aa56d	-0.01529823
172	0x3b649005	0.0034875881
173	0xbd9c97d1	-0.07646144
174	0xbd57157e	-0.05251073
175	0x3d755568	0.059895903
176	0x3b8a0087	0.0042114886
177	0x3d109b49	0.03530434
178	0xbceca164	-0.02888555
179	0xbcef7744	-0.029231675
180	0xbd6430b2	-0.055710502
181	0xbc3bff4c	-0.011474442
182	0xbca65485	-0.020303974
183	0xbd01f2c1	-0.03172565
184	0xbc7e2c16	-0.015513441
185	0xbd9e1cd7	-0.077203445
186	0xbd0afbbe	-0.033931486
187	0x3a5a3aa3	0.00083247776
188	0x3aa80722	0.0012819509
189	0xbca248ba	-0.01981007
190	0x3c890bdf	0.016729293
191	0x3d5c22cc	0.053744122
192	0xbd9a0384	-0.07520202
193	0x3b934e97	0.0044954526
194	0x3d591208	0.05299571
195	0x3d1d0b33	0.03834076
196	0xbd16d359	-0.03682265
197	0x3d33ea93	0.04392488
198	0x3e09f32e	0.13471672
199	0x3b635bcd	0.0034692169
200	0xbc7fdbd3	-0.015616375
201	0xbc943be5	-0.018094966
202	0xbd43bbce	-0.047786526
203	0xbc5c1793	-0.013433355
204	0x3c0c85ba	0.008576805
205	0x3c936fed	0.017997706
206	0x3b872cf3	0.0041252314
207	0x3d061b10	0.032740653
208	0x3b6a5ed9	0.00357621
209	0xbcb7be07	-0.02242948
210	0x3c05a0b6	0.008155992
211	0xbd31c4a1	-0.04340041
212	0x3c134a2b	0.008989851
213	0x3b41995b	0.002954087
214	0xbd1ad486	-0.037800334
215	0x3ce1eb97	0.027578158
216	0x3bab4e0f	0.005227811
217	0x3bdebe03	0.0067975535
218	0xbb6c881b	-0.0036091867
219	0xbbd7ab23	-0.0065816804
220	0x3b864e3d	0.004098682
221	0x3b17b3bb	0.00231479
222	0xbc1a8f88	-0.009433635
223	0x3c408b0f	0.011751904
224	0x3d6ac7c2	0.05731941
225	0x3c252d0e	0.010081543
226	0xbd08069b	-0.033209424
227	0xbde0c8e0	-0.10975814
228	0xbd81bfcc	-0.063354105
229	0x3d65dcc7	0.056118753
230	0xbc938766	-0.018008899
231	0xbd11383b	-0.035454016
232	0x3d30f6b1	0.043204013
233	0x3d39a173	0.045319986
234	0x3d53dffe	0.051727287
235	0x3c1754d2	0.009236531
236	0xbcf326ae	-0.02968153
237	0x3aa9e260	0.0012961142
238	0xbc82cc03	-0.015966421
239	0xbd3a142c	-0.045429394
240	0x3c327679	0.010892504
241	0xbd207a1b	-0.03917895
242	0x3cc1f110	0.023674518
243	0xbbd72c25	-0.0065665417
244	0xbd8b9e97	-0.06817358
245	0x3a1075ca	0.0005510716
246	0x3c58d6eb	0.013234834
247	0xbcfe33be	-0.031030532
248	0x3ab5aaf1	0.0013860149
249	0xbca09a9e	-0.019604977
250	0xbcd2601b	-0.025680592
251	0xbd21def8	-0.03951928
252	0xbd668d57	-0.056287136
253	0x3bfebb9d	0.00777383
254	0xbc369718	-0.011144422
255	0xbd3ba82d	-0.04581468

encoder.0.bias f4 [8]
0	0x3c087ca1	0.008330495
1	0x3b4c2537	0.0031150111
2	0x3c0a887d	0.008455393
3	0xbb83a173	-0.004017049
4	0x3bc26b9b	0.0059332377
5	0xbbcd6088	-0.006267611
6	0xbc34d623	-0.011037382
7	0xba1bb34d	-0.00059394987

encoder.3.weight f4 [16, 8, 5, 5]
0	0x3c6c68ed	0.014429313
1	0x3c0bc013	0.008529681
2	0xbcf391a2	-0.02973253
3	0xbb7d691b	-0.0038667384
4	0x3ada437a	0.001665219
5	0x3c001be4	0.00781915
6	0x3c5d33e6	0.013501143
7	0x3c16911a	0.009189868
8	0xbd419af4	-0.047266915
9	0x3d0d5f07	0.034514453
10	0xbc40ab5f	-0.011759608
11	0x3c997426	0.018732142
12	0x3968b684	0.00022193237
13	0x3c695a55	0.014242728
14	0x3c995b07	0.018720163
15	0x3cb0cb77	0.021581395
16	0xbd2f5868	-0.04280892
17	0xbcd3610f	-0.025803117
18	0x3d2b5bf2	0.041835733
19	0x3bcbc161	0.006218121
20	0x3d801ee6	0.062558934
21	0x3ad9c836	0.0016615454
22	0xbd42408e	-0.047424845
23	0x3d05b293	0.032641005
24	0xbd344f57	-0.044020977
25	0xbd3b59f0	-0.045740068
26	0x3d81a510	0.06330311
27	0xbd538f45	-0.051650304
28	0x3bc1e4ae	0.0059171533
29	0x3af71afc	0.0018852646
30	0xbd47670a	-0.04868225
31	0x3d82ac94	0.06380573
32	0xbd1ea61b	-0.03873263
33	0x3cb0ce0d	0.021582628
34	0x3caf94e9	0.02143331
35	0x3cd6a981	0.026203873
36	0xbd07bcec	-0.033139154
37	0xbc807499	-0.015680598
38	0x3d8f50e3	0.0699785
39	0x3bba1c89	0.005679671
40	0x3d94094f	0.07228338
41	0x3c65e2eb	0.014031152
42	0x3d5ca1fa	0.05386541
43	0x3b82c0c9	0.003990267
44	0xbce32437	-0.02772723
45	0xba8ae60a	-0.0010597121
46	0x3b2064ab	0.0024474065
47	0xbd18de04	-0.037321106
48	0xbc0154d0	-0.007893756
49	0x3cefa462	0.029253189
50	0xbcbd7b35	-0.023130039
51	0x3b6a6714	0.0035767006
52	0xbd195758	-0.037436813
53	0x3cfd35d5	0.030909458
54	0x3bf4a2ea	0.00746571
55	0x3b0ce9b0	0.0021501593
56	0xbb8c897f	-0.0042888517
57	0xbc901d29	-0.01759203
58	0xbbe0c4c7	-0.006859395
59	0xbce01a18	-0.027356192
60	0xbd93d26e	-0.07217871
61	0xbcd3e70f	-0.025867013
62	0xbd221d10	-0.039578497
63	0xbd16c504	-0.036808982
64	0x3d047418	0.032337278
65	0x3d082be5	0.033244986
66	0xbccffa71	-0.025387974
67	0xbd40df87	-0.047088172
68	0xbc73e38d	-0.014885795
69	0x3c657352	0.014004545
70	0x3cfb7cd6	0.030699175
71	0x3c054ba8	0.008135714
72	0xbd042653	-0.03226311
73	0xbc0425e6	-0.008065676
74	0xbd3235c7	-0.043508317
75	0xbc1a2504	-0.009408239
76	0xbce9df94	-0.028548993
77	0x3c1cf2e0	0.00957939
78	0x3c52e375	0.012871613
79	0xbd735ddd	-0.059415687
80	0xbc6b355c	-0.014355984
81	0x3d236f34	0.039900973
82	0xbda854a8	-0.08219272
83	0x3b09d745	0.0021032852
84	0xbbbe33cd	-0.005804515
85	0xbd829e8b	-0.06377896
86	0x3d0ffaec	0.035151407
87	0x3c5357a4	0.012899313
88	0xbb81635f	-0.0039486135
89	0x3ccb7d65	0.024840066
90	0x3b85d136	0.004083778
91	0x3bd7ed05	0.006589534
92	0xba4bafb1	-0.00077700155
93	0x3c93ba4a	0.018033165
94	0xbc94fbc2	-0.018186454
95	0xbca3de49	-0.020003455
96	0x3d4db129	0.05021778
97	0xbcfa95ee	-0.03058907
98	0x3cb9dfea	0.022689778
99	0xba9cb010	-0.0011954326
100	0xbd194b00	-0.03742504
101	0x3b2ea33e	0.0026647593
102	0x3c9b6be1	0.01897234
103	0x3c8e6694	0.017382897
104	0x3d175981	0.036950592
105	0x3cd22aef	0.025655238
106	0x3d75a474	0.059971288
107	0x3bf51ea6	0.00748046
108	0xbd34ced6	-0.044142567
109	0x3cd07dbf	0.025450585
110	0xb9d9971d	-0.00041502054
111	0x3c972ec3	0.018454915
112	0xbcbb25a7	-0.022845102
113	0x3be2b980	0.006919086
114	0x3cdf3d12	0.0272508
115	0x3d0dfb6b	0.0346636
116	0xbb57eaf6	-0.0032946444
117	0x3d175e76	0.03695532
118	0x3c14a028	0.009071387
119	0x3d16f938	0.036858767
120	0xbc2320b0	-0.009956524
121	0x3cf948e5	0.030430267
122	0xbd194751	-0.03742153
123	0xbc662892	-0.014047759
124	0x3d25db7b	0.040492516
125	0xbc5c411c	-0.013443258
126	0x3d146532	0.03622932
127	0x3d086880	0.033302784
128	0x3c40d6a7	0.011769927
129	0xbb92f152	-0.004484334
130	0x3be15dd4	0.0068776403
131	0x3b8498a2	0.0040465156
132	0xbd31292a	-0.043252148
133	0x3d220347	0.039553907
134	0x3d3fffb2	0.04687471
135	0x3ce12d78	0.027487502
136	0xbd06bdaf	-0.03289574
137	0x3cf67298	0.03008394
138	0xbca7dc40	-0.020490766
139	0xbcc938a5	-0.024563143
140	0x3d41c5cd	0.04730778
141	0xbd25e73e	-0.040503733
142	0x3d13024c	0.035890862
143	0xbcf48b1a	-0.029851485
144	0xbc97bcc6	-0.018522631
145	0x3c2f311a	0.010692859
146	0xbd498d0a	-0.04920677
147	0x3c11b266	0.008892631
148	0x3c88ae9c	0.016684823
149	0xbccec390	-0.025239736
150	0xbc49d998	-0.012319945
151	0x3b839ac0	0.0040162504
152	0xbcb4ad94	-0.022055425
153	0xbcec0be5	-0.028814266
154	0xbd103da9	-0.035215054
155	0x3be0fa86	0.006865802
156	0xbd0c2907	-0.034218814
157	0xbcaa47e9	-0.020786243
158	0xbd2b1dd2	-0.041776486
159	0x3d40cb73	0.047069024
160	0xbc3731c8	-0.011181302
161	0x3a9e1b44	0.0012062569
162	0xbd5b0c9b	-0.05347882
163	0xbcbb45b1	-0.02286038
164	0xbcf7d8ee	-0.030254807
165	0x3c4375e8	0.0119299665
166	0xbcb4d3fa	-0.022073735
167	0xbc1497ef	-0.009069427
168	0x3cac1078	0.021003947
169	0xbcca1ea3	-0.024672812
170	0x3cde3917	0.027126832
171	0xbbb650c1	-0.005563826
172	0xb9f0b83b	-0.0004591363
173	0x3ccc39d7	0.024929924
174	0x3b4d73b0	0.0031349473
175	0xbd1a5556	-0.03767904
176	0xbcc0ebdd	-0.023549968
177	0x3d082d51	0.033246342
178	0x3ac23d9a	0.0014819384
179	0x3bad5f80	0.0052909255
180	0x3d0944d6	0.033512913
181	0xbbe81f5a	-0.0070838155
182	0xbcdeafce	-0.02718344
183	0xbd08dc4a	-0.03341321
184	0xbc0c5e4e	-0.008567406
185	0xbd3100e4	-0.04321374
186	0xbcdde3d9	-0.027086185
187	0xbbfa108c	-0.007631367
188	0x3cc6a006	0.024246227
189	0x3d389d8c	0.045072123
190	0x3c884f67	0.016639424
191	0xbc1e54f3	-0.009663808
192	0xbd4ba53a	-0.04971812
193	0x3b921c7f	0.0044589634
194	0xbd311c1a	-0.04323969
195	0x3d0d1977	0.034448113
196	0x3d477d21	0.048703317
197	0xbc8dd2dc	-0.01731246
198	0xbb339354	-0.0027401047
199	0xbd50d214	-0.050981596
200	0x3c2bbb35	0.010481645
201	0xbca8b383	-0.02059341
202	0xbd451af3	-0.048121404
203	0xbd5fd38f	-0.054645117
204	0x3cdb515c	0.026772194
205	0x3d4da626	0.05020728
206	0xbc243d86	-0.010024434
207	0xba22a09a	-0.0006203741
208	0xbcaa60f3	-0.020798182
209	0xbd3a8a15	-0.04554184
210	0xbc1a8424	-0.009430919
211	0xbd1cae30	-0.038252056
212	0x3cd589a2	0.026066605
213	0xbd31950b	-0.04335503
214	0xbd20d9ff	-0.039270397
215	0xbc985260	-0.018593967
216	0xbd105222	-0.035234578
217	0xbcb9c7dc	-0.022678308
218	0xbd266354	-0.04062207
219	0xbc8c1908	-0.01710178
220	0x3d1e318a	0.038621463
221	0xbd76ab46	-0.060221933
222	0x3d935152	0.07193245
223	0xbc92de63	-0.017928308
224	0xbbed247d	-0.0072370158
225	0xbc3a7594	-0.011380572
226	0xbd5d07ae	-0.053962402
227	0xbb22c8fe	-0.002483904
228	0xbb987163	-0.0046521886
229	0x3db43010	0.0879823
230	0xbc8b89c3	-0.017033463
231	0xbd250a1e	-0.04029285
232	0x3c1db275	0.009625067
233	0xbb8e079d	-0.0043344037
234	0x3d49b56a	0.049245276
235	0x3c9bad96	0.01900367
236	0xbc4e7308	-0.012600668
237	0xbd5d4537	-0.054021087
238	0x3cb5ecdc	0.02220767
239	0xbcd6d9da	-0.026226927
240	0x3d1cc49d	0.038273443
241	0x3b5b852a	0.003349612
242	0x3c557c7d	0.013030169
243	0x3d03ce83	0.032179367
244	0x3ca04f28	0.019568995
245	0x3b122cc8	0.0022304524
246	0xbd8943bd	-0.06702373
247	0xbbeddf80	-0.0072593093
248	0xbcc4f152	-0.024040852
249	0x3cf0925c	0.029366665
250	0xbd076923	-0.03305925
251	0x3d7f959e	0.062398545
252	0xbc505652	-0.012715893
253	0x3cd1935d	0.025582964
254	0x3cc0f769	0.023555474
255	0xbc522311	-0.012825743

encoder.3.bias f4 [16]
0	0xbbb1bfc6	-0.0054244725
1	0xbc87a5b3	-0.016558504
2	0xbb867dee	-0.0041043675
3	0xbb7220ab	-0.003694574
4	0xbbfced48	-0.007718716
5	0xbb386ef2	-0.00281423
6	0xbc6c17bf	-0.014409958
7	0xbb8d529c	-0.0043128263
8	0xbba3b771	-0.004996233
9	0xbc813937	-0.015774352
10	0x3c091f00	0.008369207
11	0x3b81caf9	0.003960964
12	0xbc7c2945	-0.015390699
13	0xbc63b9d9	-0.01389929
14	0xbb7f9c3c	-0.0039003035
15	0xbc4f8abd	-0.012667355

encoder.6.weight f4 [32, 16, 5, 5]
0	0x3b9f200b	0.0048561147
1	0xbca8fa26	-0.020627093
2	0xbc2d24bd	-0.010567841
3	0xbd210197	-0.039308157
4	0x3c753b2e	0.014967723
5	0xbcd68b82	-0.02618957
6	0xbd1b9471	-0.03798336
7	0x3c109f13	0.008826989
8	0xbccd16a0	-0.025035203
9	0xbc81c9b8	-0.015843257
10	0xbb825b13	-0.003978142
11	0xbd177a20	-0.0369817
12	0x3d47ed7e	0.048810475
13	0x3c99ab96	0.018758576
14	0xbbfd385d	-0.0077276663
15	0x3d4b18dd	0.04958426
16	0x3cc930b5	0.024559358
17	0xbcab68b7	-0.020923955
18	0xbcb54c16	-0.022131007
19	0xbc21bece	-0.009872152
20	0x3c49d8a9	0.012319722
21	0x3bde641d	0.006786837
22	0x3d190b08	0.037364036
23	0xbcfe7077	-0.031059487
24	0xbd576ac9	-0.052592073
25	0xbd3a9955	-0.045556385
26	0xbc358247	-0.011078424
27	0xbc0aabaf	-0.008463784
28	0x3adb2e62	0.0016722197
29	0xbc331956	-0.0109313335
30	0x3b7fac60	0.0039012656
31	0x3bade606	0.005306962
32	0x38e0ff79	0.00010728738
33	0x3c006627	0.007836855
34	0x3c8f915a	0.017525364
35	0x3c7f44a3	0.015580329
36	0xbca20267	-0.019776536
37	0x3bcd719c	0.006269647
38	0xbcbdfbb9	-0.02319132
39	0x3d05e797	0.032691564
40	0xbbab15a3	-0.005221085
41	0xbcbc95a0	-0.023020566
42	0xbd1638cd	-0.036675263
43	0x3982efb0	0.00024974113
44	0xbb11da02	-0.0022255187
45	0xbc32a67f	-0.010903954
46	0xbafddc9a	-0.0019368113
47	0x3c70513d	0.014667806
48	0x3c6a67ea	0.014307002
49	0x3a922433	0.0011149704
50	0xbcb42a86	-0.021992933
51	0xbc86277e	-0.016376253
52	0xbc48e04d	-0.012260509
53	0xbce8f940	-0.028439164
54	0xbcd13e22	-0.025542323
55	0xbc82eed7	-0.015983028
56	0xbc3b62d5	-0.011437138
57	0xbd07014e	-0.03296023
58	0x3ce5714d	0.028008128
59	0xba474bc8	-0.000760254
60	0xbae70091	-0.001762407
61	0x3d402a82	0.04691554
62	0xbcb121fa	-0.021622647
63	0xbcc82e8b	-0.024436256
64	0x3bbae4e3	0.005703555
65	0xbccbc417	-0.024873776
66	0x3d0c8dba	0.03431485
67	0xbc3f4d7a	-0.011676187
68	0x3ab2a7ef	0.001363037
69	0xbd10b977	-0.035333123
70	0xbabea184	-0.0014543985
71	0xbd2840e3	-0.041077506
72	0x3d1638e9	0.036675368
73	0x3c64babb	0.013960536
74	0xbd03b687	-0.032156494
75	0xbd10f268	-0.035387427
76	0x3d55a1ce	0.052156262
77	0xbc036240	-0.00801903
78	0xba30183f	-0.000671748
79	0xbc224df6	-0.009906283
80	0x3b7892ce	0.00379293
81	0x3d23ef54	0.040023163
82	0x3b40098d	0.0029302568
83	0xbc9216b2	-0.017833088
84	0x3cae5926	0.021282744
85	0x3d1d5324	0.038409367
86	0xbad3bc0c	-0.0016154065
87	0xbc1cbbed	-0.009566289
88	0xbc14b83c	-0.009077128
89	0x3c00dcc2	0.007865133
90	0x3cb24138	0.021759614
91	0xbc9e5fde	-0.019332822
92	0x3c250a62	0.010073276
93	0x3bfefaab	0.007781347
94	0x3b817266	0.003950405
95	0x3b15f3ce	0.0022880915
96	0xbcd3ae0a	-0.025839824
97	0xbd5d2a93	-0.05399568
98	0xbc12c264	-0.008957479
99	0x3b44365a	0.0029939623
100	0x3d06319d	0.03276216
101	0xbcc8ca7f	-0.02451062
102	0x3d0d7178	0.03453204
103	0xbc7cb11c	-0.015423086
104	0x3c0522d3	0.0081259785
105	0x3c37ea50	0.011225298
106	0xbcddf216	-0.027092975
107	0xbc50559e	-0.012715725
108	0xbc9c0235	-0.019044021
109	0xbc8cff9a	-0.017211724
110	0xbcc29127	-0.023750855
111	0xbd31a6cd	-0.043371964
112	0x3bc9ce93	0.006158659
113	0x3c1a0caf	0.009402438
114	0xbb9e77bb	-0.0048360503
115	0xbc00d7be	-0.007863937
116	0xbcac745f	-0.021051584
117	0x3c603b33	0.013685989
118	0xbc1356f2	-0.008992897
119	0x3bacf8df	0.005278691
120	0xbb9be6dc	-0.004757745
121	0x3c693c2e	0.014235539
122	0xbd0bddab	-0.034146946
123	0xbc580beb	-0.013186435
124	0x3c916a2c	0.017750822
125	0x3c472190	0.012153998
126	0xbd0f6017	-0.035003748
127	0xbba20834	-0.0049448255
128	0x3bcb93c3	0.006212683
129	0xbadda7a6	-0.0016910925
130	0x3cb868d1	0.022510918
131	0xbcfa6fdd	-0.030570919
132	0x3a91636a	0.001109225
133	0xbca43407	-0.02004434
134	0x3d0b42a0	0.033999085
135	0x3cff0444	0.031129964
136	0x3bb59593	0.0055415123
137	0x3c0d0b88	0.008608706
138	0x3cb40cc0	0.021978736
139	0x3a745008	0.0009319787
140	0xbd0005bf	-0.03125548
141	0xbc5e219a	-0.013557816
142	0xbb3db412	-0.0028946442
143	0x3c03cc69	0.008044341
144	0xbc8c75ab	-0.017145952
145	0xbb355eda	-0.0027674944
146	0xbc50a300	-0.012734175
147	0x3c8434ba	0.016138423
148	0x3c81eaf7	0.01585911
149	0x3d020289	0.0317407
150	0x3caa479f	0.020786105
151	0x3aedba9e	0.0018137281
152	0xbca18171	-0.019715043
153	0xbcb9a7f7	-0.0226631
154	0xbc624faa	-0.013812939
155	0xbd33b571	-0.043874208
156	0xbc993946	-0.018704068
157	0xbc4da576	-0.012551656
158	0x3d58fe56	0.05297693
159	0xbc83a4c8	-0.016069785
160	0x3c06b5ab	0.008222024
161	0x3d137b39	0.036006186
162	0xbd0f1728	-0.034934193
163	0x3c45e854	0.012079317
164	0xbc0cc1ed	-0.008591157
165	0x3ce2ca95	0.02768449
166	0xbd390392	-0.04516942
167	0x3bb51cf6	0.005527134
168	0xbc8202a9	-0.01587041
169	0x3c9e1c7f	0.019300697
170	0x3c0ad748	0.008474179
171	0xbd2cbd64	-0.042172804
172	0xbd581456	-0.05275377
173	0xbd091b18	-0.033473104
174	0x3cf0758f	0.029352931
175	0x3bcbc292	0.006218263
176	0x3d07c181	0.033143524
177	0xbd735a5d	-0.05941235
178	0xbcedae46	-0.029013764
179	0xbb05765d	-0.002036474
180	0x3c7e00d0	0.015503123
181	0xbc75d44b	-0.015004228
182	0x3c4c073c	0.012452897
183	0xbc9e073c	-0.019290559
184	0xbd0d6e40	-0.03452897
185	0xbc8c3a34	-0.017117597
186	0xbc0b259e	-0.008492855
187	0xbd5d979a	-0.054099657
188	0xbd16c7bf	-0.036811586
189	0xbcbbf99d	-0.022946173
190	0x3c0034c9	0.007825085
191	0x3c2f04d0	0.0106823
192	0xbc91952b	-0.017771324
193	0x3c81416c	0.015778266
194	0x3d8828d8	0.06648415
195	0xbd0f3048	-0.034958154
196	0x3c741069	0.014896491
197	0x3cbe2bc9	0.023214238
198	0x3d1d6bef	0.03843301
199	0x3c6d1f9f	0.014472871
200	0xbc8546d1	-0.01626912
201	0xbc7a7851	-0.015287475
202	0xbcadd4b0	-0.021219581
203	0xbc167249	-0.009182521
204	0xbb9fd039	-0.004877117
205	0x3c48dbdf	0.012259453
206	0xbc1eec1a	-0.009699846
207	0x3c569815	0.013097783
208	0xbca60891	-0.020267757
209	0x3c4f1ef9	0.012641662
210	0xbcbd1356	-0.02308051
211	0xbc9272cc	-0.017877005
212	0x3b4de327	0.003141591
213	0x3c6cf943	0.0144637255
214	0x3c982b3a	0.0185753
215	0x3bb63430	0.0055604205
216	0xbc89fa61	-0.016843023
217	0x3bd3efc2	0.0064677903
218	0x3b86979e	0.0041074296
219	0x3bd38cbb	0.0064559854
220	0x3b594dd8	0.003315797
221	0x3d47430a	0.048647918
222	0xbb919139	-0.0044423607
223	0x3bf7e544	0.0075651724
224	0x3d26f86c	0.040764257
225	0xbbf4d66c	-0.00747185
226	0x3b27fbc5	0.0025632244
227	0xbc6a9f68	-0.014320232
228	0x3cd2c5a0	0.025729
229	0xbb192ed2	-0.0023373854
230	0x3d047685	0.03233959
231	0xbd13ec46	-0.036114
232	0xbc394a9f	-0.011309295
233	0x3c93166c	0.017955028
234	0xbc8708d1	-0.016483696
235	0xbd3d6791	-0.046241347
236	0xbbd8d384	-0.0066170115
237	0x3cae449f	0.021272955
238	0xba844122	-0.0010090212
239	0x3c43d363	0.011952254
240	0x3c8ada24	0.01694972
241	0xbcc81990	-0.024426252
242	0xbc7a2713	-0.015268105
243	0xbcadb2e2	-0.021203462
244	0xbd28929f	-0.041155454
245	0xbc77286b	-0.01508532
246	0x3cc28034	0.023742773
247	0x3c4f784e	0.01266296
248	0xbbbc7532	-0.0057512755
249	0x3c98f191	0.018669875
250	0x3b9db676	0.004813011
251	0xbb8f939c	-0.00438161
252	0xbc9ae80f	-0.018909482
253	0x3cda239d	0.02662831
254	0x3cac915b	0.021065405
255	0x3d05a336	0.032626353

encoder.6.bias f4 [32]
0	0xbb29513f	-0.002583578
1	0xbb9c6a21	-0.0047733937
2	0x3b5bb2f9	0.0033523424
3	0xbba13e14	-0.0049207304
4	0xbb110091	-0.0022125582
5	0xbc4011ad	-0.011722964
6	0xbb543af6	-0.0032383776
7	0xbb66ef90	-0.0035238005
8	0x3b51b430	0.003199827
9	0xbb884ad7	-0.004159312
10	0xba6286c7	-0.0008641299
11	0xbc07fb3b	-0.008299644
12	0xbbe17ffc	-0.006881712
13	0xbbe40438	-0.0069585107
14	0xbbb4ff57	-0.005523603
15	0xbbbc770a	-0.0057514952
16	0xbbff79b9	-0.007796493
17	0xbb90eaff	-0.004422545
18	0xbbf8eab5	-0.0075963386
19	0xbc1a7b05	-0.009428744
20	0xbc0d9050	-0.008640364
21	0xbb9de054	-0.0048180018
22	0xbbb2f796	-0.0054616434
23	0xbbc29219	-0.0059378264
24	0xbc129353	-0.008946258
25	0xbc5b4040	-0.013382018
26	0xbc204fd5	-0.009784658
27	0xbb83b212	-0.0040190304
28	0xbb47f5de	-0.0030511538
29	0xbbf76b6e	-0.0075506484
30	0xbc217633	-0.009854841
31	0xbb93245e	-0.0044904193

encoder.9.weight f4 [64, 32, 5, 5]
0	0x3b455ad8	0.0030113962
1	0xbc0fcc59	-0.008776748
2	0x3b895a3e	0.004191666
3	0xbc99e679	-0.018786656
4	0x3c4fcf96	0.01268377
5	0x3cd809bd	0.026371831
6	0x3bd1b358	0.0063995533
7	0xbc07bccd	-0.00828476
8	0xbc915de8	-0.017744973
9	0x3c2c16e7	0.010503507
10	0xbaba8437	-0.0014230077
11	0xbb9dd997	-0.0048171985
12	0x3c20b306	0.0098083075
13	0xbc8c430c	-0.017121814
14	0x3ca0c5a2	0.019625489
15	0xbb319b92	-0.0027100784
16	0x3c2eb7f3	0.010663974
17	0xbaecf8f6	-0.0018079567
18	0xba626538	-0.00086362986
19	0x3cef9ee0	0.029250562
20	0xbbc314e7	-0.0059534195
21	0xbbf608e8	-0.007508386
22	0xbccf0fe0	-0.025276124
23	0xbc3a46aa	-0.011369387
24	0x3bb39ef8	0.005481597
25	0x3ce53a1b	0.027981808
26	0xbb597e9b	-0.0033187035
27	0x3c9f5235	0.019448379
28	0xbc364573	-0.011124956
29	0xbbb5e6c3	-0.0055511906
30	0xbc10f570	-0.008847579
31	0xbceb0e97	-0.02869348
32	0x3c42a7c4	0.011880819
33	0x3b67a910	0.0035348572
34	0x3ce39d93	0.027785098
35	0x3cdd8548	0.027041093
36	0xbc830f5c	-0.015998535
37	0x3cdbbbcd	0.026822949
38	0x3c80dad9	0.015729355
39	0xbc05319b	-0.008129503
40	0x3cfe1874	0.03101752
41	0xbcdae70d	-0.026721502
42	0xbc46859d	-0.012116817
43	0x3adb96c7	0.0016753309
44	0x3c2c7453	0.010525781
45	0x3c82b270	0.015954226
46	0xbcadc8e8	-0.021213964
47	0x3c808dd6	0.015692633
48	0xbc39b013	-0.011333483
49	0x3be12529	0.006870885
50	0xbc611244	-0.013737265
51	0x3cc11a29	0.023572044
52	0x3b559f71	0.0032596255
53	0x3b76fcb6	0.0037687249
54	0xbca9e842	-0.020740632
55	0x3c112060	0.008857816
56	0xbb83064c	-0.0039985534
57	0xbc456fb9	-0.012050563
58	0x3c41e015	0.0118332105
59	0xbd04a2a7	-0.03238168
60	0xbc1dd192	-0.009632485
61	0xbc866c8a	-0.016409177
62	0x3c11120f	0.008854403
63	0xbc765094	-0.01503386
64	0x3c644694	0.013932843
65	0x3c17cf04	0.009265665
66	0x3b75c264	0.00374999
67	0x3d11a258	0.035555214
68	0xbb6fd49b	-0.0036595229
69	0x3d0c72ef	0.034289297
70	0xbc86ae5d	-0.016440565
71	0x3b3dcdde	0.0028961818
72	0x392ec096	0.00016665677
73	0x3c226257	0.009911141
74	0x3bd28066	0.0064239977
75	0xbc8436a8	-0.016139343
76	0x3ce1e522	0.02757508
77	0x3c9b5882	0.018963102
78	0x3c2735cd	0.010205698
79	0xbbe8e43c	-0.007107286
80	0xbc3020a8	-0.010749973
81	0xbc8eeecf	-0.017447857
82	0x3c1a5744	0.00942022
83	0xbbbe824a	-0.0058138715
84	0x3cfb84a9	0.030702906
85	0xbc5b90e6	-0.013401246
86	0x3c8f803e	0.017517205
87	0x3c26790d	0.010160697
88	0xba6c08d8	-0.00090040034
89	0x3d1673c6	0.036731504
90	0x3cc8a6b2	0.024493549
91	0xbc28b65a	-0.010297382
92	0x3a854942	0.0010168927
93	0x3cc5cfca	0.024146933
94	0xbc4d3360	-0.012524456
95	0xbbc2c524	-0.005943911
96	0x3bd31b4f	0.0064424644
97	0x3c50f4c7	0.012753672
98	0x3c96f5e1	0.018427791
99	0x3c92cb83	0.017919308
100	0x3c949f32	0.018142316
101	0xbb007a7e	-0.001960426
102	0xbb9acb2f	-0.0047239284
103	0x3d0b55e2	0.03401745
104	0x3d1ca0df	0.038239356
105	0xbc2a5f2e	-0.010398669
106	0xbc3d4fb5	-0.011554648
107	0x3c7e493f	0.015520393
108	0xbc237cd8	-0.009978496
109	0x3c1a44ff	0.009415864
110	0x3c5b9126	0.013401305
111	0x3c9a67eb	0.01884838
112	0xbc76d3d3	-0.015065151
113	0xbcd98e0e	-0.026556995
114	0xbc970545	-0.01843513
115	0xbbd348ae	-0.006447873
116	0xbbcff734	-0.0063466076
117	0xbb71db29	-0.0036904311
118	0xbc2c97c4	-0.010534231
119	0xbbf9ec0f	-0.0076270173
120	0xbd071401	-0.03297806
121	0x3cd5eb51	0.026113184
122	0x3c14d63b	0.00908428
123	0x3c22cd7a	0.009936685
124	0x3d5a895b	0.05335365
125	0xbc256f0b	-0.0100972755
126	0xba1ea5dd	-0.0006051937
127	0xbbcd6055	-0.006267587
128	0x3c802da2	0.01564676
129	0x3b71ebfd	0.0036914342
130	0xbc88b8af	-0.016689627
131	0x3cecbce1	0.028898658
132	0xbaf37a8b	-0.0018575949
133	0xbbea933c	-0.007158665
134	0x3c2c64fb	0.0105221225
135	0xbb69f3f9	-0.0035698398
136	0x3d324d56	0.043530785
137	0x3be10761	0.0068673347
138	0x3c60fd5d	0.0137322815
139	0x3c3c3e58	0.011489473
140	0x3b292123	0.0025807105
141	0xbca1fab5	-0.019772867
142	0xbc14fac3	-0.009092989
143	0xbb144714	-0.0022625374
144	0x3ac4600c	0.0014982237
145	0xbc3f022a	-0.011658231
146	0x3c0317d2	0.008001285
147	0xbc74554e	-0.014912916
148	0xbcc10c46	-0.023565423
149	0x3c5bb489	0.013409742
150	0x3c8cd7c2	0.017192725
151	0x3cba537a	0.022744883
152	0x3b439658	0.002984425
153	0xbc01f365	-0.007931565
154	0xbc8a9b52	-0.016919766
155	0xbbf92e1f	-0.007604375
156	0x3d28ee24	0.041242734
157	0xbca1fb92	-0.019773278
158	0x3c44a6d9	0.01200267
159	0x3c42c388	0.011887439
160	0x3c625b29	0.01381568
161	0x3c972e7e	0.018454786
162	0x3b920f95	0.004457424
163	0xbc23672e	-0.00997333
164	0x3c37b9c7	0.011213726
165	0x3c9161a1	0.017746748
166	0x3c514944	0.012773816
167	0xbc8ac54c	-0.016939782
168	0xbc9f8626	-0.019473147
169	0x3c6697d4	0.014074285
170	0x37931263	1.7532328e-05
171	0x3c55d1e1	0.013050527
172	0x3c3a581a	0.011373544
173	0x3c4924a5	0.012276803
174	0xbc7c1099	-0.015384817
175	0x3d11a2b9	0.035555575
176	0x3bb81f56	0.00561897
177	0xbc254f88	-0.0100897625
178	0xbc6c4227	-0.014420069
179	0xbbb7d26b	-0.0056098006
180	0x3c737b1f	0.014860897
181	0x3c32b485	0.010907297
182	0xbd0b7f15	-0.03405674
183	0xbcb769cb	-0.022389313
184	0x3c4432d6	0.011975011
185	0x3c8fabc2	0.017537955
186	0xbc1046b6	-0.008805921
187	0x3bb3a214	0.0054819677
188	0xbc7060b1	-0.0146714905
189	0x3b9b703c	0.004743604
190	0x3c460420	0.012085944
191	0x3c875bd7	0.016523285
192	0x3b8cb5e8	0.004294146
193	0xbd0c6952	-0.03428013
194	0xbc7af417	-0.015316985
195	0xbcfb967e	-0.030711409
196	0xbbdd59ce	-0.0067550903
197	0xbc2c2df1	-0.010509
198	0x3c287119	0.010280871
199	0x3ca19960	0.019726455
200	0x3c78e082	0.015190246
201	0x3d0d6fd8	0.03453049
202	0x3c176a75	0.00924169
203	0xbbdd9360	-0.0067619532
204	0xbcb45eae	-0.022017803
205	0x3cb9331d	0.02260738
206	0x3c872522	0.016497198
207	0xbc28a3f1	-0.010292993
208	0x3bc46dd8	0.0059945397
209	0xbca479a9	-0.020077543
210	0x3b10b8f4	0.0022082897
211	0xbaaee162	-0.0013342316
212	0x3c2829cb	0.0102638705
213	0x3bbece3e	0.005822926
214	0xbc12dd0a	-0.008963833
215	0x3cf89ef0	0.030349225
216	0xbca1b25a	-0.019738365
217	0xbc41fc15	-0.011839886
218	0x3d471734	0.048606113
219	0x3d263cfa	0.040585496
220	0x3b8fbacf	0.004386283
221	0xbbfe3a96	-0.007758449
222	0x3cc853b6	0.024453979
223	0xbb76a313	-0.003763382
224	0x3ba37f70	0.004989557
225	0x3bee111c	0.007265223
226	0xba9b3c01	-0.0011843444
227	0xbbf8f4a0	-0.007597521
228	0x3b3f9d11	0.0029237906
229	0xb63f70d6	-2.8526897e-06
230	0xbb245ab0	-0.0025078468
231	0x3b622892	0.0034509045
232	0xba0b8d5e	-0.00053234946
233	0xb8d479f4	-0.00010131663
234	0x3ab8569e	0.00140639
235	0x3c2ff54d	0.010739637
236	0xbca0209d	-0.019546801
237	0xbc453f91	-0.012039081
238	0x3c5948af	0.013261958
239	0xbc242204	-0.010017876
240	0x3c87c790	0.016574651
241	0xbbcbffd0	-0.0062255636
242	0x3c29a572	0.010354387
243	0x3ca4f6df	0.020137249
244	0xbce666d7	-0.02812521
245	0x3c78b6a0	0.01518026
246	0x3ca5b60b	0.020228406
247	0xbbbe5745	-0.005808743
248	0x3c786cb5	0.0151626365
249	0xbd2c0e5a	-0.042005874
250	0x3c241172	0.010013925
251	0x3ccee5f2	0.02525613
252	0x3a99bf27	0.0011729941
253	0xbbe5da24	-0.00701453
254	0xb93afdb7	-0.00017832858
255	0x3c36dc67	0.011160946

encoder.9.bias f4 [64]
0	0xbaa7cff9	-0.001280307
1	0x3b1586bd	0.0022815906
2	0x3bd0051f	0.0063482667
3	0xba7e7942	-0.00097074
4	0x3bb6f630	0.005583547
5	0x3a90916c	0.0011029667
6	0xbc932459	-0.017961668
7	0x3c9c0868	0.019046977
8	0x3bd9c992	0.0066463435
9	0xbcff81b5	-0.031189779
10	0x3b71ef43	0.0036916293
11	0xbc743aa4	-0.014906559
12	0x3c710b55	0.014712174
13	0x38f88c1e	0.000118516604
14	0xbba83e2a	-0.0051343637
15	0x3bde35af	0.006781302
16	0x3c14474b	0.009050201
17	0x3c606149	0.01369507
18	0xbc5fc507	-0.013657815
19	0x3c1c2625	0.009530579
20	0x3b6544f8	0.0034983736
21	0xbbf740ac	-0.0075455513
22	0xbc010280	-0.007874131
23	0xbc0918bf	-0.008367716
24	0x3c063d6d	0.008193356
25	0xbc227144	-0.0099147
26	0xbcf8da8a	-0.030377645
27	0xbaac764a	-0.0013157811
28	0xbc788a4b	-0.01516969
29	0xbc7028ef	-0.014658197
30	0x3c03d0c7	0.008045382
31	0xbaa44af5	-0.0012534546
32	0xbb5cf695	-0.003371631
33	0xbb2a88b3	-0.002602142
34	0x3c8a8c7d	0.016912693
35	0xbc0c5949	-0.008566209
36	0xbc9d6390	-0.019212514
37	0xba76df7c	-0.0009417457
38	0xbb6fb8d7	-0.003657868
39	0xba5dace9	-0.00084562466
40	0x3b0de846	0.0021653338
41	0xbc61cd6e	-0.013781888
42	0xbc443d2e	-0.011977477
43	0x3b1a1e73	0.0023516684
44	0xbccbb38a	-0.024865884
45	0x3c2e1249	0.010624477
46	0xbc193e99	-0.009353303
47	0xbaa315a0	-0.0012442358
48	0x3caad738	0.020854577
49	0xbc28859e	-0.010285763
50	0x3c04a49e	0.008095888
51	0xbc95539c	-0.018228345
52	0xbc0722f6	-0.008248081
53	0x3c8520c1	0.01625097
54	0x3bb80457	0.0056157517
55	0x3c146c64	0.009059045
56	0x398c2af9	0.00026734898
57	0xbc52292a	-0.012827197
58	0xbc93ff2b	-0.01806601
59	0xbb496323	-0.0030729256
60	0x3ab08d3c	0.0013469825
61	0xbc1a6a94	-0.009424824
62	0x3aea13cd	0.0017858684
63	0x3cbcf1fd	0.023064608

encoder.10.weight f4 [64]
0	0x3f7983f7	0.9746699
1	0x3f7ba6bf	0.9830131
2	0x3f7966fa	0.97422755
3	0x3f7a3667	0.9773926
4	0x3f7f0494	0.9961636
5	0x3f804133	1.0019897
6	0x3f7a58ea	0.9779192
7	0x3f77786f	0.9666814
8	0x3f7bb3e3	0.9832136
9	0x3f7ca288	0.98685503
10	0x3f7cb0c8	0.98707247
11	0x3f7854ff	0.97004694
12	0x3f7db4d0	0.9910402
13	0x3f798bbb	0.97478837
14	0x3f753dca	0.9579741
15	0x3f78e4c6	0.9722408
16	0x3f7c2428	0.9849267
17	0x3f794835	0.97375804
18	0x3f7c2063	0.9848692
19	0x3f7c53b4	0.9856522
20	0x3f81befc	1.0136409
21	0x3f7a1894	0.97693753
22	0x3f7cc938	0.98744535
23	0x3f763101	0.96168524
24	0x3f79fa93	0.9764797
25	0x3f7896d6	0.9710516
26	0x3f7ab43d	0.9793127
27	0x3f81b249	1.0132533
28	0x3f7bba4f	0.9833116
29	0x3f7833a4	0.969538
30	0x3f7f9179	0.9983135
31	0x3f7bcfb8	0.9836383
32	0x3f809fbd	1.0048748
33	0x3f7c2705	0.9849704
34	0x3f7a86f8	0.97862196
35	0x3f7de9d9	0.9918495
36	0x3f78d258	0.9719596
37	0x3f781a19	0.9691482
38	0x3f7aaeb9	0.97922856
39	0x3f811e2a	1.008733
40	0x3f7890ce	0.97095954
41	0x3f7af6b8	0.9803271
42	0x3f8159f2	1.0105574
43	0x3f7d3ee3	0.9892408
44	0x3f811ddc	1.0087237
45	0x3f7ed6cc	0.99546504
46	0x3f7e1114	0.9924481
47	0x3f7d6788	0.989861
48	0x3f819f26	1.0126693
49	0x3f7c36de	0.9852122
50	0x3f798246	0.97464406
51	0x3f799d1d	0.9750536
52	0x3f7a1ace	0.9769715
53	0x3f770482	0.96491253
54	0x3f7b70fd	0.9821928
55	0x3f7ae498	0.98005056
56	0x3f7a5dc6	0.97799337
57	0x3f7b9a71	0.98282534
58	0x3f7a76d6	0.9783758
59	0x3f787411	0.97052103
60	0x3f7a7385	0.9783252
61	0x3f7ced00	0.98799133
62	0x3f7be3f7	0.9839472
63	0x3f7bcec7	0.9836239

encoder.10.bias f4 [64]
0	0xbcd3e688	-0.025866762
1	0xbc581841	-0.013189376
2	0xbcddd39a	-0.027078439
3	0xbca231a6	-0.019799065
4	0x3b77ba12	0.0037800116
5	0xbb5167f1	-0.0031952823
6	0xbccce405	-0.025011072
7	0xbcf6face	-0.03014889
8	0xbc9592a9	-0.01825841
9	0xbaea6f1b	-0.0017885895
10	0xbc2f721e	-0.01070836
11	0xbd1936d5	-0.037405808
12	0xbad25887	-0.0016048112
13	0xbc893a46	-0.01675142
14	0xbca6bf21	-0.02035481
15	0xbcef7325	-0.02922971
16	0xbc3455be	-0.011006771
17	0xbc3f3343	-0.011669937
18	0xbd19d066	-0.03755226
19	0xbc41fd15	-0.011840125
20	0x3be4e5a6	0.006985384
21	0xbcdf2c52	-0.027242813
22	0xbbf8d1d2	-0.007593372
23	0xbccd0968	-0.0250289
24	0xbccf6c74	-0.02532027
25	0xbcbd7295	-0.023125926
26	0xbcdc767d	-0.026911968
27	0x3c8f1482	0.017465834
28	0xbc33a4a2	-0.0109645445
29	0xbc93e0fa	-0.018051613
30	0x3ba7f65f	0.0051258053
31	0xbc99793d	-0.018734569
32	0xbbed8ca3	-0.007249431
33	0xbcd4a7aa	-0.025958855
34	0xbc82229a	-0.01588564
35	0xbc2d2ea1	-0.010570199
36	0xbd02fc91	-0.031979147
37	0xbd05561f	-0.032552835
38	0xbcbc0546	-0.022951733
39	0x3a516f4d	0.00079893024
40	0xbb6768ca	-0.0035310262
41	0xbc1edc05	-0.009696011
42	0xbb971df9	-0.0046117273
43	0xbc3cd5e1	-0.011525602
44	0xbc412ae1	-0.011790008
45	0xbb517f7f	-0.0031966863
46	0xbc2eb69a	-0.010663653
47	0xbbeca223	-0.0072214766
48	0x3b64a7b1	0.003488999
49	0xbc9e6483	-0.019335037
50	0xbcb342c5	-0.021882424
51	0xbcdb8b7b	-0.026799908
52	0xbca88be0	-0.02057451
53	0xbcdce5d8	-0.026965067
54	0xbca88ffa	-0.020576466
55	0xbc272ad7	-0.010203085
56	0xbcb526b1	-0.022113176
57	0xbb89707a	-0.0041943165
58	0xbcaf3309	-0.02138664
59	0xbd1c570b	-0.03816895
60	0xbc410faa	-0.01178352
61	0xbd03aea3	-0.03214897
62	0xbc2bc8b5	-0.010484864
63	0xbcd0cf8d	-0.025489593

encoder.10.running_mean f4 [64]
0	0xba1407e2	-0.00056469266
1	0x3b30bf76	0.0026969588
2	0x3bd98ba0	0.006638959
3	0xb8de2fbe	-0.000105946776
4	0x3bba4b48	0.0056852438
5	0x3a2bc557	0.0006552538
6	0xbc90f460	-0.017694652
7	0x3c9ad7d2	0.01890174
8	0x3be36fd5	0.0069408217
9	0xbcfcf632	-0.030879114
10	0x3b75d240	0.0037509352
11	0xbc6d1b1d	-0.014471796
12	0x3c6f86d9	0.0146195525
13	0x37b4610e	2.1502867e-05
14	0xbb923cea	-0.004462828
15	0x3bff8dfc	0.0077989083
16	0x3c1eacc4	0.009684745
17	0x3c65cf3a	0.014026457
18	0xbc506e4e	-0.012721611
19	0x3c1e1a71	0.009649859
20	0x3b830c05	0.0039992356
21	0xbbe188a8	-0.006882746
22	0xbbe4212f	-0.0069619636
23	0xbc041350	-0.008061245
24	0x3c0a3963	0.008436534
25	0xbc188a03	-0.009310248
26	0xbcfbb285	-0.030724773
27	0xba33468b	-0.000683882
28	0xbc783e10	-0.015151516
29	0xbc737af0	-0.014860854
30	0x3c0ad1ca	0.008472869
31	0xba9b9200	-0.0011869073
32	0xbb189c99	-0.00232867
33	0xbaedc9d7	-0.0018141818
34	0x3c87b49b	0.016565612
35	0xbc03f886	-0.008054858
36	0xbc9cf940	-0.01916182
37	0xba988f7c	-0.0011639441
38	0xbb4cd094	-0.0031252252
39	0x39c1cc41	0.0003696401
40	0x3b02ea13	0.0019975945
41	0xbc642c00	-0.013926506
42	0xbc3933c5	-0.011303847
43	0x3b20f75e	0.0024561505
44	0xbcc541d7	-0.024079246
45	0x3c32fb9b	0.010924245
46	0xbc1093ba	-0.008824283
47	0xbae65684	-0.0017573391
48	0x3cb13b78	0.021634802
49	0xbc2406b4	-0.010011364
50	0x3c0446c8	0.008073516
51	0xbc901599	-0.017588424
52	0xbc015b8f	-0.007895364
53	0x3c821f61	0.015884103
54	0x3bc338d1	0.005957701
55	0x3c205443	0.009785715
56	0xb944ad64	-0.0001875661
57	0xbc503a21	-0.0127091715
58	0xbc885b2d	-0.016645039
59	0xbb49024e	-0.003067154
60	0x3b0c9769	0.0021452552
61	0xbc1b5b8c	-0.009482276
62	0x3b01f8ab	0.0019832056
63	0x3cbfd1f6	0.023415547
