results/dot-ou-final_d=ballsw=8z=2det=0lat=const-sig-ntloss=exactsigma=diag/run0/saved_nets/ae_best_val_bt.pth (torch, 681339 bytes, 40 tensors)

mu_linear.weight f4 [2, 4096]
000000 a3 13 1a bd f7 ea fe bd 31 90 fb bc 6d c1 85 bc
       -0.037616383 -0.1244716 -0.030708404 -0.016327584
000010 3d 06 17 bc ee c4 56 3c 07 e1 0c 3d 6e 60 12 3d
       -0.009217796 0.013108475 0.03439429 0.035736494
000020 59 bb 02 bd 8a 6d 2e be 82 cb 40 bd 5a d4 a1 bc
       -0.03191695 -0.17033973 -0.04706908 -0.019754577
000030 63 a1 4e 3c cc a4 a6 3c 1d ac ff 3c 2b e6 d3 3c
       0.01261172 0.020342253 0.03121 0.025866589
000040 c8 0c 85 bc e5 a1 1f be 78 62 74 bd 88 bd 9b bc
       -0.016241446 -0.15589102 -0.05966422 -0.019011274
000050 e0 59 6c 3c d8 b8 32 3c e0 81 c4 3c 27 9c 22 3d
       0.014425725 0.010908328 0.02398771 0.0396997
000060 dc 00 c6 bb 94 f3 34 be a7 01 49 bd f8 0d 05 bc
       -0.006042583 -0.17671043 -0.04907384 -0.008121006
000070 25 96 a4 3b 0b 5d 55 3c 0d 78 ae 3c 82 19 6e 3c
       0.0050227814 0.013022671 0.021297479 0.014532449
000080 13 80 2b 3c fb 13 53 be 0e 96 a8 bd 6d fd 68 bc
       0.010467547 -0.2061309 -0.08231746 -0.014220578
000090 61 b3 9f bc 19 58 db bb 02 15 86 3c a9 c1 24 3d
       -0.019494714 -0.0066938517 0.01636744 0.04022375
0000a0 88 cc 53 3c a7 f2 48 be a4 38 c7 bd 47 7d 1d bd
       0.012927182 -0.19623815 -0.097276 -0.038449552
0000b0 91 f2 98 bc ed 80 d5 bc 79 2a 95 3c 89 99 55 3d
       -0.018670352 -0.026062453 0.01820873 0.052148376
0000c0 f1 a8 33 3c 75 c5 59 bd d9 11 c7 bd fa c2 1d bd
       0.010965572 -0.053166825 -0.09720201 -0.038516022
0000d0 7c 9b 4b bc d3 c8 91 bc 50 8b da 3c 06 e9 b2 3d
       -0.012427207 -0.017795956 0.026677758 0.08735852
0000e0 f1 6c 1c bb 4a 5a 5c 3c e9 7a 05 bc 4f e5 bb bc
       -0.0023868645 0.013449261 -0.00814698 -0.022936491
0000f0 5e 7e a6 bc c4 1b a6 bc 3d f9 03 3d 02 3d 48 3d
       -0.020323928 -0.020276912 0.032220114 0.048886307
000100 ca c8 65 3a 39 3b 19 3c ab 74 74 3b df a1 8f bc
       0.00087655766 0.009352499 0.0037300985 -0.01753324
000110 11 03 13 b8 86 b6 aa 3c 96 ad 74 3c 68 c3 01 3d
       -3.5050387e-05 0.020838987 0.014933964 0.031680495
000120 9e 36 a6 bb be 3e 8d bc 1a 3d ac bc 94 ab 91 3c
       -0.005072429 -0.017241832 -0.02102523 0.01778201
000130 e6 9d 2e bc 29 58 51 3c e9 95 16 3b 6c 71 f5 3c
       -0.010657763 0.012777367 0.0022977537 0.02996131
000140 75 a9 12 bd 43 a6 54 bd 51 bf ee bc 9f 7d eb bc
       -0.035806138 -0.051916372 -0.029143961 -0.028746424
000150 19 e3 4a bb e7 6a ad 3b 8d 58 84 ba 75 75 84 3d
       -0.0030958115 0.005292285 -0.0010097191 0.06467716
000160 6f 23 e0 bb e9 68 37 bd be a3 e5 bc 67 1c f1 ba
       -0.0068401615 -0.044777784 -0.02803218 -0.0018395305
000170 c8 56 31 bc 92 1f a0 3b c7 d6 89 3c 66 3c 3b 3d
       -0.010823913 0.004886576 0.016826047 0.045711897
000180 cd d6 64 bb d3 a9 85 bd 64 6e e7 bc 58 59 25 3c
       -0.003491807 -0.06526532 -0.02825088 0.010092102
000190 fd 4e 4f 3c bb d9 79 bc 86 db 44 3a 8f bd 4e 3d
       0.01265311 -0.015249665 0.0007509518 0.050473746
0001a0 52 d7 47 bc 1c b2 db bc 2f 4b 39 bc 10 e5 c7 bb
       -0.012197332 -0.026818328 -0.011309429 -0.0061003044
0001b0 83 5b c7 3b 68 18 85 bc f8 a7 49 bc 90 54 57 3d
       0.006083907 -0.01624699 -0.012308113 0.05257088
0001c0 e7 b7 32 bc 83 16 24 bd 4c 02 04 bc ab 46 58 bc
       -0.010908104 -0.04006053 -0.008057188 -0.013200442
0001d0 2c b5 e2 3b 18 44 9c bc 99 dd 86 bb 9c 1c 7d 3d
       0.00691857 -0.019075438 -0.004115772 0.061794862
0001e0 92 94 a3 bc ee b9 00 bd 61 0e e0 bc 8d 48 be bc
       -0.019968305 -0.031427316 -0.027350606 -0.023227954
0001f0 b5 ff 97 bc 7f ee 32 bb 47 ed c0 bc 80 a2 0c 3d
       -0.018554548 -0.00273028 -0.023550643 0.03433466
000200 52 ab af bc 28 e1 29 bd 36 0d 02 bd 9f 48 b7 3c
       -0.021443997 -0.04147449 -0.03175088 0.022373496
000210 45 88 a3 3c cc 17 89 3d 0c 2c 02 3e 55 ad 1d 3e
       0.01996244 0.06693992 0.12712115 0.15398152
000220 94 4f ea bc 9f 3b 55 bd f7 f2 be bc bb de 78 3b
       -0.028602399 -0.052058812 -0.023309214 0.0037974555
000230 c7 fa 5a 3c f3 3f 0d 3d c5 2e 83 3d 4e f0 12 3e
       0.013365454 0.034484815 0.06405405 0.14349481
000240 b8 58 71 bd 38 ca 81 bd 3a 17 5b bb 9a 3d a7 bc
       -0.0589225 -0.06337398 -0.0033430592 -0.020415116
000250 06 1c b0 3b af 53 cd 3b 6c 4f ce 3c f4 15 e1 3d
       0.0053744344 0.0062660794 0.025184356 0.10990515
000260 36 f8 9b bd 42 3f 92 bd 6b d0 f2 bc 9c ce 51 bc
       -0.07615702 -0.07140972 -0.029640397 -0.012805607
000270 61 76 14 3c 5a 25 f6 3c 85 37 29 3d 71 c9 86 3d
       0.009061427 0.030047107 0.041312713 0.06581391
000280 53 f2 6a bc 2e 56 83 bd b5 8d 3c bd 4e da a4 bc
       -0.014340001 -0.06412922 -0.04603358 -0.020123627
000290 28 20 ad 3b 23 06 16 bc 56 aa 8f 3c 28 a4 ae 3d
       0.0052833743 -0.009156737 0.017537277 0.08527404
0002a0 d3 88 98 bb a5 ed 15 bd b2 e2 2d bd 32 98 c6 bb
       -0.0046549826 -0.03660359 -0.04245252 -0.0060606236
0002b0 ae 46 b0 bb fa 59 ce bb b3 af 14 3d 11 15 e0 3d
       -0.0053795194 -0.006297347 0.036300372 0.10941518
0002c0 87 fc 73 bc 18 2d 13 bd 4a dd 70 bc cf 3a 0c bd
       -0.01489175 -0.035931677 -0.014701197 -0.03423577
0002d0 df b4 be 38 f7 06 e0 bc 77 a3 6f 3c f0 93 ca 3c
       9.093596e-05 -0.027347071 0.014626375 0.024728745
0002e0 fd 05 96 bc af 8f 5f 3a cf bd a9 bc b2 84 c8 bb
       -0.018313402 0.00085281854 -0.02072039 -0.006119334
0002f0 c3 54 92 bb 59 a3 bc bc e3 ae 98 3c 17 7c 07 bd
       -0.004465671 -0.023027109 0.01863808 -0.033077326
000300 3a 97 93 3c cd 75 8f 3c 7a 2b 2a 3c 1f ba 10 bc
       0.018016446 0.017512226 0.010386342 -0.008833437
000310 e2 6b f4 bc 59 98 13 bd be fb 08 bd 51 25 bf bc
       -0.029836599 -0.036033962 -0.033443205 -0.023333224
000320 72 4e 22 3c 12 7d b9 3c 93 86 9c ba ff bf e6 b9
       0.009906398 0.022642646 -0.0011941962 -0.00044012067
000330 dc 8f 68 bd a5 75 a1 bd 4b 90 2f bd 0a 92 d9 bc
       -0.05677782 -0.07883767 -0.042862218 -0.026558895
000340 6b 7a 86 3c 39 a8 2d 3d 19 e1 36 3d 0d 08 0a 3c
       0.016415795 0.042396758 0.044648264 0.008424771
000350 db 4c 58 bd b3 47 55 bd 83 91 44 bd 73 74 af bc
       -0.05280767 -0.05207033 -0.047990333 -0.021417832
000360 84 32 fd 3c d1 ad 80 3d bb 5b 8e 3d 03 fc 43 bc
       0.030907877 0.06283153 0.0695109 -0.01196194
000370 61 2d bf bd 36 73 06 bd 82 03 bf bc 0a 5b d0 bc
       -0.09334827 -0.032824717 -0.023317102 -0.025434036
000380 7e dc 67 3c 90 82 6b 3d e2 87 ad 3d 9f 22 30 bd
       0.0141516905 0.05749756 0.08473183 -0.043001767
000390 c4 4f 3b bd 96 47 4e bd 77 da dc bc 65 84 17 3c
       -0.045730367 -0.05036124 -0.02695964 0.009247874
0003a0 17 1b 0d 3c 1b 6f 17 3d d9 14 d0 3c 33 7b 5d 3b
       0.008612416 0.036971193 0.025400566 0.0033795356
0003b0 0f 30 44 bd 8b 1c 07 bc 06 75 60 bc 50 04 fe ba
       -0.047897395 -0.008246551 -0.013699776 -0.0019379947
0003c0 64 9e dc bb 9f 2a dc 3c d6 97 4c 3b f1 08 f1 ba
       -0.006732749 0.026875792 0.003121843 -0.0018389506
0003d0 f8 55 35 bc a8 70 ec bc 00 54 9d bb 7a d6 a6 3b
       -0.01106786 -0.028862312 -0.0048012733 0.0050914856
0003e0 9b 92 82 3c eb 9d 09 bc 66 72 8c bb 81 37 c0 3b
       0.015939048 -0.008399467 -0.0042860983 0.0058659916
0003f0 e6 1b c3 3b 53 81 a8 bc 93 71 52 3b d5 89 38 bc
       0.0059542535 -0.02056948 0.0032111153 -0.0112633305

mu_linear.bias f4 [2]
000000 a4 c9 a4 bb f6 6e 11 3c
       -0.0050289202 0.008876553

sigma_linear.weight f4 [2, 4096]
000000 72 b5 b9 bb 2a 37 a5 3b ba bf 1b bc 79 83 b1 bb
       -0.005667382 0.0050419765 -0.00950616 -0.005417284
000010 8f ce 8f 3b 1d ea e5 39 5e 41 ac bc b6 88 9e bc
       0.0043886374 0.00043852712 -0.021027263 -0.019352298
000020 fb 41 25 3b 3f 09 cb 3c 02 b4 5d b8 9f c0 39 bc
       0.002521633 0.024784682 -5.285815e-05 -0.011337428
000030 ea 93 6d bc fd 91 4f bc 84 f8 36 bc 90 87 2c bc
       -0.0145005975 -0.012669084 -0.011167649 -0.0105303675
000040 5e 68 0d bc f1 11 04 3d 45 45 16 bc 43 73 3a bc
       -0.00863084 0.032243673 -0.009171789 -0.01138002
000050 1c b1 87 bc 4a 7b 16 bb 2c 60 df ba 7a af 54 3c
       -0.016563945 -0.002296167 -0.0017042211 0.01298129
000060 ad 0b 01 3c fd 4d 95 3c 23 5c 3d bc 8f 26 28 bc
       0.007876319 0.018225664 -0.011557612 -0.010263099
000070 65 57 86 bc 26 0e af ba 41 4a c3 3b ba a4 53 bc
       -0.016399095 -0.0013355657 0.0059597795 -0.012917692
000080 3f 67 75 bc 1a 5a 18 3d e2 df 6a 3c a7 89 53 bc
       -0.014978229 0.037195303 0.014335604 -0.012911237
000090 55 25 81 bb e2 c3 4e bc 3f 58 98 bc ed 75 00 bc
       -0.003941218 -0.012619944 -0.018596767 -0.007840616
0000a0 96 1e 85 bc 50 72 4f 3d 64 c0 44 3c 8e 7a 10 bb
       -0.016249936 0.050646126 0.01200876 -0.0022045705
0000b0 31 88 82 bc d4 f3 8c bb e9 ce ab 3b b5 fb 4c bc
       -0.015934082 -0.0043015275 0.0052431715 -0.0125111835
0000c0 8e fa ab bc 3a 81 14 bb dc 53 ad 3c d8 02 a0 bb
       -0.020993497 -0.0022660033 0.021158151 -0.0048831515
0000d0 1c 5d e9 3b 8b 4d 25 3b 19 12 8f bc 3b 15 94 bc
       0.007121695 0.0025223221 -0.017464684 -0.01807653
0000e0 fe 05 95 bc 4e 2a 3b bc 18 27 99 bc 73 46 b6 bc
       -0.018191334 -0.01142366 -0.0186954 -0.02225039
0000f0 ff d2 15 bc 79 fc 51 bc 70 c1 6f bc 7f f6 ed 3a
       -0.009144544 -0.012816542 -0.014633521 0.0018155127
000100 bc 1b 70 bc 9c 57 24 bc 9e b5 ba bb 09 98 6e bc
       -0.01465505 -0.010030653 -0.00569792 -0.014562615
000110 20 c5 82 bc 2b 66 1a bb 4b b7 f0 bb 08 3e 55 bb
       -0.015963137 -0.0023559432 -0.007346069 -0.0032538194
000120 44 d1 b9 3b 20 15 df 3b 43 1d 2c 3c 5f ce 82 bc
       0.0056706984 0.006807938 0.010505023 -0.015967546
000130 06 df 41 3b 9b 6b 97 bc 49 2f 7e 3b 55 56 0b 3c
       0.0029582395 -0.018483927 0.0038785508 0.00850447
000140 58 8b 6e bc 91 50 46 bc 55 d8 ce 3a ec a6 ad bc
       -0.014559589 -0.012104169 0.0015781025 -0.021197759
000150 cc 5b 0b 3c c2 82 ca 3b 36 66 14 3c 8f d5 95 39
       0.008505773 0.0061801383 0.009057572 0.00028578608
000160 9f 0d 52 3a d4 07 fc ba 8a 31 29 3c 2a 14 77 3c
       0.0008012894 -0.0019228407 0.010326752 0.015080491
000170 fc 03 1d 3d 51 32 db 3b c4 56 a7 3b e9 5c 8e ba
       0.038333878 0.006689348 0.005106779 -0.001086143
000180 8a 06 19 bc b0 3a 8f bc e2 ed 41 3b 9e a3 11 3c
       -0.009339938 -0.017484039 0.0029591252 0.008889107
000190 35 5d cc 3b ac fd a8 bc 38 68 86 bb 94 e4 ba bc
       0.006236697 -0.020628773 -0.0041017793 -0.022814073
0001a0 ed 12 5d bc 4e d4 0c bc f4 f8 52 bc 90 97 a6 bb
       -0.013493282 -0.008595539 -0.012876738 -0.0050839856
0001b0 50 1a c5 bc 86 44 b1 bc 9a fa 52 bc 79 05 6f 3c
       -0.024060398 -0.02163912 -0.012877131 0.014588707
0001c0 0e 25 86 bc ca c8 d1 ba 9e c9 03 3b 0e 0d 85 bc
       -0.01637509 -0.0016005274 0.0020109187 -0.016241577
0001d0 dd 29 ec 3b ce a4 e6 3b 60 5e 76 3c f9 df a5 3c
       0.007207139 0.007038689 0.015037149 0.0202484
0001e0 08 ed e6 bb a1 d3 e5 bb 18 05 20 bb 11 40 ca 3b
       -0.0070472993 -0.0070137535 -0.0024417099 0.006172188
0001f0 12 60 43 3c c0 11 09 3c c6 7d d5 3c d1 0b ba 3c
       0.01192476 0.008366048 0.02606095 0.022710713
000200 90 4b d5 3c d7 5b 16 3b b3 55 8a 3b e0 03 a5 bc
       0.026037008 0.0022942924 0.004221642 -0.02014345
000210 81 c6 ff bb a7 53 88 bc b5 0e 08 3c 6a 51 0a bc
       -0.007805646 -0.016641451 0.008304288 -0.008442262
000220 48 b0 58 3c 58 aa 09 3d 16 2e 82 39 e6 8d 22 bc
       0.0132256225 0.033609718 0.0002482987 -0.009921527
000230 ed 13 bf ba cf 98 6d bc ba fd 0e 3c cb 4f 22 3c
       -0.0014578082 -0.014501764 0.008727485 0.009906719
000240 b9 4b af bb aa 4e db 3b 93 e2 b8 ba e4 b6 89 bc
       -0.005349603 0.006692727 -0.001410561 -0.016810842
000250 fb 32 5d bc 25 29 3a bb b0 e5 7b 3b 1b f7 92 3a
       -0.013500924 -0.0028405872 0.0038436465 0.0011212559
000260 60 a8 58 bc 8f 66 38 3c ba f7 8c 3b c8 2c 1f 3c
       -0.0132237375 0.011254921 0.0043019922 0.0097152665
000270 93 94 a2 bc db e4 00 bc 0c cc 90 3c 42 4d 5b bc
       -0.019846236 -0.007867063 0.017675422 -0.013385119
000280 9b 2e 5f 3c 3e 24 f7 bb e2 28 0a bc 1b 0b 88 3c
       0.013621951 -0.007542162 -0.008432599 0.016606858
000290 85 0d 2a 3c 3b 57 b5 bb e7 59 e1 3b 68 cd 04 bc
       0.0103792 -0.0055340803 0.0068771723 -0.008105613
0002a0 d5 b6 2e bb ab 19 d2 3a 17 db b3 3c 8e 78 71 bb
       -0.002665927 0.0016029378 0.021955056 -0.0036845538
0002b0 d7 c5 09 3c a4 57 0f 3c f0 92 3f bc 05 e8 01 3c
       0.008408985 0.0087489225 -0.0116927475 0.007928853
0002c0 c9 65 cd 3b c4 b2 ad bb 6e 4e 87 ba a8 12 81 bb
       0.0062682373 -0.0053008515 -0.0010323056 -0.0039389916
0002d0 46 26 05 3c 3f 91 a7 bc 58 99 84 3c 6d 26 1c 3c
       0.008126801 -0.020455 0.016186401 0.009530646
0002e0 ff 95 75 bb 82 89 6b 3b 48 bd 83 bc 43 fe 1c bc
       -0.0037473438 0.0035940115 -0.016081467 -0.009582105
0002f0 79 65 c1 bb d1 dc a5 b8 94 2c b4 ba 85 03 df ba
       -0.005901989 -7.9089434e-05 -0.0013746195 -0.0017014599
000300 a8 bd 81 bc 39 06 cb bb a7 bd 80 3a 74 be d6 3b
       -0.015837505 -0.00619581 0.0009822146 0.0065534655
000310 3b 0b 14 3c c8 4e 84 bb be 42 a4 bb ec e3 2f bb
       0.009035881 -0.004037712 -0.005012839 -0.0026838733
000320 ef c7 61 39 a8 43 83 bc c8 52 85 3c 87 3d 2a bc
       0.00021532153 -0.016023472 0.016274825 -0.010390646
000330 d0 57 79 3c 32 75 13 bc 6d 09 54 bc 7a ba 52 bc
       0.01521869 -0.0090001095 -0.0129417 -0.012861842
000340 a6 75 4f 3b 86 46 15 bc 73 e1 34 3c 59 46 7a bb
       0.0031655817 -0.009111052 0.011040079 -0.0038188903
000350 f9 43 61 3c 9b a1 a5 3c 0b 11 41 bc cb 05 0d bc
       0.013749116 0.020218661 -0.0117838485 -0.008607338
000360 17 e1 a2 38 53 c8 1b bc 7d 7d a3 bc 94 f4 83 bc
       7.766688e-05 -0.00950821 -0.019957298 -0.016107835
000370 e9 f2 a1 3c d1 bb a7 3c 66 33 26 bc 5f 62 e0 bb
       0.019769149 0.0204753 -0.01014409 -0.0068476642
000380 3e a6 a0 3a 19 b1 81 bc 0e c1 ae bc 0b 32 a2 bc
       0.0012256575 -0.015831517 -0.02133229 -0.019799253
000390 be 89 ab 3b 8b a2 04 3b 77 51 dd bc 13 b4 a4 3b
       0.005234926 0.0020238485 -0.027016385 0.0050263493
0003a0 94 3f 73 bc 29 56 cd ba 73 06 b5 bb 2a 40 2e bd
       -0.014846701 -0.0015665937 -0.0055244504 -0.04254166
0003b0 76 59 fe bb 08 ee cf 3b 03 db d1 ba 95 43 95 bc
       -0.0077621294 0.006345514 -0.0016010705 -0.018220702
0003c0 9d 10 8d bb 6d 2a f7 b9 96 cd 7f bc 57 07 7c 3c
       -0.004304959 -0.0004714312 -0.01561298 0.015382609
0003d0 e8 18 cb bc fe 12 51 bb c8 ec f8 bb f2 c8 44 bc
       -0.02479215 -0.003190219 -0.007596586 -0.0120108
0003e0 a1 00 4d bc 52 ed 56 bc 68 75 9c bc a0 eb 25 bb
       -0.012512357 -0.013118105 -0.019098952 -0.0025317445
0003f0 b5 09 ab bc 92 be 52 bc 1b 96 3f bc 69 fc 20 bc
       -0.020878652 -0.012862818 -0.011693503 -0.009825804

sigma_linear.bias f4 [2]
000000 b8 e1 02 bc ea c8 60 ba
       -0.007988386 -0.00085748604

encoder.0.weight f4 [8, 3, 5, 5]
000000 49 9a 6b bd 6d f8 fa 3c a8 df 0d bd 12 c1 3f bc
       -0.057520185 0.030636037 -0.034637123 -0.011703746
000010 34 73 80 bc ac 71 40 3c 74 9e 38 bc 2f e9 14 3a
       -0.015679933 0.0117458515 -0.011268247 0.0005680499
000020 b2 c6 16 bd 03 65 8f bd a4 32 be 3d 8e 5a 64 bc
       -0.036810584 -0.07001688 0.09287003 -0.013937606
000030 57 39 71 bd 67 98 80 bc 6f a6 c8 3c 04 ad f6 bd
       -0.058892574 -0.015697671 0.024493424 -0.12044719
000040 7e 9a 90 bb 4e 48 ef bc 5f ca b0 bb 80 d2 dd bc
       -0.004412948 -0.029209282 -0.0053952183 -0.027077913
000050 02 1d 2a bd 29 95 91 bc d7 98 70 bb 13 3c 95 3c
       -0.04153157 -0.01777132 -0.0036712193 0.018217122
000060 87 80 05 bc b2 4b 91 3c 95 f4 68 bd a4 c1 8d bc
       -0.008148319 0.01773629 -0.056873877 -0.01730425
000070 41 9b 40 3c 2a a7 6b bc 53 53 39 bd 8c f1 01 bd
       0.011755765 -0.014383117 -0.04524548 -0.031724498
000080 f8 c1 4d 3c cd c9 28 3b f8 a0 84 bb c2 fe 54 3d
       0.012558453 0.0025755048 -0.0040475093 0.05200077
000090 30 41 11 3d 13 69 31 bc 64 b4 89 3c a2 3f 68 bb
       0.03546256 -0.010828274 0.01680965 -0.0035438319
0000a0 dd a6 20 3d 9e 9c cc 3c 06 c2 e5 3b 42 b8 5b bc
       0.039221633 0.024977025 0.007011655 -0.01341063
0000b0 66 1b e2 bc 9e 5b ff bc 3c 2a 42 3d c4 b2 f5 bc
       -0.027600955 -0.031171616 0.04740356 -0.029992469
0000c0 2c 15 c4 3c 2a 3e 9d 3d 71 c2 a9 bc c3 df 18 bd
       0.023935877 0.076778725 -0.0207226 -0.03732277
0000d0 df 38 10 3d a5 82 e6 bb 98 26 4e 3c cc 8a 04 3b
       0.035210487 -0.007034617 0.012582444 0.002022433
0000e0 59 4f 98 3c 06 d3 5f 3c 55 e0 cb bc 4b 7e 61 bd
       0.018592523 0.013661152 -0.024887243 -0.055052083
0000f0 de 8a 5b 3a 57 f1 f1 bb b2 86 a1 bc f7 5d 9b 3d
       0.000837488 -0.0073835063 -0.019717548 0.07586282
000100 4a e1 92 bc a3 b0 01 bd b1 d6 26 3c 52 d8 42 3d
       -0.017929692 -0.031662595 0.010183022 0.04756958
000110 1e fb 6c bc c3 fb 7f bc 33 81 b1 3c 4a ae 96 bc
       -0.014464168 -0.0156239895 0.021668052 -0.018393654
000120 14 dc 08 bd 3e a6 1d bc c7 ca 32 3d 07 e5 13 3d
       -0.033413008 -0.009622155 0.043650415 0.03610709
000130 d3 4f 03 bd 6a 0f 79 bc c6 a6 1e 3d d7 db 9c 3c
       -0.03205855 -0.015201429 0.038733266 0.019147797
000140 b9 73 5e bc 8e 15 da bd 15 90 68 3d 35 cf a0 bc
       -0.013577395 -0.106486425 0.056778032 -0.019630054
000150 5f cd 52 bd 79 00 0c be c5 d0 c4 bc 43 2d d9 b9
       -0.05146539 -0.13672055 -0.02402533 -0.00041423188
000160 9c f4 65 bc 72 df 07 3d 21 71 08 bd a3 3d c5 3c
       -0.01403537 0.03317208 -0.033311013 0.024077242
000170 5b 79 88 bb 52 8e 3d 3d 13 16 5e 3c c8 02 a2 ba
       -0.0041648573 0.046278305 0.013555068 -0.0012360448
000180 a5 f6 b1 bc 77 45 ed bc be f9 ae bd 83 d2 98 bd
       -0.021724055 -0.028963787 -0.08543728 -0.07462027
000190 c5 04 01 3d 9b f4 3e 3c 31 3b b5 bd 2a 56 0e 3c
       0.03149869 0.011654998 -0.088491805 0.008687535
0001a0 f1 ca 15 3c b1 98 4e bd 01 30 fa bd 53 97 88 3c
       0.009142623 -0.050438587 -0.12216187 0.01667372
0001b0 c9 6a 58 3d 12 e2 68 3d 0e 89 5c 3d 92 f4 bd 3c
       0.052836213 0.056856222 0.053841643 0.02318791
0001c0 c7 c0 30 bd 4b d0 1b bd a9 53 89 3c ac ae 83 ba
       -0.043152597 -0.03804044 0.016763525 -0.0010046563
0001d0 b3 ac 8e 3d 2e 70 37 bc 79 62 b6 3c 91 4c a9 3b
       0.069665335 -0.011196179 0.022263752 0.005166598
0001e0 d8 f6 87 bc 67 dd 71 3c 58 a1 28 bd a9 95 f3 bc
       -0.016597196 0.014762259 -0.041169494 -0.02973445
0001f0 f2 f5 b5 bc 47 9c 5a 3b 95 ca d6 3c df 14 1f bd
       -0.022212002 0.0033357309 0.026219646 -0.038838264
000200 62 00 5d bb d3 12 2f 3d cc 6c ba bc e3 8f ab 3c
       -0.0033722152 0.04274256 -0.022756957 0.020942634
000210 bd a9 9f bb c7 d5 20 3d 15 cb ad 3c 50 a0 22 bd
       -0.0048725293 0.039266374 0.021215001 -0.039703667
000220 d9 e3 8f bc 20 56 cb bc 6a e5 be 3d 89 41 9b bc
       -0.0175647 -0.024821341 0.09321101 -0.018952148
000230 91 05 2a 3d a7 06 21 3d 05 29 ca bb bd 66 16 3d
       0.041509215 0.039312985 -0.0061694407 0.036719073
000240 65 9c 70 3b 8f 5c 5d 3c 27 6a 34 3c 34 e9 d7 bb
       0.0036714312 0.013510837 0.011011637 -0.0065890793
000250 28 e0 17 3c be 37 7a bb 4c a0 71 bd 09 b8 80 bd
       0.009269752 -0.0038180198 -0.05899076 -0.06285102
000260 cf 8b 88 3d 98 b5 64 3d d9 96 6a bc 4a f0 52 bc
       0.066672914 0.055837244 -0.014318191 -0.012874672
000270 eb 9c 88 3c 60 f8 bc 3b 05 11 b8 bc 7c 5a 99 bd
       0.016676387 0.0057669133 -0.022469053 -0.07487962
000280 1b 98 1a 3c ad 82 b0 bc 33 b1 0f bd 6b fa 39 3d
       0.009435679 -0.021546686 -0.0350811 0.045404833
000290 37 6a 24 bd ee 22 dc bc f1 78 1b 3d 5e 3d 5e bd
       -0.040140357 -0.026872125 0.037957136 -0.054257743
0002a0 13 66 75 bd 39 9f ab bb 14 57 bc 3c 5f 9e c8 3d
       -0.0599118 -0.0052374867 0.02299074 0.09795832
0002b0 73 13 68 bd bc b6 29 bc 32 de a7 3c f2 92 92 bc
       -0.056659173 -0.010358509 0.020491693 -0.017892335
0002c0 a7 10 1b bc 2e 80 41 bd 82 6d 89 bd d6 24 17 bc
       -0.009464419 -0.047241382 -0.0671034 -0.009225091
0002d0 98 da 35 bd 5d 40 18 3c a4 be 82 bb 39 2f 37 3d
       -0.04439792 0.009292689 -0.0039900113 0.04472277
0002e0 66 2a 86 3c 02 68 5c bd c9 41 f0 3b 78 5a 1e bd
       0.016377639 -0.053810127 0.007332061 -0.038660496
0002f0 80 23 cf bc 80 84 c4 3b 9b b5 49 3d ea 69 f1 3c
       -0.025285482 0.0059972405 0.049245458 0.02946945
000300 d1 d5 0c 3c 16 57 d6 3a 4f 44 15 bd bb d1 3f 3d
       0.0085959 0.0016352858 -0.036442097 0.046830874
000310 b4 1d 1b bd da c5 11 bd 35 cf 11 bc eb c3 51 bd
       -0.037870124 -0.035589077 -0.0088995 -0.051212233
000320 a3 85 d6 bc 34 58 40 3d a2 5f 53 3d 8a cc c7 39
       -0.02618677 0.046959117 0.051604874 0.0003810863
000330 41 4c d5 3c dd e9 b5 bc 81 92 28 bd 47 d1 45 bc
       0.026037337 -0.022206241 -0.041155342 -0.012073821
000340 ba 49 b7 3c bc c1 b7 3c 6d 2c 28 bc 1e 7f de 3c
       0.022374023 0.022431247 -0.010264498 0.027160224
000350 d5 47 46 bd 0f fc cd bc b2 1d 5f 3a f4 a3 9a bc
       -0.048408348 -0.025144605 0.00085112 -0.018877007
000360 2c 70 96 bc bd 7b 11 3d f6 54 6b 38 67 5c 05 3d
       -0.018364035 0.035518397 5.6107492e-05 0.032558825
000370 c0 07 80 bc 7a ef 15 3c 1e fe b5 bc 76 47 15 3d
       -0.015628695 0.009151334 -0.0222159 0.036445104
000380 a3 98 41 3d 9f 62 e8 bd e0 46 96 bc e4 35 98 bd
       0.047264706 -0.113469355 -0.018344343 -0.07432154
000390 0b 10 18 bb 30 24 3e bd 83 82 d8 3b c1 d0 c3 3c
       -0.0023202922 -0.04642123 0.006607355 0.023903253
0003a0 94 15 11 3d ec 42 ea 3c 1c a4 ee bc 71 30 d7 3c
       0.03542097 0.028596364 -0.029130988 0.026268216
0003b0 62 06 9a bc 4b 34 b3 3d 1b 6c 22 bd 25 d2 27 3b
       -0.018801872 0.087502085 -0.03965388 0.0025607434
0003c0 1d 3c a5 3d 70 85 67 bd e4 66 13 bd 37 d4 90 bc
       0.08068106 -0.05652374 -0.035986796 -0.017679317
0003d0 0b 72 fa bb b2 93 01 bd c9 dd fc bb 81 8a a9 3b
       -0.0076429895 -0.031634994 -0.0077168685 0.0051739817
0003e0 49 86 15 bd e7 49 8c 3d 26 24 7f bd 14 f2 f8 3c
       -0.036505017 0.06850033 -0.062290333 0.03038887
0003f0 14 09 c1 bd f9 d5 e1 3c 8e 30 f2 3b 41 87 9b bc
       -0.0942556 0.02756785 0.007391042 -0.018985393

encoder.0.bias f4 [8]
000000 76 f1 58 bb d7 4c fa bc cb d0 77 3c 53 50 a1 bc
       -0.0033102906 -0.030554218 0.015125464 -0.019691622
000010 c9 91 8a bc 4c 4f ff bb 7b d9 40 bc 71 f6 be bc
       -0.016915219 -0.0077914353 -0.011770601 -0.023310872

encoder.3.weight f4 [16, 8, 5, 5]
000000 69 bc f9 ba e6 8e f4 bc 51 09 66 3c d6 36 bc bc
       -0.0019053343 -0.029853296 0.014040307 -0.022975367
000010 a2 32 e6 bc 58 6e ac bb 3f 8e 16 bd ec 7b af bd
       -0.028100315 -0.0052621774 -0.03675675 -0.08568558
000020 91 81 28 bd cb 9c 63 3b ea 38 ee 3c ce 43 d4 bc
       -0.04113919 0.0034730907 0.029079873 -0.025911238
000030 dd 20 e5 3c bb 38 b2 3c 9f a2 c6 bb 41 cb 78 3c
       0.027969772 0.021755567 -0.0060618664 0.015185178
000040 79 ea 1e 3c ba 14 70 3c 63 04 41 3c 44 5e 80 bb
       0.009699457 0.014653379 0.011780831 -0.0039174873
000050 63 d7 54 3c da c4 d3 3c 78 2a 96 3b 24 ee 2e bc
       0.012990805 0.025850702 0.0045826994 -0.010676894
000060 5a ac 3d bc fd 15 3f bd 32 d0 36 bc 90 92 7a 3c
       -0.011576736 -0.04665183 -0.011158036 0.015293732
000070 23 cb 1f bd a3 42 52 bd 15 f4 d6 3c 93 29 1f 3c
       -0.039012086 -0.05133308 0.026239434 0.009714502
000080 fe e9 ed bc 06 dc 77 bd 1a 0c 88 3c c0 bb 06 bd
       -0.02904224 -0.060512565 0.016607333 -0.032893896
000090 60 94 44 bc 22 e7 09 bc 9b 63 1a 3c 4a 66 85 3a
       -0.011998266 -0.008416923 0.009423162 0.0010177579
0000a0 31 1b a2 3b fd f5 d3 bb fb 5d 02 bd a9 b3 4c ba
       0.004947089 -0.006468533 -0.031827908 -0.0007808754
0000b0 38 86 a5 3a c2 2b da bc 65 e4 06 bd c3 7a d2 bb
       0.0012628501 -0.026632193 -0.032932658 -0.0064233257
0000c0 ce 54 da 3c e4 7e 54 ba 0d 81 97 bc 26 29 e7 3c
       0.026651766 -0.00081060664 -0.018494153 0.028217863
0000d0 c0 41 a4 3c 9a eb 5d bb 00 66 90 bc b1 bf b2 bc
       0.020050883 -0.0033862353 -0.017626762 -0.021819921
0000e0 fa 28 ff bb e5 8f 73 bd c6 92 8b bc 0b f1 05 3d
       -0.007786867 -0.0594634 -0.01703776 0.03270058
0000f0 83 43 ea bc ed 07 b5 bc f8 b1 63 bd f9 9f 0e bd
       -0.028596645 -0.022098506 -0.055589646 -0.03482053
000100 74 0b 7c 3c 9f 0b 2d bd ce 5d ca 3c b3 af 44 bd
       0.01538359 -0.04224741 0.024702933 -0.048019122
000110 6f 93 65 bd a8 67 a5 bc f2 0f 51 bd 78 fe 50 3d
       -0.056048807 -0.020191029 -0.051040597 0.05102393
000120 4c 79 92 bc d8 7f 0c 3d 1d 01 3a 3b ae a5 25 3d
       -0.017880104 0.03430161 0.0028382011 0.040441208
000130 ae e3 dd bc ca 35 2d 3d e2 2f 44 bd b8 73 d6 3c
       -0.027086105 0.042287625 -0.047897227 0.026178226
000140 47 4e 82 bd bf a9 3a bc 12 8a 6f bd 23 ba 87 3d
       -0.063625865 -0.01139301 -0.058481283 0.066273
000150 71 dd bb bc ce ff 8a bb a3 a2 0a bc f7 19 f9 3c
       -0.02293274 -0.00424192 -0.008461627 0.030407889
000160 7f 90 7f 3c 73 74 94 bb e6 73 09 bc be 7d e8 bc
       0.015598415 -0.0045304834 -0.008389449 -0.028380271
000170 2e a9 a5 3b 21 80 54 bd 67 76 23 bc 97 e5 99 bb
       0.005055568 -0.051880006 -0.00997696 -0.0046965587
000180 61 f1 70 bc 2b 36 26 bc 5f 8c 93 3c 11 b4 24 bd
       -0.014705987 -0.010144751 0.01801127 -0.040210787
000190 bb d6 d1 bc b1 94 90 3c 83 b8 80 3b 11 01 1c 3b
       -0.025615087 0.017649027 0.0039282455 0.0023804347
0001a0 35 50 89 3b 95 e3 cc 3c b6 41 fc 3b 97 15 0b 3d
       0.0041904696 0.025010863 0.007698263 0.033956137
0001b0 eb 6b 86 3c 67 74 0e 3d af 80 17 bd 06 66 ca 3c
       0.016408881 0.03477898 -0.036987957 0.024706852
0001c0 31 3a 93 3c 19 33 8c bc 8a d7 ec bb ff c8 57 3c
       0.017972084 -0.017114209 -0.0072278427 0.01317048
0001d0 9f 4a 92 bc 8f 1c b4 3b 75 36 d6 bc 09 91 a2 bc
       -0.017857848 0.0054965685 -0.026149014 -0.019844549
0001e0 ad b6 de 3c ba b2 f6 3c 80 72 84 3c fa 97 88 3c
       0.027186716 0.03011452 0.01616788 0.01667403
0001f0 09 52 24 bc f0 85 18 bd 2c c8 6b bd 22 d8 2d 3c
       -0.010029324 -0.037237108 -0.057563946 0.010610612
000200 4e 51 42 3d cb 1b 0a bd 05 4b 93 3c 0b a0 46 3c
       0.04744082 -0.03371791 0.017980108 0.012123118
000210 18 f4 6e bb eb 35 48 3d 20 26 71 3c 4e 53 19 3d
       -0.003646141 0.048879545 0.014718562 0.03743296
000220 34 b5 b6 bc 80 db 39 bd 35 3f 0d bd 82 f3 67 3c
       -0.022303201 -0.045375347 -0.034484107 0.014157178
000230 ba a7 74 bd 03 de 89 3c a5 b2 24 bd 0b ad 9d 3b
       -0.05973027 0.016829496 -0.04020943 0.004811888
000240 6a 29 8d bc 7a 35 3e 3d 86 46 1d 3d 29 af 94 bc
       -0.017231662 0.046437718 0.038397335 -0.01814993
000250 fb d4 7f bc 83 a0 13 3d e5 60 53 bc 98 3e 70 bd
       -0.015614743 0.036041748 -0.012901519 -0.058653444
000260 25 4a c0 bd 45 a7 80 3d 21 5d c8 bc fd 9e 03 bd
       -0.09389142 0.06281904 -0.02445847 -0.032134045
000270 7e 2c 65 3d 8a 82 a5 bb 9b 91 95 ba ec c8 0b bd
       0.055950634 -0.005050962 -0.0011411192 -0.03412716
000280 45 0a f5 bb 34 4b 24 3d a2 2e 25 bd 3a 33 5f 3c
       -0.007478031 0.04011078 -0.040327676 0.013623053
000290 ad d4 59 3c 3f 9a 68 3c fa 4f a0 bc 75 32 98 3c
       0.013295335 0.014196931 -0.019569386 0.018578747
0002a0 0a 5d a2 bc c7 02 87 3c 15 3e 71 3c c6 73 f6 bc
       -0.019819755 0.016480817 0.014724274 -0.030084502
0002b0 46 15 a7 bd 5b 07 ea bc ae eb 53 bc d2 c3 68 bc
       -0.081583545 -0.02856796 -0.012934608 -0.014206843
0002c0 1a 6f 2b bd ff 1e bc 3c 05 18 59 bd 39 00 2b 3d
       -0.041854 0.022963999 -0.053001422 0.04174826
0002d0 22 03 45 3c bd 9d f0 bc b6 cd 9d bb 3b 7f 70 bb
       0.012024673 -0.02937209 -0.0048157824 -0.003669693
0002e0 88 05 d3 3c 5c 7c 22 bd e2 25 8a 3c b7 77 25 3b
       0.025759473 -0.03966938 0.016863767 0.0025248358
0002f0 f6 30 af bc aa 60 cb bc 21 19 f6 3b c3 06 75 bc
       -0.021385651 -0.024826366 0.00751032 -0.014955225
000300 07 13 b4 3c d8 19 f7 3a c4 96 8b 3c f6 c9 1f bd
       0.02198173 0.0018852307 0.017039664 -0.039010964
000310 d3 9d 83 bc 3c 6a 4a 3c cd 89 11 bc cb c9 b1 bc
       -0.016066467 0.01235443 -0.008882952 -0.021702668
000320 3f b2 4a bd 59 50 35 bc 0d de 35 bc de e8 24 bd
       -0.049486395 -0.01106652 -0.011100304 -0.040261142
000330 1c f0 2d bc 5a 08 d9 bc cf 6f 5a 3b b2 87 b5 3a
       -0.010616329 -0.02649324 0.0033330803 0.0013849644
000340 7f 8f 5b 3d f5 f9 09 3b f0 ad a3 bc f6 82 52 3d
       0.053603645 0.0021053527 -0.0199804 0.051394425
000350 0d 21 be bc b1 05 36 bd 4f 18 a1 3c 6a 3a 4d bd
       -0.02320912 -0.04443902 0.019664912 -0.050104536
000360 10 f6 60 ba f9 90 fe 3c 50 ef 55 3c 0b 1a c5 3c
       -0.0008581588 0.031074988 0.013057545 0.02406027
000370 e9 90 5c bd cc 95 c6 bb 21 99 30 bd ca d7 a7 3b
       -0.053849135 -0.0060603376 -0.043114785 0.0051221596
000380 80 cf c3 3c d6 74 13 bc 27 18 8d 3c c4 4e 3a bb
       0.023902655 -0.009000024 0.01722343 -0.0028428296
000390 98 6b 6b bd 40 b6 c4 bd 9f 04 1e 3c 5c d1 e0 3c
       -0.057475656 -0.09605074 0.009644656 0.02744358
0003a0 3a f5 0b 3d 22 a9 ab 3d 5b c8 0b 3d 95 36 0c 3c
       0.034169413 0.08381869 0.03412662 0.008557935
0003b0 be e2 86 3c 4a 15 0e bd 64 94 ac 3c af ea c8 3c
       0.016465541 -0.03468827 0.021066852 0.024525968
0003c0 ec 7e e1 3c 6a 25 a9 bb 23 13 15 bd c8 6f 88 bd
       0.027526341 -0.005161931 -0.036395203 -0.066619456
0003d0 b5 2d 50 3d 06 4f e4 3c db e9 05 ba 2f 05 1d 3d
       0.05082484 0.027869713 -0.00051083945 0.03833502
0003e0 03 b7 ec 3c 8e 42 a8 bc 57 48 b9 3c 36 ab ac 3d
       0.02889586 -0.020539548 0.022617502 0.084310934
0003f0 a1 67 08 3d 7e b1 a3 3c 35 27 17 bd 73 65 4d 3d
       0.033301953 0.019982096 -0.036902625 0.050145578

encoder.3.bias f4 [16]
000000 c9 29 35 bc 2a f0 7a bc 6d 37 f5 3b d8 a8 b5 bb
       -0.011057326 -0.015316049 0.007483414 -0.0055438094
000010 76 ab 38 bc b8 b2 ad bb 42 0f 05 bc 49 5a 10 bc
       -0.011271348 -0.005300846 -0.0081213135 -0.008810588
000020 47 4e ad 3b 8a a4 a6 bc cf d7 ef bb 1b a5 52 bc
       0.0052888724 -0.02034213 -0.0073194276 -0.012856747
000030 c1 a6 5f bc ae cf 6a bb 6f 88 81 bc 36 96 8d bb
       -0.013650597 -0.0035829353 -0.015812127 -0.004320885

encoder.6.weight f4 [32, 16, 5, 5]
000000 5b b5 fe 3c c9 1e 19 bc 3c 8a 5a bc 34 9e 68 3c
       0.031092336 -0.009345719 -0.013338622 0.014197875
000010 ba 11 07 3d 91 dc fd 3c 30 52 32 bc 86 a7 35 3c
       0.03297589 0.030988963 -0.010883853 0.011087304
000020 3b da 52 bc 65 8a b4 bb 30 45 54 3c 5a 1b 3c bb
       -0.012869413 -0.005509662 0.012955949 -0.0028702826
000030 7f 3c f4 3b d5 6b ad bc 03 cb a2 bc 76 5f a1 bc
       0.0074535008 -0.021169582 -0.019872194 -0.01969884
000040 ca 87 a8 bc da 84 0a 3c 67 47 3e bd d2 bd cc bb
       -0.020572562 0.008454526 -0.046454813 -0.0062482143
000050 89 5e 0d bc ec 64 b7 bc 84 98 00 3d dd 03 14 3d
       -0.008628496 -0.02238699 0.03139545 0.036136497
000060 91 77 10 bc 5f 32 6c 3c f1 77 b9 3b 03 ad 17 bc
       -0.008817569 0.014416306 0.00566005 -0.009257558
000070 e8 27 ce bb ab fc 4d 3c f8 04 20 bc 54 7e 16 3b
       -0.0062913783 0.012572448 -0.00976681 0.002296348
000080 61 c1 4a bd 63 9a b2 3b 10 dc 09 39 fe 00 67 3c
       -0.049500827 0.0054505332 0.00013147318 0.014099358
000090 6f b5 02 bb b8 21 a7 3c 80 da 6e 3b 31 2d 9f 3b
       -0.0019944569 0.02040182 0.0036446154 0.004857682
0000a0 bd e3 9d 3c ea 61 06 3c e2 40 e3 3b 70 f1 a4 3c
       0.019273633 0.0082020555 0.006935225 0.020134658
0000b0 ab 2a 82 bc 22 19 a6 3c e8 87 fc 3a e3 39 a1 bc
       -0.015889486 0.020275656 0.0019266577 -0.019680923
0000c0 f3 09 13 bd b9 8b 83 3c 02 53 22 bc 23 a2 92 bb
       -0.03589816 0.016057836 -0.009907486 -0.0044748946
0000d0 4b c3 22 3c 63 cd 7c 38 b6 63 94 3c c6 60 6f bb
       0.009934257 6.0272763e-05 0.018113952 -0.0036526187
0000e0 df 2e c7 3b 83 84 8d 3c b0 47 65 b9 aa 75 03 bd
       0.0060785855 0.0172751 -0.00021865848 -0.032094635
0000f0 67 b1 03 3d dd fe 24 bc 25 d2 cb 3a 03 6e 56 3c
       0.032151606 -0.01007053 0.0015550299 0.013087752
000100 a5 81 ac bb 1b f5 cd bb 74 1d b3 3b 82 37 04 3d
       -0.0052644783 -0.0062853224 0.0054661576 0.0322795
000110 bf a9 31 bd 28 0b a6 bc db a1 ac 3b b6 27 1b bb
       -0.043374773 -0.020268992 0.005268318 -0.0023674793
000120 6b dc 3d bc 7e 56 a3 3c 55 51 5d bc 90 63 09 ba
       -0.011588196 0.019938704 -0.013508161 -0.0005240971
000130 d4 ba 15 bd 59 51 88 bb c7 c4 cd bc 62 aa c0 3c
       -0.036555126 -0.004160088 -0.025118245 0.023518745
000140 ac 5d 54 3c 3c cc 87 3b b6 74 aa bc 58 ff 2d 3c
       0.012961786 0.0041442197 -0.020807605 0.010619961
000150 5e d1 0e 3c 85 4d 97 3c 18 bc f9 3b 2d ab 54 bd
       0.008716909 0.018469581 0.0076212995 -0.05192106
000160 17 f9 8b 3c 90 19 43 bc a5 69 61 bc 7d 47 f1 3c
       0.017086549 -0.01190795 -0.013758098 0.029453034
000170 b0 e4 0f bc 69 bc d7 3c 93 5c 9b 3c fa e5 ab 3c
       -0.008782551 0.026334958 0.018965041 0.020983685
000180 38 ce 33 bc 14 80 47 ba b1 b9 cb bc 69 78 b2 bc
       -0.010974459 -0.00076103327 -0.024868818 -0.021785932
000190 2b a7 9b 3c db 14 15 3d 3b 17 80 3c f6 90 a3 3b
       0.01900061 0.036396842 0.015636077 0.004991646
0001a0 b5 d1 4b 3c aa 0f 1a bd 5f 20 f2 bc 8b 31 0a 3a
       0.012440135 -0.037612595 -0.029556451 0.00052716647
0001b0 f2 5a 36 bd 88 4f 01 bc a7 44 97 3c c1 64 2e 3c
       -0.044520326 -0.007892497 0.018465353 0.010644139
0001c0 e3 63 91 b8 ea b2 d2 3c a8 45 76 3c 11 18 52 bd
       -6.932744e-05 0.025720078 0.015031256 -0.051292483
0001d0 a5 fa 24 bc 37 99 f0 bb f3 de 96 bc 7d f8 56 3d
       -0.010069524 -0.0073424834 -0.018416857 0.05248307
0001e0 7e 0f cc 3c bc 0a d2 bb 63 ad 2a bd 3c b9 88 3c
       0.024909731 -0.006409971 -0.04166926 0.01668989
0001f0 59 a5 62 ba 6f 17 40 bd 11 01 87 bc 2f 63 1c bc
       -0.00086458545 -0.046897348 -0.01648 -0.009545132
000200 c5 c6 9e 3b f2 aa c3 bc 69 17 4f bb db 10 ed 3b
       0.0048454725 -0.023885224 -0.0031599647 0.0072346753
000210 d6 28 cf bc e5 29 9f bc 8c 69 8c 3c 43 0a bd bc
       -0.025288027 -0.019429157 0.017140172 -0.023076182
000220 17 c0 e2 bb b2 77 6d 39 47 5f ac 39 14 4e 95 3b
       -0.0069198716 0.00022646671 0.00032877384 0.004556427
000230 56 7e 38 3c 59 06 a1 bc c5 c2 2b 3d 9c 66 ba bb
       0.01126059 -0.019656347 0.041933794 -0.0056885015
000240 5e 3a 17 3c 62 f5 c7 3c ff bd 31 bd 01 8d 02 3c
       0.009230224 0.024409 -0.043394085 0.007968188
000250 58 b8 aa bc 8b d0 ab 3a 8d d3 73 bd 9b 92 69 3a
       -0.020839855 0.0013108415 -0.059527922 0.00089100905
000260 c1 1a 09 3d fd 56 1d bd ea e1 99 bc 90 80 d6 3c
       0.03347278 -0.038413037 -0.018784482 0.02618435
000270 70 7d 4e bc 41 ef 94 3c 87 0a 89 bc 49 3e 45 3b
       -0.012603149 0.018180491 -0.016728653 0.003009694
000280 b2 b4 4a bb 6f 5f fd 3c 96 01 7c 3c 73 b6 81 bc
       -0.0030930457 0.030929295 0.0153812375 -0.015834069
000290 43 55 a7 3a d6 95 01 bd f0 c8 35 3c 18 73 00 3c
       0.0012766499 -0.031637035 0.0110952705 0.0078399405
0002a0 c3 8d 4f bd ca 7a 0d 3a 86 4e 23 bc af f4 ae 3b
       -0.050672304 0.000539702 -0.009967452 0.005339227
0002b0 e7 09 23 bc c2 00 e4 3c 4a 15 bc bc 6d d9 fa bc
       -0.009951091 0.027832393 -0.02295937 -0.030621255
0002c0 09 7c d7 bb 58 a4 d5 3c 9a 27 ed bb 1a b7 86 3c
       -0.0065760654 0.026079342 -0.007237387 0.016444732
0002d0 f2 93 eb bb 42 a9 cf bb 52 e9 0b 3d d2 45 b5 3a
       -0.0071892673 -0.006337316 0.03415806 0.0013830012
0002e0 0a d1 f6 3c 9f 32 21 bb af 14 af bc 7b ad b5 3c
       0.030128974 -0.0024596823 -0.021372167 0.022177448
0002f0 f4 86 05 bc 5a 55 bd 3c 6e d7 39 bd 2c 32 a9 3c
       -0.008149851 0.023111988 -0.045371465 0.020653807
000300 2f 41 3e 3c 17 29 21 3c 6c 1d 23 3d 95 3c cc 3c
       0.011612221 0.009836457 0.03982298 0.024931232
000310 74 bb 74 ba 28 f6 3c 3c ec 6a 84 3c c5 ba a2 3c
       -0.0009335794 0.011533298 0.016164266 0.01986445
000320 7b af e5 3b e0 a1 4f 3c dc 3a 61 bd 65 16 03 bc
       0.0070094443 0.012672871 -0.054987773 -0.008000945
000330 6c b6 13 3d df ee 0d bd 67 7b d2 bc 7e 81 36 3c
       0.036062643 -0.034651633 -0.025693608 0.011139272
000340 d6 c6 19 bd 73 a5 74 bc 5c cd 3a 3d 63 b9 bd ba
       -0.03754314 -0.014932024 0.045606002 -0.0014474805
000350 2e c4 1e 3c a5 80 34 3c f1 81 b7 bb f9 02 f5 bb
       0.009690328 0.011016999 -0.005600207 -0.007477161
000360 2e 23 39 bc d8 83 af bc c0 40 b3 3b cb a0 ab bb
       -0.011299891 -0.021425173 0.0054703653 -0.005237674
000370 20 65 0a bb 5d b4 d8 bc f6 91 be bb a9 4f 3b bc
       -0.0021117404 -0.026453191 -0.0058157397 -0.011432567
000380 4c 81 f4 3b ae 86 15 3d f2 18 4c 3c 19 42 0e 3c
       0.0074617025 0.036505394 0.012457119 0.008682751
000390 07 2d 75 bc a0 39 29 3d 03 dc 06 bc 1b f3 d2 3c
       -0.014964349 0.04131472 -0.008231166 0.025750687
0003a0 bf e4 2b 3a 31 0f b6 3c b5 ab 7b bc 22 9e a4 3a
       0.0006557218 0.02222404 -0.015360762 0.0012559334
0003b0 97 1e 8b bc fd b7 d9 3c f0 ba 01 bd d0 01 91 3a
       -0.01698236 0.02657699 -0.031672418 0.0011063162
0003c0 bc a0 f1 bb 6c 30 2e 3c fc f0 bc 3b 5d 12 a8 3c
       -0.0073738974 0.010631662 0.0057660323 0.020516569
0003d0 3d 40 44 bc ec f7 5d 3d c8 e0 9c 3b b2 bd c1 bc
       -0.011978206 0.054191515 0.004787538 -0.023650024
0003e0 e4 55 04 3c af 8c 25 bd 79 fe 66 3c 01 38 95 ba
       0.008077119 -0.04041737 0.014098757 -0.0011384488
0003f0 3a 0a 20 bd 2b ab 3e 3b d6 dc e3 3b d4 93 69 bc
       -0.039072253 0.0029093723 0.006953816 -0.014256436

encoder.6.bias f4 [32]
000000 60 95 00 bc 51 99 10 bc 27 b0 46 3b 32 f8 22 bc
       -0.007848114 -0.008825616 0.0030317397 -0.00994687
000010 96 97 7f bb d7 f3 47 bb 1f 06 00 bc c1 b1 c3 b8
       -0.0039000264 -0.003051033 -0.007813959 -9.331434e-05
000020 40 b4 17 bb 07 2e 9e 3b 7c b6 3a 3b ee 5e 9e 3b
       -0.002314821 0.004827264 0.0028490117 0.004833094
000030 2f d9 be bb 52 68 28 bc 48 0d 8f bb d1 ab 74 bc
       -0.00582423 -0.010278778 -0.004365597 -0.014933542
000040 4b 9d 58 bb 51 f3 d5 bb 43 cb 12 3c 70 35 4c 3c
       -0.0033052738 -0.0065292497 0.008959594 0.012463912
000050 b6 c4 1b bc 75 f7 b2 bb d0 cf a3 bb 4c 40 1c bc
       -0.009507349 -0.005461628 -0.0049991384 -0.009536814
000060 d2 66 03 bc 69 4b d8 bb 4e b0 48 bc fb 1d 8b bb
       -0.00802012 -0.0066007865 -0.012249066 -0.0042455173
000070 20 26 ce bb f7 d4 d3 bb d0 69 4a 38 cc d9 9c 3b
       -0.006291166 -0.0064645964 4.82591e-05 0.0047867056

encoder.9.weight f4 [64, 32, 5, 5]
000000 87 24 87 3c a1 98 1e bd 89 d4 1b bc 9b f2 11 bd
       0.01649691 -0.038719777 -0.009511122 -0.035631757
000010 3c 0c b4 b9 74 92 79 3c 98 fe fa 3b 9e 78 d0 3b
       -0.0003434139 0.015232671 0.0076597445 0.006362035
000020 59 ec 0e bc e5 1f be 3b be 1c 1b 3c 93 7e 51 bb
       -0.008723342 0.005802142 0.009467302 -0.0031966313
000030 18 3d 05 3b 7c f4 61 bc 5b 74 87 bc 23 00 df 3b
       0.0020330604 -0.0137912 -0.016534975 0.006805436
000040 23 93 5a 3c f7 3d 23 bc 8b 0e 9b bc 56 8d bd bc
       0.013340744 -0.009963504 -0.018927833 -0.023138683
000050 f4 06 de bb 57 ca f2 3b f1 0c af 3b fc 88 46 3a
       -0.006775731 0.0074093747 0.005342119 0.0007573513
000060 6c 7d e0 bc 7b 79 b5 bb e1 72 24 3d d0 f2 8b 3c
       -0.027403556 -0.0055381632 0.04014862 0.017083555
000070 73 cb f2 38 2f 52 af bb 72 a1 0d 3d 39 df 89 3c
       0.000115773546 -0.005350373 0.034577794 0.016830074
000080 6e 28 e7 3c 39 fa 74 3b ba b5 41 3b e9 9a 4a 3b
       0.02821752 0.003738059 0.002955778 0.0030915088
000090 43 08 05 3d 23 6c 5f bc ef b7 59 3c 8e 4e 3b 3c
       0.032478582 -0.013636622 0.013288482 0.011432303
0000a0 14 6c b2 3b d1 d5 a9 3b d1 7d 5a bc 2a 33 98 3c
       0.005445013 0.0051829596 -0.013335661 0.018579084
0000b0 87 e6 41 3d 51 f1 95 bc 78 78 fe bb 3c 0f 5a bc
       0.04733899 -0.018303545 -0.007765826 -0.013309296
0000c0 cb e7 6a 3b f9 95 82 3c 24 dc af 3c d5 a8 5e bc
       0.0035843726 0.015940653 0.021467276 -0.013590057
0000d0 ee 8a 9f bc 85 4d 04 3c db 2f 0d 3c b9 43 3d bc
       -0.019475427 0.008075123 0.008617367 -0.011551791
0000e0 b6 07 8e 3b 80 20 ad 3b 21 cd ed 3b cd d8 b4 3b
       0.0043344153 0.0052834153 0.0072571193 0.0055190087
0000f0 76 6f 92 bc 7c f2 13 3c 57 e1 89 b9 66 0f 0f 3c
       -0.017875414 0.009029981 -0.00026298568 0.008731699
000100 1d fb 18 3d e6 b0 a8 b7 69 43 0c bd 35 45 45 bd
       0.037348855 -2.0109535e-05 -0.034243975 -0.048161704
000110 15 7d 02 bd 6f ff 04 3b 60 ee 83 bc a2 3b 3f bd
       -0.03185757 0.0020293852 -0.016104877 -0.04668773
000120 03 fe 73 bd 2e f5 49 3b b5 fd 1e 3d 2c 8c 02 3d
       -0.059568416 0.0030816304 0.038816173 0.03187196
000130 a1 f9 85 3c aa 56 83 3c 19 27 a8 bb 25 b6 92 bb
       0.016354384 0.016032536 -0.005131614 -0.0044772797
000140 b1 a0 9a 3c 25 46 00 3d 7b 4b bd bb bb 94 cf 39
       0.018875452 0.031316895 -0.0057768202 0.0003959293
000150 c1 f2 f7 3b 4d 84 86 3c c3 20 3e bc 37 72 0a bd
       0.0075667803 0.016420508 -0.011604491 -0.03380033
000160 f6 54 c0 3b 7b 08 a3 bc 8c 57 48 bc da f7 b4 3c
       0.005869503 -0.019901505 -0.012227904 0.022090841
000170 96 33 b1 3a 7f fa eb 3a 8a 6d 16 bd 77 27 a1 3a
       0.0013519402 0.0018003731 -0.03672556 0.0012295087
000180 07 28 ae b9 50 82 5c 3c b2 6a 96 bb 4e 6d b9 ba
       -0.0003321769 0.013458803 -0.004590356 -0.0014146955
000190 bc d9 11 3c a8 d6 8d ba f9 f4 1c 3c ab 3e 61 bc
       0.00890201 -0.0010821419 0.00957989 -0.013747851
0001a0 80 b3 c0 b9 c7 36 62 3b 81 d0 8a 3b 6f f6 0d bc
       -0.00036754832 0.0034517513 0.0042362814 -0.008664711
0001b0 91 47 6d 3c 98 7b bb 3c c2 de f0 3b 86 cf 7e bc
       0.014482395 0.022886083 0.0073507736 -0.015552407
0001c0 f5 ea 50 3c 29 05 13 3d 7b 66 10 3c 04 c2 84 bb
       0.012751331 0.035893593 0.008813496 -0.004051449
0001d0 89 81 92 bb 02 b6 70 bc 2e 95 d8 3b 8d 5f e6 bb
       -0.004471008 -0.014691832 0.0066095805 -0.0070304335
0001e0 cc bc cd 3a 2e c1 82 3a 0d 74 c5 3c 54 33 c0 3c
       0.0015696525 0.0009975785 0.024103189 0.023461975
0001f0 bf 1e b0 3a 39 c3 86 bc df 4d 69 3a 1d 6a eb 38
       0.0013436897 -0.016450511 0.00088998483 0.00011225438
000200 25 5d 60 bc b9 a9 e8 bb 98 65 b1 3c 0f b9 58 3b
       -0.013694082 -0.0071003106 0.021654889 0.0033069288
000210 62 8b 74 3b c1 d6 97 3b e4 93 82 bc cd 6d 0b 3c
       0.0037314524 0.004633755 -0.01593966 0.008510065
000220 1b e2 a7 3c 38 fc 18 bb 9c 56 8b 3b 14 82 a0 bc
       0.020493558 -0.0023343693 0.004252268 -0.019593276
000230 60 11 df 3b fd e0 26 3c e1 77 0d bd 83 24 f0 bc
       0.006807491 0.010185477 -0.034538154 -0.029314285
000240 48 15 05 3c 18 1a 96 3c 58 48 ac 3b 98 44 29 bc
       0.00812275 0.01832299 0.0052576475 -0.010331295
000250 67 64 11 3d 4f e7 69 3b 54 75 01 3c 8f 58 a7 3c
       0.03549614 0.003569085 0.007901508 0.02042797
000260 80 83 ff 3b b7 fd 8f 3c ec 88 a8 37 ef c9 2e 3c
       0.0077976584 0.017577035 2.009092e-05 0.010668262
000270 b9 d0 80 bb 40 73 45 3b 1f 54 e6 3c 0c 45 7d 3c
       -0.0039311317 0.0030128509 0.028116284 0.015458357
000280 07 26 a7 3b 0b 07 93 3b e3 ca 8a 3c 3c f4 9f 3c
       0.0051009688 0.0044869236 0.016942447 0.01952564
000290 da 8a 8a bb 73 68 d5 b9 7b 11 11 ba 69 a9 49 3b
       -0.004227978 -0.00040704347 -0.0005533916 0.0030771142
0002a0 d2 af d7 3c 23 42 c5 bc 79 23 a1 bb ea 77 97 bb
       0.026328955 -0.024079388 -0.0049175587 -0.004622449
0002b0 cd 29 8f bb b9 ed 2c bc 7f 99 62 bc d6 fc 1b 3c
       -0.0043689967 -0.010554724 -0.013830542 0.00952073
0002c0 61 ee 1e 3c d0 d5 31 3c 40 b3 80 bb ae 00 35 bc
       0.009700389 0.0108541995 -0.0039276183 -0.011047525
0002d0 79 dc 52 3c 3f 90 78 3c d3 0b ac 3b ab f8 d6 bc
       0.012869948 0.01517111 0.005250433 -0.026241621
0002e0 13 60 0d bd e2 88 48 3c 1a 44 82 3c a6 e4 0f 3c
       -0.03451545 0.012239667 0.015901614 0.008782541
0002f0 bc db 8a bc 6c bc c4 bc 6e 07 83 3c 56 35 62 3c
       -0.01695048 -0.024015628 0.015994754 0.013806662
000300 9d 83 c0 3c 09 40 67 ba 2f 10 60 bc 1a c9 ab 3c
       0.023500258 -0.00088214927 -0.0136757335 0.020969916
000310 8e 28 e2 3a bf be 66 bc da f2 85 3c 08 87 ad bc
       0.0017254518 -0.014083563 0.016351152 -0.021182552
000320 6d 63 88 bc 31 0c 3f 3c 87 36 09 bb e5 eb f0 bb
       -0.016648972 0.0116606215 -0.0020937042 -0.0073523396
000330 1c a8 24 bc c9 52 3b bc f4 d0 5c 3d 2b 65 12 3c
       -0.010049846 -0.011433312 0.05391021 0.008935253
000340 e7 4b 6a 3c 6d 16 cc 3a c5 fb 1a 3d 9d ba 51 3d
       0.014300323 0.0015570648 0.037837762 0.05120336
000350 fc 20 5d 3a d0 ef 44 bc f3 e4 3b bd 7a 81 d8 3c
       0.0008435396 -0.012020066 -0.04587264 0.026428927
000360 b2 87 1d 3d 24 1a 1a 3d 8e 96 9f bc b2 d7 04 bd
       0.038459487 0.037622586 -0.01948097 -0.032432266
000370 69 1e dc bb ba c4 16 3d 89 0b 2b 3c 40 f5 0f 3c
       -0.0067174924 0.036808707 0.010439762 0.0087864995
000380 ce 39 d6 bb 58 32 fb 3b ab 8b d0 3c 4a 85 4e 3b
       -0.0065376526 0.0076659136 0.025457224 0.0031512552
000390 a7 5a ea 3a 16 45 bb bb f3 8a 68 bb 37 8a 8f 35
       0.00178798 -0.005715023 -0.003548321 1.0694556e-06
0003a0 76 7a 1d 3c ec 55 67 3c 32 f3 83 bb 3a 03 30 bc
       0.0096117165 0.014119606 -0.004026794 -0.010742957
0003b0 7a fa 29 3c 3b 43 df bb eb 43 e7 3c 60 44 ad 3c
       0.01037466 -0.0068134344 0.028230628 0.021150768
0003c0 d2 92 f5 3b 02 6e ca 3b e8 3a 05 bb c1 e7 14 3d
       0.007494309 0.0061776647 -0.00203293 0.03635383
0003d0 e9 d5 b4 bb 9a 26 9d 3a 24 2a 79 bc 11 7c a2 3c
       -0.005518664 0.0011989654 -0.015207801 0.01983455
0003e0 8b 5d b9 3c c5 cf 79 3c 72 bf 09 bc 6f 2c ab 3c
       0.022627613 0.01524729 -0.0084074605 0.020895211
0003f0 46 df 14 3d bc d9 22 3c 6c 80 28 3d e9 47 1f bb
       0.036345743 0.009939607 0.041138098 -0.0024304336

encoder.9.bias f4 [64]
000000 e9 97 6f 3b b0 ca aa bb d6 97 2c 3a 03 90 17 bc
       0.0036559051 -0.0052121505 0.00065839046 -0.009250644
000010 91 43 89 bc cd 4c 3d bc 45 17 aa 3c a3 e1 5f bc
       -0.016755851 -0.011553955 0.020763049 -0.013664636
000020 0f 8e 6b bb 9a 69 80 bc 30 91 35 bc b2 8d f0 bb
       -0.0035942828 -0.015675355 -0.011081979 -0.00734111
000030 4a e3 64 3c 79 ad 6c bc e5 d0 45 bc d4 c5 8b bc
       0.013970206 -0.014445656 -0.01207373 -0.017062105
000040 e7 f9 e0 bb 47 1b 0b bb 9e fe 6b bc 53 1e 00 bc
       -0.006865728 -0.0021225975 -0.014403967 -0.00781973
000050 36 e9 65 bb 95 4d 03 bc a4 cf 79 bc 2a 25 0b 3c
       -0.0035081632 -0.0080141025 -0.015247259 0.008492747
000060 32 3f 62 3b e9 21 19 3c 92 ab 92 bb 75 e2 24 3c
       0.003452253 0.009346464 -0.004476019 0.010063757
000070 aa 91 89 bc d0 fc 80 3b 63 2f 08 bc 30 62 e1 bc
       -0.01679309 0.0039363876 -0.008312079 -0.02751264
000080 a3 67 0d 3c 5e c1 93 3b 90 8c 1c 3c 01 36 02 3c
       0.008630666 0.004509135 0.009554997 0.007947446
000090 2d 61 4c bc 54 a7 39 bb 59 b2 70 bc 9e 88 36 3c
       -0.01247434 -0.0028328495 -0.014690959 0.0111409705
0000a0 54 e5 06 bc c2 cb cc 3b 71 6b c3 3b f6 18 0a bc
       -0.008233387 0.0062498758 0.0059637357 -0.008428803
0000b0 b2 30 57 bc ac 05 3c bc e5 4e 61 bc 78 6b 37 3c
       -0.013134168 -0.011475962 -0.01375172 0.011195056
0000c0 c7 db 15 3b 2f 17 cf bc 23 4b bf bb da f2 2d bc
       0.0022866593 -0.02527961 -0.0058378144 -0.010616982
0000d0 9d f9 65 bc bf 65 f5 ba d6 06 5f 3c e3 4a d7 3c
       -0.014036563 -0.0018722339 0.01361247 0.026280826
0000e0 b8 85 df 3b 3a c9 33 bc 0b 50 14 3b 86 18 86 bc
       0.0068213604 -0.010973269 0.0022630717 -0.016369116
0000f0 ec e0 e7 bc 2f 08 44 3b 4e 38 3a bc b9 08 87 3c
       -0.028305493 0.0029912104 -0.011365963 0.016483651

encoder.10.weight f4 [64]
000000 2f ae 81 3f 89 27 7e 3f 8d 44 7d 3f dc 41 80 3f
       1.0131282 0.99279076 0.98932725 1.0020099
000010 17 ba 7c 3f b4 c3 7a 3f 11 e0 7c 3f 2e 08 79 3f
       0.9872145 0.9795487 0.987794 0.97278106
000020 d4 1b 7d 3f 18 63 79 3f 6f 9c 7e 3f 6b fd 78 3f
       0.9887059 0.9741683 0.9945745 0.97261685
000030 0c 22 80 3f d3 07 7f 3f 6f 55 7b 3f 63 e9 7f 3f
       1.001039 0.99621314 0.98177236 0.99965495
000040 68 72 7c 3f 74 7f 7e 3f 85 48 79 3f 5a 95 7e 3f
       0.9861207 0.9941323 0.9737628 0.9944664
000050 b9 1e 7a 3f b3 89 7a 3f ba d6 78 3f 46 42 78 3f
       0.9770313 0.9786636 0.97202647 0.96976125
000060 cd e2 7b 3f 1f 76 7f 3f 17 41 80 3f 9f 14 7c 3f
       0.98392946 0.99789613 1.0019864 0.98468965
000070 7d 3f 80 3f 0f a0 7b 3f 9f 22 83 3f e2 95 7c 3f
       1.0019375 0.98291105 1.024494 0.98666203
000080 61 00 82 3f c2 f9 7e 3f 51 98 7d 3f 0b d6 7b 3f
       1.0156366 0.9959985 0.9906054 0.9837348
000090 b1 b7 77 3f 51 ab 7e 3f 09 ae 81 3f 31 e2 78 3f
       0.96764666 0.9948016 1.0131236 0.9722014
0000a0 89 3b 75 3f 0e f1 80 3f e6 21 7f 3f 29 c8 7d 3f
       0.9579397 1.0073564 0.996611 0.99133545
0000b0 b4 81 7c 3f 0d b6 7d 3f 45 7a 77 3f 35 cb 7d 3f
       0.9863541 0.9910591 0.96670943 0.99138194
0000c0 e8 af 79 3f 34 00 7b 3f e3 57 7a 3f dd 64 7a 3f
       0.97534037 0.98047185 0.97790354 0.97810155
0000d0 7f 9c 7c 3f 78 bc 7c 3f ed 40 7d 3f c3 1e 7e 3f
       0.98676294 0.9872508 0.98927194 0.9926569
0000e0 d5 62 80 3f 09 87 7d 3f ba 6e 7b 3f f0 86 7c 3f
       1.0030161 0.9903417 0.9821583 0.986434
0000f0 0f fa 7b 3f 74 46 80 3f 7c c1 7c 3f 97 fc 7c 3f
       0.98428434 1.00215 0.98732734 0.9882292
