results/dot-ou-final_d=ballsw=8z=2det=0lat=const-sig-ntloss=exactsigma=diag/run0/saved_nets/ae_best_val_1.pth (torch, 681339 bytes, 40 tensors)

mu_linear.weight f4 [2, 4096]
0.010084938 0.008384815 0.011502426 0.023233144 -0.009188835 0.033247117 0.037148174 -0.007081802
0.005826459 0.016450452 -0.006979925 0.012804236 0.013676324 -0.009516217 -0.0144187715 0.03448179
-0.0004530661 0.03518991 -0.011222888 -0.0017386309 0.013422751 -0.02620593 -0.019612914 0.026047813
0.04642441 0.02805548 0.01301786 -0.012217001 0.00267622 -0.03946874 0.003006946 0.042796616
0.02159542 -0.013984203 -0.013019296 -0.04254876 -0.047040172 -0.021256432 -0.015957257 0.0056489357
-0.0030252691 0.019384319 0.015788123 0.02321576 -0.035317626 -0.0725832 0.025211433 0.04352374
0.0270587 0.004746525 -0.011163476 0.019216448 -0.010309826 -0.0110654775 0.005552229 -0.022672184
0.027055046 -0.02755582 0.0023788093 0.0081457365 0.015047392 -0.010840987 0.015528095 0.010788472
0.0033627485 0.030860549 0.0477194 0.022479696 0.005735965 -0.0038468342 0.0065335664 0.006921211
0.030425558 -0.016463617 0.053535424 -0.011293072 0.012372228 0.033336174 0.016978124 0.021693513
0.035249427 0.03825435 -0.012337844 0.004946839 0.0005524361 0.0024152065 0.0051356885 -0.003048283
0.0757628 0.013655794 0.017648283 0.019798057 0.01962553 -0.024255892 0.019988796 -0.009131978
0.00733591 -0.0016022032 0.0041967873 -0.009905512 0.009161023 -0.0034478854 -0.017161999 -0.019991627
0.019626407 -0.0030490302 -0.027570773 -0.041848935 -0.0026791508 -0.03359171 0.007942503 0.010966255
0.010939413 0.018092133 -0.07703739 -0.047363978 -0.010289434 0.0086133825 0.009476737 -0.0067991437
0.015134097 -0.016472325 -0.08132644 -0.026045257 0.01620437 -0.027372114 0.012675042 -0.0138405105
0.0046258112 -0.010177879 -0.0049933377 0.014838839 -0.0030706516 -0.010934422 -0.016995871 0.0070053795
-0.008369127 -0.00036102693 0.02013709 0.016538247 0.0069231614 0.01045632 0.033225622 -0.0014060899
0.009137728 -0.021534547 0.015645977 0.073663466 0.08760434 0.07666161 0.023718743 -0.009646832
0.008973639 0.040808167 0.07676895 0.03702096 0.042302325 0.04450746 0.025417468 0.0033362475
-0.0029320563 0.023946963 0.0821638 0.06022122 0.051190495 0.021197809 0.02427619 0.012709875
-0.0119008785 0.021862712 0.04825215 0.029566197 0.0070251543 0.020111004 -0.006346766 -0.00032125137
0.017323531 0.02236266 0.014163316 0.019297147 -0.002664506 0.014704506 -0.012218957 0.00913502
-0.0030046224 0.012139722 0.011932538 -0.008226016 -0.0016001307 -0.0070084077 -0.0073604733 -0.00961542
-0.00016688425 0.007381951 -0.002701646 -0.0041349353 -0.005076842 0.0023048036 0.0022221059 0.0069683823
0.0027561148 -0.007673468 -0.024955135 -0.00022830188 0.026587075 0.018933954 0.019880405 0.0044762623
0.008925263 -0.017376268 0.040884845 0.008606246 0.008720612 0.007519717 0.027534857 -0.0006226853
0.006239389 0.012403575 0.040410567 0.046816297 0.003967189 -0.01258944 -0.009571724 -1.25026545e-05
0.029717121 0.037184164 0.0030032692 -0.00024510143 0.010528866 0.0094821295 -0.006119853 0.010077416
0.010425648 0.03715398 0.010861735 -0.0038433045 -0.013553052 0.0011121003 -0.0024711716 -0.002958945
0.025220752 0.03467815 0.020413145 -0.0072348393 0.009001726 0.010639733 0.0038961477 0.010353415
0.012734223 0.020999774 0.0141636925 0.006565536 0.009573665 0.01067452 -0.0076254173 -0.009835573
00000000: 4c3b 253c 7760 093c ac74 3c3c 6f53 be3c
00000010: c48c 16bc 212e 083d af28 183d 760e e8bb
00000020: e1eb be3b 19c3 863c dbb7 e4bb dcc8 513c
00000030: a912 603c e8e9 1bbc b63c 6cbc c73c 0d3d
00000040: 8189 edb9 4c23 103d 34e0 37bc c6e2 e3ba
00000050: 19eb 5b3c d2ad d6bc 43ab a0bc 3962 d53c
00000060: 8627 3e3d 9bd4 e53c dd48 553c d129 48bc
00000070: 8563 2f3b f9a9 21bd 2f10 453b 814b 2f3d
00000080: e1e8 b03c 001e 65bc e34e 55bc 9c47 2ebd
00000090: 32ad 40bd f821 aebc cbb8 82bc b51a b93b
000000a0: 9843 46bb ddcb 9e3c 1856 813c fa2e be3c
000000b0: 37a9 10bd 80a6 94bd 3588 ce3c f345 323d
000000c0: 35aa dd3c bd88 9b3b 03e7 36bc d06b 9d3c
000000d0: 8bea 28bc fa4b 35bc 79ef b53b 04bb b9bc
000000e0: 8ba2 dd3c bebc e1bc cce5 1b3b b275 053c
000000f0: 5689 763c 659e 31bc 8d69 7e3c 22c2 303c
00000100: 8f61 5c3b 43cf fc3c 6b75 433d 5727 b83c
00000110: c3f4 bb3b 2b1b 7cbb 8717 d63b 53cb e23b
00000120: 053f f93c b5de 86bc f647 5b3d 9406 39bc
00000130: e3b4 4a3c 838b 083d b515 8b3c 98b6 b13c
00000140: b461 103d 98b0 1c3d ab24 4abc 1819 a23b
00000150: 5cd1 103a 7148 1e3b 4749 a83b b4c5 47bb
00000160: 8729 9b3d 8dbc 5f3c 2293 903c 892f a23c
00000170: b8c5 a03c 4bb4 c6bc 8bbf a33c 4b9e 15bc
00000180: 1362 f03b 0501 d2ba 3485 893b bb4a 22bc
00000190: 1e18 163c ebf5 61bb 5297 8cbc 7bc5 a3bc
000001a0: 8fc7 a03c 3dd2 47bb 1adc e1bc ca69 2bbd
000001b0: b194 2fbb 7697 09bd 4621 023c cfab 333c
000001c0: 393b 333c f435 943c c7c5 9dbd bb00 42bd
000001d0: 0495 28bc 251f 0d3c 5144 1b3c 5acb debb
000001e0: 01f5 773c f8f0 86bc 7a8e a6bd dd5c d5bc
000001f0: 07bf 843c 7c3b e0bc fbaa 4f3c 4fc3 62bc
00000200: 1e94 973b 1ec1 26bc 279f a3bb 9a1e 733c
00000210: fc3c 49bb 4a26 33bc ed3a 8bbc 628d e53b
00000220: aa1e 09bc 3748 bdb9 8af6 a43c 387b 873c
00000230: b0db e23b fc50 2b3c 9717 083d 8c4c b8ba
00000240: 69b6 153c 3869 b0bc fe2b 803c dfdc 963d
00000250: e769 b33d c300 9d3d cf4d c23c bf0d 1ebc
00000260: 2c06 133c 7726 273d 0a39 9d3d 4aa3 173d
00000270: 3445 2d3d 744d 363d 4b38 d03c f2a4 5a3b
00000280: be27 40bb 6c2c c43c 7f45 a83d 87aa 763d
00000290: 20ad 513d 07a7 ad3c dcde c63c 143d 503c
000002a0: e7fb 42bc 6e19 b33c 0ca4 453d cf34 f23c
000002b0: 4433 e63b d5bf a43c 88f8 cfbb a16d a8b9
000002c0: 14ea 8d3c e631 b73c 410d 683c 0d15 9e3c
000002d0: fe9e 2ebb 2beb 703c 0532 48bc 0dab 153c
000002e0: 33e9 44bb afe5 463c b180 433c 69c6 06bc
000002f0: 7abb d1ba c9a6 e5bb 2030 f1bb ff89 1dbc
00000300: a6fd 2eb9 4be4 f13b 190e 31bb 5a7e 87bb
00000310: a35b a6bb 300c 173b c0a0 113b 0757 e43b
00000320: ef9f 343b b771 fbbb b66e ccbc 5264 6fb9
00000330: 23cd d93c 611b 9b3c 3bdc a23c 9cad 923b
00000340: 443b 123c ad58 8ebc de76 273d 3601 0d3c
00000350: e6e0 0e3c f567 f63b c890 e13c b43b 23ba
00000360: ca73 cc3b 5d38 4b3c 8d85 253d 72c2 3f3d
00000370: 32ff 813b f043 4ebc b8d2 1cbc 7ec2 51b7
00000380: 5271 f33c 6c4e 183d 7fd2 443b f580 80b9
00000390: 4481 2c3c ef5a 1b3c 0c89 c8bb bf1b 253c
000003a0: 56d0 2a3c c62e 183d 6bf5 313c f3df 7bbb
000003b0: 9f0d 5ebc e5c3 913a 61f3 21bb dcea 41bb
000003c0: c09b ce3c ad0a 0e3d 7839 a73c 3b12 edbb
000003d0: fa7b 133c 4652 2e3c 8356 7f3b 5fa1 293c
000003e0: 34a3 503c b807 ac3c d50e 683c b523 d73b
000003f0: ddda 1c3c 2fe4 2e3c a3de f9bb 6225 21bc

mu_linear.bias f4 [2]
-0.010392557 0.017639665
00000000: 8b45 2abc 0f81 903c

sigma_linear.weight f4 [2, 4096]
0.012135305 -0.008594167 -7.7399534e-05 -0.0007927485 0.005267422 0.014452278 0.009184966 -0.00518036
-0.0018586989 0.024488313 -0.003949899 0.0023462486 -0.008768967 0.0060544126 0.021131024 0.004609288
0.016913936 -0.0023206838 -0.0032982924 0.009233462 -0.0004979468 -0.013769565 -0.018134488 -0.0028019606
0.0071711773 -0.015203156 -0.009716359 -0.004862432 0.0018812574 -0.00368144 0.0076572886 -0.0023011887
-0.01739288 -3.6245199e-06 -0.016161472 0.013401804 -0.0058978414 -0.011235237 0.017039618 -0.010680817
-0.0061402903 0.009891474 0.0027367722 -0.005864214 0.0034878107 -0.0031464894 -0.0049937973 0.011090216
-0.0117123965 0.0061157285 0.0039113797 -0.012011043 -0.017906036 -0.0013292433 -0.0012451747 -0.004828291
-0.008809467 0.009172199 0.004126724 0.0097594205 -0.0020227039 -0.0026501324 0.0036771058 -0.0048947665
-0.0020571467 0.007020266 0.0047324006 0.01434494 -0.005788881 -0.00558638 -0.00447905 -0.0063024405
0.0043124775 -0.012003189 0.014121163 -0.0119328555 -0.015110256 0.016379727 -0.005468113 0.019472472
0.014667421 -0.0044946685 0.0028382228 0.0058889827 0.0007561206 -0.004576098 -0.0067136018 -0.01875697
-0.00025516498 -0.01443112 0.0113171665 -0.018233102 -0.0042278073 0.014618163 -0.0035090467 -0.0031910466
-0.0062986487 0.0024193202 0.010207763 -0.002534935 0.013004272 -0.0036033096 -0.0025060207 0.008558615
-0.012035954 -0.0006067016 -0.0052754483 -0.009827492 0.005995802 0.0062675816 0.0031602455 -0.0081255995
-0.017455311 0.011411432 0.0067855017 0.0040112347 0.009901876 0.005626319 0.0024177404 -0.009446099
-0.0011919256 0.00047663308 0.004068238 -0.042509574 -0.0118678175 -0.030002825 -0.0016192376 -0.009236237
0.0073486636 0.02482613 0.00974655 0.0031202324 0.000603414 0.010909314 0.004424631 -0.0074697756
-0.009276129 0.0070970063 0.0005978113 0.014253808 0.008785106 -0.012433016 0.013780175 0.007881549
-0.0064184354 0.01336243 -0.013257376 0.014166715 -0.0022478215 -0.0019376378 -0.00035631508 -0.0019885264
-0.0004317786 0.017726904 -0.012555294 -0.0035833896 -0.013646753 -0.0057749846 -0.01100594 -0.008368677
0.001088387 0.006902782 0.0039421446 0.0012938625 0.0155633995 -0.010769903 0.016124334 0.01300563
0.008012739 0.0035989548 -0.0063464832 -0.008519304 0.010328326 -0.015454597 0.0042743105 -0.0110050505
-0.01585092 -0.0019631006 0.0009097688 -0.009183361 0.0018423897 -0.00034199134 0.007847074 -0.0109708505
-0.0015843986 -0.0023536528 0.010080844 0.0032490154 0.0037816928 -0.010099054 -0.0011431233 0.0079941405
-0.004947354 -0.006534045 0.0037929406 0.013227637 -0.009348654 0.009545081 -0.010941735 0.010226232
-0.0032716251 -0.005899087 -0.00078987074 0.0106779095 -0.012856363 -0.014946346 -0.012408114 0.0028015457
0.01643608 0.017734736 -0.011515331 -0.010603161 0.012387219 0.0129034445 -0.002384374 0.014980113
0.007341801 0.0036077963 0.0059906454 0.009381577 0.008922607 0.012439191 0.0022740804 0.0005521459
-0.011450578 0.008193542 -0.0030497424 0.0068158153 -0.0035629566 -0.010250833 0.011907638 0.0032883727
-0.007590339 -0.015633024 -0.0074428325 0.0012910789 -0.008455671 0.0025894328 -0.0029578651 -0.0033117214
0.012925287 -0.003368314 0.01008811 -0.0008451201 0.0026859585 -0.0037704993 -0.00927386 -0.0102114165
0.007900745 0.0026572081 0.016176732 0.0042133937 -0.011850255 -0.0023163934 -0.015776007 0.000588856
00000000: 29d3 463c 8dce 0cbc 8f51 a2b8 74d0 4fba
00000010: 579a ac3b 3fc9 6c3c 8a7c 163c 02c0 a9bb
00000020: 969f f3ba b79b c83c 286e 81bb 85c3 193b
00000030: b7ab 0fbc 1864 c63b f81a ad3c 8309 973b
00000040: 188f 8a3c 9d16 18bb 2a28 58bb f247 173c
00000050: a588 02ba be99 61bc c78e 94bc 19a1 37bb
00000060: 32fc ea3b a816 79bc 5d31 1fbc 0955 9fbb
00000070: 8694 f63a 5044 71bb fee9 fa3b 8acf 16bb
00000080: 837b 8ebc c73c 73b6 1065 84bc 3d93 5b3c
00000090: ae42 c1bb 0014 38bc ab96 8b3c 98fe 2ebc
000000a0: 7d34 c9bb d90f 223c 6b5b 333b 9828 c0bb
000000b0: c193 643b 5535 4ebb 02a3 a3bb bdb3 353c
000000c0: 5ae5 3fbc 7366 c83b 082b 803b f7c9 44bc
000000d0: aeaf 92bc 013a aeba 2135 a3ba a436 9ebb
000000e0: 9555 10bc fe46 163c 7839 873b fae5 1f3c
000000f0: 578f 04bb d8ad 2dbb 99fb 703b 4764 a0bb
00000100: 32d1 06bb 420a e63b 4112 9b3b 0a07 6b3c
00000110: a7b0 bdbb f40d b7bb ffc4 92bb b484 cebb
00000120: af4f 8d3b 06a9 44bc 735c 673c 0682 43bc
00000130: 0291 77bc c72e 863c db2d b3bb bc84 9f3c
00000140: 9f4f 703c 0348 93bb 7a01 3a3b 5ef8 c03b
00000150: 6536 463a 18f3 95bb c6fd dbbb 38a8 99bc
00000160: aac7 85b9 8170 6cbc a36b 393c 965d 95bc
00000170: 6b89 8abb 0581 6f3c 09f8 65bb e120 51bb
00000180: e564 cebb 758d 1e3b 763e 273c 2721 26bb
00000190: df0f 553c 8125 6cbb 0d3c 24bb 6f39 0c3c
000001a0: 7332 45bc 0e0b 1fba abdd acbb 7d03 21bc
000001b0: 6f78 c43b 4960 cd3b 1f1c 4f3b 3c21 05bc
000001c0: 71fe 8ebc 04f7 3a3c ea58 de3b ad70 833b
000001d0: 7a3b 223c fc5c b83b f472 1e3b d0c3 1abc
000001e0: 633a 9cba 9ce4 f939 db4e 853b 851e 2ebd
000001f0: 3c71 42bc 7cc8 f5bc 993c d4ba 9653 17bc
00000200: 0fcd f03b 2b60 cb3c feaf 1f3c d07c 4c3b
00000210: 6e2e 1e3a fbbc 323c 7ffc 903b 05c5 f4bb
00000220: e8fa 17bc 018e e83b 70b6 1c3a ce88 693c
00000230: 68ef 0f3c d9b3 4bbc 3ec6 613c 9d21 013c
00000240: bd51 d2bb 18ee 5a3c 7735 59bc 821b 683c
00000250: 3050 13bb 56f8 fdba cdcf bab9 f051 02bb
00000260: 5860 e2b9 0338 913c b8b4 4dbc 4dd7 6abb
00000270: a196 5fbc 153c bdbb 4252 34bc c71c 09bc
00000280: 35a8 8e3a bb30 e23b 1b2d 813b d296 a93a
00000290: a1fd 7e3c 3f74 30bc 2e17 843c 9115 553c
000002a0: dd47 033c 71dc 6b3b 29f6 cfbb 8d94 0bbc
000002b0: 2438 293c 4735 7dbc 840f 8c3b 874e 34bc
000002c0: cad9 81bc 5da7 00bb 8d7d 6e3a cf75 16bc
000002d0: 577c f13a 4d4d b3b9 0491 003c 15bf 33bc
000002e0: 98ab cfba be3f 1abb 202a 253c 6fed 543b
000002f0: 47d6 773b 8176 25bc dad4 95ba dbf9 023c
00000300: 6a1d a2bb 8b1b d6bb fc92 783b bbb8 583c
00000310: 192b 19bc f962 1c3c f644 33bc ed8b 273c
00000320: c368 56bb 214d c1bb 540f 4fba 66f2 2e3c
00000330: 7fa3 52bc 85e1 74bc 674b 4bbc 239a 373b
00000340: f5a4 863c 7048 913c cdaa 3cbc e1b8 2dbc
00000350: c3f3 4a3c f868 533c 2843 1cbb 266f 753c
00000360: 7e93 f03b c770 6c3b 2d4d c43b 30b5 193c
00000370: 2030 123c c0cd 4b3c bd08 153b e2bd 103a
00000380: 359b 3bbc 353e 063c 30de 47bb 3457 df3b
00000390: 7e80 69bb 1cf3 27bc 4118 433c bd81 573b
000003a0: 61b8 f8bb d410 80bc 01e3 f3bb 6b39 a93a
000003b0: a889 0abc 79b3 293b bed8 41bb 7709 59bb
000003c0: 95c4 533c eebe 5cbb 9a48 253c 0d8b 5dba
000003d0: e806 303b 7b1a 77bb 63f1 17bc c94d 27bc
000003e0: 2072 013c 8e24 2e3b 1185 843c 8210 8a3b
000003f0: 9227 42bc a2ce 17bb af3c 81bc 755d 1a3a

sigma_linear.bias f4 [2]
0.013675775 -0.009345174
00000000: 5c10 603c 801c 19bc

encoder.0.weight f4 [8, 3, 5, 5]
-0.0023165997 0.036053725 -0.07140421 -0.03109681 -0.018771522 0.004790166 -0.015294783 0.0045132427
-0.032569934 0.08126037 0.011891162 0.069237046 0.070842996 -0.083828144 0.01576562 0.029189
-0.0728601 -0.023992982 -0.014849146 -0.04857225 0.041053027 -0.0071890713 -0.011706947 0.014885844
-0.028195111 -0.009915225 -0.06979894 -0.054759085 -0.0010587325 0.013132298 -0.0012004259 -0.009168367
0.104875386 -0.16519004 -0.009201434 -0.010033892 -0.04311024 -0.007977385 0.09796072 0.08118244
0.019979311 -0.04424414 0.044642754 0.012752151 -0.089613646 -0.008709179 -0.018490383 0.0064322827
-0.013161289 -0.024112653 0.0016990289 -0.0014416024 -0.027534897 0.014346182 -0.0017872637 0.022952873
-0.024605233 0.0047131986 -0.053449746 -0.027355192 -0.0034804943 -0.019798784 -0.012414885 0.023481257
-0.025946833 0.00029040143 0.011061853 -0.05074369 -0.0021275238 -0.055075433 -0.025738133 -0.0039700842
0.03754197 -0.0005492019 0.00017170892 0.018967817 0.041143917 -0.02073826 -0.0037552884 -0.06378317
-0.054720465 -0.030323708 -0.021676576 -0.02713725 -0.035898875 -0.0023974646 0.06553615 -0.0067408863
0.028368922 0.021895543 0.008066149 0.03526781 -0.0026015898 0.074748784 -0.008605162 0.03471057
-0.06649086 0.109784506 0.002136237 0.0806311 -0.002654871 0.0128103625 0.010509702 0.016760884
0.05859657 -0.08120969 -0.029679451 0.017543886 0.02385352 0.012935075 0.0034516153 0.046595275
0.006025926 -0.042427514 -0.03458587 0.015413501 -0.019861113 -0.032313667 -0.01807431 0.03372361
0.0125268595 0.015333878 -0.002226518 0.009854293 -0.012034711 -0.049201455 -0.021539338 -0.0014037061
-0.051119395 0.052811477 -0.048590355 0.015203335 -0.02512315 0.003926443 0.007557007 -0.04420606
-0.03931285 -0.01715589 0.000586044 -0.019359056 0.030596308 -0.013476128 -0.02626074 -0.020806566
-0.025577925 0.032593705 0.018227614 -0.043402098 -0.0025184979 0.028357632 -0.03955602 -0.07098725
0.049476262 -0.016591374 -0.011920575 -0.0734783 -0.048984308 -0.05698903 -0.01704021 0.017659456
-0.02583158 -0.07077557 0.060676537 -0.047826715 0.035481814 -0.06694272 0.05483796 0.0324743
-0.027440483 0.050052565 -0.032517552 0.01480994 -0.0028264637 -0.0713215 0.00086084876 -0.036442794
0.05063682 0.027367258 0.028686915 0.1044451 -0.010890271 -0.06835814 0.074887425 0.017849345
0.13433541 0.06682071 -0.0050145104 -0.048963487 -0.03906143 -0.024862234 0.011250535 -0.013239781
0.045555282 0.058641277 -0.03390778 0.057838917 0.0079938015 -0.05015261 0.046332106 -0.055404563
0.012619447 0.011542577 0.013649009 0.063164115 0.038070306 0.014984345 0.031468187 0.04467778
0.00336251 0.008009297 0.016014835 -0.02835547 -0.034022864 0.0072460705 0.006213982 -0.0110414615
0.003273463 0.005240435 -0.009147871 0.022742707 -0.050267987 0.0044594486 0.072163984 -0.028008964
-0.033307847 0.03611473 -0.038961947 0.011103179 -0.01635261 0.06691542 0.043763485 -0.09324233
-0.00061959715 0.022612125 0.022749754 0.0089720795 -0.0039678775 0.020775367 0.014801527 -0.05236393
-0.014113931 0.026224354 0.0115731405 0.0234125 0.064484976 0.0375219 -0.02594043 0.012652981
0.020006651 -0.060843 0.0017894271 -0.04550815 0.03722463 0.03523544 -0.07123073 -0.04191525
00000000: 18d2 17bb 12ad 133d 5f3c 92bd bdbe febc
00000010: bcc6 99bc d3f6 9c3b f896 7abc d3e3 933b
00000020: 0d68 05bd d66b a63d 26d3 423c 27cc 8d3d
00000030: 2216 913d 17ae abbd e726 813c c51d ef3c
00000040: ad37 95bd ee8c c4bc d549 73bc b2f3 46bd
00000050: 3827 283d 4d92 ebbb 7fce 3fbc c1e3 733c
00000060: 6ff9 e6bc 7873 22bc bff2 8ebd 104b 60bd
00000070: 2bc5 8aba da28 573c 9c57 9dba eb36 16bc
00000080: e8c8 d63d 9427 29be 9dc1 16bc 3165 24bc
00000090: 5d94 30bd 94b3 02bc a19f c83d fb42 a63d
000000a0: a7ab a33c 5839 35bd 52db 363d 66ee 503c
000000b0: 5c87 b7bd f2b0 0ebc 2579 97bc e6c5 d23b
000000c0: 72a2 57bc e687 c5bc f3b1 de3a 26f4 bcba
000000d0: dd90 e1bc 400c 6b3c 9e42 eaba aa07 bc3c
000000e0: ea90 c9bc 2d71 9a3b 1fee 5abd ff17 e0bc
000000f0: 0119 64bb 0f31 a2bc cd67 4bbc c45b c03c
00000100: 748e d4bc 0541 9839 c63c 353c 9ed8 4fbd
00000110: ed6d 0bbb c796 61bd c7d8 d2bc 7b17 82bb
00000120: 9cc5 193d 51f8 0fba c30c 3439 6562 9b3c
00000130: 8686 283d 49e3 a9bc 491b 76bb c0a0 82bd
00000140: 9122 60bd 6d69 f8bc 1393 b1bc f04e debc
00000150: b30a 13bd c81e 1dbb d137 863d a7e2 dcbb
00000160: f165 e83c 485e b33c e227 043c fb74 103d
00000170: 6f7f 2abb e415 993d aafc 0cbc ac2c 0e3d
00000180: 5c2c 88bd b3d6 e03d 1c00 0c3b eb21 a53d
00000190: 58fd 2dbb 8ee2 513c e330 2c3c 1f4e 893c
000001a0: f502 703d 4451 a6bd 5222 f3bc 32b8 8f3c
000001b0: 7568 c33c a3ed 533c 7f34 623b b0da 3e3d
000001c0: 2275 c53b 79c8 2dbd eaa9 0dbd e988 7c3c
000001d0: c6b3 a2bc 565b 04bd 9310 94bc c521 0a3d
000001e0: 753d 4d3c f23a 7b3c c6ea 11bb e773 213c
000001f0: 3d2d 45bc 7787 49bd 4473 b0bc 90fc b7ba
00000200: 9262 51bd d950 583d ae06 47bd 6917 793c
00000210: 10cf cdbc 64a9 803b c5a0 f73b 6a11 35bd
00000220: 8306 21bd 828a 8cbc bfa0 193a e296 9ebc
00000230: 1ca5 fa3c faca 5cbc c320 d7bc 8872 aabc
00000240: cc88 d1bc fa80 053d 1452 953c 66c6 31bd
00000250: 620d 25bb 444e e83c 7e05 22bd c361 91bd
00000260: 9fa7 4a3d a2ea 87bc 844e 43bc ca7b 96bd
00000270: c5a3 48bd 546d 69bd e997 8bbc 90aa 903c
00000280: c09c d3bc c8f2 90bd f687 783d f2e5 43bd
00000290: 6155 113d 4419 89bd c59d 603d c603 053d
000002a0: ddca e0bc eb03 4d3d 2031 05bd 64a5 723c
000002b0: 313c 39bb 0211 92bd 95aa 613a 0a45 15bd
000002c0: 8e68 4f3d 4d31 e03c d200 eb3c 50e7 d53d
000002d0: 1b6d 32bc 5aff 8bbd 945e 993d ca38 923c
000002e0: 398f 093e 4cd9 883d c350 a4bb f08d 48bd
000002f0: e1fe 1fbd e2ab cbbc 2a54 383c abeb 58bc
00000300: 2d98 3a3d d631 703d e2e2 0abd 80e8 6c3d
00000310: 6ff8 023c d36c 4dbd bcc6 3d3d e5ef 62bd
00000320: ccc1 4e3c 141d 3d3c 18a0 5f3c 305c 813d
00000330: 9cef 1b3d e680 753c c9e4 003d 0c00 373d
00000340: 8e5d 5c3b 6d39 033c 8b31 833c bb49 e8bc
00000350: 8f5b 0bbd 7270 ed3b a99e cb3b 3fe7 34bc
00000360: 9987 563b f4b7 ab3b f4e0 15bc ea4e ba3c
00000370: cee5 4dbd 9120 923b b6ca 933d 0e73 e5bc
00000380: cf6d 08bd 0aed 133d 9096 1fbd 1cea 353c
00000390: e9f5 85bc f40a 893d 5741 333d d6f5 bebd
000003a0: 766c 22ba 103d b93c b15d ba3c a1ff 123c
000003b0: f804 82bb 1a31 aa3c 1b82 723c 8f7b 56bd
000003c0: 1e3e 67bc 75d4 d63c 459d 3d3c 92cb bf3c
000003d0: b310 843d 90b0 193d 0681 d4bc 734e 4f3c
000003e0: fde4 a33c 8236 79bd 368b ea3a c166 3abd
000003f0: db78 183d 0953 103d 6be1 91bd 53af 2bbd

encoder.0.bias f4 [8]
-0.0077911136 -0.011203064 0.015833708 -0.032625806 -4.4672335e-05 -0.014548391 -0.01202045 -0.007669556
00000000: 994c ffbb 0e8d 37bc b1b5 813c a3a2 05bd
00000010: 8e5e 3bb8 605c 6ebc 6cf1 44bc e650 fbbb

encoder.3.weight f4 [16, 8, 5, 5]
-0.0007437863 -0.000892802 -0.041282777 0.025752438 -0.054164834 -0.035324052 -0.010152653 0.0070351926
0.0012427096 0.035516445 0.0072674006 0.010467744 0.011302396 0.0035213465 0.02959706 -0.08234095
0.007929875 0.0050154473 -0.041405268 0.00018521001 0.004029197 0.048396476 -0.027071875 -0.0024364647
0.034017388 -0.04328773 -0.0040545417 0.03168627 -0.0027126793 0.0020951775 0.009264735 0.01917306
0.0011555017 -0.023575353 -0.048694536 -0.002903416 -0.024140999 0.0025382754 -0.0029201354 0.04757721
-0.056400415 -0.027294472 0.0010599446 0.0059505273 -0.09815943 -0.019846238 0.0137661295 0.008146667
-0.0031461646 -0.059477583 -0.023620157 -0.009367103 -0.071859 -0.056372754 -0.020415325 0.035729628
0.019636597 -0.014250462 0.000595053 -0.012638657 0.040854752 -0.038552996 -0.053195644 0.0020994365
-0.00047362567 -0.015549324 -0.02760585 0.0141699985 -0.029828379 0.049749117 0.022907164 -0.014910582
-0.0010145924 -0.011791485 -0.019591266 -0.061522186 0.036610354 -0.016105194 -0.03867649 -0.006439963
0.0024130438 -0.00026825335 -0.045137774 -0.01649625 -0.0016975129 0.013410177 -0.02123461 0.000923649
-0.038592502 0.04976199 -0.029503675 0.011209982 -0.058906436 -0.028567415 0.022346266 0.0197046
-0.0007759017 -0.001516341 -0.04776471 0.042070616 0.012371256 -0.0058762776 0.04821934 -0.036886007
0.04749772 -0.03499881 -0.018917758 0.002327522 0.07997248 0.025945822 0.0044178623 0.0111272065
-0.010355452 -0.005882798 -0.041082744 0.052665725 -0.037145708 -0.020321902 -0.06726658 0.025767108
-0.02800603 -0.0034803108 -0.03895548 0.011979036 -0.0049568964 -0.028752396 -0.018374335 -0.02102111
-0.012217774 -0.07153423 0.024964234 0.023321265 -0.017175717 0.0019774933 0.027045395 -0.039222844
-0.046762243 -0.0008324007 -0.01626544 0.021427287 0.026226182 -0.020479847 0.06354072 0.024019731
-0.03757794 0.042136203 -0.018067194 -0.050478656 -0.021916315 0.016970819 0.064348 0.018279854
-0.014581679 -0.0028960055 -0.013254885 -0.028577773 -0.026281752 -0.044236846 -0.028484393 -0.04215675
0.025426852 0.014624576 -0.017021427 0.014670115 0.011267771 0.009255276 0.027413202 0.0074445666
0.012701871 -0.060552455 0.038252067 -0.01318961 -0.039550424 -0.044311125 0.00047861654 -0.042452738
0.0048347693 -0.0028395907 0.024499845 -0.009261702 0.0085545825 -0.002898926 -0.009798665 0.0029198006
0.015146328 0.011723667 -0.020599807 0.008746351 0.03254498 0.004863295 -0.00055273843 -0.04680652
0.05857482 -0.048539106 -0.051763505 -0.0090518175 -0.018056232 0.027153503 0.011757931 -0.018203076
-0.030227484 -0.08135486 -0.0030625826 -0.020112582 0.0077994117 -0.018332694 -0.048250727 -0.007846711
-0.011379379 -0.012770674 -0.043950927 -0.0026891786 0.037283048 -0.019719394 0.09048254 0.035493545
-0.05761575 0.049556553 -0.015925968 -0.029231902 -0.022720119 0.026589435 -0.0028845111 -0.0133329155
-0.04903835 -0.057868004 -0.016567396 0.0014866974 0.019364908 0.040122546 0.029142663 -0.007652699
-0.019769792 0.0045794593 -0.004771778 -0.018882072 0.022257503 -0.030119888 -0.0349795 -0.014824444
-0.03252232 -0.00036866168 -0.0066924216 -0.0128298225 -0.016533166 0.07478154 -0.008571723 -0.0064401967
-0.03282738 -0.022606594 -0.028048415 -0.0028002518 -0.020329954 -0.02828924 -0.010414894 -0.013724464
00000000: a7fa 42ba ee0a 6aba 2118 29bd c7f6 d23c
00000010: f2db 5dbd f4af 10bd 5057 26bc 7987 e63b
00000020: 6ae2 a23a b179 113d 6023 ee3b e780 2b3c
00000030: af2d 393c 64c6 663b 8975 f23c 5fa2 a8bd
00000040: 4eec 013c 9f58 a43b 9298 29bd ef34 4239
00000050: 5b07 843b 623b 463d d6c5 ddbc 18ad 1fbb
00000060: d155 0b3d 7a4e 31bd f6db 84bb 76c9 013d
00000070: 35c7 31bb 3f4f 093b 1dcb 173c d210 9d3c
00000080: 3474 973a 1921 c1bc ec73 47bd 3d47 3ebb
00000090: 58c3 c5bc 3259 263b be5f 3fbb 52e0 423d
000000a0: 1f04 67bd a898 dfbc d7ed 8a3a a4fc c23b
000000b0: d007 c9bd 9494 a2bc 558b 613c 9979 053c
000000c0: e22f 4ebb c49e 73bd 0f7f c1bc 7a78 19bc
000000d0: d02a 93bd 1ee7 66bd 0a3e a7bc 3b59 123d
000000e0: eedc a03c c57a 69bc 55fd 1b3a 5f12 4fbc
000000f0: 5057 273d bfe9 1dbd ade3 59bd b396 093b
00000100: f650 f8b9 98c2 7ebc aa25 e2bc 4829 683c
00000110: a55a f4bc bbc5 4b3d cea7 bb3c 844b 74bc
00000120: 12fc 84ba 1331 41bc dd7d a0bc b0fe 7bbd
00000130: bdf4 153d 0aef 83bc 3d6b 1ebd 5306 d3bb
00000140: 2824 1e3b 5ba4 8cb9 63e2 38bd 2523 87bc
00000150: 157f deba 5cb6 5b3c 34f4 adbc 0921 723a
00000160: 2c13 1ebd 3ad3 4b3d b1b1 f1bc 13aa 373c
00000170: e047 71bd 3606 eabc 840f b73c 8b6b a13c
00000180: e265 4bba f6bf c6ba eea4 43bd 3d52 2c3d
00000190: cfb0 4a3c ca8d c0bb a581 453d c815 17bd
000001a0: f88c 423d ea5a 0fbd 6af9 9abc 5789 183b
000001b0: 9dc8 a33d 558c d43c b7c3 903b e34e 363c
000001c0: eaa9 29bc 7dc4 c0bb 6146 28bd 04b8 573d
000001d0: 1926 18bd 1e7a a6bc 10c3 89bd 8b15 d33c
000001e0: e76c e5bc ed15 64bb c88f 1fbd b843 443c
000001f0: 766d a2bb 258a ebbc c685 96bc 7634 acbc
00000200: 0f2d 48bc 8a80 92bd cb81 cc3c 3d0c bf3c
00000210: 17b4 8cbc d598 013b 4e8e dd3c 22a8 20bd
00000220: c489 3fbd 7735 5aba 1a3f 85bc 4788 af3c
00000230: 4ad8 d63c 5ac5 a7bc a321 823d 07c5 c43c
00000240: 53eb 19bd 0397 2c3d a701 94bc b5c2 4ebd
00000250: d889 b3bc 6306 8b3c e2c8 833d a2bf 953c
00000260: ffe7 6ebc e9ca 3dbb 042b 59bc ef1b eabc
00000270: d44c d7bc b231 35bd 1a58 e9bc 8eac 2cbd
00000280: f94b d03c eb9b 6f3c 8570 8bbc ec5a 703c
00000290: 759c 383c 71a3 173c a791 e03c 8df1 f33b
000002a0: 821b 503c da05 78bd 33ae 1c3d 3c19 58bc
000002b0: a0ff 21bd 957f 35bd d3ee fa39 ece2 2dbd
000002c0: fc6c 9e3b 6d18 3abb e6b3 c83c 65be 17bc
000002d0: 8528 0c3c e8fb 3dbb 948a 20bc 205a 3f3b
000002e0: 4e28 783c a014 403c edc0 a8bc db4c 0f3c
000002f0: e34d 053d 465c 9f3b a6e5 10ba 32b8 3fbd
00000300: 27ec 6f3d f1d0 46bd f805 54bd 134e 14bc
00000310: aaea 93bc 0671 de3c 56a4 403c 9e1e 95bc
00000320: a19f f7bc 609d a6bd 9cb5 48bb 24c3 a4bc
00000330: 3592 ff3b 722e 96bc 8ea2 45bd 7e8f 00bc
00000340: 9370 3abc 173c 51bc e305 34bd ee3c 30bb
00000350: 1cb6 183d 918a a1bc e94e b93d ae61 113d
00000360: 7efe 6bbd d0fb 4a3d 2d77 82bc be77 efbc
00000370: 8b1f babc 16d2 d93c 110a 3dbb 4d72 5abc
00000380: 70dc 48bd 0007 6dbd 59b8 87bc 49dd c23a
00000390: 28a3 9e3c 8a57 243d 98bc ee3c 7ec3 fabb
000003a0: 42f4 a1bc 4a0f 963b 935c 9cbb 93ae 9abc
000003b0: 5e55 b63c fcbd f6bc aa46 0fbd 3ae2 72bc
000003c0: 2036 05bd ef48 c1b9 1a4c dbbb 2d34 52bc
000003d0: 9070 87bc 1027 993d 6970 0cbc 4908 d3bb
000003e0: 0176 06bd 7731 b9bc cac5 e5bc 6e84 37bb
000003f0: 018b a6bc d6be e7bc 3ba3 2abc 93dc 60bc

encoder.3.bias f4 [16]
-0.009905827 -0.0019577763 -0.008216512 -0.00663888 -0.0029135172 -0.012397975 -0.004558864 -0.0038398884
-0.006555752 -0.006306714 0.025886534 -0.0024852064 -0.019179357 -0.0135095455 -0.010599944 -0.014489612
00000000: 0d4c 22bc 094e 00bb 8d9e 06bc f68a d9bb
00000010: b5f0 3ebb e020 4bbc 8662 95bb a3a6 7bbb
00000020: a2d1 d6bb 8da8 cebb ff0f d43c d8de 22bb
00000030: 071e 9dbc 2457 5dbc 63ab 2dbc d665 6dbc

encoder.6.weight f4 [32, 16, 5, 5]
0.018694833 -0.009393231 -0.0076660006 -0.025362479 0.023665622 -0.022447716 -0.008257678 -0.012020137
0.02061897 -0.0034732867 -0.028797815 -0.03058739 0.003559395 -0.018116985 -0.013396074 -0.037071362
-0.020312464 0.0181893 -0.013848082 0.0283042 0.044782184 0.02180437 -0.007171334 -0.023216093
0.02369014 0.0004013007 0.0050395066 0.028210837 0.011864362 0.0060032494 0.0035650914 -0.0036353034
-0.023662033 -0.01433568 0.00786748 -0.026682027 -0.0063165664 -0.033895917 0.0033821382 0.009210703
0.0068944725 0.032939076 0.038194023 0.0064695 -0.02771257 -0.037129294 -0.030825917 0.008232706
0.01736579 0.008138501 -0.012356658 -0.01921835 -0.042984016 0.044302836 -0.009576156 -0.03406773
-0.030169405 -0.0347454 0.025400616 -0.04254974 -0.039151724 -0.058601208 0.011700668 -0.032159306
-0.018718619 0.0037907711 -0.027428946 0.016001496 0.0002542369 -0.010732613 0.01529541 0.044402592
-0.029997325 -0.024064863 -0.0070149894 0.024349209 -0.018346952 -0.029695505 0.028286325 -0.0014897621
0.010197615 0.016857913 0.030250814 0.0068729175 0.021822477 -0.016968217 0.016315278 0.015850037
0.0643626 0.011677227 -0.024753932 0.03665226 -0.034740753 0.029125879 -0.023843497 0.005590325
0.016508298 0.022082543 -0.004476132 -0.016237576 0.022773016 -0.00387318 0.009091589 0.035873957
0.0043324498 0.032904647 0.018050311 -0.0018666803 0.027012032 -0.0132943215 -0.003971694 0.03177312
0.03564143 0.008515099 -0.02382386 0.027061945 -0.053436756 0.021397132 -0.024200307 -0.011334737
0.03851887 0.023207577 -0.012225047 0.033227425 0.0030108353 -0.042278748 0.0016276337 -0.00913546
0.0031280553 -0.038227923 -0.009712258 0.020415341 0.027896518 -0.0052424204 0.008320903 0.032452364
-0.024484906 0.009171259 0.04928676 0.008834923 0.019051023 0.017698957 -0.0047159554 0.001240605
-0.03264693 0.025792675 -0.040339082 -0.024504697 0.009782014 -0.009139524 -0.0065107844 -0.009024021
-0.0073420056 0.035926662 0.0106766075 -0.02356479 -0.010317968 0.0115677 0.034085333 -0.004457075
-0.008144793 0.024550773 -0.04508274 0.019039728 -0.0005734733 -0.010777559 -0.032694247 0.05296516
0.021139031 -0.01818631 0.062461074 -0.004662432 -0.012906066 0.0029536604 0.011257654 -0.0023565898
0.016254863 0.039096836 0.03460914 0.006485814 0.012984185 -0.0030057884 0.014106421 -0.017974878
0.01061467 -0.054768194 0.004554548 -0.024772678 -0.01921844 0.016891602 -0.031540114 -0.019282829
0.00821153 -0.011014767 -0.016403155 -0.007674338 0.009772924 0.0048507913 -0.033857383 0.03451018
0.040990613 -0.019823927 0.0036934947 0.0131565025 0.03330853 -0.025921961 -0.029826678 -0.00075309305
0.02161753 -0.030374235 -0.016572028 -0.0065351534 -0.046719674 -0.008749336 -0.010206969 0.031590153
0.015795086 0.020572172 0.0048536947 -0.011625894 0.007296847 0.044228733 0.008117738 0.024503186
-0.047812518 0.0067244326 -0.03625635 0.008406719 -0.039418004 0.04711636 -0.024866808 -0.031505883
0.026242629 0.004716194 0.003729733 0.015550202 0.012304343 0.011597103 0.024028037 0.037590485
-0.032499492 0.001271584 0.02770318 0.032069065 0.00026955528 -0.049326703 -0.04868362 -0.008681272
0.006239725 0.020545369 -0.030210074 -0.010877395 0.04350708 -0.005977221 0.00038669445 0.013217512
00000000: e825 993c 11e6 19bc 1333 fbbb f9c4 cfbc
00000010: 68de c13c 46e4 b7bc 364b 07bc 1cf0 44bc
00000020: 1de9 a83c 15a0 63bb 65e9 ebbc 6892 fabc
00000030: bd44 693b 126a 94bc 357b 5bbc 24d8 17bd
00000040: 5366 a6bc ba01 953c 11e3 62bc 36de e73c
00000050: 866d 373d 149f b23c 82fd eabb ad2f bebc
00000060: d311 c23c ab65 d239 7222 a53b 6a1a e73c
00000070: be62 423c e8b6 c43b 4fa4 693b 453e 6ebb
00000080: e1d6 c1bc 33e0 6abc 9ae6 003c 4494 dabc
00000090: 33fb cebb 72d6 0abd dda6 5d3b 7de8 163c
000000a0: 07eb e13b 20eb 063d 5671 1c3d 19fe d33b
000000b0: 7905 e3bc e314 18bd a286 fcbc 79e2 063c
000000c0: b442 8e3c 5957 053c 9473 4abc cd6f 9dbc
000000d0: 0210 30bd e476 353d 4fe5 1cbc 9b8a 0bbd
000000e0: d425 f7bc 3151 0ebd f414 d03c a348 2ebd
000000f0: 8f5d 20bd d207 70bd 29b4 3f3c 7ab9 03bd
00000100: ca57 99bc 966e 783b abb2 e0bc 9215 833c
00000110: 194b 8539 d7d7 2fbc 9999 7a3c 7edf 353d
00000120: f3bc f5bc ad23 c5bc ffdd e5bb fe77 c73c
00000130: 594c 96bc fd43 f3bc b9b8 e73c 1f44 c3ba
00000140: e613 273c 9b19 8a3c 8ed0 f73c 3636 e13b
00000150: 0dc5 b23c ee00 8bbc 9ea7 853c f0d7 813c
00000160: 8ad0 833d d751 3f3c c2c8 cabc ae20 163d
00000170: 524c 0ebd 6599 ee3c 7053 c3bc 0c2f b73b
00000180: 693c 873c 73e6 b43c 84ac 92bb aa04 85bc
00000190: 7a8e ba3c 2dd5 7dbb e3f4 143c 92f0 123d
000001a0: 39f7 8d3b 06c7 063d 3fde 933c 66ab f4ba
000001b0: 5648 dd3c 6dd0 59bc fc24 82bb 8824 023d
000001c0: c0fc 113d ea82 0b3c 412a c3bc 03b1 dd3c
000001d0: 80e0 5abd 0a49 af3c b93f c6bc 55b5 39bc
000001e0: f6c5 1d3d d11d be3c 904b 48bc 7b19 083d
000001f0: 6f51 453b 7b2c 2dbd 5356 d53a e5ac 15bc
00000200: 0f00 4d3b e294 1cbd 2a20 1fbc 133e a73c
00000210: 3d87 e43c 9cc8 abbb 6654 083c c5ec 043d
00000220: 9294 c8bc 0c43 163c eae0 493d 5ac0 103c
00000230: e410 9c3c 67fd 903c 4d88 9abb cc9b a23a
00000240: cab8 05bd 294b d33c 983a 25bd 13be c8bc
00000250: be44 203c f1bd 15bc 6b58 d5bb 7dd9 13bc
00000260: 3595 f0bb d627 133d f0ec 2e3c f20a c1bc
00000270: b20c 29bc 7386 3d3c 109d 0b3d a80c 92bb
00000280: bd71 05bc b41e c93c aea8 38bd 34f9 9b3c
00000290: 2455 16ba 5c94 30bc 67ea 05bd fff1 583d
000002a0: c32b ad3c 75fb 94bc 2fd7 7f3d 50c7 98bb
000002b0: f773 53bc 3392 413b 0672 383c 0471 1abb
000002c0: eb28 853c 0124 203d 50c2 0d3d f486 d43b
000002d0: 9ebb 543c c3fc 44bb 9e1e 673c 0d40 93bc
000002e0: 27e9 2d3c 9d54 60bd 513e 953b 12f0 cabc
000002f0: fd6f 9dbc 4260 8a3c 3530 01bd 06f7 9dbc
00000300: a789 063c 4877 34bc e95f 86bc 0379 fbbb
00000310: 9d1e 203c 63f3 9e3b 0aae 0abd 8c5a 0d3d
00000320: c6e5 273d ca65 a2bc 8f0e 723b 5f8e 573c
00000330: 866e 083d 4b5a d4bc 1457 f4bc 386b 45ba
00000340: 3f17 b13c 63d3 f8bc 10c2 87bc d724 d6bb
00000350: 215d 3fbd 6059 0fbc 223b 27bc ad64 013d
00000360: b264 813c f986 a83c be0b 9f3b 897a 3ebc
00000370: 641a ef3b 3029 353d 4300 053c e8ba c83c
00000380: 0fd7 43bd a158 dc3b 8a81 14bd 56bc 093c
00000390: c674 21bd 16fd 403d 7ab5 cbbc 500c 01bd
000003a0: c8fa d63c 4d8a 9a3b 896e 743b 46c6 7e3c
000003b0: 2898 493c c701 3e3c 72d6 c43c 7bf8 193d
000003c0: 301e 05bd 47ab a63a c8f1 e23c da5a 033d
000003d0: 1953 8d39 cc0a 4abd 7a68 47bd e53b 0ebc
000003e0: 9b76 cc3b c34e a83c 1e7b f7bc 1a37 32bc
000003f0: 7b34 323d 90dc c3bb 40bd ca39 438e 583c

encoder.6.bias f4 [32]
0.0033615255 -0.0045319097 -0.004470911 -0.0037346438 -0.007532719 -0.001148758 0.0028239428 -0.009522399
0.003035954 -0.007438974 -0.0018246275 -0.009763777 -0.005765491 -0.0017075035 -0.0060349125 -0.0056813024
-0.0055860584 -0.0070196586 0.004864714 -0.0133418115 -0.005222063 -0.006968592 -0.0033003 -0.0043557035
-0.0039014113 0.0067675915 -0.004533969 -0.008227928 0.002184759 -0.0022459023 -0.007352255 -0.00863437
00000000: 0a4d 5c3b 6a80 94bb b880 92bb edc0 74bb
00000010: 07d5 f6bb ec91 96ba e611 393b d603 1cbc
00000020: dbf6 463b a3c2 f3bb 5728 efba 40f8 1fbc
00000030: 72ec bcbb 4fce dfba 84c0 c5bb 382a babb
00000040: 410b b7bb 2a05 e6bb 2e68 9f3b 9d97 5abc
00000050: d71d abbb c958 e4bb d949 58bb 4aba 8ebb
00000060: d2ae 7fbb acc2 dd3b b091 94bb 6ece 06bc
00000070: 2c2e 0f3b fd2f 13bb 2feb f0bb 2c77 0dbc

encoder.9.weight f4 [64, 32, 5, 5]
0.015313155 -0.008123093 -0.031191459 -0.0050066044 -0.0039961524 -0.010290452 -0.016147839 -0.00026837393
0.0027273805 -0.00058128947 0.00730598 -0.0020019829 -0.002136693 -0.011318494 -0.017556986 -0.023586955
-0.0062353755 0.008765609 -0.028158644 0.01581482 0.01951009 0.0013230486 -0.014483993 0.035560504
-0.00955146 -0.027201392 0.0049259947 -0.020821903 -0.012910064 -0.006563918 -0.011909609 -0.0040949294
0.031638008 -0.015601092 -0.021826252 0.019641044 0.027971432 -0.018679386 0.008548297 5.6790588e-05
-0.033400632 -0.014127831 -0.014698714 0.02538823 -0.007898287 0.004776838 0.0172121 0.016426636
0.012300952 0.0031054094 -0.023476575 0.0072512436 -0.0005144993 0.038033023 0.0022074035 0.023270626
0.027603004 -0.049060185 -0.020165205 -0.0067507788 -0.0018428328 -0.0029877538 0.005778873 0.013478045
0.007679736 0.0075823525 0.00992118 0.008317175 -0.005413562 -0.0024885961 -0.020098448 -0.026778951
-0.016079929 0.020027122 0.03637273 -0.014530883 0.022043016 -0.00088886224 -0.0047551026 0.002827692
0.013589169 -0.004031533 -0.016232645 0.017413167 0.021479147 0.0021703788 0.038499136 0.050382815
0.007004313 0.005358773 -0.025359059 0.006684651 -0.0009603822 0.0032083045 -0.010012412 -0.0060619605
-0.016458154 0.021475034 -0.021730943 -0.006622761 0.002712774 -0.0029344514 -0.018643675 -0.00958864
0.00814684 -0.013734423 -0.006774473 0.012924259 0.00789423 0.014596831 0.008123121 0.011368076
0.0028870255 0.020976564 -0.0080877775 0.04065427 -0.010283598 -0.012356523 -0.019520672 0.0045899805
-0.010831826 -0.021096302 -0.012816647 0.05171185 0.0012904295 0.020785667 0.009190987 -0.014963252
-0.006562443 0.008673718 -0.0033987907 0.030505544 -0.015655115 -0.0035018406 -0.0078030378 -0.022182707
-0.0033425214 0.023368916 -0.013670851 -0.0042253896 0.005111336 0.0078081563 0.01623625 0.00617945
-0.007998915 0.03641949 0.027948668 0.0135451825 -0.033338554 0.006055527 0.020555124 -0.0009904279
-0.018667122 -0.006385429 -0.0086421985 -0.02589109 -0.022091078 0.01032423 -0.0004742245 0.0011210213
0.0012965789 -0.00024189198 -0.020781213 1.8624733e-05 0.0062720315 -0.027816916 0.023864377 0.0016450038
-0.015421448 -0.041768968 -0.0071193613 0.011427194 0.03544173 -0.03359368 0.015544522 -0.020862788
-0.029101431 -0.016180614 0.011468361 -0.016254736 0.021774963 0.0042705224 -0.035048928 0.03193244
-0.004143529 0.0024053394 0.0031317512 -0.0016728077 -0.008470352 0.009808829 0.013254826 0.00058305997
0.0008129502 -0.008915556 0.004312314 0.0121562835 -0.012169029 0.002658896 0.010905282 0.026067635
-0.0083782645 -0.014703826 0.018529924 -0.037536576 -0.015873987 0.008044484 0.0040459675 0.014707026
0.010472295 0.017642139 -0.016664859 0.035786983 0.038318958 0.02555125 0.01241914 -0.03226969
0.00093094393 0.021628795 -0.00035694113 -0.016361428 0.018455414 -0.012200811 -0.015093963 -0.0042115003
0.023356864 -0.031774987 -0.0032176676 -0.02456063 -0.046125885 -0.023002617 -0.01293185 -0.004772131
-0.006717609 0.0028495197 0.0011168666 0.037855368 0.016825043 -0.0078004394 -0.011942507 -0.013240547
0.013613427 0.029331684 -0.023901375 0.01266395 0.011675483 0.0036738103 0.016677015 0.008085892
0.014647835 0.0099381935 -0.0022380387 -0.017274858 0.005241872 -0.037814584 0.012871964 -0.018093294
00000000: 07e4 7a3c b916 05bc 3b85 ffbc 710e a4bb
00000010: 28f2 82bb 4999 28bc 7948 84bc 8ab4 8cb9
00000020: dabd 323b ad61 18ba 0167 ef3b b333 03bb
00000030: c307 0cbb 3471 39bc abd3 8fbc 6e39 c1bc
00000040: 1f52 ccbb a19d 0f3c f5ac e6bc 158e 813c
00000050: a0d3 9f3c 256a ad3a 454e 6dbc e4a7 113d
00000060: ba7d 1cbc 74d5 debc 3d6a a13b b292 aabc
00000070: bc84 53bc 2316 d7bb 8520 43bc c22e 86bb
00000080: db96 013d b99b 7fbc f8cc b2bc 41e6 a03c
00000090: 5824 e53c 8305 99bc 280e 0c3c 6e32 6e38
000000a0: 1acf 08bd 6b78 67bc e0d2 70bc fafa cf3c
000000b0: d167 01bc 0587 9c3b 6400 8d3c 2791 863c
000000c0: ef89 493c 2084 4b3b f251 c0bc d79b ed3b
000000d0: 77df 06ba 84c8 1b3d 16aa 103b 0aa2 be3c
000000e0: b21f e23c 55f3 48bd 8031 a5bc a335 ddbb
000000f0: 358b f1ba 31ce 43bb b35c bd3b 05d3 5c3c
00000100: 4ba6 fb3b 6275 f83b 728c 223c c344 083c
00000110: 4064 b1bb b717 23bb 80a5 a4bc 885f dbbc
00000120: 0eba 83bc eb0f a43c 92fb 143d f112 6ebc
00000130: 8e93 b43c 8902 69ba b1d0 9bbb cd50 393b
00000140: 1ba5 5e3c f31a 84bb 53fa 84bc 0fa6 8e3c
00000150: 09f5 af3c ea3c 0e3b 45b1 1d3d 365e 4e3d
00000160: 7084 e53b a598 af3b cdbd cfbc eb0a db3b
00000170: 29c2 7bba 6b42 523b 1a0b 24bc 69a3 c6bb
00000180: 40d3 86bc 69ec af3c 1705 b2bc bf03 d9bb
00000190: ccc8 313b ed4f 40bb 9fba 98bc ac19 1dbc
000001a0: 537a 053c 5806 61bc 66fc ddbb 45c0 533c
000001b0: cd56 013c 8c27 6f3c d716 053c 2b41 3a3c
000001c0: 4034 3d3b 0bd7 ab3c 9982 04bc 1885 263d
000001d0: 897c 28bc 0473 4abc d1e9 9fbc 8c67 963b
000001e0: f977 31bc 27d2 acbc eafc 51bc cecf 533d
000001f0: a123 a93a b446 aa3c cb95 163c 6d28 75bc
00000200: c309 d7bb 361c 0e3c 3fbe 5ebb c3e6 f93c
00000210: 283f 80bc 237f 65bb a0b0 ffbb 82b8 b5bc
00000220: 340e 5bbb 2b70 bf3c b4fb 5fbc 2375 8abb
00000230: fe7c a73b 90db ff3b e201 853c fc7c ca3b
00000240: e20d 03bc 9a2c 153d 9bf4 e43c 9dec 5d3c
00000250: 028e 08bd 716d c63b 3863 a83c 3fd1 81ba
00000260: cbeb 98bc dc3c d1bb 0298 0dbc 8d19 d4bc
00000270: 59f8 b4bc f626 293c 56a1 f8b9 3cef 923a
00000280: f8f1 a93a 62a4 7db9 5d3d aabc 4f3c 9c37
00000290: 9d85 cd3b 4de0 e3bc 3a7f c33c 2b9d d73a
000002a0: 3eaa 7cbc f015 2bbd 8849 e9bb 2039 3b3c
000002b0: 592b 113d 8799 09bd 73ae 7e3c 70e8 aabc
000002c0: 2066 eebc 358d 84bc cbe5 3b3c a728 85bc
000002d0: 6861 b23c bdef 8b3b 778f 0fbd 97cb 023d
000002e0: 71c6 87bb e6a2 1d3b 113e 4d3b 1d42 dbba
000002f0: 3bc7 0abc 36b5 203c c52a 593c 7ed8 183a
00000300: 2a1c 553a 8d12 12bc 504e 8d3b 262b 473c
00000310: 9b60 47bc df40 2e3b 11ac 323c cb8b d53c
00000320: fd44 09bc 51e8 70bc 11cc 973c f4bf 19bd
00000330: 2a0a 82bc 03cd 033c 0994 843b bdf5 703c
00000340: fd93 2b3c 3f86 903c be84 88bc 5f95 123d
00000350: 57f4 1c3d db50 d13c a679 4b3c 392d 04bd
00000360: 970a 743a df2e b13c d423 bbb9 6708 86bc
00000370: cf2f 973c e9e5 47bc ab4c 77bc a000 8abb
00000380: e556 bf3c 7d26 02bd 81df 52bb 6033 c9bc
00000390: 7fee 3cbd fc6f bcbc 1ce0 53bc 895f 9cbb
000003a0: 631f dcbb 02bf 3a3b d363 923a 3b0e 1b3d
000003b0: acd4 893c d49a ffbb 81aa 43bc e1ee 58bc
000003c0: da0a 5f3c 0049 f03c d1cc c3bc 757c 4f3c
000003d0: 864a 3f3c 4fc4 703b 3c9e 883c b07a 043c
000003e0: 79fd 6f3c ced3 223c 0fac 12bb 0184 8dbc
000003f0: 02c4 ab3b 77e3 1abd eee4 523c 6338 94bc

encoder.9.bias f4 [64]
-0.016041992 0.016324759 -0.004936695 -0.00070382457 -0.008976562 -0.012868095 -0.013340563 -0.011752271
-0.00042841613 0.0054838937 -0.0037556903 -0.004950798 0.013935811 -0.03261792 -0.011212688 0.00077982334
0.011479156 -0.023655107 -0.014383601 -0.015074856 0.011179178 -0.008584347 -0.017982576 -0.0024674614
-0.018654238 -0.00092817604 0.010424743 -0.016480185 -0.0016348833 0.007603767 0.010025349 0.012068208
0.0032913836 0.008484044 -0.017933745 -0.018359803 -0.005852341 0.014716379 0.0012652023 -0.006933751
-0.001937543 -0.0014777756 -0.022087393 0.018180197 -0.0037715144 0.0142612215 0.004011538 0.002282893
-0.009010693 -0.013100188 0.0009920209 -0.023135897 -0.017761005 0.00083170715 0.003648943 -0.0038504277
-0.017374361 -0.010483095 -0.0070831254 0.006420696 -0.012382201 0.016672906 0.004021761 -0.005488332
00000000: 7f6a 83bc 80bb 853c 00c4 a1bb de80 38ba
00000010: 6e12 13bc b4d4 52bc 6092 5abc 998c 40bc
00000020: 0a9d e0b9 3cb2 b33b 0722 76bb 4e3a a2bb
00000030: 0753 643c 5e9a 05bd 6cb5 37bc 0f6d 4c3a
00000040: 1213 3c3c 5bc8 c1bc 32a9 6bbc 87fc 76bc
00000050: df28 373c 5ca5 0cbc 3250 93bc 22b5 21bb
00000060: c6d0 98bc d750 73ba 8bcc 2a3c 7401 87bc
00000070: 9549 d6ba 0529 f93b 5d41 243c bcb9 453c
00000080: 41b4 573b a900 0b3c cae9 92bc 4c67 96bc
00000090: ffc4 bfbb f81c 713c 25d5 a53a 8534 e3bb
000000a0: 28f5 fdba ecb1 c1ba 9ff0 b4bc a3ee 943c
000000b0: 832b 77bb e6a7 693c 3873 833b 979c 153b
000000c0: 96a1 13bc 2ca2 56bc b306 823a 7e87 bdbc
000000d0: 877f 91bc ec06 5a3a 1b23 6f3b 7557 7cbb
000000e0: ad54 8ebc 4ac1 2bbc 9019 e8bb b464 d23b
000000f0: b7de 4abc 9e95 883c fac8 833b 77d7 b3bb

encoder.10.weight f4 [64]
0.9730602 0.966198 0.99453884 0.967982 1.0088725 0.96919954 0.9756514 0.97356176
1.0045005 1.0003788 1.0069852 1.0037864 0.9717555 0.99057615 0.9860998 0.9722042
1.0015073 0.9793365 0.96949446 0.9845579 1.0092717 1.0010033 0.9700524 0.9822079
0.9953609 0.99373335 0.9870196 0.9678716 0.97585076 0.9732587 0.9692544 0.9920119
0.99373615 1.0177672 0.9710129 0.984137 1.0115649 0.9670323 0.9913728 0.96973413
0.97000074 0.99794674 0.9925767 0.98708063 0.9751591 0.9928961 1.0093365 0.95913357
0.9793051 0.9818052 0.9921452 0.96305144 0.9736292 1.0071375 0.98048913 0.9792718
0.97797894 0.96997964 0.97038376 1.0019455 0.97458553 0.99970585 0.9880442 1.0186715
00000000: 791a 793f c158 773f 199a 7e3f abcd 773f
00000010: bc22 813f 761d 783f 4ac4 793f 583b 793f
00000020: 7993 803f 6a0c 803f e4e4 803f 137c 803f
00000030: f8c4 783f 6696 7d3f 0971 7c3f 60e2 783f
00000040: 6431 803f ccb5 7a3f ca30 783f fd0b 7c3f
00000050: d12f 813f e020 803f 5b55 783f fa71 7b3f
00000060: f9cf 7e3f 4f65 7e3f 51ad 7c3f 6fc6 773f
00000070: 5bd1 793f 7b27 793f 0e21 783f 7ef4 7d3f
00000080: 7e65 7e3f 3246 823f 4d94 783f 67f0 7b3f
00000090: f57a 813f 6e8f 773f 9cca 7d3f 7f40 783f
000000a0: f851 783f 7079 7f3f 8219 7e3f 51b1 7c3f
000000b0: 07a4 793f 702e 7e3f f031 813f c789 753f
000000c0: bdb3 7a3f 9657 7b3f 3afd 7d3f 8a8a 763f
000000d0: c33f 793f e2e9 803f 5601 7b3f 8fb1 7a3f
000000e0: d45c 7a3f 9650 783f 126b 783f c03f 803f
000000f0: 707e 793f b9ec 7f3f 77f0 7c3f d463 823f

encoder.10.bias f4 [64]
-0.061458126 -0.04160026 -0.012869833 -0.029303398 -0.004367153 -0.055496864 -0.02666353 -0.036605477
-0.008821463 -0.0036642663 0.0076069096 -0.002113205 -0.038399443 -0.0061947685 -0.009432531 -0.0174759
0.005839109 -0.035013247 -0.035667483 -0.009469029 0.00565738 -0.0066768033 -0.020152092 -0.024822062
-0.002633756 -0.0038965195 -0.01760739 -0.039463073 -0.023930648 -0.024292255 -0.023602596 -0.015116147
-0.0033319085 0.002323407 -0.017317278 -0.01592006 0.009964122 -0.0361365 -0.021835344 -0.02663997
-0.03162409 -0.010043618 0.00070999097 -0.021166336 -0.035397142 -0.0008097301 -0.002764576 -0.032640487
-0.022133397 -0.01420195 -0.017611949 -0.04330837 -0.03126357 -0.0065156356 -0.0128933815 -0.015646785
-0.015137063 -0.03682113 -0.02641566 -0.011010082 -0.034624014 0.002189902 -0.0048507215 0.007236358
00000000: 84bb 7bbd 0965 2abd fedb 52bc ae0d f0bc
00000010: 561a 8fbb ae50 63bd 7a6d dabc a0ef 15bd
00000020: e687 10bc 3024 70bb 6243 f93b b27d 0abb
00000030: bc48 1dbd 7cfd cabb e78a 1abc 9e29 8fbc
00000040: ff55 bf3b 0d6a 0fbd 1118 12bd fc23 1bbc
00000050: 8b61 b93b 16c9 dabb 0016 a5bc a357 cbbc
00000060: 189b 2cbb c05c 7fbb 603d 90bc 08a4 21bd
00000070: 350a c4bc 8d00 c7bc 3b5a c1bc b7a9 77bc
00000080: 265c 5abb 4d44 183b f7dc 8dbc c96a 82bc
00000090: 8f40 233c de03 14bd 09e0 b2bc 113c dabc
000000a0: 4388 01bd fd8d 24bc b01e 3a3a 0665 adbc
000000b0: 98fc 10bd 1144 54ba e42d 35bb 08b2 05bd
000000c0: 1951 b5bc 4caf 68bc ef46 90bc 1e64 31bd
000000d0: 3b0e 00bd 1d81 d5bb c33e 53bc b02d 80bc
000000e0: 7201 78bc c1d1 16bd a765 d8bc a263 34bc
000000f0: e9d1 0dbd 7584 0f3b cdf2 9ebb f81e ed3b

encoder.10.running_mean f4 [64]
-0.016069068 0.016551774 -0.0053280597 -0.0006057508 -0.008888441 -0.012657717 -0.012869545 -0.012066697
0.0003051733 0.0057718935 -0.0033157056 -0.005398538 0.013772357 -0.032661278 -0.011033697 0.0005184983
0.011824216 -0.023623677 -0.01449277 -0.014690495 0.010943266 -0.007995257 -0.017602274 -0.0022213887
-0.018794864 -0.00075215154 0.01027347 -0.016015239 -0.0017056367 0.0074480213 0.010200848 0.011984216
0.0037484465 0.008390866 -0.017316395 -0.018163735 -0.0055530732 0.014611216 0.0014029709 -0.0071560508
-0.0022822092 -0.0009469972 -0.02210942 0.018675761 -0.003761526 0.014851268 0.0043993085 0.0021998708
-0.00865079 -0.012650559 0.001105267 -0.022449143 -0.01795047 0.0006202154 0.00356662 -0.004111898
-0.017547712 -0.01037634 -0.006374586 0.0068410616 -0.012104744 0.016493892 0.003900716 -0.0053362157
00000000: 47a3 83bc 9697 873c 0197 aebb 40cb 1eba
00000010: d3a0 11bc 5062 4fbc c9da 52bc 65b3 45bc
00000020: abff 9f39 2722 bd3b 4f4c 59bb 38e6 b0bb
00000030: 74a5 613c d5c7 05bd aec6 34bc d5eb 073a
00000040: 5bba 413c 7186 c1bc 1573 6dbc 67b0 70bc
00000050: 624b 333c 8afe 02bc a532 90bc b894 11bb
00000060: b0f7 99bc 092c 45ba 0e52 283c 6432 83bc
00000070: ac8f dfba 880e f43b 7521 273c 7259 443c
00000080: 7fa8 753b d879 093c 1ddb 8dbc 1dcc 94bc
00000090: 8ef6 b5bb e263 6f3c e4e3 b73a 4e7d eabb
000000a0: 1e91 15bb e83f 78ba d01e b5bc e9fd 983c
000000b0: ef83 76bb bc52 733c 1328 903b b52b 103b
000000c0: 0bbc 0dbc 4a44 4fbc 9bde 903a 44e7 b7bc
000000d0: dd0c 93bc f395 223a f4bd 693b 1abd 86bb
000000e0: 38c0 8fbc 8601 2abc e7e1 d0bb fc2a e03b
000000f0: fa52 46bc 331e 873c 28a3 7f3b 6cdb aebb

encoder.10.running_var f4 [64]
2.0118591e-07 1.6482392e-07 3.704254e-07 4.997069e-07 4.3499438e-07 2.839502e-07 3.8549686e-07 3.9464754e-07
3.3446466e-07 3.598976e-07 8.701865e-07 3.872949e-07 2.7921712e-07 2.1601471e-07 3.537271e-07 2.9111277e-07
4.224878e-07 2.3022942e-07 2.3318024e-07 4.7006037e-07 4.0869782e-07 4.2858176e-07 3.3995047e-07 1.6374194e-07
5.1895046e-07 3.2535914e-07 1.4993135e-07 3.839117e-07 1.4934116e-07 2.363496e-07 3.7366735e-07 3.3753503e-07
4.4111442e-07 9.773428e-07 2.4300994e-07 2.3787197e-07 2.9093005e-07 2.1314466e-07 3.1184584e-07 4.163259e-07
1.9081287e-07 3.2452974e-07 3.7984356e-07 5.4555403e-07 2.3094663e-07 4.1941695e-07 6.353054e-07 1.2878243e-07
3.3547218e-07 4.814216e-07 5.5765815e-07 2.5200043e-07 1.4901606e-07 2.8962498e-07 2.4611177e-07 3.2778604e-07
2.3094847e-07 1.5649658e-07 3.5444893e-07 8.634827e-07 3.2194393e-07 1.2119301e-06 7.186172e-07 8.897029e-07
00000000: 9005 5834 74fa 3034 e1de c634 9923 0635
00000010: 2c89 e934 d171 9834 49f6 ce34 f2df d334
00000020: 7990 b334 f337 c134 c396 6935 68ed cf34
00000030: 4fe7 9534 acf1 6734 e2e7 bd34 3c4a 9c34
00000040: 48d2 e234 fb34 7734 1960 7a34 9b5c fc34
00000050: 006b db34 d417 e634 7082 b634 0bd1 2f34
00000060: 014e 0b35 05ad ae34 d1fc 2034 6c1c ce34
00000070: 965a 2034 49c7 7d34 739c c834 7636 b534
00000080: 4ed2 ec34 3e2d 8335 0877 8234 c069 7f34
00000090: 1f31 9c34 c2dc 6434 c46b a734 6583 df34
000000a0: 3ee2 4c34 073b ae34 4ded cb34 3072 1235
000000b0: 20fa 7734 3a2c e134 db89 2a35 7247 0a34
000000c0: f21a b434 0a3b 0135 fab1 1535 ad4a 8734
000000d0: 3901 2034 c17d 9b34 5821 8434 92fa af34
000000e0: a2fa 7734 7409 2834 174b be34 14ca 6735
000000f0: a3d7 ac34 9aa9 a235 ffe6 4035 ebd3 6e35
