results/dot-ou-final_d=ballsw=8z=2det=0lat=const-sig-ntloss=exactsigma=diag/run0/saved_nets/mu_best_val_2.pth (torch, 7662 bytes, 7 tensors)

first_layer.linear.weight f4 [16, 2]
000000 cb a1 ef 3e 6b dc a0 3c 1a 36 92 3c 6d 84 f2 3d
       0.46803126 0.019636353 0.017848063 0.118416645
000010 c2 c2 2c be 5e 3c b0 bd a6 e6 88 3d 55 12 47 3b
       -0.16871169 -0.08605264 0.06684618 0.0030375917
000020 fe 32 31 3d ef 0f 08 bf 08 4b a5 3d b8 93 1d 3e
       0.04326152 -0.5314931 0.08070952 0.15388381
000030 a9 d7 24 3e 36 9c 68 3d 02 6a 88 bc 40 08 92 3e
       0.16097893 0.0567896 -0.016652111 0.2852192
000040 ec 38 15 bd 79 9a d6 be d0 ad 47 bd 8c 1c 66 be
       -0.036431238 -0.41914728 -0.048749745 -0.22471827
000050 19 b6 6f 3e 74 1e b6 bc 22 5a 0b 3e ae 8a 90 3e
       0.23409308 -0.022231318 0.13608602 0.28230804
000060 09 6f 46 be 29 cd 0a 3e 89 67 7b be 74 a0 b2 be
       -0.19378294 0.13554825 -0.24551214 -0.3488804
000070 41 e6 6a be 3c ea d9 bd cf 55 66 3e 88 1b 68 3d
       -0.22939397 -0.1064038 0.22493671 0.05666688

hidden_layers.0.linear.weight f4 [16, 16]
000000 37 2a 93 3e 46 f2 2f 3e a7 a1 16 3e d4 99 9c 3e
       0.28743145 0.17182264 0.14710103 0.30586112
000010 df 34 ac be 43 ea ef 3d 21 74 f8 3d 27 6e 38 3e
       -0.33634087 0.11714604 0.12131525 0.1801077
000020 89 11 08 3e c6 1a d6 3c c6 f5 e3 3d fa ae ba 3e
       0.13287939 0.026135813 0.11130862 0.36461622
000030 67 ca 72 bd 6a 02 c5 bd 39 40 8f bd 7e f7 f9 3d
       -0.059275057 -0.09619601 -0.069946714 0.122054085
000040 98 46 42 3e 68 17 9e 3d 40 11 a5 bd 8a 38 80 bd
       0.18972242 0.07719308 -0.08059931 -0.06260784
000050 a0 80 a7 bd ef ba 17 3e 52 b6 17 3e 8e 80 1f bd
       -0.0817883 0.14817403 0.14815643 -0.03894096
000060 8b 9a 5d bd f7 7b 60 3d a0 98 7f 3d 90 b6 87 bd
       -0.05410246 0.054805722 0.062401414 -0.06626618
000070 56 c2 52 be b9 a7 55 be 30 0f fe 3d 92 61 48 3e
       -0.20581946 -0.20864762 0.124052405 0.1956847
000080 ce e4 26 39 11 d4 ba be 91 b1 af 3d bb c2 1a be
       0.0001591623 -0.3648992 0.0857879 -0.15113346
000090 c0 1c 93 3d 7d 14 5c 3e fd 61 d3 bd c5 69 8e be
       0.07183218 0.2149219 -0.10321424 -0.2781507
0000a0 b3 4a a6 3e d7 ba 05 bc e3 18 05 be 86 7b e7 bd
       0.32478866 -0.008162222 -0.12997775 -0.11302857
0000b0 2a e5 17 bd bf 82 e4 3e 74 ce 52 3e c0 c5 05 bd
       -0.037083782 0.44631 0.20586568 -0.032659292
0000c0 fc 2a 9c 3e 57 b2 e8 3d f6 b7 08 be 1c 62 b5 bd
       0.30501544 0.113621406 -0.13351426 -0.088566035
0000d0 1b bc a5 bd 13 37 5e 3e 4d 0c 9f 3d 5a 53 1a bc
       -0.08092519 0.21700697 0.07766018 -0.009419287
0000e0 4c 90 ac bc a9 d4 33 bd 75 57 bd 3d a8 ee 96 3e
       -0.0210649 -0.04390398 0.09245197 0.29478955
0000f0 11 46 62 3d 3a e6 11 be d6 78 59 3c b6 9d 1b 3e
       0.0552426 -0.1424798 0.013273438 0.1519688
000100 82 da cd 3e 32 bc 51 bd c6 47 f7 bc e2 fb 2c 3e
       0.4020577 -0.051204868 -0.030185591 0.1689296
000110 a7 57 02 3e cb fe 4c bd 12 c1 79 be 86 ce 04 3d
       0.12728749 -0.050047677 -0.24390057 0.03242352
000120 e6 b9 cd bd 7b 43 7b 3d 18 cf 58 3e 57 ae 28 3e
       -0.10045223 0.06134365 0.2117275 0.16472755
000130 eb 0f 78 3d 6c 90 a3 3d e3 87 90 3c 5e 19 4c 3c
       0.060562056 0.07986531 0.01764292 0.01245722
000140 c0 f4 a5 3d e3 88 96 3d cd 4f 36 3c 71 88 09 3e
       0.08103323 0.07350328 0.011127424 0.13430955
000150 b2 db 42 3c 50 76 40 3d 81 74 f1 3d 20 f6 7b 3d
       0.0118932 0.04698783 0.117897995 0.06151402
000160 f4 1f 5d 3d 74 31 6f bd 93 d4 e1 bc cc af 48 3e
       0.05398555 -0.05839677 -0.027567184 0.19598311
000170 c5 64 2f 3e 80 3b 33 bc a7 40 34 be 9a 28 8f be
       0.17128284 -0.010939479 -0.17602788 -0.27960664
000180 c5 99 97 3e ff 34 08 bd 63 61 dd bd 31 74 60 3e
       0.29609504 -0.033253666 -0.10809591 0.21919324
000190 19 7c 97 bd fe 19 61 3d 2a 21 94 3d 1f 21 e6 3d
       -0.073967166 0.05495643 0.07232888 0.11236786
0001a0 90 5f ee bd b2 a0 da bc ef 45 06 3e 79 1f 78 3e
       -0.11639321 -0.026687954 0.13112615 0.24230756
0001b0 72 cf 89 3d 24 bd 96 bd fe 7b 41 be 40 5a 9a 3e
       0.0672902 -0.073602945 -0.18894956 0.3014698
0001c0 e6 d7 86 3d be 5e 09 be 1b ad 3a be 30 9f 53 be
       0.06584148 -0.13415048 -0.18230097 -0.20666194
0001d0 89 55 23 3c 7a 0a 43 3d 49 bc 8a 3d f2 25 09 3e
       0.009969124 0.047617413 0.06774194 0.13393381
0001e0 3d 60 8d bd 26 bc 29 3d f2 cb 78 bd ff dc 9d 3d
       -0.069031216 0.041439198 -0.060741372 0.07708167
0001f0 d0 ba 59 3e ea e6 08 3d 81 d3 9c be 1a 91 56 3e
       0.2126267 0.03342334 -0.30630115 0.2095379
000200 73 13 a6 bc c5 69 b5 bd f3 25 98 3d 9d 22 9c 3d
       -0.020272946 -0.088580646 0.07429113 0.076237895
000210 93 b4 33 3e 71 d2 8c be d9 de ed bd 23 ae 44 3e
       0.17549352 -0.27504304 -0.116147704 0.19207053
000220 27 8e 48 3c 79 5a 11 bd 2a b6 4b 3e 4d 88 87 bc
       0.012240923 -0.035486672 0.19893709 -0.016544485
000230 ca da e9 3d 65 1c c6 3d 90 38 89 bd 33 2f 8d 3d
       0.11418684 0.096733846 -0.067002416 0.06893768
000240 56 44 31 3e 45 77 a2 3d 82 78 c4 3d ab e1 eb 3d
       0.17311224 0.07932905 0.095932975 0.11517652
000250 c9 37 5e be a8 4b f1 3d dd bb 16 3e 14 b2 8d 3e
       -0.21700968 0.117820084 0.14720102 0.27674925
000260 32 17 2e bd 32 a4 71 3c 28 cd 5e bd 60 a1 26 bd
       -0.04250259 0.01474862 -0.05439487 -0.040681243
000270 ef 98 12 bd 1d 22 14 bd 31 b8 96 3c c5 48 9f 3d
       -0.03579038 -0.036165345 0.018398376 0.077775516
000280 12 40 9a bd bb 5c 05 be 83 fa 16 3d 99 80 c5 bd
       -0.07531752 -0.13023655 0.03686 -0.09643669
000290 76 59 c2 bd 2a f7 ad bc ed 2e 9e bd 3d 15 90 3e
       -0.094897196 -0.021236021 -0.07723794 0.28141204
0002a0 7e a9 fd bd 26 d4 eb bd 03 aa 12 3e 9e ef 05 3e
       -0.12385844 -0.115150735 0.14322667 0.13079688
0002b0 3d 33 31 be d5 0a 1a bd b3 e5 48 3c 4c bf 19 be
       -0.17304702 -0.037607986 0.012261796 -0.1501438
0002c0 99 3b 7d bd 6b 85 df bc 57 3c 2f be 1b 71 44 3c
       -0.061824415 -0.027285298 -0.17112862 0.011989857
0002d0 85 9d 18 bd f8 1d c0 be 95 36 75 be fe 83 03 be
       -0.037259597 -0.37522864 -0.23946603 -0.1284332
0002e0 72 d9 88 3e 89 fe 12 3e 0b 85 93 bd 26 4e 20 3d
       0.26728398 0.1435491 -0.0720311 0.03913703
0002f0 40 7e 0c be a2 c1 a8 3e 56 a0 72 3e b7 ab 0b be
       -0.13720036 0.3296023 0.23693976 -0.13639723
000300 50 e9 7b 3e 29 46 27 be 37 11 36 be 49 ca 88 3e
       0.2460072 -0.16335358 -0.17780004 0.2671683
000310 e2 9a 53 3e 92 b6 cb 3e f4 6e b0 3c 23 55 82 3e
       0.20664552 0.39787728 0.021537282 0.2545558
000320 5a 36 9e bd a7 bb c4 bd 01 94 0a 3e cd 8f 78 3e
       -0.077252105 -0.09606104 0.13533022 0.24273606
000330 33 96 33 be 02 2d 28 be 52 ef 27 3d 6a af 7d 3e
       -0.17537765 -0.16423419 0.040999718 0.24773946
000340 d7 75 b1 bd a5 6c 0a bd d2 5c ee bd 1a ab ad 3c
       -0.08665054 -0.033795018 -0.11638798 0.021199752
000350 c9 6d 22 3e 57 ba 86 be c5 0e 4a be c0 0e 62 be
       0.15862192 -0.2631404 -0.19732197 -0.22075939
000360 c3 a1 31 be 1e 4a 98 3d c6 00 a1 3d a0 2d 80 3d
       -0.17346863 0.07436012 0.07861476 0.06258702
000370 97 5f 32 be 43 07 d7 3c 85 ca a0 3d a8 a0 c6 bc
       -0.17419277 0.02624858 0.078511275 -0.024246529
000380 50 2a d9 3d 7b 9b 45 3e 25 2a 9a bd ab 8c ba 3d
       0.106037736 0.19297592 -0.0752757 0.091088615
000390 1e 88 8e bd a8 e6 b0 bd 9d 0a 26 3e c6 76 f3 3d
       -0.06959556 -0.08637744 0.16214986 0.118878886
0003a0 fe 1e ac 3d 90 cd c5 bd f4 52 74 3e aa f2 38 3e
       0.08404349 -0.096583486 0.23859769 0.18061319
0003b0 c5 bf e2 3c e7 ee 88 be 4d f0 7e 3d 74 03 a7 3d
       0.027679333 -0.26744768 0.062240887 0.081549555
0003c0 01 d3 8b 3c 96 cb 0d 3e 41 32 d8 3d 1a 47 19 bc
       0.017068388 0.13847193 0.1055646 -0.009355331
0003d0 47 72 ce bd 89 5f 53 3d 6b 04 1a bc 9b 72 69 bb
       -0.100803904 0.05160478 -0.009400467 -0.0035621289
0003e0 49 d6 4b bd 98 8d 9f 3c 3f cf 00 3e b6 88 9a bd
       -0.049764905 0.019476697 0.12579058 -0.07545607
0003f0 d5 36 90 3d a7 3c 16 be fc b5 99 bd b8 e0 af 3d
       0.070417084 -0.14671575 -0.07505414 0.085877836

hidden_layers.1.linear.weight f4 [16, 16]
000000 0a 5d a5 3e cc 19 7c 3e e2 35 7b be ab 82 89 3e
       0.32297546 0.24619216 -0.24532273 0.26857504
000010 9b a2 b5 3d da 31 4c 3c 9d 83 c6 3e a5 de 59 3d
       0.08868905 0.012463057 0.38772288 0.053190846
000020 1c f0 8b bb 67 3b 61 3e 91 67 4c 3d cd 37 03 be
       -0.0042705666 0.21995316 0.049903456 -0.12814255
000030 78 a1 1f bd cd 8f 7d bd ed 63 12 3e 22 b7 2b 3e
       -0.038972348 -0.061904717 0.14295931 0.16769078
000040 97 74 83 bd fb 2b 68 3e 8f 30 37 3e b1 3b a7 bd
       -0.06418722 0.22673027 0.17889617 -0.08165682
000050 f1 f9 de bb 5d 4f 2c 3e 33 21 59 3e f6 5d 9c 3d
       -0.0068046977 0.1682715 0.21204071 0.07635109
000060 8f 85 1c 3e d3 c6 bf 3c b6 cb 8f bd 64 00 a5 3d
       0.15285324 0.023410236 -0.07021277 0.08056715
000070 c3 34 04 3e e2 d8 0a be 56 52 7d bd df a2 10 3e
       0.12910752 -0.13559297 -0.0618461 0.1412463
000080 1d 1a 5c 3e b7 91 0a 3e 23 61 b4 bd 83 6f 35 3e
       0.21494336 0.13532148 -0.0880759 0.1771832
000090 38 a8 c8 bc ec 3f 25 3d ad 78 1d 3d 82 5a 6d bd
       -0.024494275 0.040344164 0.038445164 -0.057947643
0000a0 54 01 b8 3d 2e e5 6f 3d d6 36 b9 3d 78 a8 4f bc
       0.08984628 0.058568172 0.09043662 -0.012674443
0000b0 e9 3e f9 3c 2b 9a 05 3e 3e e0 c3 3e 08 68 f5 3d
       0.030425506 0.13047092 0.3825702 0.11982733
0000c0 04 e9 51 bc c6 e2 d4 bc 68 a8 1d be bf 63 0d be
       -0.012811903 -0.02598704 -0.15396273 -0.13807581
0000d0 6e 16 de bd d4 ee 49 3e 35 bd 18 3e db 96 f2 3d
       -0.10844122 0.19720012 0.14915927 0.1184518
0000e0 cf 77 a2 3c 6e 59 1d be b2 bd 6e 3e d8 40 84 bd
       0.01983252 -0.15366146 0.2331455 -0.064576805
0000f0 42 38 3a be 1a 74 82 bd ac dc 02 bd 93 01 1f 3e
       -0.18185523 -0.06369801 -0.03194873 0.15527944
000100 1c 38 04 3e 67 71 97 3e 85 b6 a1 be be b5 4b 3e
       0.12912029 0.29578707 -0.31584564 0.19893548
000110 39 22 5d 3e 2d 8a 17 3e 3c e1 6e 3e f8 f5 06 3e
       0.21595086 0.14798804 0.23328108 0.13179767
000120 16 50 38 3c 50 1e 11 3d 4d fe b9 bd 2e ed 15 3e
       0.011249563 0.0354293 -0.09081707 0.14641258
000130 22 b1 10 3e 1f 9b b5 bc 3b 17 61 3e 34 5e 92 3e
       0.14130071 -0.022168694 0.21981518 0.28587496
000140 ea d2 ad 3d 6e 57 0b 3c 71 7e fd bd bb 9a 0b be
       0.08487494 0.008504732 -0.123776324 -0.13633244
000150 d8 01 1f be 4d f4 63 3d fd 2e a4 3d 1d 30 bf bd
       -0.15528047 0.055652905 0.08016775 -0.09335349
000160 f0 9c ee bd de 28 8c 3d 15 9f 53 3e 25 e9 19 3e
       -0.11651027 0.06843732 0.20666154 0.15030344
000170 9a 95 f7 3d 70 0b cb 3c 3f d3 4d bd 7b 8e 03 bd
       0.12089081 0.024785727 -0.050250288 -0.0321183
000180 1e f4 4c 3e 20 04 6f 3e fa 9a 5e 3d 69 5f c5 3d
       0.20014998 0.23341417 0.054347016 0.09637339
000190 56 12 c2 3d 80 fd b8 3d a0 52 38 bd 0b 7d ba 3c
       0.094761536 0.09032726 -0.045000672 0.022764703
0001a0 2e 67 62 be 8d d1 37 3e c7 08 11 bc d5 1f 99 be
       -0.22109672 0.17951031 -0.00885219 -0.29907098
0001b0 2b f1 f0 3d 06 cc 58 be 59 cf a2 3d 78 d9 b9 bd
       0.11764749 -0.21171579 0.07949705 -0.09074682
0001c0 1b 59 44 be b0 fc 49 bc 29 dc 21 3e 29 79 85 bc
       -0.19174616 -0.012328312 0.1580664 -0.016293125
0001d0 36 72 de bd b7 35 ca 3c 97 9a 9f bc 0e b6 e2 3c
       -0.10861628 0.024683816 -0.019482894 0.027674701
0001e0 cd de 9a bd bb 65 55 bd 65 49 bf bd 18 5a a1 bd
       -0.07562027 -0.05209897 -0.09340171 -0.07878512
0001f0 57 90 46 bd 4a 2b c6 3c 5e 3c 90 3c f2 f4 0a be
       -0.048477497 0.024190564 0.01760691 -0.13570002
000200 2a e4 35 3e 52 97 54 3e d4 5d 94 be b1 7f 06 3e
       0.17762819 0.20760849 -0.28977835 0.13134648
000210 78 52 c5 3d 38 9a 3b bb a1 67 1f 3e 5f 80 89 3d
       0.0963487 -0.0028625857 0.15566875 0.06713938
000220 15 87 48 3d 8a 1a 12 3c 55 c3 10 be 66 fa fc bc
       0.04895695 0.00891746 -0.14137013 -0.030881118
000230 65 41 64 3e ca 76 29 be a0 e1 20 3d 90 7b ff 3d
       0.22290571 -0.1654922 0.039277673 0.124747396
000240 ad 96 05 3e be 6c 6d bb c5 56 2d bd 58 26 45 3e
       0.1304576 -0.0036228145 -0.042319078 0.19252908
000250 42 7e 06 3e c4 96 93 3d 78 1d 6d 3e 2a b6 08 3e
       0.13134101 0.07206491 0.23155773 0.1335074
000260 d8 66 a3 3c be 98 5e 3e b7 aa 53 3e ee 85 1b be
       0.0199465 0.21737954 0.20670591 -0.15187809
000270 f7 3d c5 3d 41 75 ce 3d 46 25 c4 3d 8c 32 87 3d
       0.096309595 0.10080958 0.09577422 0.06601438
000280 ce d3 ba bd d9 b0 4e 3d d6 87 37 bc 9f e9 62 bd
       -0.0912243 0.050461624 -0.011201819 -0.05539858
000290 bc 22 84 3d 10 65 87 bc 20 bf 49 3e 36 c3 e9 3c
       0.064519376 -0.016527683 0.19701815 0.028535467
0002a0 6c 60 b5 be c6 cf 2f 3e 0c 79 1d 3e 7e 2e 89 bc
       -0.35425127 0.17169103 0.15378207 -0.016745802
0002b0 c7 14 47 be 6c 4f 1b 3d 6f 7a ac 3d a1 13 50 3e
       -0.1944152 0.03791754 0.0842179 0.20319988
0002c0 f7 5e 93 be a7 4a b7 3c 52 82 d9 bd 55 40 07 3e
       -0.2878339 0.022374464 -0.1062056 0.13208134
0002d0 ad b6 4c bd 86 60 53 bd 19 b0 8a be 1a 17 c0 3a
       -0.0499789 -0.051605724 -0.27087477 0.0014655322
0002e0 1f 7d 11 3e 84 6f ec bd c2 33 99 bd 9b 4f 1c bd
       0.14207886 -0.115447074 -0.07480575 -0.038161855
0002f0 a1 bb 06 be e7 02 00 3e 1d ec 9f 3d 0c 6c 9c 3d
       -0.13157512 0.12501107 0.07808707 0.07637796
000300 d7 92 d3 3e 3f 01 8a 3e 4c f3 67 bd 53 02 26 3e
       0.41322967 0.26954076 -0.05662851 0.16211824
000310 b1 ce 59 3d 46 e0 ca bd e6 0b 3d 3e 14 fe 54 3c
       0.053175632 -0.09906058 0.1846157 0.01300003
000320 96 57 92 bd c6 bd cc 3d b4 be dd 3d 06 6e 5f be
       -0.07145612 0.09997134 0.10827389 -0.21819314
000330 8d 47 68 3d 35 72 5f 3d 4f 7a 66 3e 15 d9 83 3c
       0.05670886 0.054552276 0.22507595 0.016094724
000340 b5 b0 e5 bb 6e 72 05 bc 8e 39 64 be 8b 2a f8 3c
       -0.0070095905 -0.008144958 -0.2228758 0.030293724
000350 c1 46 06 bd 83 d7 1f bd 4b 28 41 3c 98 95 a7 bd
       -0.03278232 -0.039023887 0.011789392 -0.081828296
000360 60 63 4a be 06 85 37 3d 6e 97 49 be 85 c3 81 be
       -0.19764471 0.044804595 -0.19686672 -0.25344482
000370 4d 3d 1f 3e af d2 f1 3d 23 f1 3c 3d 47 eb 5b 3e
       0.15550728 0.11807763 0.046128403 0.2147647
000380 fa 18 2b be df 85 47 3c 96 dc e0 bd 31 0f 1c 3d
       -0.16708747 0.012177913 -0.109795734 0.038100425
000390 26 b6 f8 bd 40 80 30 be 57 15 73 3e 5e 98 74 bc
       -0.12144117 -0.17236423 0.23738609 -0.014928905
0003a0 86 99 04 be cf 78 55 be 50 f8 2f 3e 25 e3 5a be
       -0.1294919 -0.20846866 0.17184567 -0.21375711
0003b0 f0 e8 94 3e 33 e9 f9 bd e1 42 30 3e d1 7a 8a bc
       0.29083967 -0.12202682 0.17213012 -0.016904267
0003c0 88 6b 29 be f8 7f 37 be 4c 96 34 be ad 2a b9 3b
       -0.16544926 -0.1791991 -0.17635459 0.0056508393
0003d0 f4 33 8a be 8c 70 cf bd 03 f1 29 3e c6 ce 4c bd
       -0.26992762 -0.101288885 0.16595845 -0.050001882
0003e0 2c 98 19 3e 95 70 54 3e 39 77 dd 3d 64 fa 55 bd
       0.14999455 0.20746072 0.108137555 -0.052240744
0003f0 d8 01 d2 3c 23 61 fe bd 56 3c 3c 3c e1 1b 0c 3e
       0.025635645 -0.12420871 0.011488995 0.1368251

hidden_layers.2.linear.weight f4 [16, 16]
000000 63 3b 8d be d2 12 d5 bd 18 6a 17 be 14 57 da bd
       -0.2758437 -0.1040398 -0.14786565 -0.1066114
000010 d1 45 2a 3e 6c 1f 9e bd 54 11 29 3b 0d 3f a0 bd
       0.16628195 -0.07720837 0.0025797682 -0.07824526
000020 70 a0 7a be b2 3a 88 bc 8e c5 e9 3d 42 8f 8c 3d
       -0.24475265 -0.01662955 0.11414634 0.06863262
000030 cd a3 46 3d 42 e6 a5 3d a1 8f e0 3d 40 84 03 3e
       0.048496056 0.08100559 0.10964895 0.12843418
000040 06 c2 9e 3e b8 2f 87 3d 5a 36 0e bd 37 54 77 3d
       0.31007403 0.066008985 -0.034719802 0.060383048
000050 63 9c 9d 3d 5c b6 15 bd 03 87 38 3e 1e cf dc 3c
       0.07695844 -0.036550865 0.18020253 0.02695423
000060 f8 b1 0b 3e 30 a9 49 bd 49 20 16 3e aa e4 04 3e
       0.13642108 -0.049233615 0.14660753 0.12977853
000070 51 e5 5d 3e f1 d4 39 3e a0 4a 40 3c 4f 68 15 3e
       0.21669509 0.18147637 0.011736542 0.14590572
000080 01 a9 cf 3e 59 e0 a1 bd f8 0d 49 3e 84 39 23 bd
       0.40558627 -0.07904119 0.19634235 -0.039849773
000090 9e d2 85 3d d2 e3 79 3d dd 76 02 be 49 43 8a 3d
       0.06534313 0.061008282 -0.12740655 0.06751115
0000a0 25 8f 6c 3d 85 8b 9e 3d 83 a4 1b bd b9 47 58 bd
       0.0577537 0.07741455 -0.037998687 -0.052802775
0000b0 a1 a8 97 3e df db c5 3d 71 2e 52 be ab c8 86 bd
       0.2962084 0.09661078 -0.20525528 -0.06581243
0000c0 a9 1e 3f 3d 6c 07 0e be 0e 23 05 bd 91 e4 d8 bd
       0.0466601 -0.13870019 -0.032504134 -0.105904706
0000d0 0a 02 15 3b ba 1b 84 bd 7e 7a 1f 3e c1 e7 21 be
       0.002273681 -0.06450601 0.15574071 -0.15811063
0000e0 ef ce 34 3c 3c 9d 64 3d 6d d5 e0 3d fd de 51 3d
       0.011035665 0.055814013 0.10978208 0.05123805
0000f0 4a 04 26 bd 7b 4a 06 be 73 8c 87 bd 08 eb 61 3d
       -0.040531434 -0.1311435 -0.066185854 0.055155784
000100 58 22 b0 bd 28 72 0e bd c7 1c f8 bd 56 80 0c 3e
       -0.086003006 -0.034776837 -0.12114864 0.13720831
000110 63 73 ee bd 96 f6 a1 3d d9 e5 05 be 37 85 10 3d
       -0.11643102 0.07908361 -0.13075961 0.035283294
000120 2a a9 1e be 94 78 f2 bb e2 eb cd bc 2c f9 8f 3d
       -0.15494218 -0.007399628 -0.025136892 0.07029948
000130 7c 49 85 bd be 43 14 be 28 1d d4 3b f9 56 cf bd
       -0.06508157 -0.14478967 0.0064732023 -0.101240106
000140 ab ec 9f bd 40 7b 51 3e d3 4e d5 bc d5 b2 c6 3c
       -0.07808813 0.20457172 -0.026038563 0.024255196
000150 68 e5 ea 3d 94 a2 1c be de 9b eb 3d 6a b6 c2 bd
       0.11469537 -0.15296394 0.11504339 -0.09507449
000160 ba a9 85 be 97 27 86 3e 54 76 7b 3c 8e db 37 bd
       -0.26106054 0.2620208 0.015348036 -0.044887118
000170 84 99 12 be 8e 3c 72 3c c7 94 5b 3b 18 4f 0b 3d
       -0.14316374 0.014784945 0.0033505426 0.034010977
000180 bd ca 30 be 04 35 75 3d 4a 3d b7 bd be 90 33 be
       -0.17264839 0.059865013 -0.08947237 -0.17535684
000190 dc e4 be bc 0f 9d 88 bc 13 51 f9 3d 10 c9 1f 3e
       -0.023302488 -0.016676454 0.12173667 0.15604043
0001a0 c7 af 42 bd a7 4c 4b 3e 20 3a 48 3d 36 a5 9c 3b
       -0.047530916 0.1985346 0.048883557 0.004780437
0001b0 94 a7 9c 3d 97 9c 93 bd 13 35 60 3d 7e 66 04 be
       0.076491505 -0.072076015 0.054738116 -0.12929723
0001c0 af 74 1c 3d 6d 19 85 be 7e 02 4f bc a2 63 33 ba
       0.038197216 -0.2599596 -0.0126348715 -0.00068431546
0001d0 e8 ab 12 3e 54 88 d5 3d a4 23 1c 3d 32 94 6e bd
       0.1432339 0.10426393 0.038119927 -0.0582468
0001e0 c0 eb 10 3e 3f f5 89 3d 66 46 27 3d 69 d7 ac be
       0.14152431 0.0673623 0.04083862 -0.33758095
0001f0 a3 1d 4d bc 0e 56 88 be 35 e0 5a 3e d6 d1 0e 3e
       -0.012519273 -0.26628155 0.2137459 0.13947234
000200 23 55 67 bd 6c 32 9c 3d 6e d1 03 3e b5 c0 30 3e
       -0.056477677 0.07626805 0.1287286 0.17261012
000210 82 56 f8 3d 6f 9f e1 3d 6b 13 9c 3d c6 da 0d be
       0.12125875 0.11016738 0.07620891 -0.13852987
000220 14 23 d5 bd 61 d0 5e 3e 28 ed 1d 3e 17 dd 6e bc
       -0.10407081 0.21759178 0.15422499 -0.014579079
000230 7b 5b a5 3d 19 f3 81 3e 62 07 ae 3d 7f 27 1c 3e
       0.08074089 0.2538078 0.08497502 0.15249442
000240 d4 db 25 3e 9c ea 44 3d 14 6d 5c 3e fc 49 3d be
       0.16197139 0.048075303 0.21525985 -0.18485254
000250 b3 3f c8 3d ab 45 85 bd d8 d9 c3 bc 12 f9 84 3d
       0.09777775 -0.06507429 -0.023907587 0.06492819
000260 88 a5 10 3d 04 e5 06 3e 5f 14 51 3d 83 ab 0a 3e
       0.035314113 0.131733 0.051044818 0.13541989
000270 18 fa db 3d 56 56 b7 3d 37 1c 3c 3e 1c 3b ac 3d
       0.10741061 0.08952014 0.18370138 0.08409712
000280 82 ea 2b 3e 94 1a 0c bd 46 55 16 3e 27 aa ec bc
       0.16788676 -0.034205034 0.14680967 -0.028889729
000290 be ab 09 3e 00 5c 69 3e 63 75 24 3e 2d db 3f bc
       0.1344442 0.22789001 0.16060404 -0.01170997
0002a0 cd 16 3f 3e e5 60 f9 3d 2f ea 53 3c 39 9d f9 bd
       0.18661042 0.12176684 0.012934252 -0.12188191
0002b0 81 31 5b bd c9 e8 8e bc 86 70 2b 3e d6 70 37 3c
       -0.053514007 -0.017444985 0.16742143 0.011196336
0002c0 54 84 71 3e ee df 04 3d 73 bd 4e be 7b 66 45 3e
       0.23585635 0.03244012 -0.20189457 0.19277374
0002d0 f2 c5 20 3e 40 e7 56 3e 4a 67 39 3d b8 11 a7 bb
       0.1570051 0.20986652 0.04526452 -0.005098548
0002e0 a2 ee 45 3e 3e 11 27 3e 00 a4 48 3d 61 f6 35 be
       0.19329312 0.16315171 0.048984528 -0.17769767
0002f0 dd 36 5c 3e cd 3c 56 3e c2 3b 9c 3d 12 5c 46 3d
       0.21505304 0.20921631 0.076285854 0.04842765
000300 e3 60 6a be 32 9c 5c bd e1 c9 4b be de 4e e3 bd
       -0.22888522 -0.053859897 -0.1990123 -0.11099027
000310 4b 8f e2 3d c7 42 1b be 47 f4 4d 3d 7e a6 fa 3c
       0.11062487 -0.15162192 0.05028179 0.030596968
000320 0d d8 59 bd cc b1 0a 3d b1 c7 60 3e c7 72 9d bc
       -0.053184558 0.033860967 0.21951176 -0.01921977
000330 48 84 16 bd 76 cf 45 be 6a fd 95 3d 9f 3a 05 bc
       -0.036747247 -0.19317421 0.073237255 -0.008131652
000340 39 0e 1b 3d 22 73 8e 3e 36 9d 16 bc 5d 86 b6 bd
       0.03785536 0.27822214 -0.009192755 -0.089123465
000350 26 57 97 3c bf 02 b1 bc 48 69 8d 3d f3 e4 e5 bd
       0.018474173 -0.021607755 0.069048464 -0.11225309
000360 cd 28 00 3e be 2b 04 3e 09 96 d9 bd 38 d5 be 3d
       0.12515564 0.12907311 -0.1062432 0.09318012
000370 17 de 8b 3e 63 17 d0 bc 79 46 01 3e 8e 4f 8c 3e
       0.2731788 -0.025401777 0.1262454 0.27404445
000380 89 0e 6a 3e 73 4c 97 bd a5 c8 25 3e d6 9c 87 3e
       0.22857107 -0.073876284 0.16189821 0.26486844
000390 90 2d 70 3e 1e 67 f0 3c 95 9b 9c 3e 0e a2 32 be
       0.2345488 0.029346045 0.3058745 -0.17444631
0003a0 7d da 4b 3e f8 b3 0e 3d cd cd 32 be fd 11 1f be
       0.19907565 0.0348396 -0.1746132 -0.15534206
0003b0 0d 38 99 3d 82 a8 36 3e b8 71 fa 3d 9b 9d 8c bc
       0.07481394 0.17837718 0.122287214 -0.017164996
0003c0 96 80 ae 3d 63 df 77 3c 16 ac bb bd 4d ca 1b be
       0.085206196 0.015128943 -0.09163682 -0.1521389
0003d0 70 df fb bc db 7b 24 be e9 78 93 bc 5e 58 24 be
       -0.030746192 -0.16062872 -0.01800199 -0.16049334
0003e0 8c 1a 03 3c f4 c4 60 be 8e ed 05 be 62 29 75 3c
       0.008001935 -0.21950132 -0.13078901 0.01496348
0003f0 ee 40 dc 3d 0f 60 14 3c de e4 09 3e 94 66 65 bd
       0.10754572 0.009056105 0.13466212 -0.05600603

hidden_layers.3.linear.weight f4 [16, 16]
000000 73 30 bf bd 37 46 0f 3e 09 27 55 3d f5 ca df bd
       -0.09335413 0.13991629 0.05203918 -0.10927383
000010 9d f3 27 3d 7f 60 75 bc 74 27 4e be 71 8b 92 bd
       0.041003812 -0.01497662 -0.20132238 -0.071555026
000020 3b bd 89 3e c9 cd 4b 3e 80 7d 24 be c0 67 5d 3e
       0.26902184 0.1990272 -0.160635 0.21621609
000030 a3 5b 1b be 3a 23 72 3e 00 4d cf bd 76 e4 b0 bd
       -0.15171675 0.2364625 -0.101221085 -0.086373255
000040 77 70 c0 bc 8d 30 bf 3c 81 fa 2d 3e 82 bc 54 bc
       -0.023491127 0.02333858 0.16990091 -0.012984397
000050 a6 54 f3 3d 5f ed 1c bd 80 38 00 3e f4 e9 48 3e
       0.1188138 -0.038312312 0.12521553 0.19620496
000060 51 50 5e 3c 3d 89 de 3c 95 fa fb bd 40 c7 52 3e
       0.013568954 0.02716505 -0.12303654 0.2058382
000070 8d e8 1d be 26 9a 75 bd bb 98 b4 3d df 50 9d 3d
       -0.15420742 -0.05996146 0.088181935 0.076814406
000080 e9 a2 b5 3d 1d bd ff 3c 49 80 33 3e ac d7 e9 3d
       0.08868963 0.031218106 0.17529406 0.11418089
000090 e7 ab 6e bd 9d 80 1b 3e 80 55 f1 3d 0f cc 7a 3d
       -0.058269408 0.15185781 0.11783886 0.06122976
0000a0 ca 46 7e 3d b7 f5 28 bd fe 8c 04 3e 80 87 aa 3d
       0.06207923 -0.041249957 0.12944409 0.08326626
0000b0 c2 04 e0 3d af 87 e4 3d d3 bb b0 3c e7 5a 10 3d
       0.109384075 0.11158692 0.021573937 0.03524294
0000c0 7c d4 90 bd 96 9c b8 3b 49 0d 67 bd 31 e6 8e 3d
       -0.07071778 0.005633901 -0.056409154 0.06977499
0000d0 12 c1 76 bd 83 af bc 3d dc 21 1a be aa 27 05 3e
       -0.06024272 0.09213164 -0.15051979 0.13003412
0000e0 e1 2a 12 3d 3e 5c 86 3e fa 13 58 3d 52 2c 32 3e
       0.035685424 0.2624225 0.052753426 0.1739972
0000f0 ec 61 1c bd 81 02 87 bc 82 e9 97 3d af d8 9e 3d
       -0.038179323 -0.016480686 0.07417585 0.07756173
000100 99 a8 5e 3d 16 ea d9 3c fc 14 20 3e 1a 80 35 bc
       0.054360006 0.026600879 0.15633005 -0.011077905
000110 6b 7a 22 be b0 53 5b 3b ab eb ab 3d 01 a0 bc bd
       -0.15867011 0.003346663 0.083945595 -0.09210206
000120 62 ae 93 3d 81 60 00 3e 8d c3 a1 3d 7d 09 0b 3e
       0.07210995 0.12536813 0.078986265 0.13577838
000130 6e 8d 64 bd 33 df 71 3e 00 1b 84 3e 41 0e 66 bc
       -0.05579894 0.236203 0.2580185 -0.014041484
000140 3a 81 76 3b 81 65 3c 3e 8b 7a 1c 3e 2e 9e 6b 3d
       0.0037613646 0.18398096 0.15281121 0.0575239
000150 f3 1f 47 3c c9 f8 44 be b1 fc 8b bc 85 a3 0f 3e
       0.012153613 -0.19235529 -0.017088266 0.14027222
000160 d2 c3 fe 3b 94 eb 0c 3e 17 56 ec 3d b9 20 27 3d
       0.0077748084 0.13761741 0.11539858 0.04080269
000170 12 09 24 bd 7d 62 66 3d 10 92 b9 3d 18 9f 17 bd
       -0.040047713 0.05624627 0.09061062 -0.037016958
000180 18 d8 64 bd d8 c3 ad 3c a2 87 0c bd 05 df 80 3e
       -0.055870146 0.02121155 -0.034309037 0.2517015
000190 36 03 f0 3c 32 0a 0d 3e 59 16 c3 bd a0 8a f8 3d
       0.029298406 0.1377342 -0.09525747 0.121358156
0001a0 9c 00 17 3e 72 28 f7 3d 9c a7 8b 3e f9 85 89 3d
       0.14746326 0.12068261 0.27276313 0.067150064
0001b0 56 61 39 be 0a df 86 3d 43 50 04 3e 3d d4 57 3c
       -0.18103537 0.0658551 0.12921242 0.01317316
0001c0 e7 66 c9 bc c5 40 b6 bd b2 e6 45 bc 82 49 da 3d
       -0.0245852 -0.088990726 -0.012078928 0.10658552
0001d0 db 20 85 3e f0 92 92 bd 2f d6 bf 3e e5 41 9f bd
       0.2600163 -0.07156932 0.37468097 -0.0777624
0001e0 ef 4e d5 3d 90 9a 59 3d 3d 64 0e 3e ae ed ac bd
       0.10415446 0.053125918 0.13905425 -0.08443771
0001f0 30 27 b0 bd d9 09 2a 3e 1a d0 45 bc 08 6f 36 3d
       -0.086012244 0.16605319 -0.012073541 0.04453948
000200 c5 e8 a0 3c 4b 7a 24 bd c5 f3 09 3c 12 39 8d bd
       0.019642243 -0.04015569 0.008419936 -0.06895651
000210 9f bc 1c bd cc 37 70 3e b1 89 be 3d 7b 96 93 3d
       -0.03826582 0.23458785 0.09303606 0.07206436
000220 4b c1 43 3e 33 bd c8 3d 0d ad 06 3e 7a d7 28 be
       0.19116704 0.09801712 0.13151951 -0.16488448
000230 b9 69 1f bd 29 34 45 bd 02 d7 a7 3e 91 98 d9 bc
       -0.038919184 -0.048145447 0.32781225 -0.026562007
000240 6a 5f 83 bc 3c db 09 3e 59 51 0b 3d 05 77 bf 3d
       -0.016036708 0.13462538 0.034013126 0.09348873
000250 fc ea 7f 3d 0b 28 e2 bd ce b5 ba 3d da 47 58 be
       0.062479958 -0.11042794 0.09116708 -0.21121159
000260 ba 24 bd bb c6 20 8f 3d 7d b9 c7 3d 6c f7 a7 3d
       -0.0057722004 0.06988673 0.09752176 0.08201489
000270 c0 b7 11 3e f4 a5 bb 3d 2b 55 83 3d 30 5d 92 3d
       0.14230251 0.091625124 0.06412729 0.0714668
000280 96 ba 9c 3d 0d 96 33 bb 35 8e ea 3d 47 05 93 3c
       0.07652776 -0.002740267 0.11452905 0.017946852
000290 58 36 ee bd ef 82 2b bc 03 de 9b 3d 65 de 88 bd
       -0.11631459 -0.010468229 0.07610705 -0.066830434
0002a0 57 c9 1f bc b5 25 a8 bd 07 3a 5f 3e d6 1c 0b 3d
       -0.009752593 -0.08210317 0.2179948 0.033963047
0002b0 71 ca b9 3c 4e c2 01 3e 94 a4 26 3d 2e 8b 92 3e
       0.02267954 0.12671778 0.040684298 0.2862181
0002c0 18 18 87 3d ee 5c 7b 3e 5d 30 86 3e c5 02 82 bd
       0.065963924 0.24547169 0.26208773 -0.063481845
0002d0 89 67 f1 bd 1c 89 13 be b0 f6 c0 3d 6e 61 a0 3c
       -0.11787326 -0.14407772 0.09422052 0.019577708
0002e0 07 48 c1 3d 6c cb de bc e1 5c 33 3e 64 a1 2a 3e
       0.09437566 -0.027196608 0.17515899 0.16663128
0002f0 67 a9 fd 3c f1 aa 62 3e 14 39 50 3e f0 be a0 3a
       0.030964566 0.22135521 0.20334274 0.0012263935
000300 ec ae e9 3d 6f 10 2b 3d c1 35 4a 3d f6 1b 06 3e
       0.11410317 0.04176372 0.04936767 0.13096604
000310 a4 df 0a 3e 55 cc 77 3c ff 12 53 bd 6f 7b 46 bd
       0.13561875 0.0151244 -0.051531788 -0.04845756
000320 79 1e 58 3d b5 77 6b 3e 78 f9 ab bd 91 6a 10 bd
       0.052763436 0.22994883 -0.08397192 -0.03525788
000330 2c 6b ec 3c 1e 2d ff 3c 9f 47 c8 3d 8b 4a 42 be
       0.028859697 0.031149443 0.09779286 -0.18973748
000340 d2 e8 16 3e 45 02 14 be db 7c 7e 3d 38 83 1f 3e
       0.14737251 -0.14453991 0.06213079 0.155774
000350 a9 96 aa 3c 6f 1a 51 3e 9f aa d5 bd a2 35 cb 3d
       0.020823793 0.2042024 -0.10432934 0.09922339
000360 ad 6c 02 3e 80 75 18 3c c9 de b2 3d ea 43 1a 3e
       0.12736769 0.009305358 0.08733899 0.1506497
000370 3c 8b 1f be 8e bb d3 3d 0b 66 e4 3c d8 7b 3b bd
       -0.15580457 0.103385076 0.02788069 -0.045772403
000380 d9 6d df bd 3e 15 d7 3d 09 4f f5 3d 70 57 59 3c
       -0.10909624 0.105020985 0.119779654 0.013265476
000390 00 93 6c 3d dc e3 96 3d e9 63 5a 3d 33 12 fa 3d
       0.057757378 0.073676795 0.053317938 0.122105025
0003a0 06 d9 1b 3d 4d cb 57 3e 12 56 13 be 36 f3 17 3e
       0.038048767 0.21073647 -0.14388302 0.14838871
0003b0 24 8c 4c bc 1e 1f 0a 3e 0c 29 4c 3e 5a 92 0c 3d
       -0.012484584 0.13488433 0.19937533 0.03431926
0003c0 d6 e7 56 bd 8a 9d 2f 3e 34 a2 ac 3c 0a a2 0e bd
       -0.05246719 0.1714994 0.021073438 -0.0348225
0003d0 e8 e4 1c be c1 27 c5 3b 08 27 2d 3e 32 1c cd bd
       -0.15321696 0.006016702 0.1690942 -0.100151435
0003e0 88 98 cf 3d 86 f4 20 bc 92 c3 45 3e 18 62 88 3e
       0.10136515 -0.009823924 0.19312885 0.2663734
0003f0 43 61 b3 bd b8 5f ae bc ed 33 b4 3d 36 29 ad bd
       -0.087587856 -0.021285877 0.087989666 -0.08455126

out.weight f4 [2, 16]
000000 c1 6b 2c bd 87 ee 23 bd b8 6b 23 bd 43 17 2b bd
       -0.04209495 -0.0400224 -0.03989765 -0.04177023
000010 9a ad 3d bd 4f 74 32 bd df 17 2f bd 10 78 12 bd
       -0.046308137 -0.04356795 -0.042747375 -0.03575903
000020 86 ac 26 bd 3b 80 23 bd 8f b9 22 bd 8b b4 40 bd
       -0.040691875 -0.039917212 -0.039727744 -0.04704718
000030 55 05 1c bd fe c3 1f bd f0 18 32 bd 3d 61 35 bd
       -0.038091023 -0.039005272 -0.043480814 -0.044282187
000040 e1 f2 2c bd 6d b1 2c bd 64 6d 27 bd e3 70 2a bd
       -0.042223815 -0.042161394 -0.040875807 -0.041611563
000050 b4 8d 29 bd 8e 11 2e bd 0f 35 2b bd 34 01 23 bd
       -0.041394904 -0.04249721 -0.041798647 -0.03979607
000060 8e ac 26 bd 88 31 28 bd ee d1 26 bd bf 31 2e bd
       -0.040691905 -0.04106286 -0.04072755 -0.04252791
000070 f0 a8 28 bd ae 7a 28 bd d7 bc 29 bd 0f 50 2d bd
       -0.041176736 -0.04113262 -0.041439857 -0.042312678

out.bias f4 [2]
000000 aa cc 76 3f 7c b3 75 3f
       0.9640604 0.95976996
