results/dot-ou-final_d=ballsw=8z=2det=0lat=const-sig-ntloss=exactsigma=diag/run0/saved_nets/mu_best_val_1.pth (torch, 7662 bytes, 7 tensors)

first_layer.linear.weight f4 [16, 2]
0	0xbdb953b2	-0.09049167
1	0xbdf54b02	-0.11977197
2	0xbe5a7b1b	-0.21336024
3	0xbea6d115	-0.32581392
4	0x3d29a4d2	0.04141695
5	0x3e14e01e	0.14538619
6	0xbd3b00e6	-0.045655154
7	0xbe07e77f	-0.13271903
8	0xbe2c4c93	-0.16826086
9	0x3e135e96	0.1439155
10	0x3ea71a8e	0.32637447
11	0x3d2c969f	0.04213583
12	0x3ecb4ff6	0.39709443
13	0xbe1d95e9	-0.15389217
14	0xbe4e3873	-0.20138721
15	0xbe6cb4ab	-0.23115794
16	0x3e3cb9ba	0.18430224
17	0x3ed9a9da	0.425124
18	0x3e839a5a	0.25703698
19	0xbdff234c	-0.12457904
20	0xbd02fd89	-0.03198007
21	0x3cc0f9c0	0.02355659
22	0x3e81ddc5	0.2536451
23	0x3f0cfc14	0.5507214
24	0xbd10d233	-0.03535671
25	0x3db1766d	0.08665166
26	0x3c97fa6b	0.018552026
27	0xbe61f677	-0.22066675
28	0x3e18b7c6	0.14913854
29	0x3e9fa3a9	0.3117955
30	0x3eceaa8f	0.403645
31	0x3ed3fc9d	0.41403666

hidden_layers.0.linear.weight f4 [16, 16]
0	0xbdef1264	-0.116734296
1	0xbdb18780	-0.08668423
2	0x3ddaaffb	0.10678097
3	0x3ebb4414	0.36575377
4	0x3d30ca30	0.04316157
5	0xbdec3a67	-0.11534577
6	0x3df22e6f	0.11825263
7	0xbcf56482	-0.029955152
8	0xbe1a16e7	-0.15047799
9	0x3d230c70	0.039806783
10	0xbd922a02	-0.071369186
11	0x3e0b1ed5	0.1358598
12	0x3d6d36a2	0.05791343
13	0xbbbae1be	-0.00570318
14	0xbddc4bc1	-0.107566364
15	0x3e106850	0.14102292
16	0x3d5a2d20	0.05326569
17	0x3de9d552	0.11417641
18	0xbc9ea56a	-0.019365985
19	0xbe563719	-0.20919456
20	0x3d445cc5	0.047940034
21	0x3c9cae3e	0.019126054
22	0x3e1cbc6a	0.1530625
23	0xbbb1ff8d	-0.0054320754
24	0xbd550abe	-0.052012198
25	0xbe40e4b1	-0.18837239
26	0xbdd6bc84	-0.10485175
27	0x3e0118b5	0.12607081
28	0xbda7b6ea	-0.08189185
29	0xbe608b0d	-0.21928044
30	0xbebb4b80	-0.3658104
31	0x3d829187	0.063754134
32	0xbb03abab	-0.0020091336
33	0xbec46587	-0.3835871
34	0x3e7a2d96	0.24431452
35	0xbda7e9be	-0.0819888
36	0xbddc64c9	-0.10761411
37	0x3e2c92f1	0.16852929
38	0x3e95c3bc	0.29250896
39	0xbe0fa636	-0.14028248
40	0x3e6f8375	0.2338999
41	0x3dc0594b	0.09392031
42	0x3bc01cd3	0.005862811
43	0x3e26e7f3	0.16299419
44	0x3cb58c27	0.022161556
45	0xbddf40b4	-0.10901013
46	0x3ddd1598	0.10795134
47	0x3e841d02	0.2580338
48	0x3defe798	0.11714095
49	0xbe0471e5	-0.12934072
50	0x3da39988	0.07988268
51	0x3d267c0d	0.040645648
52	0x3d322b61	0.0434984
53	0x3e136c7e	0.14396855
54	0x3d89d2ca	0.06729658
55	0xbd842d5a	-0.064539626
56	0x3e238438	0.15968406
57	0x3ccc9c89	0.024976986
58	0xbc8844ff	-0.016634462
59	0x3e81e14e	0.25367206
60	0x3e4f937b	0.20271103
61	0xbda2adfb	-0.079433404
62	0x3e41134c	0.18855017
63	0x3ec6a295	0.38795915
64	0xbe0786c8	-0.13235009
65	0x3cb97411	0.022638353
66	0x3b6b0834	0.0035863044
67	0x3d2f9c06	0.042873405
68	0xbd100e8a	-0.035170116
69	0x3e130eeb	0.1436116
70	0x3d6dc6b4	0.058050826
71	0xbdbdf25d	-0.09274743
72	0x3d6fce86	0.058546565
73	0x3d5219d9	0.05129418
74	0x3ca87825	0.020565102
75	0x3e1513b3	0.14558296
76	0xbdbe3a9a	-0.09288521
77	0x3ddd738e	0.10813056
78	0xbdce33d1	-0.10068477
79	0x3d8c35c6	0.06846194
80	0x3d5607b3	0.052253436
81	0xbe09f55d	-0.13472505
82	0x3dd925ac	0.106028885
83	0x3d0a6045	0.033783216
84	0xbe2b5600	-0.16732025
85	0x3d6c3951	0.05767185
86	0x3e8ee694	0.27910292
87	0xbe93681e	-0.28790373
88	0x3e8087c2	0.25103575
89	0x3dfd6997	0.12373655
90	0x3d8f7136	0.07004015
91	0x3cb1c755	0.021701494
92	0x3cb2cba0	0.021825612
93	0x3c94762c	0.018122755
94	0x3e508581	0.20363428
95	0x3eabdca5	0.33566776
96	0xbd432b76	-0.04764887
97	0xbc5335a8	-0.012891211
98	0x3c8ea4b3	0.01741252
99	0xbd8c6d07	-0.06856733
100	0x3ca6a1fe	0.020340916
101	0xbd7bad05	-0.0614443
102	0x3e535bc0	0.20640469
103	0xbd13667c	-0.03598641
104	0xbd688060	-0.056763053
105	0xbac181ce	-0.0014763416
106	0xbe176fac	-0.14788693
107	0x3d0a6959	0.033791874
108	0xbe80afa3	-0.25134
109	0xbe10bbf6	-0.14134201
110	0xbdc88a78	-0.09792036
111	0xbd6e21e9	-0.058137808
112	0xbe1190f2	-0.14215448
113	0x3bd51d9d	0.0065037743
114	0x3c256e55	0.010097106
115	0x3d62bb75	0.055354554
116	0xbe0a1a2b	-0.13486545
117	0x3cf5ebac	0.030019604
118	0x3d8cf608	0.06882864
119	0xbdf8cfd2	-0.121490136
120	0x3e8557ec	0.26043642
121	0xbcf2ca83	-0.02963758
122	0x3e0c7b9a	0.13719025
123	0x3e152810	0.14566064
124	0xbc92a572	-0.017901156
125	0x3e7bad41	0.2457781
126	0x3c0888b9	0.0083333785
127	0x3e515dbe	0.20445916
128	0x3bd94865	0.0066309446
129	0x3e03b5a8	0.12862265
130	0x3cb2ade9	0.021811442
131	0x3df3392a	0.118761376
132	0x3e30bde0	0.17259932
133	0x3d2e5a3c	0.042566523
134	0x3d905292	0.07046999
135	0xbe020a67	-0.1269928
136	0x3e713dec	0.23558778
137	0x3e123133	0.1427658
138	0xbde75228	-0.11294967
139	0xbdfe56cd	-0.124189
140	0x3dd9c04b	0.1063238
141	0xbd33755e	-0.043813102
142	0x3dc0e9bb	0.094195805
143	0xbce68d49	-0.028143542
144	0xbd796d42	-0.060895212
145	0xbd6d9636	-0.05800458
146	0xbd91f18a	-0.07126148
147	0xbdd56dd6	-0.1042134
148	0xbe51833a	-0.20460215
149	0x3df6e37e	0.120551094
150	0x3e9a54bf	0.3014278
151	0x3d1b3051	0.037887875
152	0xbbd9c2f6	-0.0066455556
153	0xbd6f48b9	-0.058418963
154	0xbdeb688c	-0.1149455
155	0xbd5f5e8a	-0.05453352
156	0xbe5b5021	-0.21417286
157	0x3db61a7e	0.08891772
158	0x3e7d1156	0.24713644
159	0x3e033fc6	0.12817296
160	0xbe2e85ba	-0.170432
161	0xbe083ae2	-0.13303712
162	0xbc94e74f	-0.018176703
163	0x3df6f473	0.12058344
164	0x3c86cd69	0.01645537
165	0xbd902e68	-0.07040101
166	0xbe80fa35	-0.25190893
167	0xbdf4dac9	-0.119557925
168	0x3c489601	0.012242795
169	0xbdef2cb4	-0.11678448
170	0x3d5bb5cd	0.053640176
171	0x3d467cb8	0.048458785
172	0x3d319f6a	0.04336492
173	0x3aed2282	0.0018091949
174	0xbdedb0c3	-0.1160598
175	0xbcdc5e21	-0.026900353
176	0xbd875b04	-0.06609157
177	0xbe18c332	-0.14918211
178	0xbde9355f	-0.11387133
179	0x3e9abf84	0.3022424
180	0xbb9e146a	-0.004824211
181	0x3ec36840	0.38165474
182	0x3e370266	0.17872009
183	0xbda24611	-0.0792352
184	0x3b6c08d9	0.0036016016
185	0x3dbd5773	0.09245195
186	0x3e373924	0.17892891
187	0x3e4b692a	0.19864336
188	0x3e0789bb	0.13236134
189	0x3c99c1f5	0.018769244
190	0x3e1621bc	0.14661306
191	0x3e8a29f0	0.2698512
192	0xbda3de61	-0.080014
193	0x3d1d643f	0.03842568
194	0xbe324929	-0.17410721
195	0x3dbd88a2	0.09254576
196	0xbed3a9e7	-0.41340563
197	0xbe370f48	-0.17876923
198	0xbc9da21a	-0.019242335
199	0x3d020f29	0.03175274
200	0xbda54512	-0.08069815
201	0xbe7c4c6a	-0.24638525
202	0xbbe765cc	-0.0070616957
203	0x3da0bb5f	0.07848238
204	0xbb1af84e	-0.0023646536
205	0x3b1544d5	0.0022776623
206	0xbe07434f	-0.1320927
207	0x3e00476c	0.12527245
208	0x3bdc1d24	0.006717341
209	0xbdb77d71	-0.08959473
210	0xbc8db8a4	-0.017299958
211	0xbcc8a201	-0.024491312
212	0xbe4d0046	-0.20019636
213	0xbd3c2305	-0.045931835
214	0x3e2c1a42	0.16806892
215	0x3e5eae8e	0.21746275
216	0xbdbfaf6b	-0.0935963
217	0x3e22d1f0	0.15900397
218	0xbe8c39d9	-0.27387884
219	0xbb2a56f8	-0.0025991779
220	0xbe294ff2	-0.16534403
221	0x3d98a4bd	0.07453296
222	0xbe4efae4	-0.20212895
223	0x3c9db1ac	0.01924976
224	0x3bb8c44d	0.0056386353
225	0xbe091195	-0.13385613
226	0x3eaa15e7	0.33219835
227	0xbde2136c	-0.11038861
228	0xbd3ff733	-0.046866607
229	0xbd55e692	-0.052221842
230	0xbe173343	-0.14765649
231	0x3daea34e	0.08527242
232	0x3bcc1e78	0.006229218
233	0x3e8c2f67	0.27379915
234	0xbbef8cc6	-0.0073104827
235	0xbd011159	-0.031510685
236	0xbd327f69	-0.04357854
237	0x3df82a9a	0.121175006
238	0x3dacf8a2	0.084458604
239	0x3e017f9a	0.12646332
240	0x3cd445e5	0.025912235
241	0x3e2aa092	0.16662815
242	0xbcd056f7	-0.025432093
243	0xbc19b7b5	-0.009382178
244	0xbbd1eea2	-0.006406621
245	0x3e57379d	0.21017309
246	0xbbde42fa	-0.0067828866
247	0xbd938741	-0.07203532
248	0xbd220dc6	-0.039563917
249	0x3dc29498	0.09500998
250	0xbeaa615d	-0.33277407
251	0xbcd27d90	-0.025694638
252	0xbd8b6795	-0.06806866
253	0xbd3be58f	-0.04587322
254	0xbe0e1e28	-0.13878691
255	0x3e1d1a18	0.15341985

hidden_layers.1.linear.weight f4 [16, 16]
0	0x3d77600b	0.060394328
1	0x3e374b90	0.17899919
2	0xbe26a42f	-0.16273569
3	0xbb67452c	-0.0035289032
4	0xbcced31f	-0.025247155
5	0x3d4b9a2b	0.049707573
6	0xbdfdb4d1	-0.123880036
7	0x3e434023	0.19067435
8	0x3e81e0a1	0.2536669
9	0xbc48baf6	-0.012251606
10	0xbe55e1a5	-0.20886858
11	0x3d74663b	0.059667807
12	0x3db64e49	0.089016505
13	0xbd83edc4	-0.064418346
14	0xbdd0f70f	-0.10203373
15	0xbde9c16b	-0.11413845
16	0x3d233dc5	0.03985383
17	0x3e892026	0.2678234
18	0x3df09346	0.1174684
19	0x3e68d94e	0.22739145
20	0x3df25411	0.11832441
21	0x3dc80c9d	0.09768031
22	0x3ddfd6d2	0.109296456
23	0x3e6c48c9	0.2307464
24	0x3ce0f5f0	0.027461022
25	0x3d9ff50a	0.07810409
26	0xbe1e471b	-0.15456812
27	0x3e84ff74	0.25976145
28	0x3e0e991a	0.13925591
29	0x3cc89952	0.024487171
30	0x3dd1cca6	0.10244112
31	0x3e00f54d	0.12593575
32	0xbd0a0c0b	-0.03370289
33	0x3c030632	0.007997083
34	0x3e733f7d	0.23754688
35	0x3e19f1db	0.15033667
36	0xbdcff278	-0.10153669
37	0x3e5ec4a9	0.21754707
38	0x3d13b182	0.036057957
39	0x3e03ef39	0.12884225
40	0x3d6dd1f3	0.05806155
41	0x3ddf67d2	0.10908474
42	0x3e03d415	0.12873872
43	0x3e5ad52c	0.21370381
44	0xbde70b24	-0.11281422
45	0xbe10f8fe	-0.14157483
46	0x3dd9ba6a	0.10631259
47	0x3e0310f4	0.12799436
48	0x3df58950	0.11989081
49	0x3e8ee393	0.27908
50	0xbdc76bdf	-0.09737372
51	0xbe2728e3	-0.16324191
52	0xbce22695	-0.027606288
53	0x3cc49a08	0.02399923
54	0xbc2c3070	-0.010509595
55	0x3dde5e8f	0.10857879
56	0x3e0da466	0.13832244
57	0xbe29af23	-0.16570716
58	0x3dd58a13	0.10426726
59	0x3da88ac3	0.08229592
60	0xbe0849fa	-0.1330947
61	0xbe0ed6f7	-0.1394919
62	0xbe70f5e8	-0.23531306
63	0x3dc1c5e1	0.094615705
64	0x3ddadc39	0.106865354
65	0x3d9751b5	0.07388631
66	0x3e504d08	0.20341885
67	0x3eb0f804	0.3456422
68	0x3dcfdf48	0.101500094
69	0x3dd9538f	0.10611641
70	0xbdb7cfa9	-0.08975155
71	0xbe3b2da2	-0.18279126
72	0x3cc56817	0.024097485
73	0xbde6ccb3	-0.11269512
74	0x3dc113cf	0.09427606
75	0xbceffc34	-0.029295065
76	0xbdfb5567	-0.122721486
77	0x3dd72aec	0.105062336
78	0xbc09e985	-0.008417492
79	0x3d352eff	0.044234272
80	0x3d9a78cc	0.075425714
81	0x3d89e6c9	0.06733472
82	0xbdaebde7	-0.08532315
83	0x3de27ef7	0.11059373
84	0x3dc94d37	0.09829181
85	0x3dc4733f	0.09592294
86	0xbd9e3266	-0.077244565
87	0x3e106037	0.14099203
88	0x3e4a537b	0.19758408
89	0xbc37c883	-0.011217239
90	0x3e89eed4	0.26940024
91	0xbd4043dd	-0.04693972
92	0x3d4500e1	0.04809654
93	0xbdea69fe	-0.11445998
94	0xbe1f3134	-0.15546113
95	0x3e0e28d5	0.13882764
96	0x3ec031d7	0.37538025
97	0xbe003d79	-0.1252345
98	0x3e942995	0.28937975
99	0x3da87b66	0.082266614
100	0x3dffe026	0.12493925
101	0xbd9f0e5d	-0.077664115
102	0xbe31821b	-0.17334788
103	0xbdbae38c	-0.09125432
104	0xbe049521	-0.12947513
105	0x3e3b3806	0.1828309
106	0x3df1139e	0.1177132
107	0x3dbcf4f2	0.09226407
108	0x3d90fdb4	0.0707964
109	0xbcc6c1ce	-0.024262335
110	0xbb308591	-0.002693508
111	0x3d14cb53	0.036326718
112	0xbd59a694	-0.053137377
113	0xbdace3c8	-0.08441883
114	0x3e8763e2	0.26443392
115	0x3d44af80	0.048018932
116	0x3e3321af	0.17493318
117	0x3e9cd871	0.30633882
118	0x3bc303d3	0.0059513836
119	0x3de295a8	0.11063701
120	0x3e12fb27	0.1435362
121	0x3e687076	0.2269915
122	0x3d8048b4	0.06263867
123	0xbd9999ac	-0.07500014
124	0xbdead841	-0.114670284
125	0xbd211a2a	-0.039331593
126	0x3d6b454d	0.057439137
127	0xbe3116c6	-0.17293844
128	0xbd1d775a	-0.0384439
129	0xbe6c48a8	-0.23074591
130	0xbe542643	-0.2071772
131	0x3d821877	0.063523225
132	0x3e24f48f	0.16108917
133	0xbe6d51ef	-0.23175786
134	0xbdcfdac0	-0.10149145
135	0xbe92d848	-0.28680634
136	0xbe319671	-0.17342545
137	0xbe847e55	-0.25877634
138	0x3db75c03	0.08953097
139	0xbd66abd1	-0.0563162
140	0xbbaa7c80	-0.00520283
141	0x3c3f216a	0.011665681
142	0xbd6541ac	-0.055970833
143	0xbca2e3de	-0.019884046
144	0xbd83d098	-0.064362705
145	0xbdfd67eb	-0.123733364
146	0x3e0cbd51	0.13744093
147	0x3ddddb67	0.10832863
148	0x3e0b59d2	0.13608482
149	0x3d29c538	0.041447848
150	0x3e8ad2c9	0.2711394
151	0x3d183e6e	0.037168913
152	0x3daaa0f2	0.08331479
153	0xbcbbd732	-0.022929762
154	0xbd5631f2	-0.052293725
155	0xbe7f51eb	-0.24933593
156	0xbda7f9f8	-0.08201975
157	0x3c6864a3	0.01418415
158	0xbe51ac53	-0.20475893
159	0xbd256077	-0.0403752
160	0x38bb5e84	8.93446e-05
161	0xbb6db24b	-0.00362696
162	0x3c6f8482	0.014618995
163	0xbb8b3c1d	-0.0042491094
164	0x3cf574b0	0.029962867
165	0x3e4f44da	0.20241109
166	0xbd12ba43	-0.035822164
167	0xbe1e9060	-0.15484762
168	0xbd86aad8	-0.065755546
169	0x3d1251be	0.035722487
170	0xbd20fbb2	-0.039302535
171	0xbd30f822	-0.043205388
172	0x3dd1ef54	0.10250726
173	0xbd2011e9	-0.03907958
174	0x3dab2e28	0.08358413
175	0xbd764c44	-0.060131326
176	0xbe8eeb24	-0.27913773
177	0x3d1e6459	0.038669918
178	0x3df5a958	0.119951904
179	0xbe11986f	-0.14218305
180	0xbd51d0eb	-0.05122463
181	0xbe3eecc7	-0.18645011
182	0xbe4a21f4	-0.19739515
183	0xbd8589ea	-0.06520446
184	0x3ce97aba	0.028500903
185	0x3bd8258f	0.006596274
186	0x3e1654a0	0.1468072
187	0x3e67f529	0.22652115
188	0x3e666865	0.22500761
189	0xbde92a70	-0.113850474
190	0x3d82fc35	0.06395761
191	0x3d388d77	0.045056786
192	0xbb2600d3	-0.002533008
193	0x3c8462d8	0.016160414
194	0x3e39f180	0.18158531
195	0xbc65198e	-0.0139831435
196	0xbde4e421	-0.11176325
197	0xbcc994ae	-0.024607029
198	0x3e0a09a1	0.13480236
199	0xbd936138	-0.071962774
200	0x3e2088cc	0.15677184
201	0x3e3a72b9	0.18207826
202	0x3c6efc3c	0.014586505
203	0x3e430f13	0.19048719
204	0xbd6ce62f	-0.057836708
205	0xbd5fe99b	-0.054666143
206	0xbcce69fb	-0.02519702
207	0x3e3bbcae	0.18333694
208	0xbc86b34a	-0.016442914
209	0x3dbd32a1	0.09238172
210	0x3d6a2b42	0.05717016
211	0xbb37d9c9	-0.0028053394
212	0xbcbe6520	-0.02324158
213	0xbdde024f	-0.10840284
214	0xbde0a748	-0.10969406
215	0x3e33a4f3	0.17543392
216	0x3d8e6d4c	0.069544405
217	0xbc41b640	-0.011823237
218	0x3dfdc04e	0.12390195
219	0xbdd6a252	-0.10480179
220	0xbdab348b	-0.08359631
221	0xbe35d387	-0.17756473
222	0xbcad7932	-0.021175954
223	0x3c62c496	0.013840815
224	0xbbfa68d5	-0.0076418915
225	0x3da843a7	0.08216029
226	0x3e84c9f0	0.25935316
227	0x3e565615	0.20931275
228	0x3de88618	0.11353701
229	0x3ea0b054	0.31384528
230	0x3e4867f5	0.19570906
231	0x3d130e1f	0.03590214
232	0x3da8d3d7	0.0824353
233	0x3d009e04	0.031400695
234	0xbc6b364f	-0.01435621
235	0x3e960829	0.293031
236	0x3c5e3318	0.013561986
237	0xbca81320	-0.020516932
238	0xbd005299	-0.03132877
239	0x3d000635	0.03125592
240	0x3bec8751	0.0072182794
241	0x3b9ee905	0.0048495554
242	0x3e8c2212	0.27369744
243	0x3d2867c2	0.041114576
244	0x3b052d9a	0.002032137
245	0x3e0d3774	0.13790685
246	0xbd32ebe3	-0.04368199
247	0x3e3fa459	0.18715037
248	0xbdefc1d5	-0.117068924
249	0x3e17dd16	0.14830431
250	0xbe03532b	-0.12824695
251	0x3de6e1cd	0.11273537
252	0x3e03cc4d	0.12870903
253	0xbe79679a	-0.24355927
254	0xbe08620f	-0.13318656
255	0x3e4341ef	0.1906812

hidden_layers.2.linear.weight f4 [16, 16]
0	0x3cdd0082	0.026977781
1	0x3ebf4ae9	0.3736184
2	0xbd8d833d	-0.06909797
3	0x3e1f69af	0.15567659
4	0xbbcce46b	-0.0062528155
5	0xbe80556f	-0.2506518
6	0x3def3129	0.116792984
7	0xbd65663c	-0.0560057
8	0xb9aaa5f1	-0.00032548563
9	0xbe08d7e3	-0.13363604
10	0x3ba3d941	0.005000264
11	0x3d7c6b6f	0.061625894
12	0x3db865c5	0.09003786
13	0x3d4794ac	0.04872577
14	0x3e76d143	0.24103265
15	0xbe1bcd25	-0.15214975
16	0x3d02647c	0.03183411
17	0x3e01e893	0.12686376
18	0x3e779fd7	0.24182068
19	0xbd3b3fa8	-0.045715004
20	0x3e0064bd	0.12538429
21	0x3dfbae8e	0.12289153
22	0x3d7972fd	0.060900677
23	0x3e70ea02	0.23526767
24	0xbdaf87d9	-0.08570833
25	0xbd7086f0	-0.058722436
26	0x3e1a14aa	0.15046945
27	0xbdad08b5	-0.08448926
28	0x3d909e39	0.070614286
29	0xbcf1af25	-0.02950246
30	0x3d91d6f5	0.07121078
31	0x3e215bf6	0.15757737
32	0x3dcaa46e	0.09894644
33	0x3dc67f0b	0.096922
34	0x3e9751c5	0.29554573
35	0x3e6d4009	0.23168959
36	0x3c1d33dc	0.009594884
37	0xbd4e6c31	-0.050396148
38	0xbe05ea71	-0.13077714
39	0xbd9d4567	-0.07679253
40	0x3d9d70ae	0.076875076
41	0x3da53e21	0.08068491
42	0xbe017000	-0.12640381
43	0xbe3c52ee	-0.1839101
44	0xbe3e59a0	-0.18588877
45	0x3e914238	0.28370833
46	0xbdf0070b	-0.11720093
47	0x3b066dd8	0.002051225
48	0xbdd810d4	-0.10550085
49	0x3e3db5ee	0.18526432
50	0xbe431d38	-0.19054115
51	0x3d6eb675	0.058279473
52	0xbe148986	-0.14505586
53	0x3e1343f5	0.14381392
54	0xbe1951ea	-0.14972654
55	0x3e48fa16	0.1962665
56	0xbdde73a0	-0.108618975
57	0xbe934b4d	-0.28768387
58	0xbdff5056	-0.12466495
59	0x3c950c16	0.01819424
60	0x3da07382	0.07834531
61	0xbd1bbb74	-0.038020566
62	0xbe2bceec	-0.16778153
63	0xbd3d6611	-0.046239916
64	0xbc8ca451	-0.017168196
65	0x3ccba98a	0.024861116
66	0xbb5b2fb2	-0.0033445177
67	0xbd1c19e2	-0.03811062
68	0x3da50787	0.08058076
69	0x3d79f342	0.061023004
70	0xbd9289ed	-0.071552135
71	0x3d8f6f6d	0.07003675
72	0xbceaf02d	-0.028678978
73	0x3cb7c7e8	0.02243419
74	0x3e72d88c	0.23715419
75	0x3db2c23d	0.08728454
76	0x3ce682c7	0.028138531
77	0xbda07360	-0.07834506
78	0xbe31a853	-0.17349367
79	0xbdd52879	-0.1040811
80	0x3e20562f	0.15657876
81	0x3e7d2804	0.24722296
82	0x3e549ade	0.20762202
83	0xbd6dad6d	-0.05802672
84	0x3dbbcd3e	0.09170006
85	0xbb1c9e7d	-0.0023898177
86	0x3e4145ae	0.18874237
87	0x3ddc45d4	0.10755506
88	0xbd30b84d	-0.043144513
89	0x3e23722b	0.1596152
90	0x3cb4b251	0.022057684
91	0xbb7f4084	-0.0038948366
92	0xbcbc6459	-0.022997068
93	0x3d8d0f70	0.0688771
94	0x3d87c698	0.066296756
95	0x3dc53949	0.09630067
96	0x3e64b83a	0.22335902
97	0xbdac8d75	-0.08425418
98	0xbe9ad4db	-0.3024052
99	0xbcefea08	-0.0292864
100	0xbcfd0ffb	-0.03089141
101	0x3e34844d	0.17628594
102	0x3eb4124f	0.35170218
103	0x3e50dea7	0.20397435
104	0xbcd16c3c	-0.025564305
105	0xbea05f53	-0.31322727
106	0x3e29f7c2	0.16598418
107	0xbd18b7bd	-0.0372846
108	0xbe08a385	-0.13343628
109	0xbd24b76a	-0.04021398
110	0xbe064455	-0.13112004
111	0x3e22bbe0	0.15891981
112	0x3e241ff2	0.16027811
113	0xbe208b43	-0.15678124
114	0x3e315798	0.1731857
115	0x3dac6393	0.0841743
116	0xbdd29cd5	-0.102838196
117	0xbe9950d4	-0.2994448
118	0xbd274efe	-0.040846817
119	0x3da2b679	0.0794496
120	0xbd5ee92a	-0.05442158
121	0xbd39afb2	-0.04533357
122	0xbdbda290	-0.09259522
123	0xbc20e1c9	-0.009819456
124	0x3c46bf75	0.012130608
125	0xbd2f2dbf	-0.042768236
126	0xbdc8a87e	-0.09797762
127	0xbd37fa97	-0.044916715
128	0xbe076ae5	-0.13224371
129	0x3dc42021	0.095764406
130	0xbd6413c3	-0.05568291
131	0xbd45a666	-0.048254393
132	0xbc22d2f3	-0.0099379895
133	0xbd64d7da	-0.055869915
134	0x3c1c4897	0.009538791
135	0x3d4692e5	0.048479933
136	0x37a1d7d6	1.9293202e-05
137	0xbd1c1962	-0.038110144
138	0xbcc84b56	-0.024449985
139	0x3d9b8de0	0.0759542
140	0x3e483663	0.19551997
141	0x3d6a1ab8	0.057154387
142	0x3e565ae1	0.20933105
143	0x3e0fee98	0.1405586
144	0x3cb4064d	0.02197566
145	0xbc1b6b01	-0.009485961
146	0x3d8efa55	0.06981341
147	0x3dddc306	0.108282134
148	0xbc98b533	-0.01864109
149	0xbd9d7ee5	-0.07690219
150	0x3d168a14	0.036752775
151	0x3e01df9d	0.12682958
152	0xbd6429dc	-0.055703983
153	0x3e232463	0.15931849
154	0xbd0c3eeb	-0.03423969
155	0xbdba48d7	-0.09095924
156	0xbcf21676	-0.029551726
157	0x3ddae72d	0.106886245
158	0x3d8ee168	0.069765866
159	0xbe535edb	-0.20641653
160	0x3e14169c	0.1446175
161	0x3e2f1082	0.17096141
162	0x3d1ef5ae	0.038808517
163	0x3b894fb2	0.0041904086
164	0xbe2415b3	-0.16023903
165	0xbbee2a37	-0.007268216
166	0x3d5cb30b	0.053881686
167	0x3d5697f6	0.052391015
168	0xbe486140	-0.19568348
169	0x3e2bb029	0.16766419
170	0x3dabb85b	0.083847724
171	0xbdc9e030	-0.098572135
172	0xbde82561	-0.113352545
173	0x3ed12e1a	0.40855485
174	0x3d8379ee	0.064197406
175	0xbcd7fa84	-0.026364572
176	0xbbac6244	-0.0052607376
177	0xbda54e17	-0.08071535
178	0x3cad3bd9	0.021146702
179	0x3cad825a	0.02118032
180	0xbdd176aa	-0.102277115
181	0xbd2c609b	-0.042084318
182	0x3db05365	0.08609656
183	0xbe227f78	-0.15868938
184	0x3e8d5422	0.2760325
185	0x3e34fd40	0.17674732
186	0x3d06a8eb	0.032875936
187	0xbe0a9a3a	-0.13535395
188	0xbd870159	-0.06592054
189	0x3e1294c7	0.14314567
190	0xbe2ab542	-0.16670707
191	0x3cd3f25b	0.0258724
192	0x3d1f3e30	0.038877666
193	0x3e140f24	0.144589
194	0x3d5f82df	0.054568168
195	0xbd9e011d	-0.07715056
196	0x3dd45386	0.10367493
197	0x3e416eb1	0.18889882
198	0x3e5d2ee6	0.21599922
199	0xbcea6614	-0.028613128
200	0xbdb54c3f	-0.088524334
201	0xbdcef0a7	-0.101044945
202	0xbdc52a7f	-0.09627246
203	0x3e10d8a7	0.14145146
204	0x3e4f25ca	0.20229259
205	0xbdb76a79	-0.08955855
206	0x3e806cc4	0.25082982
207	0xbcdf85fb	-0.027285567
208	0xbe57004d	-0.20996208
209	0xbe4f3f0d	-0.20238896
210	0x3d42629a	0.047457315
211	0x3e26669e	0.16250083
212	0x3e51bc99	0.204821
213	0xbe0143cf	-0.12623523
214	0x3dcf5173	0.10122957
215	0xbea3fe51	-0.32029966
216	0xbe09d6a7	-0.1346079
217	0x3cc76bfd	0.024343485
218	0xbeb5d2c7	-0.35512373
219	0x3e4d5cbd	0.20054908
220	0xbd29ccf1	-0.041455213
221	0xbda3534a	-0.079748705
222	0x3da97b9f	0.08275532
223	0xbea1551b	-0.31510243
224	0x3de2371f	0.1104567
225	0xbd4124ec	-0.047154352
226	0xbd08fa1b	-0.033441644
227	0x3e5dc646	0.21657667
228	0x3e1ad64c	0.1512081
229	0xbe352f85	-0.17693909
230	0xbe0436ca	-0.12911525
231	0xbe235184	-0.15949064
232	0xbe1bc295	-0.15210946
233	0xbe23ce40	-0.15996647
234	0x3caf3fda	0.021392751
235	0x3e031ea8	0.12804663
236	0x3cc589e6	0.024113607
237	0x3d6c5d83	0.057706367
238	0x3d1baf41	0.038008932
239	0x3e164cbb	0.14677708
240	0xbe33492c	-0.17508382
241	0xbcacbecd	-0.021087075
242	0xbe41391f	-0.18869446
243	0xbdb93c2e	-0.090446815
244	0xbdb57ba3	-0.088614725
245	0x3e8222ee	0.25417274
246	0x3da80c4a	0.08205469
247	0xbd948616	-0.07252137
248	0x3d241a1d	0.040063966
249	0x3eb23cbb	0.3481196
250	0xbc557eb0	-0.013030693
251	0x3dde5e32	0.1085781
252	0x3d697c6b	0.05700342
253	0x3e0a3028	0.13494933
254	0xbd99414c	-0.074831575
255	0x3ba2cbd3	0.0049681454

hidden_layers.3.linear.weight f4 [16, 16]
0	0x3dbd06f1	0.092298396
1	0x3e883d28	0.2660916
2	0xbd07f1f4	-0.03318973
3	0xbdd793e6	-0.10526256
4	0xbc59d03c	-0.013294276
5	0x3e7b324b	0.24530904
6	0xbda22d2e	-0.079187736
7	0x3db50023	0.08837917
8	0x3d7c592b	0.061608475
9	0x3e3513bf	0.17683314
10	0x3d8d7ca9	0.06908543
11	0x3c88001e	0.016601618
12	0xbbe25004	-0.0069065113
13	0x3e47fc96	0.19529948
14	0x3d86e5d0	0.06586802
15	0xbe4b5aba	-0.19858828
16	0x3e07197f	0.1319332
17	0x3e747881	0.23874094
18	0xbc8f9db2	-0.01753125
19	0x3b34af04	0.0027570138
20	0x3e0bd4b1	0.13655354
21	0x3cd4b979	0.025967347
22	0x3caeac7e	0.021322485
23	0xbe2a0b1a	-0.16605797
24	0xbd05559c	-0.032552347
25	0x3d6ff383	0.05858184
26	0x3c933b04	0.017972477
27	0xbd282e46	-0.041059755
28	0x3c0edc8c	0.008719575
29	0x3caf71e0	0.021416605
30	0xbe5d390b	-0.21603791
31	0x3e16861f	0.146996
32	0xbd222c68	-0.03959313
33	0x3d8553c2	0.06510116
34	0xbd004180	-0.031312466
35	0x3d1deb76	0.03855463
36	0xbd72685b	-0.059181552
37	0x3e6fc687	0.23415576
38	0xbe60d9e1	-0.21958114
39	0x3cba9049	0.022773879
40	0x3db2f294	0.08737674
41	0xbddc7311	-0.10764135
42	0xbd53d2a7	-0.051714566
43	0x3df7f178	0.121066034
44	0x3ca8d23a	0.020608056
45	0xbe52166c	-0.20516366
46	0xbdf71f11	-0.12066472
47	0x3d12e618	0.035863966
48	0x3e78da7d	0.24302097
49	0x3e917542	0.28409773
50	0x3e0f3a6b	0.13987128
51	0x3e69bce1	0.22825958
52	0xbd36ed9d	-0.0446602
53	0x3da32291	0.079655774
54	0xbc61e0e1	-0.013786525
55	0x3cd0cf52	0.025489483
56	0x3e69f6c4	0.2284804
57	0x3e821f6f	0.25414607
58	0xbde82e39	-0.11336941
59	0x3ddd6860	0.108109236
60	0xbe53fb27	-0.20701276
61	0xbd55e97b	-0.052224617
62	0xbda543b9	-0.08069558
63	0x3d88af56	0.06674068
64	0x3d084b0d	0.0332747
65	0x3e47153f	0.19441698
66	0xbc208d92	-0.009799378
67	0xbe3a2df9	-0.181816
68	0x3d560b70	0.052257
69	0x3d99b988	0.075060904
70	0x3c046131	0.008079813
71	0xbd70c2b1	-0.058779422
72	0xbd3567e6	-0.04428854
73	0x3c0087f6	0.007844916
74	0x3c11e212	0.008903997
75	0x3de469d8	0.111530006
76	0x3e8b8b76	0.27254838
77	0xbdd23831	-0.10264624
78	0xbdcc45b1	-0.0997423
79	0x3e44503f	0.19171236
80	0xbd28f491	-0.04124886
81	0x3dde3f61	0.10851932
82	0x3cf32479	0.029680477
83	0x3e2273cd	0.15864487
84	0x3d60f648	0.054922372
85	0xbd96c3c7	-0.0736156
86	0xbdf0b446	-0.117531344
87	0xbd23a90d	-0.03995614
88	0xbd80721a	-0.06271763
89	0x3e0b2c78	0.13591182
90	0x3d9f4e80	0.077786446
91	0x3d8446db	0.06458827
92	0xbddfe23e	-0.10931824
93	0x3e5c0fac	0.21490353
94	0xbdfba91d	-0.12288115
95	0xbe1b3f72	-0.15160921
96	0xbc59cf73	-0.013294089
97	0x3e28898a	0.16458717
98	0xbdcc9072	-0.09988488
99	0x3e0988e1	0.13431121
100	0x3e4e2398	0.20130765
101	0x3e871b9b	0.2638825
102	0x3c7d034d	0.0154426815
103	0x3e87646c	0.26443803
104	0x3d83aabb	0.06429049
105	0xbe2fb449	-0.17158617
106	0xbe5b2c9c	-0.21403736
107	0xbdf4feb8	-0.11962646
108	0x3e634a86	0.22196397
109	0xbe2fd4aa	-0.17170969
110	0x3e478c4d	0.19487114
111	0x3e4315d8	0.19051301
112	0x3c7f3983	0.015577677
113	0x3d87958b	0.0662032
114	0xbddcac9f	-0.10775112
115	0x3e33d082	0.17560008
116	0x3e272694	0.1632331
117	0x3d21e80e	0.039527945
118	0xbd3ee0be	-0.04660105
119	0xbd866442	-0.065620914
120	0x3e88aae6	0.26692885
121	0xbe03fbe1	-0.12889053
122	0x3e9edc09	0.31027249
123	0x3e07366b	0.13204353
124	0xbb4ae250	-0.0030957647
125	0x3da9807a	0.08276458
126	0x3c106457	0.008812985
127	0xbe15d612	-0.14632443
128	0x3d9d50da	0.07681437
129	0x3d3b4a45	0.045725126
130	0x3dada6b1	0.084790595
131	0x3e090b94	0.13383323
132	0x3e57bc42	0.21067908
133	0x3b0364da	0.0020049126
134	0x3d53eaa0	0.051737428
135	0xbdce62d7	-0.10077446
136	0x3d56b1a6	0.052415513
137	0xbd8057e6	-0.06266765
138	0xbdc2d0c7	-0.09512477
139	0xba875135	-0.0010323884
140	0xbddb05e3	-0.10694482
141	0x3dba1f67	0.09088021
142	0x3dd71924	0.10502842
143	0xbe2e1663	-0.17000727
144	0x3e29e69d	0.16591878
145	0x3e46c374	0.19410497
146	0xbc3c3b06	-0.011488682
147	0x3b45983d	0.0030150556
148	0xbe024adf	-0.12723874
149	0xbc7701af	-0.015076085
150	0xbd8799d9	-0.06621141
151	0x3cbe219b	0.023209384
152	0x3c7e8659	0.015534961
153	0x3d1323ec	0.03592293
154	0x3d784106	0.060608886
155	0x3cbe9303	0.02326346
156	0x3e924e89	0.28575543
157	0x3d9a3fdf	0.07531714
158	0x3ddf4e8d	0.10903654
159	0x3d8e1cf6	0.069391176
160	0x3de69f90	0.11260903
161	0x3d5ada9b	0.053431135
162	0x3e8284e1	0.25492004
163	0x3d5ed33b	0.054400664
164	0xbca8dbcc	-0.02061262
165	0x3d38108f	0.044937667
166	0x3da360ec	0.07977471
167	0x3e2a1137	0.1660813
168	0x3b90b33f	0.004415899
169	0x3e1ec103	0.15503316
170	0x3e7a8d19	0.24467887
171	0xbcea8560	-0.028628051
172	0x3e261bbd	0.16221519
173	0x3e6a5b52	0.22886398
174	0x3cc6d5cb	0.024271866
175	0x3c5fa309	0.01364971
176	0xbe2cef63	-0.16888194
177	0xbc53d949	-0.012930223
178	0xbe0d9b63	-0.13828807
179	0xbd8ffa0f	-0.07030117
180	0xbda9d949	-0.08293397
181	0xbe44d86e	-0.19223186
182	0x3e03e710	0.12881112
183	0x3d6ba779	0.05753276
184	0x3d3c3937	0.045953
185	0xbd6eabe8	-0.05826941
186	0x3da379d1	0.07982219
187	0x3dadd679	0.08488173
188	0x3dedab69	0.116049595
189	0xbdefd756	-0.11710994
190	0x3e37666f	0.17910169
191	0xbde3665b	-0.11103507
192	0x3d1b12e5	0.037859816
193	0x3e1da95e	0.1539664
194	0xbd354d33	-0.044263076
195	0x3d019dbd	0.03164457
196	0xbdef700d	-0.11691294
197	0x3df67d06	0.12035565
198	0xbd098bf6	-0.033580743
199	0xb9d52adb	-0.00040658456
200	0xbd7f27ed	-0.062293936
201	0x3c8f5a77	0.017499192
202	0xbd3f340b	-0.04668049
203	0x3e4823bd	0.19544883
204	0x3da65d89	0.08123309
205	0x3e1f5203	0.15558629
206	0xbd93a3bf	-0.072089665
207	0xbcf373a1	-0.029718222
208	0xbc48dcfc	-0.012259718
209	0x3cd11981	0.025524857
210	0xbd260f23	-0.04054178
211	0x3d46d02d	0.048538376
212	0x3de1744f	0.11008512
213	0xbc3572bb	-0.011074717
214	0x3d3d2c49	0.04618481
215	0xbc694276	-0.014237037
216	0xbdad9a6b	-0.084767185
217	0x3d23fc8c	0.04003577
218	0xbcd3d702	-0.02585936
219	0x3dea8db2	0.114528075
220	0x3ada88f2	0.0016672893
221	0xbd112128	-0.03543201
222	0x3d28ed39	0.04124186
223	0x3ea8f4f3	0.3299938
224	0x3e8d48e3	0.2759467
225	0x3e9bcc23	0.3042918
226	0x3e58ebc6	0.2118369
227	0xbe1ae4d0	-0.15126348
228	0xbe46e27b	-0.19422333
229	0x3e312779	0.17300214
230	0x3dfb0dbd	0.1225848
231	0xbe036d37	-0.12834631
232	0x3d291bcd	0.04128628
233	0xbc83d673	-0.016093468
234	0x3d812426	0.06305723
235	0xbd48853b	-0.048955183
236	0x3dd12c1f	0.102134936
237	0x3a542ff4	0.0008094304
238	0x3dfb5773	0.12272539
239	0x3e816d2f	0.25278613
240	0x3d4bcd8e	0.04975658
241	0xbd964cb6	-0.0733885
242	0x3e19238b	0.14954965
243	0x3d8e210b	0.06939896
244	0x3dcc6c6f	0.099816196
245	0x3dabbb95	0.08385388
246	0x3e2ad3de	0.16682383
247	0x3e0b4b72	0.13602999
248	0x3e5febaf	0.2186725
249	0x3e5f31d4	0.21796352
250	0x3c9d79b0	0.019223064
251	0xba9371e8	-0.0011249157
252	0xbc7d0048	-0.015441962
253	0x3e34d556	0.17659506
254	0x3e507c1a	0.20359841
255	0xbba234fa	-0.004950163

out.weight f4 [2, 16]
0	0xbd289555	-0.04115804
1	0xbd3847db	-0.0449904
2	0xbd35dbbf	-0.04439902
3	0xbd393b5b	-0.04522262
4	0xbd2fa341	-0.0428803
5	0xbd4c8e6e	-0.04994052
6	0xbd3244fa	-0.043522812
7	0xbd3c719f	-0.046006795
8	0xbd4a441a	-0.049381353
9	0xbd31da4c	-0.043421075
10	0xbd39abf0	-0.045329988
11	0xbd4e681d	-0.05039226
12	0xbd3a6d63	-0.045514476
13	0xbd4d666e	-0.050146513
14	0xbd2853b4	-0.04109545
15	0xbd44949b	-0.047993284
16	0xbd542004	-0.051788345
17	0xbd3bdf08	-0.045866996
18	0xbd43cdb7	-0.047803607
19	0xbd3b6aa8	-0.045756012
20	0xbd4750d9	-0.048661087
21	0xbd1b2e72	-0.03788609
22	0xbd435f29	-0.047698174
23	0xbd319ddf	-0.04336345
24	0xbd1d5ec2	-0.038420446
25	0xbd463e49	-0.048399244
26	0xbd30b063	-0.043136965
27	0xbd137f8a	-0.036010303
28	0xbd39ed65	-0.045392413
29	0xbd14f653	-0.036367726
30	0xbd52826e	-0.05139392
31	0xbd1fbe66	-0.038999937

out.bias f4 [2]
0	0x3f7407d0	0.9532442
1	0x3f761af4	0.9613488
