results/dot-ou-final_d=ballsw=8z=2det=0lat=const-sig-ntloss=exactsigma=diag/run0/saved_nets/mu_best_val_0.pth (torch, 7662 bytes, 7 tensors)

first_layer.linear.weight f4 [16, 2]
0.057248782 0.19755244 0.19482253 0.25945145 0.33730283 0.18774588 0.12328472 0.20271496
-0.17066303 -0.0055254693 0.13605134 -0.020245837 -0.03921395 0.01567273 -0.11224209 0.29608998
-0.004965502 0.353287 -0.3695864 -0.1666167 -0.2173778 -0.29162315 0.20948057 0.13205354
0.18045194 0.36918238 0.12841064 -0.17594151 0.15340531 0.001293859 0.39392063 0.19412321
00000000: b37d 6a3d 304b 4a3e 8f7f 473e d2d6 843e
00000010: f5b2 ac3e 7540 403e b37c fc3d 8394 4f3e
00000020: 4ac2 2ebe ff0e b5bb 0b51 0b3e 99da a5bc
00000030: cf9e 20bd 1964 803c 2edf e5bd 1b99 973e
00000040: a6b5 a2bb 09e2 b43e 6e3a bdbe 919d 2abe
00000050: 4998 5ebe a14f 95be 1382 563e 0b39 073e
00000060: 65c8 383e 7905 bd3e 147e 033e 032a 34be
00000070: 4816 1d3e b496 a93a f7af c93e 3cc8 463e

hidden_layers.0.linear.weight f4 [16, 16]
0.19082034 -0.012231607 0.097153485 -0.05898369 -0.14104815 -0.11373904 -0.0039460994 0.09561543
0.1925668 -0.046408635 -0.013247572 0.21486156 0.043550815 -0.026326964 0.125972 0.10564928
-0.053910073 0.028547622 -0.060753424 -0.26445216 0.19030917 -0.038625635 0.0024395348 -0.23802243
-0.18513702 0.13321525 0.042239957 -0.039277624 0.023071863 0.097948976 -0.020587677 -0.10033373
-0.081759766 -0.024933813 -0.048820794 0.10131912 0.073727205 -0.08305143 0.04363176 -0.057358634
0.05351587 -0.15305012 -0.12907894 0.11805677 -0.084756434 -0.0072560622 -0.122691706 0.09931171
0.108132176 0.40487525 0.10974497 0.27494222 0.110759676 -0.091370955 0.12129242 0.24963294
0.20236845 0.027668618 -0.056054227 0.15857838 0.23917834 -0.034862116 0.115753345 0.39680097
0.078000225 -0.121482365 0.040469434 0.09783776 -0.037700586 0.03223016 0.05132074 -0.0023807655
0.18165107 -0.24068749 0.077821 0.07305302 0.27483863 -0.10862421 0.08926768 -0.105387725
0.23497346 0.17079902 0.16311555 -0.079762556 -0.025166515 0.09096273 -0.16277863 -0.07553378
0.10118815 -0.025705876 -0.12558345 -0.18014765 0.30791363 0.03469304 -0.093998834 0.19349696
-0.07010912 -0.09999139 -0.1057059 0.12984061 -0.14046031 -0.0030374897 -0.04982375 0.027528934
-0.005586723 0.11007536 -0.014862207 0.058164675 0.071945615 0.09987142 0.08318853 0.092306115
0.042173892 -0.102114215 0.18477654 0.0777709 -0.124847144 0.10747279 -0.111900486 0.1472681
0.1605465 -0.0776321 -0.14769568 0.13497925 0.3283596 -0.085107416 -0.16135135 0.10101244
-0.111725 0.22341552 -0.025525302 -0.13726313 0.1583825 -0.16374183 -0.12902872 0.05640086
0.039446343 -0.07183934 -0.081323266 0.1619048 0.09945968 0.07570919 -0.2633999 -0.069552295
0.15138254 0.3601333 0.0034725387 0.077224426 0.09480871 0.050858542 0.1774393 0.18651295
0.4670775 -0.16577926 -0.01602199 0.18905634 0.15073065 -0.008278882 -0.1020469 0.2895449
-0.108874485 -0.17069519 -0.099525526 -0.08968331 -0.120037876 -0.15858285 0.08667162 0.19205627
0.0457274 0.02764026 0.25476024 0.008401882 -0.20298658 0.00543384 0.060066782 -0.065906174
0.36686674 0.33072704 0.18914706 0.15264542 -0.12454085 0.3260871 0.18932676 0.19511433
0.14806837 -0.26136297 -0.23954473 0.16659202 0.13149092 -0.024645738 0.06657034 -0.09948041
0.16609836 0.14389065 0.058797948 0.22725454 0.17731385 -0.091454655 0.11231376 0.24516594
0.14120196 -0.12260182 -0.21684845 -0.01976227 0.117590025 0.008028358 0.16468671 0.043620575
-0.10237721 0.18274999 0.26079908 0.06662869 -0.0045217937 -0.08632079 -0.20572312 0.24399379
-0.14464799 -0.061625477 -0.08188475 0.12628831 0.014334007 0.11251513 -0.08525287 -0.01741211
-0.08400469 -0.08014662 -0.010475168 -0.16542935 -0.13444164 0.19436704 -0.16771473 -0.0071628857
-0.09412095 -0.10575106 -0.027429776 0.1816272 0.018914836 0.04357573 0.0528049 -0.040467527
0.03566672 0.12507845 -0.14130811 0.22733712 -0.13400747 -0.069916815 -0.07578761 -0.18049835
0.013440173 0.03310556 0.03769173 0.059163492 0.029666226 -0.08447148 0.21577978 -0.0066231177
00000000: 6866 433e 1467 48bc 68f8 c63d e298 71bd
00000010: ed6e 10be 04f0 e8bd 484e 81bb 06d2 c33d
00000020: 3b30 453e fb16 3ebd 580c 59bc ab04 5c3e
00000030: 5762 323d a5ab d7bc cefe 003e a65e d83d
00000040: cfd0 5cbd b4dc e93c 95d8 78bd 4666 87be
00000050: 68e0 423e ea35 1ebd 9ae0 1f3b 27bc 73be
00000060: 8f94 3dbe 9469 083e ce03 2d3d 93e1 20bd
00000070: 3401 bd3c 7999 c83d 7da7 a8bc c57b cdbd
00000080: aa71 a7bd ff41 ccbc 50f8 47bd 6680 cf3d
00000090: 4afe 963d de16 aabd 37b7 323d e3f0 6abd
000000a0: 7533 5b3d 2cb9 1cbe 452d 04be bfc7 f13d
000000b0: c894 adbd 43c4 edbb ca45 fbbd f063 cb3d
000000c0: 6774 dd3d cf4b cf3e f9c1 e03d 3ac5 8c3e
000000d0: f8d5 e23d b220 bbbd 2968 f83d c79f 7f3e
000000e0: ad39 4f3e 4ca9 e23c 1e99 65bd 5f62 223e
000000f0: 2beb 743e 94cb 0ebd 1710 ed3d 7f29 cb3e
00000100: 95be 9f3d bfcb f8bd 47c3 253d 2a5f c83d
00000110: ee6b 1abd c603 043d b235 523d 9e06 1cbb
00000120: bd02 3a3e c876 76be 9e60 9f3d d29c 953d
00000130: a6b7 8c3e 5f76 debd f9d1 b63d 85d5 d7bd
00000140: e29c 703e f0e5 2e3e c307 273e 8d5a a3bd
00000150: 022a cebc ab4a ba3d 71af 26be 74b1 9abd
00000160: bc3b cf3d 2195 d2bc f398 00be a078 38be
00000170: dba6 9d3e 4a1a 0e3d 7682 c0bd 1124 463e
00000180: 5f95 8fbd 49c8 ccbd 567c d8bd f0f4 043e
00000190: d4d4 0fbe 9f10 47bb fd13 4cbd 5c84 e13c
000001a0: d410 b7bb 316f e13d 9d80 73bc 153e 6e3d
000001b0: 3958 933d 6389 cc3d bf5e aa3d fd0a bd3d
000001c0: 88be 2c3d 4221 d1bd 1036 3d3e 5a46 9f3d
000001d0: dcaf ffbd b21a dc3d 152c e5bd 73cd 163e
000001e0: 4d66 243e 94fd 9ebd 893d 17be 0038 0a3e
000001f0: c01e a83e cc4c aebd 4a39 25be 9cdf ce3d
00000200: 14d0 e4bd 0ac7 643e 701a d1bc b58e 0cbe
00000210: 062f 223e f0ab 27be 1b20 04be 9704 673d
00000220: 7d92 213d 8120 93bd d08c a6bd 5fca 253e
00000230: 84b1 cb3d 6b0d 9b3d 5adc 86be 6f71 8ebd
00000240: 0604 1b3e 6463 b83e 8893 633b d727 9e3d
00000250: 122b c23d 0c51 503d a6b2 353e 40fd 3e3e
00000260: c824 ef3e 0ac2 29be 8c40 83bc fc97 413e
00000270: 2359 1a3e 26a4 07bc f7fd d0bd 3b3f 943e
00000280: 96f9 debd b8ca 2ebe 0ad4 cbbd e2ab b7bd
00000290: 6bd6 f5bd 8b63 22be e480 b13d 66aa 443e
000002a0: a74c 3b3d d46d e23c ef6f 823e 0ca8 093c
000002b0: b7db 4fbe 5b0e b23b 9608 763d d1f9 86bd
000002c0: f5d5 bb3e 0e55 a93e c4af 413e 154f 1c3e
000002d0: 460f ffbd e3f4 a63e e0de 413e 0dcc 473e
000002e0: 3c9f 173e 5ed1 85be 374b 75be 1997 2a3e
000002f0: 8ea5 063e dce5 c9bc 0856 883d 63bc cbbd
00000300: b015 2a3e 1258 133e 1ed6 703d 6ab5 683e
00000310: c391 353e 944c bbbd c204 e63d c80c 7b3e
00000320: 3f97 103e aa16 fbbd 850d 5ebe 7ce4 a1bc
00000330: 0ad3 f03d 6089 033c a2a3 283e 7dab 323d
00000340: 25ab d1bd d022 3b3e 7587 853e 9f74 883d
00000350: 8e2b 94bb f4c8 b0bd 15a9 52be 82d9 793e
00000360: 9a1e 14be ff6a 7cbd 31b3 a7bd b951 013e
00000370: 2fd9 6a3c 556e e63d 0f99 aebd d7a3 8ebc
00000380: a70a acbd e923 a4bd 0aa0 2bbc 5066 29be
00000390: 12ab 09be 2708 473e 69bd 2bbe a4b6 eabb
000003a0: 7cc2 c0bd 0394 d8bd 69b4 e0bc 7bfc 393e
000003b0: 49f3 9a3c 777c 323d f349 583d 47c1 25bd
000003c0: 4417 123d 9114 003e 13b3 10be 10cb 683e
000003d0: 4139 09be 8c30 8fbd 8936 9bbd 8fd4 38be
000003e0: 2c34 5c3c b299 073d a562 1a3d 6b55 723d
000003f0: 9606 f33c 62ff acbd 60f5 5c3e bd06 d9bb

hidden_layers.1.linear.weight f4 [16, 16]
0.31279317 -0.12728831 -0.19399646 -0.015087579 -0.005580682 -0.012417939 0.079768814 0.06566343
0.116926685 0.09871027 -0.13346252 0.10168815 0.13353005 -0.04909803 0.101620704 0.038660984
-0.13895293 -0.14366394 0.25436684 0.03607892 -0.00056216586 0.24887592 0.12472685 -0.058525994
-0.118788645 0.02086283 -0.047303043 0.2904639 0.04301181 -0.17903954 -0.04304276 0.05421182
0.17145745 0.060745616 -0.30482304 0.0019333354 0.06908719 0.07513245 0.19368622 -0.09033826
0.18844174 -0.10071883 0.1268609 0.22352688 0.05068376 0.1882991 0.21782337 0.07307483
0.10553717 -0.1972087 -0.086762615 0.09708781 0.14647546 -0.09176645 0.109287955 0.18895653
0.2951822 0.11038489 -0.11064565 -0.089706786 0.16815478 0.08998547 0.28091446 0.0475211
-0.12770042 0.20355658 0.09446433 0.10393803 -0.1393087 0.04282497 0.10171125 0.09695995
0.11932169 -0.0065214187 0.102618575 0.17789556 0.112379745 -0.020146392 0.053700652 0.09463984
0.1158716 -0.0977614 -0.10964063 0.2765523 0.15022527 -0.084621556 0.045767926 0.32703722
0.12739716 0.105484255 0.051059525 0.053533707 0.27353275 0.14593248 0.05259538 -0.07978103
0.07068258 -0.039686095 0.033824656 0.013786637 -0.11810821 0.1615947 -0.02717607 0.13856123
-0.0058418363 0.0886024 0.06952594 0.013608109 0.37356448 0.11126936 -0.1617341 0.20630792
-0.115634054 -0.14388604 0.009854139 -0.13814925 0.21647835 -0.075560965 -0.14402717 -0.000889088
0.12845123 -0.0031602434 -0.13114479 0.02428502 0.16711992 0.07226804 0.095816545 -0.07497973
-0.057835605 -0.07337088 -0.037027933 0.18746649 0.28037426 -0.06922713 0.10569412 0.2231589
-0.106455356 0.11792791 0.04569519 -0.22848544 0.24493662 -0.08888822 0.038254417 0.059643865
-0.103959054 0.15219402 -0.08483942 0.070614584 0.079947464 -0.052942436 -0.056242585 0.05571167
-0.08632188 0.13323766 -0.10399443 0.05630301 -0.13767074 -0.16515316 -0.031090034 -0.18641993
0.33451068 -0.15900037 -0.07630123 0.45440632 0.05834303 0.07328683 -0.07147057 0.25266883
0.21927774 0.2925902 -0.15255179 0.21115926 -0.05263742 0.15604824 -0.11657285 0.09636691
0.09341166 -0.07703161 0.24185744 0.23232068 0.18851937 0.091962405 0.050809264 0.074479654
0.000501617 0.26498505 -0.1293448 0.12867744 0.11520409 0.17613469 0.17245415 -0.17051508
0.0788442 0.067191325 0.08058302 0.26809818 -0.02485925 0.12877993 -0.21699248 0.16814369
0.08895937 0.4429017 -0.06345699 0.15328412 0.041873228 -0.11492435 0.12399557 0.2588353
0.026128951 0.23081571 -0.044285648 -0.20797907 -0.15793428 0.034516416 -0.06438813 0.008307873
-0.018874308 -0.053458594 0.08510781 -0.085590504 0.12910755 -0.030586481 0.06019715 -0.20547238
-0.14339297 -0.0498912 0.08831991 0.09131109 -0.05354692 -0.0025878472 -0.09080492 0.06264198
0.06225096 0.19316176 -0.09864664 -3.216544e-05 0.1371871 0.008148648 -0.14024591 0.16863881
0.15511386 -0.13256483 0.14438568 0.117533244 -0.066494025 0.16433473 0.15134859 0.01173941
0.11689517 -0.08607883 0.07745676 0.062081702 -0.1958068 -0.10044416 0.098226584 -0.1815504
00000000: 6d26 a03e de57 02be 02a7 46be e531 77bc
00000010: 27de b6bb 9c74 4bbc d55d a33d 8c7a 863d
00000020: 4277 ef3d 9c28 ca3d 66aa 08be e041 d03d
00000030: 1abc 083e 041b 49bd 841e d03d fb5a 1e3d
00000040: ad49 0ebe a41c 13be 5f3c 823e 7dc7 133d
00000050: 505e 13ba 54d9 7e3e ca70 ff3d f4b8 6fbd
00000060: 7647 f3bd 87e8 aa3c d6c0 41bd afb7 943e
00000070: 272d 303d 2456 37be 9b4d 30bd 370d 5e3d
00000080: 8b92 2f3e 65d0 783d c411 9cbe f967 fd3a
00000090: 967d 8d3d 0bdf 993d ae55 463e 4403 b9bd
000000a0: dff6 403e ad45 cebd d3e7 013e 3be4 643e
000000b0: c699 4f3d 7bd1 403e 170d 5f3e 42a8 953d
000000c0: df23 d83d 14f1 49be 99b0 b1bd f9d5 c63d
000000d0: aafd 153e 0cf0 bbbd 5dd2 df3d d27d 413e
000000e0: 1f22 973e 7911 e23d 309a e2bd 31b8 b7bd
000000f0: c430 2c3e 4d4a b83d 05d4 8f3e 7ca5 423d
00000100: e6c3 02be 2371 503e 8476 c13d 76dd d43d
00000110: f1a6 0ebe 3c69 2f3d fd4d d03d f092 c63d
00000120: ee5e f43d a0b1 d5bb b029 d23d 412a 363e
00000130: 5a27 e63d 0c0a a5bc 37f5 5b3d 88d2 c13d
00000140: 174e ed3d 2137 c8bd 448b e0bd 4398 8d3e
00000150: a7d4 193e 114e adbd 2677 3b3d 6c71 a73e
00000160: 6774 023e 2108 d83d cb23 513d 2946 5b3d
00000170: 7c0c 8c3e 536f 153e 416e 573d 3d64 a3bd
00000180: 07c2 903d e38d 22bd b98b 0a3d 59e1 613c
00000190: b8e2 f1bd 1579 253e 59a0 debc ffe2 0d3e
000001a0: e06c bfbb 2d75 b53d 9e63 8e3d 8cf4 5e3c
000001b0: d843 bf3e 31e1 e33d a09d 25be 6242 533e
000001c0: 8cd1 ecbd dd56 13be 4173 213c ff76 0dbe
000001d0: 80ac 5d3e b5bf 9abd dc7b 13be b011 69ba
000001e0: b888 033e 161c 4fbb d24a 06be 61f1 c63c
000001f0: 7c21 2b3e 4401 943d 773b c43d f98e 99bd
00000200: 07e5 6cbd 7943 96bd 9aaa 17bd 37f7 3f3e
00000210: 378d 8f3e f4c6 8dbd 2976 d83d c483 643e
00000220: 4405 dabd 3084 f13d e12a 3b3d 16f8 69be
00000230: aad0 7a3e 070b b6bd aab0 1c3d 204d 743d
00000240: 7ce8 d4bd c0d8 1b3e 4ac0 adbd 619e 903d
00000250: 7fbb a33d 2bda 58bd a05e 66bd ec31 643d
00000260: 87c9 b0bd 746f 083e 08fb d4bd fc9d 663d
00000270: 8ff9 0cbe e91d 29be 87b0 febc dee4 3ebe
00000280: fc44 ab3e fed0 22be d243 9cbd f2a7 e83e
00000290: 1af9 6e3d 6817 963d 2a5f 92bd cf5d 813e
000002a0: 588a 603e 62ce 953e 8936 1cbe 223a 583e
000002b0: 569a 57bd 1ccb 1f3e bfbd eebd 045c c53d
000002c0: 9d4e bf3d c0c2 9dbd 7aa9 773e 79e5 6d3e
000002d0: 390b 413e c956 bc3d 601d 503d ca88 983d
000002e0: f27e 033a 1fac 873e f772 04be 05c4 033e
000002f0: 1ff0 eb3d a75c 343e d297 303e 819b 2ebe
00000300: 1179 a13d 9b9b 893d b608 a53d 2a44 893e
00000310: a0a5 cbbc e3de 033e 4733 5ebe dc2d 2c3e
00000320: 5530 b63d 03c4 e23e bdf5 81bd 83f6 1c3e
00000330: 4383 2b3d 755d ebbd 64f1 fd3d 0f86 843e
00000340: 620c d63c f45a 6c3e de64 35bd 77f8 54be
00000350: 86b9 21be 1661 0d3d eddd 83bd bf1d 083c
00000360: 4b9e 9abc 66f7 5abd 014d ae3d 134a afbd
00000370: c534 043e 8090 fabc 4991 763d 5a67 52be
00000380: 9bd5 12be b75a 4cbd 12e1 b43d 4f01 bb3d
00000390: 0454 5bbd df98 29bb eef7 b9bd 704a 803d
000003a0: ddfa 7e3d 32cc 453e 4007 cabd 61e9 06b8
000003b0: c67a 0c3e e881 053c a09c 0fbe a7af 2c3e
000003c0: 2bd6 1e3e 13bf 07be d7d9 133e 45b5 f03d
000003d0: 052e 88bd 5d47 283e 20fb 1a3e a856 403c
000003e0: bc66 ef3d 194a b0bd a6a1 9e3d 6249 7e3d
000003f0: 9481 48be abb5 cdbd 052b c93d 59e8 39be

hidden_layers.2.linear.weight f4 [16, 16]
0.07843965 0.08473738 0.17379722 0.15551414 0.0815319 0.3147 -0.053736556 -0.039013214
0.073192604 0.009152258 -0.00019484527 0.2667496 0.18456395 0.05439385 0.045569558 -0.05629324
-0.08894611 0.04990114 0.03271926 -0.04247814 0.0931568 -0.005730609 0.15927278 -0.06004125
0.14269985 0.023871891 0.060398918 0.044928025 0.009005417 -0.047067717 0.051844433 -0.10315161
-0.16881233 -0.02854203 -0.011371086 0.24682756 -0.2015916 0.036997218 0.052455988 -0.031770714
0.012671557 0.15201342 -0.18115602 0.010222441 0.07265331 -0.030444058 0.1046816 0.17276911
0.18675095 0.04387511 -0.09192148 -0.09075096 0.10380002 0.12776919 0.09550279 0.021754595
-0.017485162 -0.016981235 0.16695583 0.08572427 -0.08474299 -0.0031975792 0.07858467 0.06271379
0.020989211 0.0016611419 0.23365499 -0.08527684 0.24266785 -0.0791389 -0.12211836 -0.015528805
0.087645374 0.067306645 0.089903384 -0.12822863 0.038978722 -0.21720959 0.07483528 0.047772206
0.045893025 -0.06742278 -0.07354416 -0.015164443 -0.08015117 0.04675842 0.09032453 0.08532136
-0.089688554 0.00909923 0.11732005 0.18811792 0.023729162 0.0023954036 0.027480032 -0.060218107
0.14233205 0.13521142 -0.073404245 0.055472106 -0.07483675 0.2736238 0.02397183 0.09774934
-0.04355986 -0.005148326 0.26084214 0.25063887 0.10821609 -0.007047263 -0.08998857 0.055131305
0.12223233 -0.065860875 0.29128057 0.020283863 0.096669525 0.13685659 0.045929685 -0.20739721
-0.17299187 0.08248407 0.07697126 0.2712815 -0.08271891 -0.13715851 0.070961416 -0.12371798
-0.07541514 0.20907249 0.17102228 0.0011347902 0.24091956 0.16993509 -0.018515693 0.023700308
-0.02489123 0.058494076 0.027431928 -0.13891287 0.21979684 0.1762362 0.18081242 0.1523659
-0.013646795 0.18950695 0.10952055 -0.022149656 -0.17651452 0.077400915 0.22380613 -0.092442594
-0.0717078 0.07767247 0.03373375 -0.0026362117 0.10898515 -0.1228167 0.17421262 0.18559782
0.19417138 0.23613338 -0.0031900334 0.26121444 0.31139612 0.07182571 0.21581568 -0.05051433
0.20248373 -0.14852172 -0.04906825 0.4216574 0.3615325 -0.1991594 0.15676829 -0.12531379
-0.12911332 0.1580354 -0.10680055 0.05493972 -0.056025367 -0.0950458 0.21613751 0.049571235
0.13844618 0.18381293 0.296553 0.045183823 0.10997633 0.026957102 -0.010240515 0.12634924
0.2535134 0.14410102 0.06630124 0.13253495 -0.0119303055 0.035798818 -0.13691416 -0.09566969
0.039757114 0.021323862 0.21440548 0.101463385 -0.27793625 -0.010556904 0.2166203 0.08901319
0.054159474 0.071218364 -0.06363358 0.13797502 -0.124569505 0.21423937 0.20659654 -0.08279779
-0.12737672 -0.057269756 -0.058251534 -0.09690985 -0.08792018 -0.084482715 0.21070367 -0.0071031884
-0.08520971 0.015814805 -0.104370765 0.15711561 -0.18213308 -0.12767138 -0.026274476 -0.03845688
-0.096783236 -0.0070702634 -0.07784605 -0.020928685 0.054778907 -0.018624466 -0.030498989 -0.06231831
0.03862852 -0.067471944 -0.23979913 0.068485245 -0.33040348 0.047772054 -0.018834246 0.11467868
0.12412406 0.09597897 -0.0066473684 0.03618031 0.047490098 0.11923644 -0.056399275 -0.028206376
00000000: f8a4 a03d cb8a ad3d e6f7 313e 193f 1f3e
00000010: 32fa a63d 5c20 a13e dd1a 5cbd 52cc 1fbd
00000020: 01e6 953d 5af3 153c 614f 4cb9 6793 883e
00000030: 55fe 3c3e 16cc 5e3d 25a7 3a3d be93 66bd
00000040: 6129 b6bd 2365 4c3d a104 063d 8ffd 2dbd
00000050: fec8 be3d d5c7 bbbb 6718 233e d0ed 75bd
00000060: e91f 123e fc8e c33c db64 773d 7306 383d
00000070: 758b 133c 14ca 40bd d45a 543d 2741 d3bd
00000080: 24dd 2cbe fad0 e9bc cb4d 3abc 5dc0 7c3e
00000090: 076e 4ebe 658a 173d 17dc 563d 0222 02bd
000000a0: 5d9c 4f3c 68a9 1b3e f780 39be 067c 273c
000000b0: 42cb 943d d165 f9bc 4f63 d63d 63ea 303e
000000c0: a43b 3f3e 63b6 333d 5441 bcbd a4db b9bd
000000d0: 1b95 d43d edd5 023e f796 c33d b136 b23c
000000e0: 0b3d 8fbc 3b1c 8bbc 78f6 2a3e 3590 af3d
000000f0: bc8d adbd 7a8e 51bb 00f1 a03d 1670 803d
00000100: 91f1 ab3c acba d93a 4143 6f3e a0a5 aebd
00000110: ec7d 783e 9313 a2bd 3119 fabd 876c 7ebc
00000120: 6b7f b33d 11d8 893d 441f b83d 5e4e 03be
00000130: 27a8 1f3d 316c 5ebe 3d43 993d caac 433d
00000140: 53fa 3b3d f414 8abd 529e 96bd 4974 78bc
00000150: 4c26 a4bd c285 3f3d 11fc b83d f7bc ae3d
00000160: a2ae b7bd f014 153c 7f45 f03d fca1 403e
00000170: a963 c23c 34fc 1c3b ce1d e13c 43a7 76bd
00000180: 7ebf 113e dd74 0a3e f754 96bd b836 633d
00000190: 0344 99bd 6b18 8c3e 9260 c43c ce30 c83d
000001a0: d36b 32bd 4ab3 a8bb 1a8d 853e bd53 803e
000001b0: 66a0 dd3d baec e6bb ed4b b8bd 5dd1 613d
000001c0: f254 fa3d 11e2 86bd ba22 953e 582a a63c
000001d0: acfa c53d 2224 0c3e c420 3c3d ef5f 54be
000001e0: c824 31be 68ed a83d 1ca3 9d3d 69e5 8a3e
000001f0: 8868 a9bd 4873 0cbe 3854 913d da5f fdbd
00000200: 4173 9abd 1917 563e 7720 2f3e 3ebd 943a
00000210: 9eb3 763e 7703 2e3e 39ae 97bc 2627 c23c
00000220: b1e8 cbbc 7c97 6f3d ecb8 e03c 2d3f 0ebe
00000230: 6c12 613e 4377 343e e426 393e ce05 1c3e
00000240: cf96 5fbc 1c0e 423e 4f4c e03d 3273 b5bc
00000250: 39c0 34be 5f84 9e3d 6f2d 653e 8b52 bdbd
00000260: 8adb 92bd be12 9f3d 672c 0a3d 4bc4 2cbb
00000270: 9b33 df3d 5287 fbbd cb64 323e 5b0d 3e3e
00000280: ddd4 463e f3cc 713e e10f 51bb e6bd 853e
00000290: 506f 9f3e 5c19 933d c9fe 5c3e 1de8 4ebd
000002a0: e557 4f3e 1416 18be cafb 48bd 7be3 d73e
000002b0: ca1a b93e 71f0 4bbe de87 203e 4252 00be
000002c0: 4836 04be 08d4 213e 3fba dabd 7908 613d
000002d0: db7a 65bd 5fa7 c2bd 2753 5d3e 350b 4b3d
000002e0: d6c4 0d3e 7539 3c3e cbd5 973e ac12 393d
000002f0: 453b e13d 24d5 dc3c d5c7 27bc b261 013e
00000300: 82cc 813e 388f 133e f2c8 873d 3eb7 073e
00000310: 5477 43bc c8a1 123d 3a33 0cbe 78ee c3bd
00000320: 5bd8 223d 61af ae3c 1c8d 5b3e 09cc cf3d
00000330: a94d 8ebe ddf6 2cbc b6d1 5d3e 8c4c b63d
00000340: 53d6 5d3d efda 913d 5352 82bd 5349 0d3e
00000350: 4c1e ffbd 9161 5b3e 0b8e 533e e391 a9bd
00000360: 0b6f 02be b193 6abd 2999 6ebd ac78 c6bd
00000370: 7f0f b4bd 4605 adbd b4c2 573e ddc1 e8bb
00000380: 6e82 aebd 0d8e 813c 57c0 d5bd eae2 203e
00000390: 1881 3abe 49bc 02be 923d d7bc f684 1dbd
000003a0: 4a36 c6bd abad e7bb c06d 9fbd a272 abbc
000003b0: d95f 603d 5692 98bc 04d9 f9bc 7c41 7fbd
000003c0: f038 1e3d bb2e 8abd e78d 75be fe41 8c3d
000003d0: a52a a9be a1ac 433d 474a 9abc a8dc ea3d
000003e0: c134 fe3d 9f90 c43d 2bd2 d9bb ce31 143d
000003f0: fa84 423d 3c32 f43d ed02 67bd 0f11 e7bc

hidden_layers.3.linear.weight f4 [16, 16]
0.0881312 -0.011668234 0.044980202 -0.08653685 0.03137335 -0.1235609 -0.027966555 0.04840675
0.018475372 0.22690147 -0.011213117 0.14910994 0.049392827 -0.13471377 -0.046507087 0.025287015
0.2849962 0.022885848 -0.05370054 0.12840937 0.26404104 -0.084092446 0.09983458 0.006312186
0.07663386 0.06500594 0.10452594 0.259411 0.071950234 -0.11838408 -0.08017633 0.06203762
0.19704585 0.022817891 -0.074962996 0.007709697 -0.056223873 0.05530385 0.43447194 0.29094347
-0.06362439 0.106473684 -0.017754594 0.16009249 0.027053308 -0.12301278 -0.116811156 0.12458769
-0.033663716 -0.06461661 0.27960825 0.019388417 -0.10960547 -0.00054692134 0.022663767 0.025395112
-0.053577643 0.13012373 0.14004564 -0.025369043 0.11161596 0.030458499 0.10128006 0.14779009
0.2692191 0.006485481 0.10928372 0.00782558 0.23068738 0.008637411 0.08793564 0.00018852252
0.21399675 0.20546287 -0.0017530146 -0.09601119 -0.067576215 -0.13341518 0.06706827 -0.08974111
-0.11054547 -0.07462613 -0.024845177 0.031243768 -0.14363444 0.042545207 -0.07481908 0.21213886
0.050452862 -0.040796425 0.30479586 -0.017339237 -0.0031676276 -0.06603214 -0.02530765 0.00597386
0.065483406 0.082762465 0.013625648 -0.16872095 0.1999202 0.19207433 -0.17188346 0.06657403
0.12063365 -0.21948542 0.063211545 0.1187066 0.1439808 0.08952732 -0.086289085 0.00033718365
0.15163337 -0.1097115 3.728588e-05 0.26680768 -0.034117453 -0.03229551 0.3143753 -0.042632744
-0.0026211636 0.08642955 0.25982764 0.10099535 0.13941838 0.03498359 0.19815594 0.09874744
-0.1754403 0.36165336 -0.0039459756 0.2005499 0.12427912 0.18284822 -0.04917658 0.09970722
-0.13679188 0.19244938 -0.09838527 -0.02801264 0.0069794 0.08024084 0.023865346 0.3147614
0.061264582 -0.02134659 0.07141356 -0.07226347 0.06959648 0.084856115 0.024285791 -0.24693851
0.020912912 0.06691787 -0.029254153 -0.30197954 -0.091583125 -0.17306866 -0.05641599 0.11588932
0.028714444 -0.16441567 -0.0846462 0.03891459 -0.003961346 0.05857742 -0.13489518 0.19755451
-0.028402 -0.04701235 -0.11083342 -0.34383792 0.09828688 -0.100430764 0.21612065 -0.044081647
0.02255264 0.07177788 -0.069157004 0.15057158 -0.12515703 -0.030975128 0.2903974 0.07408399
-0.087866895 0.058426283 0.17273399 0.24644564 0.046414047 0.07672256 0.006443651 -0.119675264
0.41783917 0.12870575 -0.048872422 0.17521858 -0.06210089 0.13419291 -0.0076719103 0.060061038
0.25289628 0.31457222 -0.0149742 -0.10079231 -0.024236696 0.07155261 -0.16748689 0.1079917
-0.045085575 0.14118367 0.06525929 0.019629268 0.122370236 -0.054105755 -0.01141656 0.16011395
0.042886835 0.03603237 -0.048964754 0.0047688587 -0.09386966 -0.17438337 0.14275853 0.051535666
0.19731665 0.18073253 0.22689818 0.23154747 0.09634571 0.21402018 0.1294668 -0.04074691
0.07995567 0.31743288 0.14375134 -0.043854628 0.11704755 0.06562427 0.06529456 -0.08995035
0.36763915 0.051464073 -0.10123346 0.011534997 -0.13554727 0.10465366 0.025451316 0.20213617
-0.14297616 0.052427594 0.13757956 0.052016426 -0.063018866 -0.0082341945 -0.06411776 0.11757486
00000000: 217e b43d 1f2c 3fbc 293d 383d 3b3a b1bd
00000010: 5881 003d 7f0d fdbd 1e1a e5bc 2846 463d
00000020: aa59 973c dc58 683e 39b7 37bc 47b0 183e
00000030: 2250 4a3d 68f2 09be 377e 3ebd b726 cf3c
00000040: 06eb 913e 1a7b bb3c 19f5 5bbd bf7d 033e
00000050: 6330 873e a938 acbd 1376 cc3d 74d6 ce3b
00000060: 37f2 9c3d d621 853d b211 d63d 85d1 843e
00000070: a55a 933d 5a73 f2bd 7d33 a4bd 291b 7e3d
00000080: 63c6 493e 96ec ba3c 3386 99bd a0a1 fc3b
00000090: 014b 66bd 4a86 623d 1b73 de3e 8bf6 943e
000000a0: 814d 82bd e00e da3d 1572 91bc 49ef 233e
000000b0: e69e dd3c 20ee fbbd b03a efbd d527 ff3d
000000c0: f7e2 09bd b755 84bd d028 8f3e 75d4 9e3c
000000d0: d578 e0bd 455f 0fba 5da9 b93c 6909 d03c
000000e0: 3b74 5bbd 283f 053e 2068 0f3e bdd2 cfbc
000000f0: e996 e43d 1a84 f93c ec6b cf3d 4956 173e
00000100: 16d7 893e 2884 d43b 25d0 df3d dd36 003c
00000110: 5039 6c3e ed83 0d3c 9a17 b43d 21ae 4539
00000120: f721 5b3e dc64 523e 69c5 e5ba 84a1 c4bd
00000130: 6665 8abd fd9d 08be 175b 893d 30ca b7bd
00000140: aa65 e2bd 96d5 98bd 1d88 cbbc eef2 ff3c
00000150: e814 13be e243 2e3d bf3a 99bd ee3a 593e
00000160: a9a7 4e3d 271a 27bd 340e 9c3e 040b 8ebc
00000170: f997 4fbb dc3b 87bd fd51 cfbc 5fc0 c33b
00000180: 2a1c 863d 5e7f a93d 1c3e 5f3c 2fc5 2cbe
00000190: e2b7 4c3e 22af 443e 3802 30be f757 883d
000001a0: c60e f73d c9c0 60be 0e75 813d 721c f33d
000001b0: b46f 133e 195a b73d 55b8 b0bd 06c8 b039
000001c0: c745 1b3e 6cb0 e0bd 6963 1c38 049b 883e
000001d0: bebe 0bbd 4c48 04bd cdf5 a03e ac9f 2ebd
000001e0: d4c7 2bbb fa01 b13d 2108 853e a6d6 ce3d
000001f0: b1c3 0e3e f44a 0f3d 64e9 4a3e 193c ca3d
00000200: 9fa6 33be a12a b93e 3e4d 81bb f45c 4d3e
00000210: 0d86 fe3d 903c 3b3e 626d 49bd 4d33 cc3d
00000220: 2c13 0cbe 7311 453e 377e c9bd c47a e5bc
00000230: 73b3 e43b 4f55 a43d 4281 c33c 6828 a13e
00000240: 92f0 7a3d 0bdf aebc 4641 923d dffe 93bd
00000250: 9988 8e3d 0bc9 ad3d fff2 c63c 73dd 7cbe
00000260: 8e51 ab3c 3c0c 893d 68a6 efbc 109d 9abe
00000270: ef8f bbbd e938 31be 7414 67bd 6157 ed3d
00000280: 8e3a eb3c 955c 28be fd5a adbd e864 1f3d
00000290: 2ece 81bb e0ee 6f3d f621 0abe bb4b 4a3e
000002a0: 50ab e8bc 0690 40bd a2fc e2bd 860b b0be
000002b0: a24a c93d a5ae cdbd bb4e 5d3e f58e 34bd
000002c0: 50c0 b83c 4800 933d 30a2 8dbd 702f 1a3e
000002d0: 2a29 00be 8dbf fdbc f8ae 943e 59b9 973d
000002e0: 8ff3 b3bd 6650 6f3d 2ee1 303e 3f5c 7c3e
000002f0: a81c 3e3d b820 9d3d 4325 d33b 4e18 f5bd
00000300: 04ef d53e 71cb 033e 732e 48bd 806c 333e
00000310: 815d 7ebd de69 093e a664 fbbb 9002 763d
00000320: 9f7b 813e 9c0f a13e 5956 75bc 336c cebd
00000330: 098c c6bc 2d8a 923d af81 2bbe c12a dd3d
00000340: a7ab 38bd 7492 103e aaa6 853d 8fcd a03c
00000350: 3f9d fa3d ff9d 5dbd 860c 3bbc e9f4 233e
00000360: 1baa 2f3d ae96 133d 448f 48bd 1644 9c3b
00000370: bc3e c0bd 8e91 32be 4b2f 123e 1017 533d
00000380: 600d 4a3e f311 393e ff57 683e c81a 6d3e
00000390: e650 c53d 1b28 5b3e f292 043e 3be6 26bd
000003a0: ccbf a33d 9086 a23e 8d33 133e e9a0 33bd
000003b0: a0b6 ef3d 0466 863d 27b9 853d e437 b8bd
000003c0: 333b bc3e fecb 523d 7d53 cfbd 49fd 3c3c
000003d0: e7cc 0abe a854 d63d 477f d03c c9fc 4e3e
000003e0: 5868 12be 51be 563d a8e1 0c3e 2d0f 553d
000003f0: 0910 81bd b7e8 06bc 2c50 83bd 17cb f03d

out.weight f4 [2, 16]
-0.034154184 -0.04252242 -0.04578278 -0.03438764 -0.037649855 -0.038097367 -0.032958943 -0.044511046
-0.029172726 -0.027022708 -0.02559817 -0.044642426 -0.040358115 -0.030155405 -0.040702146 -0.04318397
-0.04190668 -0.03835612 -0.03686198 -0.042258058 -0.04030692 -0.04058636 -0.042201135 -0.038017176
-0.04434991 -0.045156434 -0.044091653 -0.037259582 -0.03962836 -0.043526005 -0.03957497 -0.03844783
00000000: 42e5 0bbd fd2b 2ebd b986 3bbd 0eda 0cbd
00000010: bc36 1abd fc0b 1cbd f5ff 06bd 3751 36bd
00000020: a4fb eebc ba5e ddbc 41b3 d1bc fada 36bd
00000030: 8d4e 25bd 7808 f7bc 4bb7 26bd ade1 30bd
00000040: 57a6 2bbd 4f1b 1dbd 96fc 16bd c916 2dbd
00000050: de18 25bd e23d 26bd 19db 2cbd e6b7 1bbd
00000060: 40a8 35bd f4f5 38bd 7399 34bd 819d 18bd
00000070: 5951 22bd 5348 32bd 5d19 22bd 797b 1dbd

out.bias f4 [2]
0.967679 0.95835567
00000000: d0b9 773f cc56 753f
